controller/PPO_CartPole-dm_0_20000.pth (torch, 41249 bytes, 10 tensors)

actor.0.weight f4 [64, 5]
0.06671519 -0.29358158 -0.27141747 0.19294412 0.023344971 0.089510255 0.030860344 -0.05431722
0.022595948 -0.03592611 0.07570113 0.47681093 0.09004573 0.058103804 0.2454718 -0.3901933
-0.29999894 0.46588817 0.13319087 -0.117840886 0.14187984 -0.41846198 -0.3414882 0.2797534
-0.22432627 0.036057 0.39384222 0.43102306 0.07921323 0.15783216 0.27537754 -0.05665667
-0.36284083 -0.103647545 0.3214745 -0.4315875 0.04539011 0.10374305 0.36482954 -0.22336279
0.103256814 0.38428518 0.38340086 0.44296658 -0.3654803 0.11652878 0.09306587 -0.11630375
-0.13934094 -0.08974218 -0.31364188 -0.29159087 0.015763529 -0.15157732 -0.0052731847 -0.35824892
0.26581755 -0.058130953 0.35854083 -0.41950825 -0.21183017 -0.35943416 -0.094232224 -0.3344883
-0.11066679 0.008675433 0.33687732 0.18868572 0.20657322 -0.2921234 -0.17560554 0.21617673
-0.19756378 0.103170924 -0.49082536 0.21872446 -0.32475004 0.08118954 -0.17190309 -0.099554874
-0.28505123 -0.22995287 -0.030455388 -0.28052464 0.18081991 0.38187912 -0.4096148 -0.36130276
0.39242536 -0.18864518 -0.29818133 -0.43031967 0.1510479 -0.36207864 0.3998926 0.060884513
-0.10470269 0.00060112186 -0.38302597 0.12726422 0.2667966 0.17648156 0.3916761 -0.023679355
-0.18253559 -0.03143106 0.50185835 0.47018293 0.13058339 -0.05004656 -0.20743363 -0.24796721
0.04521316 0.05305843 -0.037713412 -0.23135161 -0.032005288 0.38234776 -0.23170266 -0.34182435
-0.054990202 -0.1765038 0.17989002 -0.24289483 0.45331046 -0.20281652 -0.10503187 0.46903193
-0.33058935 -0.15776695 0.06424182 0.038470622 -0.43542632 0.09259647 -0.21906902 0.024801528
0.34628978 0.41496068 -0.3314621 0.13762313 -0.33433223 0.37661886 -0.010646486 0.3790396
0.20692815 0.43725535 0.09929188 -0.113491066 -0.3232769 -0.05648954 -0.15543193 0.14063434
0.33748245 0.26342562 -0.4318672 0.31780806 -0.18851267 0.5266948 0.12396825 -0.2220841
-0.33002663 -0.35181448 -0.32914656 -0.26683354 0.15832008 -0.119954996 -0.32066357 0.45992133
-0.44151884 0.43284354 -0.0140849305 -0.040412582 0.2530566 -0.28279793 0.4172049 0.4148485
-0.41462564 0.2515515 -0.0050290693 -0.054548845 -0.05491351 -0.29255736 0.015006042 -0.39337245
-0.39415193 -0.21570855 -0.32530907 -0.42769676 0.5149124 -0.16326836 0.34827718 -0.006474637
-0.46368673 -0.31250605 -0.4024007 0.11266273 0.19364944 -0.07144218 -0.2938158 -0.30102405
0.17276624 -0.437755 -0.32970738 -0.42665267 -0.15091425 0.18575515 0.27755424 -0.112761155
0.11429567 0.15849505 0.06491839 -0.02951649 -0.32292634 0.28112537 -0.24401014 -0.23469524
0.35128 -0.15229875 -0.097934246 0.40520826 -0.40127817 0.35130757 -0.35437644 -0.01150022
-0.43074596 -0.19779736 -0.12759681 -0.041105695 0.28331205 -0.12599562 0.010074813 0.37703782
-0.0777075 0.51870084 -0.20989186 0.43246445 0.3681799 0.3699931 -0.100009836 -0.2690071
0.04267416 -0.24980713 0.00886306 -0.20659961 0.37305745 0.32205918 -0.40215817 0.00860963
0.07539917 -0.12747045 0.41967303 -0.057606123 -0.3970921 -0.40612242 -0.1522153 -0.06361056
00000000: f9a1 883d 5350 96be 3bf7 8abe 2593 453e
00000010: f43d bf3c 2751 b73d d5ce fc3c bc7b 5ebd
00000020: 231b b93c 4227 13bd 3209 9b3d 9020 f43e
00000030: e569 b83d 41fe 6d3d f65c 7b3e 6bc7 c7be
00000040: 7699 99be e588 ee3e 3063 083e 9056 f1bd
00000050: f348 113e a640 d6be 8bd7 aebe d63b 8f3e
00000060: c9b5 65be 81b0 133d b0a5 c93e 0eaf dc3e
00000070: 8c3a a23d c19e 213e 49fe 8c3e d310 68bd
00000080: 46c6 b9be 2a45 d4bd 4e98 a43e 09f9 dcbe
00000090: fbea 393d 3c77 d43d f0ca ba3e 37b9 64be
000000a0: 4f78 d33d 07c1 c43e 1e4d c43e 84cc e23e
000000b0: 3c20 bbbe a4a6 ee3d 5299 be3d a930 eebd
000000c0: 64af 0ebe c0ca b7bd ab95 a0be 664b 95be
000000d0: 8422 813c 1637 1bbe aeca acbb 676c b7be
000000e0: 3d19 883e b91a 6ebd aa92 b73e c9c9 d6be
000000f0: 02ea 58be c107 b8be d3fc c0bd 0d42 abbe
00000100: 45a5 e2bd 6723 0e3c 2f7b ac3e d436 413e
00000110: ee87 533e 3391 95be f0d1 33be 6f5d 5d3e
00000120: 294e 4abe 474b d33d 764d fbbe 4ef9 5f3e
00000130: a345 a6be b446 a63d 5d07 30be 6de3 cbbd
00000140: 3cf2 91be c478 6bbe 947d f9bc eda0 8fbe
00000150: db28 393e a985 c33e 08b9 d1be adfc b8be
00000160: faeb c83e 342c 41be 39ab 98be dc52 dcbe
00000170: 4dac 1a3e 5f62 b9be b9be cc3e 0a62 793d
00000180: 5d6e d6bd 9b94 1d3a fb1b c4be 8d51 023e
00000190: 9099 883e 95b7 343e c589 c83e 35fb c1bc
000001a0: 9cea 3abe dbbd 00bd ca79 003f d1bb f03e
000001b0: a7b7 053e 9ffd 4cbd 7b69 54be 1eeb 7dbe
000001c0: 6f31 393d cc53 593d 6179 1abd 70e7 6cbe
000001d0: fa17 03bd 16c3 c33e 7643 6dbe 9a03 afbe
000001e0: 683d 61bd 6abd 34be 1735 383e 6cb9 78be
000001f0: 4f18 e83e 22af 4fbe f31a d7bd f424 f03e
00000200: 0243 a9be a98d 21be 3791 833d 5f93 1d3d
00000210: 33f0 debe 38a3 bd3d a153 60be 932c cb3c
00000220: e54c b13e ba75 d43e 66b5 a9be 14ed 0c3e
00000230: 982d abbe 30d4 c03e 996e 2ebc 7a11 c23e
00000240: f9e4 533e efdf df3e 8b59 cb3d 016e e8bd
00000250: 8d84 a5be 9361 67bd 8c29 1fbe 7302 103e
00000260: 80ca ac3e b9df 863e b31d ddbe bdb7 a23e
00000270: 7709 41be 78d5 063f 11e3 fd3d 046a 63be
00000280: 40f9 a8be 0721 b4be e685 a8be 689e 88be
00000290: a91e 223e f7aa f5bd 042e a4be cf7a eb3e
000002a0: c20e e2be ab9d dd3e 7bc4 66bc aa87 25bd
000002b0: a290 813e e4ca 90be e19b d53e 0667 d43e
000002c0: d049 d4be 5ccb 803e e4ca a4bb 9c6e 5fbd
000002d0: fdec 60bd 14ca 95be e7db 753c 1d68 c9be
000002e0: 48ce c9be b4e2 5cbe e98e a6be 12fb dabe
000002f0: 4dd1 033f d22f 27be 6351 b23e 3129 d4bb
00000300: 5968 edbe cb00 a0be 7707 cebe b8bb e63d
00000310: 0a4c 463e 4750 92bd 066f 96be d31f 9abe
00000320: a2e9 303e 6c21 e0be 68cf a8be 3872 dabe
00000330: 4489 1abe 9936 3e3e 971b 8e3e 52ef e6bd
00000340: d913 ea3d 874c 223e eff3 843d 91cc f1bc
00000350: 9a56 a5be aaef 8f3e cbdd 79be f353 70be
00000360: f9da b33e 34f4 1bbe c091 c8bd 7577 cf3e
00000370: 5574 cdbe 96de b33e d470 b5be 6b6b 3cbc
00000380: bc8a dcbe 648b 4abe bda8 02be 725e 28bd
00000390: 470e 913e ff04 01be d410 253c 1a0b c13e
000003a0: 1c25 9fbd 94c9 043f e4ed 56be fb6b dd3e
000003b0: 1382 bc3e bc6f bd3e f5d1 ccbd 4cbb 89be
000003c0: 1acb 2e3d 71cd 7fbe 5e36 113c d98e 53be
000003d0: 6301 bf3e f1e4 a43e ade7 cdbe 680f 0d3c
000003e0: e16a 9a3d 9d87 02be 62df d63e 66f4 6bbd
000003f0: a84f cbbe 47ef cfbe 54de 1bbe 4146 82bd

actor.0.bias f4 [64]
-0.31813928 0.025776446 -0.25654754 -0.3350913 -0.30432984 -0.027526548 0.42249367 -0.05010463
-0.36891404 -0.02569417 0.096926086 -0.3479576 0.2945825 -0.1952251 -0.06579791 -0.39929476
0.21268618 -0.27181062 0.22862193 0.060758274 0.022309132 -0.24442644 0.014249461 -0.08712764
0.197345 -0.45133132 -0.0023876939 0.29190665 -0.00045585667 -0.10401223 0.38597274 -0.31278104
-0.32666105 0.12937899 -0.050931107 0.03604074 -0.32112783 -0.30010906 -0.028168842 0.36536762
-0.077108316 -0.41212645 0.19807747 0.17322877 -0.3351746 0.31438258 0.023683934 0.37122643
0.29406112 -0.4091965 0.14664362 0.002465897 -0.40220866 -0.049370054 -0.3260063 -0.43876344
-0.38339016 0.02805293 0.31481153 0.12945317 -0.30398047 0.13571677 -0.2996692 0.16628842
00000000: 27e3 a2be 2029 d33c 335a 83be 1691 abbe
00000010: 1fd1 9bbe 5b7f e1bc 1751 d83e 833a 4dbd
00000020: 4de2 bcbe 947c d2bc 2f81 c63d 8027 b2be
00000030: 84d3 963e 17e9 47be 0ec1 86bd 5d70 ccbe
00000040: 68ca 593e c32a 8bbe de1b 6a3e abdd 783d
00000050: a4c1 b63c ed4a 7abe 9276 693c fa6f b2bd
00000060: cf14 4a3e e614 e7be db7a 1cbb ca74 953e
00000070: 0c00 efb9 5d04 d5bd 389e c53e d624 a0be
00000080: 1e40 a7be ed7b 043e 239d 50bd 749f 133d
00000090: de6a a4be e5a7 99be 58c2 e6bc 7711 bb3e
000000a0: f7ea 9dbd 3d02 d3be d2d4 4a3e e262 313e
000000b0: 019c abbe c1f6 a03e cf04 c23c 6411 be3e
000000c0: 2e8f 963e 3482 d1be bf29 163e e39a 213b
000000d0: 4bee cdbe 4138 4abd 4cea a6be 9aa5 e0be
000000e0: b74b c4be 42cf e53c fa2e a13e 5f8f 043e
000000f0: 54a3 9bbe 56f9 0a3e 3e6e 99be 8347 2a3e

actor.2.weight f4 [64, 64]
-0.111688785 0.057077277 -0.094505295 0.08144956 -0.0764459 -0.09927216 -0.08935201 0.093287855
0.03669246 -0.03125986 -0.00239845 -0.017985998 -0.009000978 -0.056337245 -0.084994055 -0.0693812
-0.05885137 -0.01965983 0.0004278313 0.087310046 0.017439317 -0.015664654 0.08988291 -0.10506272
0.09570902 -0.0035685217 -0.0583365 0.055204462 -0.1317284 -0.11892702 0.082736835 0.066831425
0.11065848 0.09538134 -0.037432153 0.070912845 0.0005779085 0.116092116 -0.07369075 -0.06435995
0.017289456 -0.11996017 0.08335815 0.0569346 -0.052685898 -0.11399737 -0.05228369 -0.109138496
0.008094245 0.017396608 -0.0540118 -0.06252244 -0.10876523 0.04129301 0.022729391 0.047299184
-0.081861615 0.11292215 0.08501062 -0.026392229 0.055802 0.094289705 -0.12028343 -0.076733656
-0.08080804 -0.10015788 -0.09554928 -0.09738955 0.08282138 0.04179202 -0.048079915 -0.045891788
0.058459815 -0.0266285 -0.09411465 0.05543708 -0.08227409 0.09804602 -0.06152472 -0.12398955
0.0751009 -0.10409897 -0.031850476 -0.014952047 -0.09700846 0.08027066 -0.0037514723 -0.13155942
0.0066587627 -0.06158063 0.04658227 -0.042637747 0.008926617 -0.13324136 -0.047585852 -0.071703784
0.06975088 0.06666574 0.08018333 0.059930846 0.05201791 -0.11316868 -0.05801634 0.100537695
0.023061663 0.10501162 0.10258893 0.09293747 0.10695111 0.12653345 0.053780846 0.08517485
-0.10530102 0.10074799 0.05932876 0.0585361 -0.0877922 0.037082054 -0.08087073 -0.043417476
-0.09498858 0.008835461 -0.108629666 0.0877258 0.04777911 -0.10310222 0.0980231 -0.006669107
0.120971076 0.041434195 -0.119140886 0.11126457 0.08753526 -0.05407869 0.11430127 -0.10277361
0.06922322 -0.007276582 -0.06716245 0.020656563 -0.11799968 -0.029550362 -0.096910745 -0.07676226
0.033861388 0.047351148 0.06391979 0.06296622 0.07903956 0.155444 -0.07587938 0.06890899
0.07286927 0.098979324 0.03527339 -0.01444999 -0.114867 -0.12042032 0.1240626 0.05110337
0.043731205 0.07263135 0.09592702 -0.027688148 0.042451873 0.089212395 0.074268684 0.062165815
-0.06788222 -0.09167491 0.109661974 -0.056006927 -0.10754278 0.066633865 0.12169264 -0.04219644
0.12145926 0.00286038 0.024754899 0.10822387 0.025908856 -0.046612505 -0.07547987 -0.011606926
-0.05210952 -0.07361231 0.09321981 0.046806313 -0.02527543 0.12119972 -0.009133523 0.07452743
-0.11645948 0.084961645 0.10342744 0.09167565 -0.1056622 -0.07130675 0.042004306 -0.023925517
-0.10651106 0.02448329 -0.103443116 -0.11840865 0.0073521617 0.05826302 -0.003806982 0.0441427
-0.089596614 -0.1130194 -0.012475559 0.094469845 -0.052855734 0.03210573 0.090780646 0.05533437
0.07605187 0.05175484 0.03250773 0.043744314 0.10927239 0.032988798 0.066209204 -0.046389524
0.004113164 0.11010721 0.09883075 -0.10549149 -0.0802298 -0.12248811 -0.10893456 0.062267385
-0.12897627 0.03900534 0.010961603 0.0012657614 0.07457905 0.036330268 0.10453544 0.044936568
-0.020244753 0.012112367 -0.050485987 0.020106902 0.08756532 0.049661674 0.111388355 0.018343206
0.06034907 0.11728227 -0.06374284 -0.048749343 -0.081737146 0.025419746 -0.031173345 0.09683494
00000000: 17bd e4bd ddc9 693d fe8b c1bd 07cf a63d
00000010: ab8f 9cbd 344f cbbd 30fe b6bd b40d bf3d
00000020: d54a 163d 570a 00bd 502f 1dbb 5f57 93bc
00000030: d778 13bc e2c1 66bd 5d11 aebd bb17 8ebd
00000040: 220e 71bd a70d a1bc 8c4e e039 9ccf b23d
00000050: e6dc 8e3c 2953 80bc 8814 b83d 202b d7bd
00000060: 1703 c43d dcdd 69bb 41f2 6ebd 131e 623d
00000070: cfe3 06be 0290 f3bd ee71 a93d eade 883d
00000080: eaa0 e23d 4b57 c33d 7552 19bd c13a 913d
00000090: c87e 173a b4c1 ed3d 2deb 96bd 26cf 83bd
000000a0: 9ea2 8d3c adad f5bd aeb7 aa3d 4134 693d
000000b0: 2bcd 57bd 7477 e9bd 6c27 56bd 0184 dfbd
000000c0: b99d 043c 5583 8e3c 7a3b 5dbd c40b 80bd
000000d0: 4ec0 debd dc22 293d fd32 ba3c cabc 413d
000000e0: 10a7 a7bd ba43 e73d 0c1a ae3d 8434 d8bc
000000f0: a390 643d f61a c13d 2957 f6bd 8926 9dbd
00000100: b07e a5bd 931f cdbd 57af c3bd 2c74 c7bd
00000110: 419e a93d 1c2e 2b3d 72ef 44bd 07f9 3bbd
00000120: 8f73 6f3d 0324 dabc 2ebf c0bd fe11 633d
00000130: 517f a8bd 5acc c83d 5801 7cbd 3cee fdbd
00000140: 80ce 993d d731 d5bd a575 02bd 6ef9 74bc
00000150: 5fac c6bd f264 a43d 43db 75bb 83b7 06be
00000160: c031 da3b f83b 7cbd 0dcd 3e3d eba4 2ebd
00000170: f240 123c 6c70 08be 62e9 42bd 6fd9 92bd
00000180: 8dd9 8e3d 0c88 883d 2837 a43d 0c7a 753d
00000190: bb10 553d fbc4 e7bd 8ba2 6dbd b5e6 cd3d
000001a0: d0eb bc3c 5510 d73d 251a d23d 0056 be3d
000001b0: 2f09 db3d fc91 013e 4e49 5c3d 2770 ae3d
000001c0: 10a8 d7bd f654 ce3d b702 733d 8dc3 6f3d
000001d0: 66cc b3bd 5ae3 173d 8e9f a5bd 86d6 31bd
000001e0: 5f89 c2bd 9cc2 103c 3b79 debd 96a9 b33d
000001f0: 07b4 433d 4227 d3bd 56c0 c83d 8688 dabb
00000200: afbf f73d e7b6 293d 2300 f4bd aede e33d
00000210: b045 b33d 9e81 5dbd c916 ea3d f87a d2bd
00000220: e7c4 8d3d 6570 eebb 778c 89bd f437 a93c
00000230: d1a9 f1bd 9a13 f2bc 2479 c6bd 8835 9dbd
00000240: 3db2 0a3d 47f3 413d 61e8 823d 6ff4 803d
00000250: 7edf a13d b62c 1f3e a666 9bbd 2820 8d3d
00000260: 7c3c 953d acb5 ca3d d57a 103d a7bf 6cbc
00000270: 643f ebbd ee9e f6bd 8814 fe3d c451 513d
00000280: 7e1f 333d bfbf 943d 6375 c43d 41d2 e2bc
00000290: 04e2 2d3d fdb4 b63d 2e1a 983d 95a1 7e3d
000002a0: d505 8bbd 0ec0 bbbd 7596 e03d 8567 65bd
000002b0: 643f dcbd 5677 883d fe39 f93d 2dd6 2cbd
000002c0: a2bf f83d 3775 3b3b c9ca ca3c 7aa4 dd3d
000002d0: cf3e d43c c1ec 3ebd 3195 9abd fa2a 3ebc
000002e0: cb70 55bd 0dc2 96bd 07ea be3d fab7 3f3d
000002f0: 6b0e cfbc 8f37 f83d c6a4 15bc d6a1 983d
00000300: 4f82 eebd 5f00 ae3d c4d1 d33d 71c0 bb3d
00000310: 6c65 d8bd 4609 92bd b50c 2c3d 72ff c3bc
00000320: 7822 dabd 2e91 c83c fcd9 d3bd 3c80 f2bd
00000330: 67ea f03b 34a5 6e3d 8f7e 79bb face 343d
00000340: 6e7e b7bd b776 e7bd 4966 4cbc 6879 c13d
00000350: 417f 58bd 4c81 033d 34eb b93d 4ba6 623d
00000360: 15c1 9b3d e2fc 533d d326 053d 3d2d 333d
00000370: 34ca df3d 431f 073d b198 873d f102 3ebd
00000380: b8c7 863b e47f e13d c767 ca3d ec0b d8bd
00000390: 854f a4bd 0cdb fabd 1519 dfbd 160c 7f3d
000003a0: 5b12 04be 10c4 1f3d 4c98 333c e8e7 a53a
000003b0: e7bc 983d 0ccf 143d ad16 d63d 680f 383d
000003c0: 53d8 a5bc f372 463c 65ca 4ebd 3bb7 a43c
000003d0: 7255 b33d 0a6a 4b3d 941f e43d 7e44 963c
000003e0: 9630 773d b031 f03d 9b8b 82bd 64ad 47bd
000003f0: ce65 a7bd 123d d03c 3e5f ffbc 6651 c63d

actor.2.bias f4 [64]
-0.12949073 0.0644454 -0.05138176 -0.08933029 -0.006300928 0.070218936 -0.08036058 -0.026903512
0.0042162924 0.025872331 0.06817011 0.0044113575 -0.079039656 0.074228555 -0.12043968 -0.121116996
0.010084793 -0.10051961 -0.09820445 0.067051016 -0.109251715 -0.03788083 0.07949625 -0.052560274
-0.058423415 -0.10872068 -0.122683346 -0.12531288 0.022484267 0.11374394 -0.09886867 0.015152731
-0.0079082735 -0.059624966 0.02722722 0.09085707 -0.09005741 0.08390463 0.06933951 0.106112435
0.059956424 -0.028407406 0.08079349 0.017027687 0.046682358 -0.028428875 -0.046819005 0.08720942
-0.11116102 -0.024875846 0.033172805 -0.020198446 0.0037459007 0.07183933 -0.049243126 -0.111548916
0.11380243 0.038080037 0.035284024 -0.06929086 0.07170452 -0.06641941 -0.056723546 0.035571024
00000000: 3899 04be f3fb 833d ae75 52bd cdf2 b6bd
00000010: 0478 cebb f2ce 8f3d 1694 a4bd c164 dcbc
00000020: d328 8a3b 36f2 d33c c59c 8b3d 268d 903b
00000030: 8bdf a1bd 2405 983d 14a9 f6bd 300c f8bd
00000040: b03a 253c 3add cdbd 6a1f c9bd 0b52 893d
00000050: 5dbf dfbd ee28 1bbd eece a23d 7149 57bd
00000060: 644d 6fbd f3a8 debd 6841 fbbd 0552 00be
00000070: ed30 b83c 95f2 e83d a87b cabd 2943 783c
00000080: b491 01bc 4f39 74bd 9e0b df3c 4613 ba3d
00000090: 0570 b8bd 31d6 ab3d df01 8e3d 7a51 d93d
000000a0: de94 753d a6b6 e8bc 0f77 a53d a67d 8b3c
000000b0: 0036 3f3d ace3 e8bc 49c5 3fbd da9a b23d
000000c0: 64a8 e3bd 6ec8 cbbc 35e0 073d 3677 a5bc
000000d0: c97d 753b 8020 933d 29b3 49bd c273 e4bd
000000e0: 4011 e93d d0f9 1b3d fb85 103d 5ee8 8dbd
000000f0: d2d9 923d e606 88bd f356 68bd ecb2 113d

actor.4.weight f4 [1, 64]
0.09927889 0.030849138 0.08018613 -0.05033178 -0.036383875 -0.027162503 0.11877651 -0.058964726
-0.09535183 -0.029749008 0.08662981 0.0061406647 0.101200454 -0.0500852 -2.724567e-05 -0.041634955
-0.013874569 -0.032246273 -0.024990922 -0.017614976 -0.022661528 0.106356494 -0.11190896 0.035929155
0.1155003 0.124064185 0.06335362 0.09856905 0.057761516 0.02614772 -0.06578667 3.0935973e-06
-0.10178107 -0.0894449 0.085982785 0.096217535 0.060311664 0.11709641 0.038216725 0.06195053
0.021052355 -0.053664953 -0.052475646 0.08828813 -0.11699203 -0.085019656 0.06814965 -0.039173786
-0.03183481 -0.052930474 0.0759614 -0.059889607 0.09948034 -0.07215903 -0.050165392 -0.07324083
-0.1283562 -0.004044602 0.03072447 -0.05378481 0.054908484 -0.11659281 0.07897054 0.011287783
00000000: bb52 cb3d 55b7 fc3c a038 a43d b228 4ebd
00000010: 4207 15bd e683 debc 1941 f33d ff84 71bd
00000020: d247 c3bd 31b4 f3bc f86a b13d a137 c93b
00000030: 2f42 cf3d 2426 4dbd a18d e4b7 6a89 2abd
00000040: 2952 63bc ab14 04bd c3b9 ccbc 484d 90bc
00000050: aba4 b9bc 6fd1 d93d 8630 e5bd 732a 133d
00000060: 6c8b ec3d 5d15 fe3d 8bbf 813d 92de c93d
00000070: 5797 6c3d be33 d63c 29bb 86bd 999b 4f36
00000080: 9872 d0bd e32e b7bd be17 b03d b30d c53d
00000090: 5d09 773d 3ed0 ef3d 2489 1c3d d7bf 7d3d
000000a0: fd75 ac3c c8cf 5bbd b4f0 56bd 68d0 b43d
000000b0: 8499 efbd c91e aebd 0b92 8b3d b174 20bd
000000c0: 3865 02bd a0cd 58bd a791 9b3d ce4e 75bd
000000d0: 59bc cb3d 1dc8 93bd 3a7a 4dbd 4aff 95bd
000000e0: cf6f 03be 9588 84bb e2b1 fb3c 764d 5cbd
000000f0: b8e7 603d 36c8 eebd 4ebb a13d 65f0 383c

critic.0.weight f4 [64, 5]
-0.26623183 -0.06957311 -0.42940754 -0.04814913 -0.32185215 0.05189092 0.41988972 0.05828946
0.15063626 -0.32121018 -0.4128098 0.3530963 -0.39588362 -0.25232333 0.025777224 -0.011496847
0.472457 0.7191667 -0.32907823 0.291855 -0.40922424 -0.09361656 0.08301219 -0.031605642
-0.15300494 0.15630211 0.3975522 -0.46548975 0.30103052 0.21689546 -0.32706058 0.09600532
-0.42587006 -0.12833308 -0.16707665 -0.051367555 -0.5188123 -0.30917433 0.15158495 0.29913235
-0.014032761 -0.26482418 0.41699073 -0.1917185 0.25979596 0.1906035 0.18467718 -0.46387246
-0.14732526 -0.1021708 0.2570243 0.06293613 -0.33861122 -0.50985575 -0.31015182 -0.29271063
0.02986172 -0.13476181 0.25733992 0.23278311 -0.18789324 -0.3274604 -0.37349766 -0.17470536
0.4641099 -0.12900206 0.4834222 0.36162838 -0.61462754 -0.1694846 -0.33566058 0.122066915
-0.55907524 -0.23821938 -0.18600702 -0.5028505 0.18539229 -0.3800716 -0.1588561 0.14980842
0.22369345 -0.42312497 -0.08035923 0.3444911 0.2751736 0.13407777 0.13724492 -0.08024682
0.11172491 -0.01012514 -0.5013966 0.2522899 0.32009774 -0.40549538 0.279701 0.20487185
0.31533685 0.04099469 -0.5774588 -0.28036293 0.07052131 -0.24418552 -0.308407 0.18639214
-0.09078368 -0.21990775 -0.2596938 -0.40280244 -0.21165784 -0.22643906 -0.29988605 0.03702488
-0.014239685 -0.29739735 0.24181123 -0.027643502 -0.4369257 0.232272 0.3647608 -0.2543096
0.012340513 0.37231404 -0.059243973 -0.15407152 0.2899492 0.011598307 -0.19803068 -0.00038480316
0.74226916 0.078880765 0.4017724 -0.46842015 0.090240285 -0.28525028 0.2611372 -0.20141158
0.49747005 0.015735261 -0.46264458 0.29641134 0.3301061 0.34491473 0.25396097 0.2901634
0.0037545802 -0.10482195 -0.30295223 0.44626498 -0.060015634 -0.23082016 0.20274666 -0.058745317
-0.115269415 0.030666726 -0.0077242134 -0.22940789 0.36435655 0.12194845 -0.7418968 -0.07704082
0.27717483 -0.052744836 -0.114199325 -0.11056804 -0.082262374 -0.07484864 -0.38449457 -0.06627794
0.21005626 -0.068900526 0.065243974 -0.4497455 0.13628694 -0.462969 0.2264006 0.14547437
-0.23912214 0.5952924 -0.377061 -0.29038674 -0.40879187 0.031617455 0.14971738 -0.31685013
-0.12710862 0.5437569 0.2439075 -0.19680122 0.15486233 -0.028537523 -0.103409044 0.4054277
-0.059286937 -0.35005555 -0.09936515 0.3509695 0.25768313 0.03152852 0.40170735 0.251798
0.017127838 0.21992332 0.5701974 0.34083658 0.22266509 -0.3824138 0.28393722 -0.3914524
-0.18083799 -0.28640172 0.023911733 -0.13772501 0.49357495 0.2016634 -0.2580909 0.026648365
-0.26178792 0.5731984 -0.15795603 0.3053138 0.37647566 -0.49031696 0.0069995075 -0.03544183
0.24756576 -0.0025320791 -0.37836245 -0.4597104 -0.18194123 0.24400456 -0.12202312 0.11019476
-0.33613074 -0.08001009 0.2727958 0.022412889 0.17429449 0.117946506 -0.06611748 -0.22054756
-0.07054364 -0.4684359 0.46854746 -0.12718028 0.27567905 0.34212795 -0.10138725 -0.43756065
-0.41569865 0.080400884 -0.21362656 -0.2764655 -0.3848306 0.28586817 0.32784286 0.3454061
00000000: 8a4f 88be 597c 8ebd 4edb dbbe 0638 45bd
00000010: cec9 a4be 938b 543d c9fb d63e eec0 6e3d
00000020: 6440 1a3e a975 a4be ce5b d3be 0ac9 b43e
00000030: 42b1 cabe 8630 81be c22a d33c 455d 3cbc
00000040: e2e5 f13e 4f1b 383f f17c a8be 056e 953e
00000050: d785 d1be 0aba bfbd 4c02 aa3d eb74 01bd
00000060: 54ad 1cbe a90d 203e f68b cb3e ac54 eebe
00000070: ac20 9a3e d819 5e3e 7c74 a7be 709e c43d
00000080: a40b dabe bf69 03be 2416 2bbe c966 52bd
00000090: e2d0 04bf 194c 9ebe 1639 1b3e e027 993e
000000a0: aae9 65bc 0997 87be cf7f d53e db51 44be
000000b0: fa03 853e 902d 433e 041c 3d3e b180 edbe
000000c0: 6fdc 16be ed3e d1bd b098 833e a8e4 803d
000000d0: 735e adbe e885 02bf 38cc 9ebe 2bde 95be
000000e0: 91a0 f43c 00ff 09be 0fc2 833e b25e 6e3e
000000f0: 1667 40be e4a8 a7be 163b bfbe f6e5 32be
00000100: d09f ed3e 1e19 04be 1d83 f73e 5b27 b93e
00000110: 3b58 1dbf 5f8d 2dbe b4db abbe 38fe f93d
00000120: 8e1f 0fbf c8ef 73be a078 3ebe cfba 00bf
00000130: 7ad7 3d3e bf98 c2be 2cab 22be 6167 193e
00000140: e50f 653e d6a3 d8be 6193 a4bd 2361 b03e
00000150: 8ee3 8c3e af4b 093e ef89 0c3e 7258 a4bd
00000160: 08d0 e43d eae3 25bc 875b 00bf 242c 813e
00000170: dae3 a33e 179d cfbe f834 8f3e edc9 513e
00000180: d573 a13e 0cea 273d 57d4 13bf bb8b 8fbe
00000190: 7a6d 903d c50b 7abe 86e7 9dbe 95dd 3e3e
000001a0: cbec b9bd 7f2f 61be 96f6 84be 1f3c cebe
000001b0: d5bc 58be a4df 67be aa8a 99be 67a7 173d
000001c0: 914d 69bc 7744 98be 5d9d 773e a074 e2bc
000001d0: bab4 dfbe b6d8 6d3e edc1 ba3e de34 82be
000001e0: dd2f 4a3c f29f be3e cfa9 72bd edc4 1dbe
000001f0: 3974 943e d306 3e3c 8ec8 4abe 68bf c9b9
00000200: 5a05 3e3f 3d8c a13d 1db5 cd3e c4d4 efbe
00000210: e6cf b83d 530c 92be c6b3 853e d63e 4ebe
00000220: 65b4 fe3e 3ce7 803c c0df ecbe 3ac3 973e
00000230: ab03 a93e aa98 b03e 2c07 823e 4c90 943e
00000240: 670f 763b e4ac d6bd 8e1c 9bbe d87c e43e
00000250: f4d2 75bd 1f5c 6cbe d29c 4f3e ee9e 70bd
00000260: 5f12 ecbd c938 fb3c 661b fdbb e7e9 6abe
00000270: f18c ba3e 1cc0 f93d f3ec 3dbf 94c7 9dbd
00000280: dce9 8d3e f80a 58bd 56e1 e9bd 7f71 e2bd
00000290: 2d79 a8bd 3e4a 99bd 79dc c4be bbbc 87bd
000002a0: fd18 573e b81b 8dbd a29e 853d 0b45 e6be
000002b0: ce8e 0b3e 460a edbe 8fd5 673e 3cf7 143e
000002c0: 6fdc 74be 1565 183f 240e c1be 92ad 94be
000002d0: 2b4d d1be 4e81 013d 834f 193e 2e3a a2be
000002e0: c328 02be a733 0b3f e3c2 793e 4286 49be
000002f0: 3b94 1e3e 86c7 e9bc 1fc8 d3bd 3894 cf3e
00000300: dcd6 72bd 7b3a b3be f57f cbbd 46b2 b33e
00000310: 0bef 833e 0d24 013d 96ac cd3e abeb 803e
00000320: ae4f 8c3c 9433 613e 75f8 113f 2282 ae3e
00000330: 5102 643e becb c3be 3860 913e 736c c8be
00000340: 982d 39be 3fa3 92be 8ae2 c33c c907 0dbe
00000350: dbb5 fc3e da80 4e3e 7e24 84be ac4d da3c
00000360: 1109 86be 21bd 123f 3abf 21be 1752 9c3e
00000370: 6bc1 c03e d30a fbbe 205c e53b 742b 11bd
00000380: e181 7d3e 3df1 25bb b9b8 c1be 295f ebbe
00000390: cd4e 3abe 55dc 793e 42e7 f9bd caad e13d
000003a0: 5419 acbe 54dc a3bd e4ab 8b3e 3c9b b73c
000003b0: 417a 323e f08d f13d 9a68 87bd 38d7 61be
000003c0: 2f79 90bd d5d6 efbe 74e5 ef3e 8c3b 02be
000003d0: ce25 8d3e 652b af3e 1ea4 cfbd f307 e0be
000003e0: 74d6 d4be 38a9 a43d ecc0 5abe e38c 8dbe
000003f0: 8408 c5be 505d 923e 05db a73e 11d9 b03e

critic.0.bias f4 [64]
-0.34075102 -0.35545084 0.1694032 0.2342768 -0.09602975 -0.020023156 -0.075102694 0.35453895
-0.08130802 0.40311092 -0.13542256 0.19216491 -0.13230713 -0.21362273 -0.10578587 0.028364975
0.18888432 0.022548214 -0.35889187 0.10671833 0.33803123 -0.068904184 -0.08556367 -0.10267823
-0.27694744 0.093672976 -0.27084053 -0.41070765 -0.1690548 0.1694092 0.21110305 0.18765111
-0.19645402 -0.25979686 -0.17838496 0.3751877 0.0036658996 -0.3642899 0.3929806 -0.18795438
0.3249272 0.021490635 -0.27380377 -0.11209593 -0.23600484 0.315398 -0.23998964 -0.1696428
-0.20800251 -0.22688149 0.48701122 -0.2850743 -0.13415094 0.31251404 -0.026673056 -0.41032547
0.35348472 -0.46696526 0.26621085 0.34885505 0.1412088 -0.33649084 0.15401022 0.28744093
00000000: eb76 aebe a7fd b5be 0878 2d3e 42e6 6f3e
00000010: 3fab c4bd 9a07 a4bc 71cf 99bd 2186 b53e
00000020: d284 a6bd 8e64 ce3e 36ac 0abe e1c6 443e
00000030: 857b 07be ebbf 5abe 43a6 d8bd aa5d e83c
00000040: e46a 413e 08b7 b83c adc0 b7be 248f da3d
00000050: 6e12 ad3e a31d 8dbd 013c afbd f748 d2bd
00000060: 0ecc 8dbe 9ed7 bf3d 9cab 8abe 4648 d2be
00000070: b41c 2dbe 9b79 2d3e 662b 583e 9d27 403e
00000080: 3e2b 49be 1804 85be 8caa 36be 9a18 c03e
00000090: 973f 703b 3584 babe c134 c93e 1d77 40be
000000a0: dc5c a63e 210d b03c 0230 8cbe 8d92 e5bd
000000b0: 41ab 71be d97b a13e d8bf 75be d8b6 2dbe
000000c0: 9cfe 54be 9f53 68be 8959 f93e 42f5 91be
000000d0: dd5e 09be d701 a03e 7481 dabc 2e16 d2be
000000e0: f3fb b43e 1216 efbe ca4c 883e 219d b23e
000000f0: 0a99 103e 8748 acbe dbb4 1d3e 752b 933e

critic.2.weight f4 [64, 64]
-0.04818887 0.06431002 0.1231485 -0.08049555 -0.049694534 0.022724805 -0.02807977 0.033162933
-0.04329612 0.049704127 -0.14023097 0.03361121 -0.084274404 -0.035283957 -0.03695747 0.00885009
-0.028513609 0.024441583 -0.03989997 0.055145763 0.014918372 0.0041086683 0.0381254 0.039931726
-0.025498508 -0.041603286 -0.008963385 0.07019996 0.0126409205 0.11476346 0.10161388 0.066531405
0.056917083 0.05568635 -0.026173573 -0.0093492335 0.07406409 0.1900919 0.023835175 -0.032666966
-0.08257857 0.00042739004 -0.04277343 0.13898021 -0.11808729 0.16065602 -0.14677511 0.07324778
0.083344445 -0.07098524 0.029352957 0.057362318 -0.0350363 -0.0675441 -0.080007866 -0.12919807
0.1442935 -0.114083156 -0.06383425 -0.086052135 0.1904699 -0.15639149 -0.119922645 -0.029124402
-0.14656366 0.034201387 -0.025713556 0.040384393 0.029887447 0.108504795 -0.030785542 -0.04345038
-0.086745866 0.10206497 -0.11026456 -0.021752933 0.01712233 0.071136504 -0.16610348 0.067817405
0.10927352 0.050154 -0.04343297 -0.07119771 -0.096109845 0.02832312 -0.0369214 0.04548442
0.04392183 -0.033799626 -0.1320879 0.0763243 -0.11743234 -0.16838981 0.05235928 0.11919143
-0.10875693 0.0049531357 -0.15710191 -0.17148009 -0.016409183 -0.10860179 -0.058250327 0.06077046
0.02439229 -0.00083156314 -0.0031512901 -0.057060897 0.027307404 -0.17506215 0.16390738 0.13045551
-0.16734897 -0.08023451 -0.030028012 0.067563035 0.08469143 0.15418151 -0.010284419 -0.084111266
-0.0732994 0.14708897 0.054718908 -0.09852285 -0.06661702 0.08743778 0.064347245 -0.127811
-0.019582415 0.050462518 0.1675567 -0.022383759 -0.094765596 0.031692673 0.090781175 0.14873141
-0.017734297 0.116207704 -0.03589956 0.06430123 0.0557235 -0.12012093 0.17118078 -0.033038106
0.054803565 0.03830985 -0.098653235 -0.016512392 0.13183784 0.10228416 -0.062345825 -0.043264292
-0.036405087 -0.11239359 0.038997874 -0.099054806 0.048481975 0.11334319 0.06571784 -0.0645002
-0.1613542 -0.15739805 0.040192567 0.13920663 -0.056620695 0.13976043 0.16437753 -0.16447423
-0.050508503 0.07398594 -0.15370247 0.033854 0.041849088 0.19468614 -0.122648224 -0.048017465
0.121390186 -0.062667325 0.12284855 -0.021556823 -0.06381629 -0.028530579 -0.07849907 -0.020125002
-0.015643744 -0.09863339 -0.1176028 -0.053448115 0.13065934 -0.011650052 -0.02902372 -0.020542767
0.10340416 -0.049049605 -0.08231498 0.097012006 -0.0879471 -0.042962145 0.06593066 0.023723833
0.0458252 0.109884985 0.059943516 -0.072608806 -0.096007146 -0.07903435 -0.03738537 -0.016535006
-0.08747422 -0.13478181 -0.109629355 0.11692562 -0.010860368 0.0780264 0.09101564 -0.036434144
0.09237834 -0.093440644 -0.017858332 0.038582247 0.021212934 -0.046236854 -0.04082783 -0.03339914
0.05127248 0.09271657 -0.13810557 0.020634154 -0.064292446 -0.16331823 -0.054726183 -0.009090281
-0.072555006 -0.00437895 0.025867715 -0.16640466 0.08015125 -0.0044798264 0.06001186 -0.043028984
-0.05397587 -0.036753718 -0.050685428 0.10604333 0.12692651 0.1322935 -0.12172714 -0.06639412
0.08948291 0.0069817146 0.2672249 -0.05299557 -0.021672899 0.11131563 0.039415922 0.11696336
00000000: b161 45bd f9b4 833d 4835 fc3d dada a4bd
00000010: 7f8c 4bbd 5f29 ba3c 8c07 e6bc dbd5 073d
00000020: 4657 31bd 8e96 4b3d b598 0fbe e8ab 093d
00000030: 0f98 acbd e985 10bd b760 17bd f8ff 103c
00000040: 5f95 e9bc b739 c83c 276e 23bd 86e0 613d
00000050: 306c 743c 02a2 863b 6129 1c3d 738f 233d
00000060: 3fe2 d0bc 3568 2abd 29db 12bc ffc4 8f3d
00000070: dd1b 4f3c 1b09 eb3d f01a d03d 9e41 883d
00000080: e321 693d 5f17 643d f669 d6bc 872d 19bc
00000090: eaae 973d 73a7 423e fc41 c33c cccd 05bd
000000a0: f41e a9bd 5213 e039 3133 2fbd d450 0e3e
000000b0: c0d7 f1bd 0383 243e 374c 16be ef02 963d
000000c0: 7eb0 aa3d b660 91bd 9d75 f03c c0f4 6a3d
000000d0: 3982 0fbd 9054 8abd 2adb a3bd 804c 04be
000000e0: adc1 133e 6ea4 e9bd 88bb 82bd 1a3c b0bd
000000f0: 8b0a 433e 1725 20be 019a f5bd 4c96 eebc
00000100: c914 16be c116 0c3d 3ca5 d2bc 1b6a 253d
00000110: 85d6 f43c c337 de3d f631 fcbc 07f9 31bd
00000120: d1a7 b1bd 7007 d13d 63d2 e1bd 3533 b2bc
00000130: 2144 8c3c 04b0 913d 0817 2abe dae3 8a3d
00000140: ccca df3d 486e 4d3d c5e6 31bd 1bd0 91bd
00000150: 3dd5 c4bd e305 e83c e53a 17bd df4d 3a3d
00000160: 60e7 333d 7a71 0abd 0d42 07be ea4f 9c3d
00000170: 5e80 f0bd 616e 2cbe af76 563d a31a f43d
00000180: f4bb debd ea4d a23b 53df 20be 7a98 2fbe
00000190: 8d6c 86bc 9e6a debd e597 6ebd 72ea 783d
000001a0: 57d2 c73c 42fd 59ba e085 4ebb b0b8 69bd
000001b0: c7b3 df3c 7e43 33be 56d7 273e 2196 053e
000001c0: 875d 2bbe fe51 a4bd 4efd f5bc 7d5e 8a3d
000001d0: b372 ad3d c2e1 1d3e fb7f 28bc 8742 acbd
000001e0: ff1d 96bd 7e9e 163e ef20 603d 59c6 c9bd
000001f0: 816e 88bd 9412 b33d 7dc8 833d e3e0 02be
00000200: 4d6b a0bc c9b1 4e3d fc93 2b3e 255e b7bc
00000210: 7714 c2bd 2dd0 013d 7beb b93d 0c4d 183e
00000220: 8447 91bc 4efe ed3d 6b0b 13bd 5db0 833d
00000230: 533e 643d f601 f6bd 044a 2f3e f752 07bd
00000240: b479 603d caea 1c3d b50a cabd ff44 87bc
00000250: 8000 073e 5c7a d13d 565e 7fbd e635 31bd
00000260: 801d 15bd 9c2e e6bd 3cbc 1f3d 3fdd cabd
00000270: 0995 463d 7920 e83d 1397 863d ae18 84bd
00000280: 093a 25be f42c 21be f6a0 243d 2f8c 0e3e
00000290: 1aeb 67bd 5c1d 0f3e 9552 283e ef6b 28be
000002a0: 01e2 4ebd f185 973d 2e64 1dbe 7eaa 0a3d
000002b0: f369 2b3d ce5b 473e fe2e fbbd f6ad 44bd
000002c0: 6b9b f83d ba57 80bd 0598 fb3d ef97 b0bc
000002d0: 1db2 82bd f6b8 e9bc 1fc4 a0bd 30dd a4bc
000002e0: 4f27 80bc 4e00 cabd bdd9 f0bd 69ec 5abd
000002f0: 90cb 053e dcdf 3ebc 27c3 edbc 4e49 a8bc
00000300: 8fc5 d33d 3de8 48bd c294 a8bd 3bae c63d
00000310: 9c1d b4bd 13f9 2fbd a706 873d 7c58 c23c
00000320: 34b3 3b3d 610b e13d 5587 753d edb3 94bd
00000330: 659f c4bd c3dc a1bd 6721 19bd 6c74 87bc
00000340: af25 b3bd 3e04 0abe 5b85 e0bd b376 ef3d
00000350: afef 31bc 4ecc 9f3d 6866 ba3d f83b 15bd
00000360: db30 bd3d cf5d bfbd a34b 92bc 6b08 1e3d
00000370: bfc6 ad3c db62 3dbd 153b 27bd 89cd 08bd
00000380: 1803 523d 2fe2 bd3d 8c6b 0dbe f508 a93c
00000390: c2ab 83bd e53c 27be 9028 60bd 67ef 14bc
000003a0: b897 94bd 4c7d 8fbb 88e8 d33c fc65 2abe
000003b0: 5726 a43d 82cb 92bb ffce 753d 293f 30bd
000003c0: cd15 5dbd 118b 16bd 869b 4fbd 3f2d d93d
000003d0: 06f9 013e f277 073e 144c f9bd a4f9 87bd
000003e0: d142 b73d dec6 e43b b4d1 883e e211 59bd
000003f0: 5d8b b1bc 73f9 e33d 9772 213d 7c8a ef3d

critic.2.bias f4 [64]
-0.02172182 -0.04241863 0.09699831 0.06905815 0.09691835 -0.08058193 -0.12612467 0.034323942
-0.016551808 -0.17079172 0.0154072475 -0.04665937 -0.052756745 0.06739017 -0.00695856 0.009205205
-0.20251699 0.14190757 0.08106616 -0.0756413 0.14085707 -0.03707831 -0.0036452606 0.009984435
-0.11615448 -0.11468674 -0.049874026 -0.0698651 0.00258482 0.03466079 -0.017198758 0.03970748
0.06693398 0.11440459 0.04610643 0.10673698 -0.07182897 -0.035449103 0.040562022 0.020332392
0.016903026 -0.117225334 0.08682225 0.062301494 -0.09204222 0.13161187 0.09946305 -0.06814588
-0.18315838 0.0014401888 0.15723127 -0.07452724 -0.04862234 0.040918447 -0.059221037 0.08989373
0.13641602 0.042011213 0.009823879 -0.09584678 -0.10874491 0.002900905 -0.08765148 0.0994872
00000000: f5f1 b1bc 28bf 2dbd 0da7 c63d 5c6e 8d3d
00000010: 217d c63d 2408 a5bd d326 01be 4397 0c3d
00000020: a897 87bc 06e4 2ebe ae6e 7c3c e51d 3fbd
00000030: 7517 58bd dc03 8a3d a204 e4bb 6ed1 163c
00000040: 9d60 4fbe 3850 113e 0406 a63d d3e9 9abd
00000050: d63c 103e 6ddf 17bd 53e5 6ebb c195 233c
00000060: 66e2 edbd e2e0 eabd b548 4cbd 6f15 8fbd
00000070: 1566 293b 79f8 0d3d 69e4 8cbc 50a4 223d
00000080: af14 893d f44c ea3d 19da 3c3d eb98 da3d
00000090: 111b 93bd 1433 11bd 5d24 263d 1e90 a63c
000000a0: 3778 8a3c d613 f0bd ddcf b13d da2f 7f3d
000000b0: a280 bcbd 43c5 063e 49b3 cb3d 1190 8bbd
000000c0: df8d 3bbe b8c4 bc3a 3c01 213e bda1 98bd
000000d0: 3828 47bd 1a9a 273d c291 72bd 341a b83d
000000e0: a4b0 0b3e f313 2c3d 56f4 203c 514b c4bd
000000f0: a7b5 debd 1c1d 3e3b 9f82 b3bd f2bf cb3d

critic.4.weight f4 [1, 64]
-0.091338344 0.12742528 -0.12309696 0.03714079 0.068130806 -0.1547528 -0.015495669 0.13773252
-0.03375257 -0.07254423 -0.047069002 0.09892371 0.10725023 0.103464745 0.089278616 -0.04145601
-0.085967034 0.07810778 0.026383163 -0.113021106 0.14224932 0.12356431 -0.035279267 0.09581531
-0.1277864 -0.073108025 -0.076314464 0.10784601 -0.038931586 0.018092297 -0.102223635 -0.047818564
0.040307596 0.12303408 -0.14259918 0.09063106 0.09256142 -0.058864027 0.11551761 0.0035432077
0.1506119 -0.02685463 0.10647831 0.052292462 -0.01702644 0.10503294 -0.0762378 0.12659371
-0.029397825 0.07545905 0.14909747 -0.035675682 -0.015700694 0.065028146 0.11388478 -0.15198524
0.07687981 -0.06458774 -0.046198852 -0.124096684 0.016633606 -0.11403146 -0.051488884 0.15900506
00000000: 990f bbbd c67b 023e 421a fcbd f120 183d
00000010: 2a88 8b3d 8577 1ebe 8ce1 7dbc c109 0d3e
00000020: 2340 0abd 1292 94bd 6dcb 40bd 8498 ca3d
00000030: 02a6 db3d 53e5 d33d b5d7 b63d c7cd 29bd
00000040: 7c0f b0bd f9f6 9f3d 8121 d83c 9c77 e7bd
00000050: cea9 113e 490f fd3d fe80 10bd d13a c43d
00000060: 70da 02be a9b9 95bd c24a 9cbd 5ede dc3d
00000070: ba76 1fbd 4c36 943c a05a d1bd 66dd 43bd
00000080: 9419 253d 4bf9 fb3d 8505 12be c79c b93d
00000090: d790 bd3d 681b 71bd 7f94 ec3d 2935 683b
000000a0: 023a 1a3e 3efe dbbc 4d11 da3d 9f30 563d
000000b0: 087b 8bbc 831b d73d 9022 9cbd c8a1 013e
000000c0: b5d3 f0bc 468a 9a3d 02ad 183e aa20 12bd
000000d0: be9e 80bc 7a2d 853d 6c3c e93d 05a2 1bbe
000000e0: 2973 9d3d 9446 84bd 023b 3dbd 6726 febd
000000f0: 3343 883c 5389 e9bd 02e6 52bd 39d2 223e
