controller/PPO_CartPole-dm_0_1200000.pth (torch, 41277 bytes, 10 tensors)

actor.0.weight f4 [64, 5]
00000000: bd5a f43d c983 8abd 0cd7 3f3f 53b0 3abd
00000010: 25d5 e23d e1a8 a0be c6e9 89be 9202 90bf
00000020: 75af 04be e02d 26be 331f 25bd d978 7dbe
00000030: 5cb0 a83e b1de b63e 93f8 e63c 676d 6b3e
00000040: a3f7 4a3e 780d 523f b03c d2be 9e67 d73c
00000050: de8b 553c 8ce0 a93e 6e58 203f 5e15 8c3e
00000060: e8bb 343e 0ad5 16bd b890 a13e 989c a23e
00000070: 1279 d3be 2c6e 0b3f 3192 4ebe 2412 fc3e
00000080: 4303 96bd adcc 0a3d 8dc6 93bd 8403 803e
00000090: 830f eb3e ef14 0dbf 9e36 e6bd f030 01be
000000a0: c9ca fcbd ea99 98bb 57ce 19bf 71b7 d93e
000000b0: 8d0e 653e c421 aabe 209f a9be 300b 523f
000000c0: a901 923e afed 213e 19ad 79be e0b8 f8be
000000d0: bc81 1fbf 8502 b13e 4ce3 dabe 98a3 9abe
000000e0: 9c21 933d d0b5 1cbf 96bd 9cbe 7db3 aebd
000000f0: 212d 2c3e 8761 29bf 0a49 803e ebe5 923e
00000100: 0345 a03d ba7c fc3e e0e9 23be 6908 a83d
00000110: 2ca9 f73e df47 52bd 7811 04bf 47c2 03bf
00000120: e189 433e 8018 b4be 29de 0dbe a443 47be
00000130: 883d e7be 3aa8 6d3e 1c74 54bc 6edd 98be
00000140: 2749 0a3f a187 353e 8b59 ca3e 0354 93bd
00000150: bfaa d13b 443d 06bf 9353 383e 31fd 79bf
00000160: 3449 a5be 9df6 d7be 6922 5b3e 110f fa3e
00000170: 155c fabd 68f9 05be cbb6 c8bd ba2e 61bd
00000180: 2940 d7be 9aaf 92bf 3525 5dbd 9d42 433e
00000190: 253a c4be eb0c 0dbf e52c e63e c619 2c3e
000001a0: b8aa 2d3e e965 8d3e 6827 2e3e 7e77 e8be
000001b0: ce74 b1be af26 08be 0554 d1be 09d1 94bd
000001c0: d2c8 eabe d7dd bf3e 2284 bb3e ff2c 84be
000001d0: 00b3 b6be 1283 393e 00fa edbe b953 b9bd
000001e0: f490 03bf 8072 cebe 7aea b8be dc6f 0ebf
000001f0: 7524 53be c126 a43e 093e d73e ffc6 14bf
00000200: 7abc a8bd 683e 2abe 239a edbe 2e0c 09be
00000210: 65ba 233f f9c6 91bc c62a bebe 36e1 28bd
00000220: 6bd0 16bf fe98 bf3e 17d3 30be 1e69 ef3c
00000230: 6091 aabe 2852 bf3e e359 1d3f 6728 c0bd
00000240: 2ca2 953d 61c1 323c 5479 053f 1348 4abf
00000250: 72b8 7e3d 8d2a a1be 3425 e5be eeb9 103f
00000260: 203e d13e 6a6e 65be 236c b8bc 4237 5dbe
00000270: 51f6 ad3e b7b1 42bf b3f7 763e 7dc4 ecbd
00000280: aade adba e1a3 b13e 50d9 133f e61b 873c
00000290: 776b b43e 13d9 8f3d 2684 c53c 7bc0 fd3e
000002a0: 231e 273f cfbc a6bd aa07 233e 9ce9 e7be
000002b0: abcf 353f d90f 383e 0ce5 0f3d 4c22 533d
000002c0: c4f1 493e 64b8 0d3e a7c5 0e3e fa38 383f
000002d0: 4d37 f43e 8c6f 023f 8729 c9be 5c79 5e3d
000002e0: 4570 e1bd d588 693e 8a6e e7be b2c3 e3bd
000002f0: c940 a5be 0c89 993e 9a3f 2abf 62ae 7c3e
00000300: 8ecb 01bf ceac e5be 8afe 0cbf 2d93 043e
00000310: 0134 63be b4bc 3ebf 7f32 0cbe a1fc a9be
00000320: a9a9 6e3e 359a c2be 5558 b33d 0471 183c
00000330: 68d3 b7bd 25dc aabe c5eb e6be e7fd a33e
00000340: 35a2 20be 0153 b2bd af37 88bd 6569 06be
00000350: b888 ecbe 585a d9be 45a7 753f 7771 40bb
00000360: 432c 723e a90d 88be a26a 1f3e 2b97 44bf
00000370: dc25 2ebf b163 f93e 0143 4f3e 1532 c0be
00000380: 4be0 b83e ed9a 99be 83c8 adbd 177f 8abd
00000390: e539 523e b07e 6dbf 997b 0c3e 62e9 393e
000003a0: fd26 8e3f 55a6 ca3d e1e0 053f 15a5 013e
000003b0: b7b3 00bf f132 9dbe 250e b03e ebf1 7fbd
000003c0: 416e 3b3e 4e84 07be 10ab 7f3a 749e 76be
000003d0: 45a9 a7bd 9d70 143f 9064 a8be 70f8 063c
000003e0: 654f b33e ea67 a13d d269 53be 83ac b23e
000003f0: 1fcf 14bf 3f0c 063d 6fbf 8b3e a74a 2ebe
0.119313695 -0.06763417 0.7493751 -0.045578312 0.1107581 -0.31378844 -0.26936167 -1.1250784
-0.12957557 -0.16228437 -0.040312957 -0.24753131 0.32947052 0.35716775 0.028194701 0.22990952
0.19821028 0.820518 -0.41061926 0.026294526 0.013033835 0.33179128 0.62634933 0.27360052
0.17649806 -0.036824264 0.31555724 0.31760097 -0.41303307 0.54464984 -0.20172955 0.4923259
-0.07324841 0.0338866 -0.07215605 0.25002682 0.45910272 -0.5511007 -0.11240886 -0.12616324
-0.12343366 -0.00465702 -0.60080475 0.42522767 0.22368832 -0.33228886 -0.33129215 0.8204832
0.28516892 0.15813325 -0.24382438 -0.48578548 -0.62307334 0.34572235 -0.4275154 -0.30202937
0.07184145 -0.61214924 -0.30613393 -0.085303284 0.1681409 -0.6616444 0.25055724 0.28691038
0.07825663 0.4931391 -0.16007185 0.08204729 0.48371255 -0.051338073 -0.51589155 -0.5146832
0.19095565 -0.35174942 -0.13854279 -0.19459397 -0.45164132 0.23208705 -0.012967136 -0.29856437
0.5401787 0.1772752 0.3952144 -0.07193758 0.0063985283 -0.52437234 0.18000631 -0.97651964
-0.32282412 -0.42180339 0.21399845 0.4883962 -0.122245945 -0.13083422 -0.0980049 -0.054976203
-0.42041138 -1.1459839 -0.05399056 0.1906838 -0.3832561 -0.55097836 0.44956127 0.16806707
0.16959655 0.27616814 0.1700722 -0.45403665 -0.34659427 -0.13296007 -0.40884414 -0.07266433
-0.4585634 0.37473938 0.36624247 -0.2581558 -0.3568344 0.18116406 -0.46479797 -0.09049172
-0.51393056 -0.40321732 -0.3611639 -0.55639434 -0.20619376 0.32060817 0.42039517 -0.58116144
-0.08239074 -0.16625369 -0.4640666 -0.13383552 0.6395629 -0.017795073 -0.3714201 -0.041230403
-0.5891177 0.3742141 -0.17268024 0.029224928 -0.33314037 0.37367368 0.6146528 -0.09382706
0.073063225 0.010910363 0.5213826 -0.79016227 0.06218762 -0.31477776 -0.44754946 0.56533706
0.4086771 -0.22405401 -0.022512501 -0.2160311 0.33976987 -0.7605242 0.24117927 -0.11560915
-0.0013265212 0.34695342 0.5775347 0.016492795 0.3523824 0.070238255 0.024110865 0.49560913
0.6528036 -0.08141481 0.15920892 -0.45295417 0.7102 0.17974795 0.035130545 0.05154638
0.19721133 0.1383987 0.13942586 0.7196194 0.4769844 0.5095146 -0.39289495 0.054314956
-0.11007742 0.22806104 -0.45201522 -0.1112131 -0.3227599 0.2998737 -0.665033 0.24675897
-0.50701225 -0.44858402 -0.55075896 0.12946768 -0.22187807 -0.7450669 -0.13691138 -0.33200553
0.23306908 -0.38008276 0.087570824 0.009304289 -0.089758694 -0.33371082 -0.45101753 0.3202965
-0.15686877 -0.08707238 -0.06651246 -0.13126142 -0.46198058 -0.4245174 0.9595836 -0.0029364505
0.23649697 -0.26572922 0.15568021 -0.76793164 -0.6802652 0.4870887 0.20240404 -0.3753821
0.36108622 -0.30001011 -0.0848551 -0.06762522 0.20529898 -0.92771435 0.13719024 0.18155435
1.1105648 0.098950066 0.5229626 0.1266063 -0.50274223 -0.30702928 0.3438579 -0.06248657
0.18303777 -0.13234064 0.00097529683 -0.24083883 -0.081865825 0.57984334 -0.32889223 0.008237943
0.3502151 0.07881148 -0.20645836 0.3489724 -0.5812854 0.032726523 0.2729449 -0.17020665

actor.0.bias f4 [64]
00000000: 73be ebbe 79be 1abe fd2a 04be a5c6 19bf
00000010: 9c41 00bf fc1d 083f a39f 193e c9a6 e33d
00000020: 2118 a7be 16d9 d93d ce92 a9be bdcb 583e
00000030: 0f2a 0eba a565 68be 3d90 293e 2dce fcbe
00000040: 642a a53e e026 d7bc 1d89 38be cd3f 5dbd
00000050: 6f56 2c3e 1971 bdbe f07a 0cbf 4738 973e
00000060: 3b97 d13e f7fa 863e dd7a 20be 8da5 debe
00000070: 8ffa bdbd 8f02 0ebc bbb1 94be 16d7 2fba
00000080: 8665 abbe 35fe 433d c0a2 46be 2836 3b3f
00000090: 24a6 7c3e 4baf bc3d 2600 0a3f b538 c2be
000000a0: ed36 c3be 13a8 48bd 19c8 28be c25c 953d
000000b0: dff5 2cbe c0d1 38be 666f 87be 7e47 65be
000000c0: 85f8 01bf f2e0 2cbe cd27 d0bd 4e27 7d3e
000000d0: 8f2e 113e 0af8 ccbe fa71 08be d629 953e
000000e0: 1bd2 c53e 7364 c93d daaf 1ebf 0e1b 223e
000000f0: 6521 6c3e c59c 0e3d 61de 983e 8b42 d7be
-0.4604374 -0.15111722 -0.12907024 -0.6006873 -0.5010011 0.5317075 0.15002303 0.11115796
-0.32635596 0.10637109 -0.33119816 0.2117147 -0.00054231373 -0.22695024 0.16558929 -0.4937605
0.32258904 -0.026263654 -0.18021055 -0.054015923 0.16829847 -0.3700035 -0.5487509 0.29535124
0.40935692 0.26363346 -0.15671869 -0.4348568 -0.09276306 -0.008667602 -0.29041848 -0.00067077705
-0.33475894 0.047849853 -0.19398022 0.7312951 0.24672753 0.09213122 0.53906476 -0.3793389
-0.38127843 -0.048988413 -0.16482581 0.07293083 -0.16890667 -0.18048763 -0.26452178 -0.22390553
-0.50769836 -0.16882685 -0.101638414 0.24722025 0.14177917 -0.4003299 -0.13324729 0.2913348
0.3863686 0.09833612 -0.6198708 0.15830633 0.23059614 0.034817476 0.29857162 -0.42042956

actor.2.weight f4 [64, 64]
00000000: 4246 12be c8a2 1ebe 5b97 353e 2b89 813b
00000010: 1ff9 aebd 1dcc 1b3e cdba eb3c 8f67 18be
00000020: bc86 7fbd 904b 333e 1d25 44be 25c8 273e
00000030: 57cf a13c f5ff a5bb 471c 483e 14e9 b33d
00000040: d966 213c 88cb ca3c 8f92 e5bd 2004 2cbc
00000050: d7db 6b3d 29b3 a53d 0277 e63d 77b4 803d
00000060: 4b36 a33d 0a19 9a3c 9e2b 413d d0b1 f73d
00000070: 9a18 053e af40 29be 56b9 ef3d 3099 14be
00000080: 91c3 68bd bd5e 28be e404 283d 0ff8 19bb
00000090: 5b89 08bd 3e70 babd 3a89 3fbe a0a6 b4bd
000000a0: 303d 80bd d7d1 163e 7095 12be dcab 943d
000000b0: f5d1 cd3d 083f 5d3c 3ebe ad3c 305f 10be
000000c0: 3832 ac3d ec77 c3bd 7096 773d 0d19 1d3c
000000d0: 7815 443e f6df fabd 8c1c 08be 1c48 aabd
000000e0: a2c4 26bd e8bd 33bd e60b 343e 14c0 78bb
000000f0: 7b6a 8a3d e649 f9bd 1518 fabd d349 78bd
00000100: 4439 723d fd98 d0bd 7958 8d3d 2493 1dbe
00000110: 6e9a e3bd 3e9b 8a3d 6f0f 07bd a979 d5bd
00000120: 17ba df3d 3e54 813c cc36 853d fa1c 88bd
00000130: c1b6 89bc fe7c 843d 2779 fc3d 54be 33bd
00000140: dcc7 283e 45a5 5f3c 00ae 983d f00d 663d
00000150: 7323 5cbd 2ff5 d5bc 1ff7 d7bd af20 bbbd
00000160: 352a aabd af3f ebbd 495a 0f3d 5e28 50bd
00000170: 905e bbbd a763 863d 45b5 a13d 8215 d83d
00000180: d4be 90bd 1971 a53b 5486 1d3c f84b ba3d
00000190: 0845 5bbd 4c47 933d b0f0 a9bc 28f1 aa3d
000001a0: 5ac8 53ba fc9b 953d 3c14 bfbd 7c76 9d3d
000001b0: 70cd 3cbd b9f1 9d3b b6b0 583d d404 14bd
000001c0: 1829 ee3d f751 74bd 2b88 983d 7e3c 313e
000001d0: 1e79 3dbe 6713 74bc e123 ccbd a2ff 003d
000001e0: ec54 7fbd 073a b73d 9748 c0bd c46e 00be
000001f0: 0282 e83c 7ad6 6b3d 5920 873c 62cc c4bb
00000200: 00d7 a33d c1f1 14bd 5197 5bbe 1051 863e
00000210: 042e 933d 67d1 3cbe f3c2 1d3e 2f28 033e
00000220: 0cd3 45be 3d30 56be d6c8 77bd 824e ce3c
00000230: 131b 5ebe 4ebe ef3d 683b fabc 1033 a33d
00000240: 05f4 bfbd def0 893e a575 093f d4cf a4be
00000250: 1e31 7cbe c60d a73e a09d 0dbe 7b31 893d
00000260: ba27 a03d 6b35 64bc 7463 6d3e d322 033e
00000270: 759a 353e 43d4 243e c03a 8b3e 325f ebbc
00000280: 4052 cbbc 30a3 1d3d 154d 42be 24a8 94be
00000290: b73f 7f3e 1ea4 a3be ade0 6b3e 9b8f 823d
000002a0: 3dc2 a93d 2732 1bbd 973a aebe c0bb 453e
000002b0: 6c5b 1d3e a4ae 953e 42ac b3bd 25c3 c13d
000002c0: 7e96 953e 39c3 2fbe facd 03be 0735 98be
000002d0: b977 203e 2bb3 20be 1d93 00bf 176f 6c3e
000002e0: 3f40 9fbd 05ef 7d3c 4c69 9a3e 9265 f73b
000002f0: 43d3 883e 77bc ae3e c083 0abc 18d4 3d3e
00000300: c727 353d 43eb 5a3d 69d0 babe a0d6 453e
00000310: 601f 3dbe 1058 c83c 080a e43d ee0a 213e
00000320: ed58 66be 057c 5abe 8c04 84bd f808 c63e
00000330: d46e 02bf 954a 9abe d691 8c3c bff6 23bd
00000340: daa5 b3bd 0691 973e 835d 1d3e 1579 94bd
00000350: e0ab 86be d92b a73c 2911 cdbd 84ef 73bc
00000360: 401e 2f3d 4ba2 8c3e ab01 31bd c6e4 18be
00000370: 5aca 2a3e 7f23 f23d c29d 103e 7b35 233e
00000380: 2499 cdbd 5054 91bd 3d69 96be 466d f93d
00000390: 2000 bebc 03e9 43bd 7b77 cc3e 4a92 87ba
000003a0: b7e5 8dbe 2d57 a1bc 30d3 16bd 24b9 2cbc
000003b0: 8ff6 23be 5ee7 b03d 1adf 90be f434 b4be
000003c0: 7911 34bc b038 aebe ee46 05be b169 983d
000003d0: b1a8 953e 0765 a23d 242b 0cbe 0d92 343d
000003e0: 122b 813d a858 dabd f60c f83b 98a4 91bb
000003f0: e45f 813e 212d 3c3e c421 49be a10a 0cbc
-0.14284614 -0.15491784 0.17733519 0.0039531193 -0.0854361 0.15214582 0.028775597 -0.14883254
-0.062384352 0.17509294 -0.19154783 0.16384943 0.019752188 -0.005065913 0.19542037 0.087846905
0.009851181 0.024755254 -0.112095945 -0.01049903 0.057582702 0.08090813 0.11253168 0.06284421
0.0796934 0.018810768 0.047160737 0.12094462 0.12997666 -0.16528581 0.11705272 -0.14511561
-0.05682713 -0.1644239 0.04102029 -0.0023493802 -0.033334117 -0.0910344 -0.18704692 -0.08820844
-0.062616706 0.14728485 -0.14314818 0.07259342 0.10049812 0.013503797 0.021208879 -0.14098811
0.08408016 -0.09544358 0.060446203 0.009588492 0.19148815 -0.122497484 -0.1329214 -0.08314535
-0.040714867 -0.04388228 0.17582664 -0.0037956284 0.06758591 -0.12172298 -0.122116245 -0.06061728
0.059136644 -0.1018543 0.069016404 -0.15388161 -0.111134395 0.06767891 -0.032973703 -0.104235955
0.10924166 0.01578724 0.06504592 -0.06646152 -0.016810777 0.06469153 0.123277955 -0.043882683
0.1648249 0.013650243 0.07455063 0.056165636 -0.053744745 -0.02611789 -0.105451815 -0.09137093
-0.083088316 -0.11486756 0.034998212 -0.050819747 -0.09148896 0.06561976 0.078959025 0.10550977
-0.070676476 0.0050488827 0.009614546 0.09096521 -0.05353263 0.07191333 -0.020744652 0.08346778
-0.0008078866 0.07305142 -0.09330031 0.07688615 -0.046094358 0.0048200754 0.0529029 -0.036137417
0.11628932 -0.05964848 0.07447847 0.17308232 -0.18503234 -0.014897204 -0.09967781 0.03149379
-0.062336847 0.08946615 -0.093888454 -0.12542254 0.028382305 0.057577588 0.016494917 -0.0060058096
0.07999992 -0.036363367 -0.21444441 0.2623372 0.07186511 -0.18439256 0.15406398 0.12808298
-0.19318789 -0.20916839 -0.060494266 0.02518392 -0.21690015 0.117062196 -0.030545905 0.07968724
-0.09372715 0.2694158 0.53695136 -0.3218981 -0.24628112 0.32627696 -0.1382966 0.06698891
0.07820077 -0.013928751 0.2318247 0.12806253 0.17734702 0.16096596 0.2719326 -0.028731916
-0.024819493 0.038485706 -0.18974717 -0.2903453 0.24926649 -0.3196115 0.23034926 0.06375047
0.08289001 -0.037889626 -0.34029076 0.19309902 0.15366906 0.29234803 -0.0877309 0.09461049
0.2921638 -0.17164315 -0.12871543 -0.29727957 0.1567067 -0.15693347 -0.5022448 0.23089252
-0.07775926 0.015498881 0.3015846 0.00754995 0.2672368 0.34128162 -0.008454263 0.18537939
0.044227388 0.05344702 -0.3648713 0.19320154 -0.18469 0.024456054 0.11134726 0.15726826
-0.2249486 -0.21336372 -0.0644618 0.38678718 -0.5095036 -0.30135027 0.017159384 -0.040030237
-0.08771868 0.29602832 0.15367703 -0.07249657 -0.26303005 0.02040665 -0.10013039 -0.014888648
0.042753458 0.2746757 -0.04321448 -0.1493102 0.16678753 0.118231766 0.1412268 0.1593837
-0.10038975 -0.070961595 -0.29377165 0.121790454 -0.023193419 -0.04782964 0.39934906 -0.001034328
-0.2771432 -0.019694889 -0.036822498 -0.010542188 -0.16012023 0.0863788 -0.28295213 -0.3519665
-0.010990494 -0.34027624 -0.13015339 0.07442034 0.29230264 0.07929426 -0.13688332 0.044084597
0.06307043 -0.10661441 0.0075699044 -0.00444467 0.2526847 0.1837659 -0.19641787 -0.008547456

actor.2.bias f4 [64]
00000000: 4328 0dbc 59c6 b8bd 0915 9abe f54d 643e
00000010: 262e 98b8 88cd 46bc 5508 9d3d 2dfe 3f3b
00000020: bcb4 f63d a72b 4ebe e47e d03b ad61 95bc
00000030: d219 b73c 05dd 763d af3c 3cbd a92a 5c3d
00000040: a5f2 ddbd ad50 eabd b11c 11be 5473 703c
00000050: 8dc8 c6bd a363 9f3c a663 c4bd 4dd2 1e3d
00000060: 7939 723d b8b4 993d 5241 13be d1e5 5ebc
00000070: f985 323e e14b 263d 7546 58bd 0d1d ad3d
00000080: 400c 183b 8d81 bd3d 592b f0bc 1852 8ebd
00000090: a632 a4bd e11b b23d 9158 bbbd 781f 333d
000000a0: f7aa 15bd 2c88 73bd b5ea 88bd d389 a7bd
000000b0: bc93 543d aea5 013e a86c 10bc 639c b6bd
000000c0: e711 b13d eafd 6bbb 2650 57bd 2dd6 013e
000000d0: 16d9 b1bc edc5 d13c 83f8 903d e37b 8dbd
000000e0: 1cda d9bc 9fa2 99bd 4b9f cfbe 202e 513d
000000f0: e5d1 023c 0bf7 79bd 3e10 553d c681 a8bd
-0.008615556 -0.09022207 -0.30094174 0.22295363 -7.2565206e-05 -0.012133963 0.07667605 0.0029295788
0.12046191 -0.2013384 0.006362783 -0.018235052 0.02235118 0.060269374 -0.04595631 0.05375162
-0.108372964 -0.11441169 -0.14171101 0.014675934 -0.09706221 0.01945669 -0.09589319 0.038774777
0.05913684 0.075051725 -0.14380386 -0.013604597 0.17433919 0.040599708 -0.052801568 0.084528066
0.002320066 0.092532255 -0.029317545 -0.06949252 -0.08017473 0.08696724 -0.09147752 0.043731183
-0.036539998 -0.059456035 -0.06685392 -0.08180585 0.051898703 0.12660858 -0.008814968 -0.08916547
0.08645993 -0.00360095 -0.05256667 0.12679358 -0.02170996 0.025607074 0.0707865 -0.06908395
-0.02659326 -0.07501721 -0.40551218 0.05106938 0.007984613 -0.061026614 0.052017443 -0.08227877

actor.4.weight f4 [1, 64]
00000000: cb2e 253e 204b 9b3d ece6 913e a7af 77be
00000010: f33b 5d3e 12f2 3a3e 5063 ec3d d1a5 1e3e
00000020: 670c 01be b420 533e 78cc 0a3e 055d 403e
00000030: b66a 303e b12d 6d3d f856 b6be 757a 0cbe
00000040: b56a 603e 7fd6 323d c837 8a3e 02fd d6bd
00000050: 9820 933e 1edb 1d3e 1667 c43d a4dc c1be
00000060: 658a dcbe 937d 38be af18 223e 201d 26be
00000070: 2cbb e5bd 813f fcbd 0668 0e3e 921b 44be
00000080: e23b 5b3d 66eb 883d beae b33c f5bd 92be
00000090: 05a6 10be 76cf 57bc 577e 63be eba4 20be
000000a0: 8863 febd 1645 e43c 5cdd 2bbe d823 b6be
000000b0: 402a 9c3d c42f 47be 0824 8d3d 4c25 353e
000000c0: be3d 07be 59ce 113e 2943 f3bd 087d 463e
000000d0: 9f44 6bbe 35a1 163e 31bb 9abe 4e25 dbbd
000000e0: db87 3a3e 6d32 55be bbcc 37be b1da 1dbe
000000f0: 9191 093e f001 a63e 4e10 d4bd b6df 243e
0.16131131 0.07582688 0.28496492 -0.241881 0.216049 0.18256405 0.1154238 0.15492941
-0.12602387 0.20617944 0.13554561 0.18785484 0.17228207 0.057904903 -0.35613227 -0.13718589
0.21915706 0.04366159 0.26995683 -0.10497476 0.28735805 0.15415618 0.095899746 -0.37863648
-0.43074337 -0.18016653 0.15829729 -0.16222048 -0.11217341 -0.123168 0.1390687 -0.19151142
0.053523906 0.06685524 0.02193391 -0.2866055 -0.14125831 -0.013172021 -0.22216164 -0.15687911
-0.12421328 0.027864974 -0.1678366 -0.35574222 0.07625246 -0.19451815 0.06891638 0.17690009
-0.13207147 0.14238872 -0.11878044 0.19383633 -0.22975396 0.14709933 -0.3022094 -0.10700475
0.18215887 -0.20820017 -0.17949192 -0.15415455 0.13434435 0.32423353 -0.10354672 0.16100964

critic.0.weight f4 [64, 5]
00000000: 8eb5 173f 7b1c 91bf ea64 203f 9e11 a73e
00000010: b03b 73be 425a ea3e 85c0 f33e 9719 cabf
00000020: 05d2 063e e0fd 5a3f d173 873d d502 b9be
00000030: 9f7d 1ebf 5504 bf3f 1625 763f f469 033e
00000040: 13e0 bcbf 4f0f 9ebf c590 b2be deb6 1dbf
00000050: b86e cebd 7fa7 5c3e 91a7 91bf 8757 72bf
00000060: 17a5 93bf 6153 c3bf 2d45 4dbf 97af 3d3f
00000070: cd29 fc3e 700c 9fbe 4e19 7cbf 9667 21bf
00000080: c874 2540 ad14 e6be 4a38 e2be 0dc0 8dbf
00000090: 0f3f 9d3d d10b 87bf de2f afbe 206f 97be
000000a0: 707c 8b3f e455 7c3f 316c b43e ca44 5dbe
000000b0: 42ef b0be ecec a1bf 82e7 fa3a d5d3 e8be
000000c0: b302 e23e 8f2b 143f 638a cc3f 982e 24bf
000000d0: 4cf0 aa3e 5b98 4ebf 859e febd d89c c53d
000000e0: 753c bcbe be62 1a40 564b a53e d192 0b3f
000000f0: 0571 833f d9f3 503e 36ab 1ec0 7123 7a3f
00000100: 6c88 83bc 76c1 0f3e f5b9 963e 7a9c 36bf
00000110: e01a bb3f 4349 d73f 5c01 423f 7e74 68bf
00000120: c5ec 9bbe 869a 67be fb9e b33d 6ddb a6bf
00000130: 2ea5 ecbe 4b71 c23f d20e 61bf a66f 7abf
00000140: 9b68 103f 0807 273f e4af 883f 84bd 573f
00000150: e901 e53e c927 f9bf 9959 eabe acd7 2b3f
00000160: c707 1e3f 6981 e0ba 784e 82bd b4ea 85bf
00000170: 34a2 703e 2833 61bf 8705 5abf 1264 1e3f
00000180: 78c1 e23d 9e60 453f e43b 4abe 112b 5ebe
00000190: 728d a8be ece0 823e f142 3dc0 41f1 9b3f
000001a0: 9e19 793f af68 5e3f d486 c3be feec dc3f
000001b0: 498d 5ebf 054c d1be dc87 db3d f31a dc3e
000001c0: bdcc 7240 16ee 27bf 6778 b4bf ff4c 473f
000001d0: b1ea 26bf 0b56 0bbf c237 e6be 067e 66be
000001e0: 95cd 9d3f c399 d8be 9f74 e43f 3379 463e
000001f0: 199b fc3c 272a 4e3e d2aa 3a3f c49d 3340
00000200: 724d acbe f0f5 82bf 8cf5 833f 2b5b 6e3f
00000210: aa12 b33e 2897 2d3e 140e d7be e52e 7e3f
00000220: 1928 573f f188 ec3e 008e 9a3e a5a5 babe
00000230: ef8a 60bf cef6 94be 7af8 19bd 68c6 77bc
00000240: 6060 9bbb c475 5bbf 8aab 543f 2266 1bbf
00000250: 11b7 0c3f 669c 553e c1b0 873f e61a 343f
00000260: 00c2 6dbf ec67 66bd 6f68 b4be 921a 783e
00000270: 66d8 5e3f f308 ee3e ee5e 613f d894 243f
00000280: 3595 b3be 6ff0 b1be 75a9 1ac0 0ccc 803d
00000290: 1dd4 993e 0c43 2dbf c944 1dbe ba1a 9dbf
000002a0: 59fd b13e 7b6f 9e3d 16aa 79bf e7cc 9d3e
000002b0: bef0 793d b12f d8be fd6f 3abe 5c92 2e3f
000002c0: d8d9 6d3f 47f9 983f 4803 4fbe 8919 843e
000002d0: 4124 333f f424 a53e 3820 c4bf 6019 c03e
000002e0: 9526 743f c30c a93f 1359 32bf af0a afbe
000002f0: 9d88 f1bd 1e54 1c3c 1968 a2bf 70cc 313f
00000300: 0066 e6be 188c a9be 1f1a 0c3d a447 fe3d
00000310: 4f5d 273e 4b58 123f 3b74 7cbf cd24 6fbf
00000320: 4beb 943d d203 9bbf 9849 0ebf bea3 06bf
00000330: ef2b 3abf 9012 a4be 9a04 453e c494 1a40
00000340: 7de7 363d d0b0 f53e a874 21be abec 203f
00000350: 9a91 1940 0a63 19bf 0ba0 be3e fe5f 1e3e
00000360: 2c31 68be f8a1 863f 4af2 c9bf 4e22 003e
00000370: a94b 433e 3b9d 4abf 56d6 0cc0 2675 2d3d
00000380: 126e 24bf b5d2 813e 7038 7fbf eb0d 03be
00000390: 132d 0dbf 3577 27bf dedb 89bf 011a 443e
000003a0: fd8a 593f 23ca 0ebf b35c a0bc 3e14 aabf
000003b0: f821 a83d 9abd 8ebf f8d2 7abf e01a 1a3e
000003c0: 1a12 8cbf ccca 653d 6d78 f2bf a6a4 0e3f
000003d0: 7ced d63e c501 2abf 8656 a1be 57f1 e8be
000003e0: 0d6a 46bf 47ad 83be 1b87 9bbf f381 da3e
000003f0: b119 b4bf 8d32 8fbe e9a6 48bc 8c38 423f
0.59261405 -1.1336817 0.6265398 0.32630628 -0.23753238 0.45771986 0.47607818 -1.5789059
0.13166054 0.8554363 0.06613887 -0.36134973 -0.6191043 1.4923197 0.9615034 0.12833387
-1.4755882 -1.2348422 -0.34876075 -0.6160716 -0.10079712 0.2154827 -1.1379262 -0.94664806
-1.1534756 -1.525982 -0.8018368 0.74096054 0.4925064 -0.31064177 -0.9847611 -0.63048685
2.5852528 -0.4493765 -0.4418357 -1.1074234 0.07678043 -1.0550481 -0.34216207 -0.2957697
1.089735 0.9856856 0.35238793 -0.21608272 -0.3455754 -1.2650428 0.0019142481 -0.45474115
0.44142684 0.57878965 1.5979732 -0.64133596 0.33386457 -0.80701226 -0.12432579 0.09649056
-0.36764875 2.4122767 0.3228404 0.545209 1.0268866 0.2040552 -2.4792 0.9771033
-0.016056262 0.14038643 0.2943875 -0.71332514 1.4617577 1.6819233 0.75783324 -0.9080275
-0.30454078 -0.2261754 0.087705575 -1.3035713 -0.46219772 1.5190824 -0.8791324 -0.9782661
0.56409615 0.65245104 1.0678678 0.8427355 0.4472802 -1.9465266 -0.45771483 0.67125964
0.6173062 -0.0017128411 -0.06362623 -1.0462251 0.23499376 -0.87968683 -0.85164684 0.61871445
0.110720575 0.7710055 -0.19749409 -0.21696116 -0.32920414 0.25562227 -2.9572108 1.2183
0.97304714 0.86878484 -0.38188803 1.7259824 -0.86934334 -0.4087831 0.107192725 0.4298931
3.7937462 -0.65597665 -1.4099244 0.7785186 -0.6520186 -0.54428166 -0.44964415 -0.22509012
1.2328364 -0.4230481 1.784809 0.19382171 0.030835675 0.20133267 0.729169 2.8065042
-0.33652836 -1.0231304 1.030931 0.9310786 0.34975177 0.16952193 -0.42002928 0.99290305
0.8404556 0.46198228 0.30186462 -0.36454502 -0.87711996 -0.29094547 -0.03759048 -0.015122987
-0.0047417134 -0.8572657 0.8307425 -0.6070272 0.5496684 0.20860443 1.0600816 0.70353544
-0.92874146 -0.05625145 -0.35235927 0.24228886 0.8704895 0.46491203 0.88035476 0.6428962
-0.35074773 -0.3475375 -2.4165928 0.06288919 0.30044642 -0.6768043 -0.1535827 -1.2273781
0.347636 0.07736107 -0.97525156 0.3082039 0.061020605 -0.42223886 -0.18206783 0.68192077
0.9291053 1.1951073 -0.20216095 0.25800732 0.69977194 0.32254755 -1.5322332 0.3751936
0.9537137 1.320702 -0.69667166 -0.34187838 -0.11793635 0.0095415395 -1.2688018 0.6945257
-0.44999695 -0.33114696 0.0342046 0.12416008 0.16344188 0.57165974 -0.98614854 -0.9341553
0.07271441 -1.2110541 -0.55581045 -0.525936 -0.7272329 -0.32045412 0.19240037 2.41533
0.04465436 0.4798646 -0.15767157 0.62861127 2.3995118 -0.59916747 0.37231478 0.15466306
-0.22675008 1.0518179 -1.5777066 0.12513086 0.19071831 -0.79146165 -2.200582 0.04234805
-0.64230454 0.2535607 -0.9969549 -0.12798278 -0.551469 -0.6541627 -1.0770223 0.19150545
0.84977704 -0.55777186 -0.019575452 -1.3287427 0.08209604 -1.1151612 -0.9797816 0.15049314
-1.0943024 0.056101605 -1.8943001 0.55719984 0.4197806 -0.6640895 -0.31511325 -0.45496628
-0.7750557 -0.25718138 -1.2150606 0.42677268 -1.407034 -0.27968255 -0.012246826 0.75867534

critic.0.bias f4 [64]
00000000: 4eec 053f 260b cebd f0f4 313f af24 953f
00000010: 4c11 c9bd d1fb f73e 5d43 ff3e 4d5c 2f3f
00000020: 6375 53bf 94ae 56be 0f79 063d bdea 5ebc
00000030: b86f dbbe d7d9 fcbd e3c5 363f e7b4 d13e
00000040: 63b9 3c3e 7e2e 603e 0179 113f 71b1 913f
00000050: 5849 c03d f947 093d 43fa eebe ff51 333e
00000060: e1e3 9bbd 000b 52bf 994e 54bf e97e 40bf
00000070: 4241 33bf b969 843e 0f1e 17bf 3dd8 19be
00000080: fecd e73e b82e 383f d39d 69bf ddc1 61bf
00000090: b7dd 52bc 4359 d1be c0f6 3dbf 54ef 16bf
000000a0: a688 403f 2b93 2fbe 3e95 c2be d0eb a3be
000000b0: 2021 f13e 8ed1 233f 31f9 503d 21f5 cdbe
000000c0: 58c6 ab3e cc35 4abe e8e4 c23e 1c57 1b3e
000000d0: b266 1e3f 6977 773f 8666 dd3d eb22 1abf
000000e0: f3aa 633f 48b3 16bf ecac d4bd 1576 a63e
000000f0: 5e17 0f3e d105 933e e21b 1ebf f610 26bf
0.523137 -0.1006072 0.6951437 1.165182 -0.09817752 0.48434308 0.49856082 0.68500215
-0.8260099 -0.20965034 0.032830294 -0.013605771 -0.42858672 -0.12346237 0.713957 0.4095833
0.18430094 0.21892735 0.5682526 1.1382276 0.09388989 0.033515904 -0.4667531 0.17511748
-0.07611824 -0.82048035 -0.8293243 -0.7519365 -0.7002145 0.2586191 -0.5903024 -0.15023895
0.45274347 0.7194629 -0.91256446 -0.88186437 -0.012870244 -0.40888414 -0.74204636 -0.58958936
0.7520851 -0.17145984 -0.38004488 -0.32015848 0.47095585 0.6399163 0.051018897 -0.4022608
0.33549762 -0.19747084 0.38065267 0.15169948 0.6187545 0.9666658 0.108105704 -0.6020953
0.8893272 -0.5886731 -0.10384545 0.32511964 0.13973758 0.28715375 -0.61761296 -0.6486963

critic.2.weight f4 [64, 64]
00000000: 67b2 86be ac1c 87be 3555 47bf 7410 ebbe
00000010: 4cb2 be3e f6b9 a0be 96d3 b0be 2d4c d8be
00000020: 6f80 833e 0ea4 1e3d fb52 613d c8ee a2bb
00000030: d99a 9abe 18ee 41be 8252 f8bd 3c81 fdbd
00000040: 4a6a 8f3e 79d7 8ebd 6c02 c1bd 5c39 53bf
00000050: ede1 44bf 2eb0 2c3e 2a9b c63e c14b e63d
00000060: e680 873e 64af 4b3f 1742 1a3f a327 233f
00000070: 09b8 943e ff46 403d f425 39be 6f27 183d
00000080: 4692 eebd b9fd f6be b7de 383e 5003 393f
00000090: e9b4 ebbe 9b5a 933e 4223 5f3e 0c82 d53e
000000a0: 76c6 34be caf7 fc3e fcaa b13e 0959 003f
000000b0: 838a c7be 1c94 3bbe 6aa8 453e d600 033f
000000c0: 4627 f9be ce0d ab3e a5ae 38be 74ae 713e
000000d0: 0f39 a2be 9dea 63be 6ccd 3b3e 9b09 a43e
000000e0: 8364 01bf b045 f83e 5b9c 35bf bcc7 293e
000000f0: 823f ae3e 5178 343e 681f 403e 9728 bd3e
00000100: f0c6 963e a7a5 e23e e721 32bd 4ffa 08be
00000110: 1a69 083e fca2 86bf 4efb 81bf f5da 05bf
00000120: a864 ea3e ed20 43bf 3bd5 ea3e 5d68 babe
00000130: b1ab 913f 1802 543f 1896 e53e 2142 80bf
00000140: 68b7 6abd e5ef aabf ec74 56be 7ec9 0e3e
00000150: 834e 873e 532f 86be 8275 44bf cb1f e8bd
00000160: a90f bd3e 6331 c7bd 37e0 da3e 4acb 1e3f
00000170: f2c8 dbbe 9ea7 85be 2f56 c43e 0209 6abc
00000180: 28a1 e03d b555 a93e 68f1 cabe b75d 473f
00000190: c947 173f 9ff8 fd3e 0cdc 31bf 5fdd a33e
000001a0: b7b8 70be 2a87 99be 3dd6 283d aaa1 933b
000001b0: bf34 1e3d 1749 2abe 8b36 ccbe 3eff e1be
000001c0: 82aa 38b9 b0b6 2b3c e2bd dcbe 96d7 823e
000001d0: 690d 0cbf 35e8 05bf caf8 f8bd ec4d c8bd
000001e0: 86ce 193e c105 2bbb bd8e 6a3e 6894 513d
000001f0: 0943 aebe ae6f 013f 38a7 003f 6595 8b3e
00000200: 9ffe 843e 52b8 c13e 0cd8 c43e f8ef 00bf
00000210: f079 403e 27ea 683d 2206 a0bf bd3c 99be
00000220: da36 bf3d 43c2 7dbe 5bba 14bf 7383 f4bd
00000230: 9a31 acbc 9f2a be3e d4f7 4b3f 8657 93bf
00000240: 17de 313f b233 9d3a a64d 23bf 77d5 f73e
00000250: 959e 49bd 0ae9 69be f17a 8bbf 4324 833d
00000260: 4d91 c73d 6d81 c5be ed3d 1f3e 7fb0 8d3d
00000270: ed6f ebbd 0c65 a23e 8147 533e 35f9 463f
00000280: 83ab 843e f938 133e 2a4f f2be 6954 afbd
00000290: 1b16 9b3d 7049 0a3d d14b 9fbd 85ec 19bf
000002a0: 8830 1cbf c298 c03e 2f0f 613e c5c5 adbe
000002b0: b1ea 55be f9b4 18bf e7d9 463d 2243 4fbf
000002c0: 7530 803e 6804 07bf 7740 fe3d 30d9 aa3d
000002d0: aebf abbe 19e2 2b3f 2ff1 e03d fb0e cbbe
000002e0: 914d 42bd 88a9 6dbe abae d13a 6d47 583e
000002f0: 82bd 99be 2404 163f 204b 0f3e 7b7a 0d3f
00000300: 93db 3bbf e4e8 a63d 1a4e 35bf ccaa 12be
00000310: 5642 8c3e e81b da3c 5e3e e53e 4868 4a3f
00000320: f06d eebe 4487 713e 1067 80be c273 46bc
00000330: c896 a8bf a4a2 16bf 99bd 85bf f2bc 223f
00000340: 006a 583e 006b c0bd f915 7c3a cefa b33e
00000350: 5b3d a5be 4f09 88be be9b 4b3f 50b0 f0be
00000360: 2384 7abf faf2 5f3e a7ea c9be 598e 1dbf
00000370: 0459 bdbe 2e89 a2be ac88 55bf ce2a 3a3e
00000380: fc63 ed3d 3377 14be 3194 c0bd 1d84 84be
00000390: 1b0e 0cbe c729 03bf a055 dcbc e713 cc3e
000003a0: 75ec 88bd 048c ab3e eed6 d03e c1cd bc3e
000003b0: 7a1d 80be 64b5 07be 9171 8f3f bd48 933e
000003c0: fffb eabd 62ca ee3e 4d79 5e3f b4be 14bf
000003d0: ea0d e13e 6988 e43d 1da2 30bf 7d67 0dbe
000003e0: 1185 6cbf 0657 29be 12da 2bbf 1378 cb3e
000003f0: 0a8b 5a3e ba94 08be f843 003c a468 ccbe
-0.26307985 -0.26389062 -0.7786439 -0.4591099 0.37245405 -0.31391877 -0.34536427 -0.42245618
0.25683925 0.038730673 0.055010777 -0.0049723126 -0.30196264 -0.18938482 -0.12125112 -0.12378165
0.2801078 -0.06974692 -0.0942429 -0.825094 -0.76907235 0.16864082 0.38790256 0.11244918
0.2646553 0.795645 0.60257095 0.63732356 0.29046658 0.046942707 -0.18080884 0.03714698
-0.11648993 -0.4824045 0.18053709 0.7227068 -0.4603646 0.28780064 0.21790794 0.4170078
-0.17653832 0.49407798 0.34700763 0.50135857 -0.38972864 -0.18318218 0.19302526 0.5117315
-0.48662776 0.3340897 -0.18035372 0.23601705 -0.31684157 -0.22257467 0.18340081 0.32038578
-0.50543994 0.48490667 -0.70941705 0.16580099 0.34032828 0.17624022 0.1876198 0.3694503
0.29448652 0.44267008 -0.043489363 -0.13376735 0.13321343 -1.0518489 -1.0154817 -0.52287227
0.4577992 -0.76222116 0.45865807 -0.36407748 1.1380521 0.82815695 0.44841075 -1.0020181
-0.057303816 -1.335446 -0.2094304 0.1394405 0.26427087 -0.2620798 -0.767418 -0.11334189
0.3692601 -0.09726217 0.42749187 0.62028944 -0.42926747 -0.26104444 0.38347003 -0.014284374
0.10968238 0.33073202 -0.39637303 0.7787737 0.5909391 0.49603745 -0.6947639 0.3200483
-0.23507963 -0.29985934 0.04121994 0.004505356 0.03862452 -0.16629444 -0.39885363 -0.44140047
-0.00017611127 0.010480568 -0.4311362 0.25555104 -0.5470796 -0.52307445 -0.12156828 -0.097804874
0.15020189 -0.002609596 0.22906013 0.05116692 -0.3403552 0.50561035 0.50255156 0.27262416
0.2597551 0.37835938 0.3844608 -0.50366163 0.18796515 0.05686393 -1.2501872 -0.29929152
0.09336634 -0.24781136 -0.58096856 -0.119391344 -0.021019746 0.37141892 0.7967503 -1.1511085
0.6947951 0.0011993556 -0.6379036 0.48405048 -0.0492235 -0.22842804 -1.0896894 0.06403401
0.09744511 -0.38575307 0.15550967 0.069184296 -0.114959575 0.31717718 0.20632745 0.7772401
0.25912103 0.14377202 -0.47326022 -0.08561022 0.07572576 0.03376144 -0.07778133 -0.60126525
-0.6101155 0.37616545 0.21978448 -0.3393995 -0.20890309 -0.5965114 0.04854765 -0.8096181
0.2503697 -0.527411 0.124146394 0.083422065 -0.33544677 0.6714187 0.10983502 -0.39659867
-0.047437254 -0.23209202 0.001599749 0.21120997 -0.30027395 0.5860007 0.13993502 0.55265015
-0.7338192 0.08149889 -0.708223 -0.14322966 0.2739436 0.026624635 0.44774145 0.7906537
-0.4656825 0.23586756 -0.2507863 -0.01211256 -1.3171015 -0.5884192 -1.0448486 0.6356956
0.21134186 -0.09395409 0.0009616311 0.35152286 -0.32273373 -0.26569602 0.7953452 -0.47009516
-0.97857875 0.21870032 -0.39436838 -0.6154533 -0.36981976 -0.31745285 -0.8341167 0.18180391
0.11591336 -0.14498596 -0.09403265 -0.25882044 -0.13677256 -0.5123562 -0.026896298 0.39858934
-0.066857256 0.3350526 0.40788978 0.36875728 -0.2502249 -0.13252789 1.1206533 0.28766432
-0.11473846 0.4663878 0.8690384 -0.5810349 0.43955928 0.11158831 -0.68997365 -0.13809009
-0.92390543 -0.16537103 -0.67129624 0.39740047 0.21342102 -0.13337985 0.007828705 -0.39923584

critic.2.bias f4 [64]
00000000: 5932 5dbf 56dc 8f3e 4b34 e23d aa3e cabb
00000010: 097c e4bd 03d1 19bf fe10 00bd c659 96bd
00000020: bae2 90bd be78 a13d 00a6 8c3d 1121 73be
00000030: 11c5 153f 2fb8 553d a10b 73be b361 6c3e
00000040: c1b8 d53d 6c04 1dbf c84d 2abe 432a 563f
00000050: 2845 b73d 450f e43d 70ba 8ebe 1c2d f4be
00000060: b7c0 a23e 58a7 3cbf d452 dabe 78b0 b4be
00000070: c7e9 413e d104 453f 524b e63e b7c9 e4bd
00000080: 88e6 46be 0263 b4bd bb06 e5be 70c6 873e
00000090: aedb 803c 14fb 98be a996 2abe fdb9 3c3e
000000a0: 4589 15be c2d9 513e e498 0e3e afe7 1abf
000000b0: 6943 17be f557 12bf 100f babe 9aca d83d
000000c0: 8f33 85be 70ab 8b3e 3c86 13bf 37b6 a33d
000000d0: 4703 a4bd d862 09bf be0f e83e b29a 1ebf
000000e0: 7dd0 8dbe 2213 98be 2228 c1be 539b e73e
000000f0: ef2a 23bd f8b1 02be 6208 af3e 2eca f83c
-0.8640495 0.2809779 0.1104513 -0.006172021 -0.1115647 -0.6008455 -0.031266205 -0.07341342
-0.07074495 0.07884358 0.068675995 -0.23743083 0.58503824 0.052177604 -0.23734905 0.23084144
0.1043563 -0.6133487 -0.16631234 0.83658236 0.089487374 0.11135725 -0.27876616 -0.47690666
0.31787655 -0.73692846 -0.42641318 -0.35290885 0.18936835 0.76960474 0.4497934 -0.111712866
-0.19423878 -0.08807947 -0.44731697 0.26518583 0.015729751 -0.29879057 -0.16659035 0.18430324
-0.14603145 0.20493224 0.1392551 -0.6050977 -0.14771809 -0.5716546 -0.36339617 0.10585518
-0.260159 0.27279234 -0.576267 0.07993739 -0.080084376 -0.5366645 0.4532451 -0.61954796
-0.27698126 -0.29702097 -0.3772593 0.4523569 -0.039835867 -0.12763202 0.34186083 0.030369844

critic.4.weight f4 [1, 64]
00000000: 90fe d3bd e678 39be 8d67 2e39 b260 763e
00000010: 717a a8be 381e 5fbc aa12 60be cb1c 473c
00000020: 2e09 1abe 411f 77be 5628 2f3e b710 163e
00000030: c23c 37bd 1b32 8bbe bd80 af3d 22c6 9bbd
00000040: 5f08 37be 4334 923e cb8c febd 28f6 abbe
00000050: 09c4 6ebe 0ed7 193d 68c8 69bd bfa4 313e
00000060: 5b33 81be a57d 5b3e 7225 943d 95fb 6e3e
00000070: 166d b6bd 4051 49bd 6709 41be 3688 833d
00000080: 699b c6bc 0a29 0bbe 19be 39bd bd82 923e
00000090: 5a84 26be c854 113e c53a 273e e0c6 0f3e
000000a0: 07b4 f5bd ccbe cfbe d6ee d43d 9f27 29be
000000b0: aa3e 22be 8356 9a3d 74cd 843e 4847 723e
000000c0: d9a8 fa3d 3248 323e 9944 093e fbc8 00bb
000000d0: 41d2 0f3e c3d2 febc 7036 89bd f58d a9bd
000000e0: 57d2 973d d1e6 0a3e 5354 293e d570 643d
000000f0: 1e52 913e 1cdf a9bd 2c09 4abe badf ccba
-0.10351288 -0.18112525 0.00016632509 0.24060324 -0.32905915 -0.013618045 -0.2188212 0.012152861
-0.15042564 -0.24133016 0.1710523 0.14654814 -0.044735678 -0.27186665 0.08569477 -0.0760615
-0.17874287 0.28555498 -0.12429198 -0.3358624 -0.23316969 0.037558608 -0.057075888 0.17348002
-0.25234494 0.21434648 0.072337046 0.23338158 -0.08907525 -0.04914975 -0.18851243 0.064224645
-0.024244027 -0.13589874 -0.045347307 0.2861537 -0.16261426 0.14192498 0.16331013 0.14040709
-0.11997228 -0.40575254 0.10397117 -0.1651902 -0.15844217 0.07536032 0.25937998 0.23660004
0.122392364 0.17410353 0.13405074 -0.0019651044 0.14045049 -0.031106358 -0.06699836 -0.08279029
0.07413166 0.13564612 0.16536073 0.055771668 0.28382963 -0.08294508 -0.19730061 -0.001563064
