controller/PPO_CartPole-dm_0_2400000.pth (torch, 41277 bytes, 10 tensors)

actor.0.weight f4 [64, 5]
00000000: c4ea 483d fb87 a6bd fc42 433f d42c b4bc
00000010: 330d 4d3e fb17 55be 5dff 85be e4e2 aebf
00000020: ef9b 13be 9e4f 6cbe b689 8bbd 3406 78be
00000030: b640 bb3e 2a2e bb3e 2152 aebb c696 fc3d
00000040: a2a9 383e 9de8 1b3f 2d30 d4be 46e2 3fbc
00000050: f5a7 efbd e0ec a53e df95 6e3f 8b6a 9e3e
00000060: ac54 483e 6399 42bd 1caa a63e 4319 ef3e
00000070: c1f2 09bf a5f3 e33e 9699 53be 361c ee3e
00000080: 4a4f 09be 0c74 fb3d 5bce 05be 2596 de3e
00000090: 5956 063f 31eb 05bf 5278 a8bd 5cf5 d0bc
000000a0: b821 f0bc 2e52 febc 944c 2bbf 39de 333f
000000b0: 7b93 253e 8111 24bf 4244 c2be 19e2 813f
000000c0: a3cd 963e 35d7 46bd 9390 4bbe 74c3 fbbe
000000d0: 962b 69bf 81f1 2c3f ecea a3be 5788 29be
000000e0: 60c3 753d add1 53bf d05d 81be 077b 09be
000000f0: f72d e93d 7050 29bf 9fc6 b63e bc91 3a3e
00000100: 38a2 f83d 72ce 063f 4ba8 17be 40a1 6a3e
00000110: 8c18 203f 52e9 dbbc dfa2 0ebf 84cb 05bf
00000120: 87b6 fe3d 6506 bbbe 7836 21be 78b2 4bbe
00000130: 9e4c f3be a0bd 6e3d 92e7 0b3e 8c4f c9be
00000140: 93ae 0e3f c8a9 393e 5da7 063f 601b 1dbe
00000150: 6de1 b3bc 4f3d fdbe ac34 2b3e 84d6 8ebf
00000160: 4859 b4be baf9 05bf dd95 5b3e 56fb f83e
00000170: 545b 83bd fe47 f4bd f639 b1bd cb59 733c
00000180: a24a cebe fbfb 98bf af05 9bbd 9d0d 4a3e
00000190: ad22 0bbf 813c 1bbf 96c4 f93e fe99 ea3d
000001a0: 69ef 1e3d e2a1 b53e 0fe8 8b3e 281e 1fbf
000001b0: 6f25 fabe afe0 80bd 9bcb c4be 34b6 a5bd
000001c0: 42b9 d2be bc2c c03e c816 a83e 691b 95be
000001d0: a5e6 cdbe d1d0 bb3d 66d3 18bf e4fe ecbc
000001e0: f44f e5be fb64 d7be e5c7 1bbf b8c4 1cbf
000001f0: 9d53 51be 1392 063f 06e0 fe3e cbe6 05bf
00000200: eeb6 c1bd e050 8bbd db99 1dbf 737d 3ebe
00000210: 0f7a 303f 5780 2b3e dff9 aebe 3a45 82bd
00000220: a28a 17bf d7df c73d 85e3 33be 2c59 c13e
00000230: a1f0 dcbe 1a46 ba3e fead 563f 0c36 62bd
00000240: bf64 1b3d 0819 e33d b977 013f 42ce 5dbf
00000250: 0054 c73d bb4c dcbe 9e79 05bf 6f8b 0e3f
00000260: c820 123f c45e 0dbe 967e 423c 056d d5bd
00000270: 1556 9a3e e53e 4ebf c79d b63e 51ad 34be
00000280: a7f4 b4bd 1814 b63e 7da3 363f a666 f4bd
00000290: e25b eb3e 435c 8b3c 8897 b43c 57af 443f
000002a0: 7dc0 443f 0ed3 6dbe 0fb1 133d 4ab6 f9be
000002b0: 7aad 623f e9d4 533e ae68 373d 734e e13d
000002c0: 2b99 5a3e 6a84 1b3e 67ca 173e 7ed6 383f
000002d0: c882 073f c5b1 083f 8cc7 aebe 49a3 3a3d
000002e0: e3ab d3bc 6125 893e acd5 e1be baf6 7dbe
000002f0: 0117 bcbe 3b9e b03e 139a 34bf 043d 6c3e
00000300: a5ec 05bf edcd bcbe fcb3 24bf dae8 353e
00000310: a069 6ebe 8e0d 6fbf 696f 86bd 8ec6 a7be
00000320: ab7f 6a3e 5673 c2be 8c97 483e f2c5 6bbd
00000330: aff7 e2bd 9e65 c6be 406f e6be d7b5 7e3e
00000340: 01cf 50be 5d94 04be 7d85 89bc 9519 ecbd
00000350: 042b 4bbf e3cf cebe 3dab 5e3f 61ad dbbc
00000360: f6a2 de3d 0fe0 84be c434 363e fc2b 24bf
00000370: 33dc 38bf 3f08 fe3e ea81 943e a0f1 a8be
00000380: 95fa c53e b312 82be bc89 3abe 8d4c 0a3d
00000390: f753 483e fc20 7abf 0029 903d 2fc0 3c3e
000003a0: 169c a33f 0dca 333d 9fcd 113f 9e13 503e
000003b0: 135c febe bc12 81be 521c e73e fb67 0d3c
000003c0: 9dd7 293e 834f f3bd 6da3 883d 9a13 94be
000003d0: c8d8 a0bd 3c6a 143f c0d8 9dbe 9d33 6b3d
000003e0: 3880 ab3e 89c5 d83d 1854 27be 0cda b73e
000003f0: c222 06bf 9bc9 1f3c aee8 ab3e a515 3cbe
0.049052015 -0.08131405 0.76274085 -0.021994032 0.20024566 -0.20809929 -0.2617139 -1.3662992
-0.14414953 -0.23077247 -0.06813376 -0.24221116 0.36572808 0.36558658 -0.005319849 0.12333445
0.1803346 0.60901815 -0.41443005 -0.011711663 -0.11701957 0.32407284 0.93197435 0.3094066
0.1956355 -0.047509562 0.32551658 0.4669896 -0.5388604 0.44521824 -0.20664057 0.46505898
-0.13409153 0.122779936 -0.13067 0.43473926 0.52475506 -0.52312 -0.08226074 -0.025507621
-0.029312953 -0.031045046 -0.66913724 0.7026096 0.1616954 -0.6408921 -0.37942702 1.0147125
0.29453763 -0.04854508 -0.1987937 -0.49172556 -0.9108213 0.67556006 -0.3201517 -0.16555916
0.060000777 -0.82741815 -0.25266886 -0.13425837 0.1138572 -0.6613836 0.3569841 0.18219656
0.12140316 0.5265876 -0.14810292 0.22913074 0.62537456 -0.026844654 -0.5571727 -0.52263665
0.12437158 -0.36528316 -0.15743434 -0.19892299 -0.47519392 0.05828631 0.13662556 -0.39318502
0.5573513 0.18131173 0.52599126 -0.15342474 -0.021958077 -0.49460837 0.16719311 -1.1159215
-0.35224366 -0.5233418 0.21443887 0.48629254 -0.06413904 -0.11927794 -0.08653633 0.014852951
-0.40291315 -1.1951898 -0.075694434 0.19731756 -0.54349786 -0.60639197 0.48782796 0.11455153
0.038802538 0.3547507 0.27325484 -0.6215539 -0.48856685 -0.06292855 -0.3843659 -0.08091393
-0.41156965 0.3753413 0.3282988 -0.29122475 -0.4021503 0.09170688 -0.5969757 -0.028930135
-0.44787562 -0.4206923 -0.6085189 -0.6123767 -0.20442052 0.5256664 0.4978029 -0.5230529
-0.09458719 -0.06802535 -0.6156289 -0.18602543 0.68936247 0.16748177 -0.34175012 -0.0636086
-0.5919591 0.09759491 -0.1756726 0.37763345 -0.43152335 0.36381608 0.8385924 -0.055227324
0.037937876 0.11088759 0.5057331 -0.8664285 0.097328186 -0.4302729 -0.521387 0.5568151
0.5708127 -0.13805681 0.011871001 -0.104211845 0.301438 -0.8056472 0.3566725 -0.1764424
-0.08835726 0.35562205 0.71343213 -0.11933641 0.4596854 0.017011767 0.022044912 0.7683005
0.76856214 -0.23225042 0.036057528 -0.48771888 0.88545954 0.20686688 0.044777565 0.11001291
0.21347491 0.1518723 0.14823304 0.7220229 0.5293393 0.53396255 -0.34136617 0.045565877
-0.025838798 0.2678633 -0.4410833 -0.2480115 -0.367363 0.3449572 -0.705476 0.2307015
-0.52314216 -0.3687586 -0.64337134 0.17764607 -0.2328248 -0.9338006 -0.065642186 -0.32768673
0.22900264 -0.3797862 0.1958906 -0.057561822 -0.11082398 -0.38749403 -0.45006752 0.24874054
-0.20391466 -0.12947221 -0.016787285 -0.11528317 -0.7936251 -0.4039298 0.8698004 -0.026816072
0.10870926 -0.25952193 0.17793566 -0.64129615 -0.72211 0.49615666 0.29005367 -0.32996845
0.3866774 -0.2540489 -0.18216604 0.03376441 0.1956328 -0.9770658 0.0703907 0.18432687
1.2782009 0.043893863 0.5695438 0.20319983 -0.49679622 -0.25209606 0.45138794 0.008630748
0.16586156 -0.118804 0.06671796 -0.28921205 -0.07853848 0.579746 -0.3082943 0.05742227
0.3349626 0.10584552 -0.16340673 0.35908544 -0.52396786 0.009752656 0.33575958 -0.18367632

actor.0.bias f4 [64]
00000000: 3015 efbe 29d6 14be 5f85 02be 1d1d 16bf
00000010: 467d 07bf a56b 0a3f 22d4 de3d fc38 fb3d
00000020: 4a42 b1be c962 c43d 3236 abbe a9d7 6f3e
00000030: 050e 943b 877d 60be 96da 1d3e f59f febe
00000040: fd4b a13e 96b6 15bd 51a3 44be c2f0 23bd
00000050: 0966 113e 5a82 a9be a805 10bf d915 883e
00000060: 0c77 c93e ca5e 923e fab9 48be af5d e2be
00000070: 7ef1 d0bd 4152 9dbc 90f5 9dbe 302f 7abd
00000080: b182 a6be 3334 123d 8950 3abe 979c 403f
00000090: 8eec 7a3e 820c d33d d033 083f 5472 c5be
000000a0: f477 c2be fde5 4cbd 654f 21be cd44 fcbc
000000b0: 53ec 25be 0ffa 87be 0f70 83be 4f8a 79be
000000c0: 2e4e 02bf 902e 1cbe 8bd7 d1bd 37a8 893e
000000d0: 9e5a e93d 38d4 c7be c62d d2bc fae0 913e
000000e0: 6a16 bd3e 5d71 233e 7d5e 21bf d71b 1b3e
000000f0: 36c6 3b3e cede c03c 1b12 8c3e 43d6 f8be
-0.46695852 -0.1453482 -0.1274619 -0.58638173 -0.5292553 0.540705 0.10880305 0.12266728
-0.34620887 0.09589154 -0.33439785 0.23422112 0.004518273 -0.21922885 0.15415415 -0.49731413
0.31503287 -0.03655108 -0.19202925 -0.040024526 0.1419908 -0.33107263 -0.5625863 0.26579168
0.39348638 0.28587943 -0.19602194 -0.442121 -0.10202311 -0.01920426 -0.30851412 -0.061080158
-0.32521585 0.035694312 -0.18194784 0.7523894 0.24504301 0.1030512 0.5320406 -0.38563788
-0.37982142 -0.05002402 -0.15752943 -0.030794526 -0.16203432 -0.26557967 -0.2567143 -0.24369167
-0.5090054 -0.15252137 -0.1024619 0.2688615 0.11394237 -0.39029098 -0.025656592 0.28491956
0.36931163 0.15961213 -0.630348 0.15147339 0.1833733 0.023543742 0.27357563 -0.4860097

actor.2.weight f4 [64, 64]
00000000: df75 11be 5338 17be ddfe 213e 7f6d b73c
00000010: fde6 b5bd 6fb1 273e f8a6 f73c c4fa 0abe
00000020: 721d 59bd 635a 2b3e 30f4 5bbe 70d2 303e
00000030: f463 443c 40f7 25bc bf2b 323e a277 9e3d
00000040: 5db8 de3c ab4d 3abd 367c d1bd a5db 0bbc
00000050: df90 2f3d 6167 913d a0c4 e63d 9a05 2e3d
00000060: 726a 253d cff9 e63c fa8f e23c 91a4 f13d
00000070: da6d 163e 4839 33be e45d 023e 9afd 34be
00000080: cb25 2c3d ce78 1cbe 49e5 ec3c ea6e a0ba
00000090: 272f bdbc 1ef5 aabd 8c5b 51be 05d9 cdbd
000000a0: a500 9dbd 3dbc 073e db9f ccbd 8289 843b
000000b0: ef5d fb3d 5ab8 cbbb b119 ef3d b3a2 1dbe
000000c0: b2f8 953d 2a4a c1bd afa2 b23d 690b 893c
000000d0: afe1 4c3e e558 3fbd 61ee 61bd 3815 e6bd
000000e0: e7c6 fabc 4059 87bc e64f 323e 04bd 07bd
000000f0: df5e 753d 02a6 48be 1336 15be efff 84bd
00000100: a468 8e3d 56aa cdbd fdd9 7e3d 183b 0dbe
00000110: 1a2b d6bd 0939 8d3d 3ace 10bd b065 dbbd
00000120: 1f8a d73d 995c 8b3c b4a5 8e3d a1f8 8cbd
00000130: 074e 8cbc 6d56 6e3d 2554 003e 6b42 27bd
00000140: 8d30 223e 6f5f 743c d28b 9b3d 9ee7 433d
00000150: 31a2 5cbd a7ad 4dbd d7f4 cfbd a782 cdbd
00000160: 316d 9bbd adb3 eebd c6f9 373d 6484 49bd
00000170: b627 a9bd 46b7 673d 0ff4 c03d 9f64 c43d
00000180: bb7c 89bd 2ff3 223d 2c31 cd3b 2284 bd3d
00000190: cef2 5fbd 3b75 6e3d 460a d3bc c012 913d
000001a0: 4c33 ebba de1c 953d d943 bdbd d01b 9f3d
000001b0: e3bb bfbc 2b09 44bb 4d80 523d d4b3 1bbd
000001c0: d28f f33d d575 5fbd ef5f a13d e0c3 393e
000001d0: 99b9 42be b0c2 85bb 9754 e9bd e8f8 123d
000001e0: 4125 83bd 08bd 843d c440 c7bd ec4f dfbd
000001f0: b5a7 c73c e701 883d 4418 193c 4f93 dbbb
00000200: cae6 0c3e 925d c83b 268f 16be 5c33 9f3e
00000210: d8a4 1f3e f4b2 74be 673f d53d 0feb 8a3d
00000220: a446 efbd bd04 f5bd 974f b5bb 11df 4ebd
00000230: 84f0 22be e786 473e 6277 be3c 0d66 0d3e
00000240: 4338 1bbe 790d 243e fa11 f43e c000 8fbe
00000250: b65e 37be 8a1a 963e ac20 a7bd a610 823d
00000260: a290 063d c016 94bd a7d2 9e3e c025 363e
00000270: e981 023e 8ef9 dd3d b1f2 573e 503c 9dbd
00000280: f7d4 b23b 181a d83d fcf7 03be 312b b3be
00000290: 8e31 453e 7de9 96be 16fe 273e a19f e83d
000002a0: 7f50 0d3e 9b76 903c 4aa6 acbe f8f5 273e
000002b0: 7183 bb3d 2b2e b93e 19e6 f23c e2ac 1c3e
000002c0: 44c5 ae3e 1022 d7bd 72fa 49be e73a b7be
000002d0: d512 df3d 02d2 a3bd c680 ccbe 9a8d 223e
000002e0: 26d8 0cbe 9649 83bd 475e b83e df06 14bb
000002f0: e713 4c3e baff 973e 8bbd a83d 5841 7e3e
00000300: 0d69 893d bb24 6cbe d01d a7be c977 613e
00000310: d618 ebbd 857b 28bc dd1b b73c 86b3 dd3e
00000320: 724b 3dbe a39b efbe 340a eabd de6a a23d
00000330: 0cb1 c5be a2d6 cdbd a97a 10be d0e1 b7bd
00000340: d5dc 9a3e 6f46 183e 7130 e23e da1c 06be
00000350: 2591 1abf e0ff ad3d 5573 18be e27c 1cbe
00000360: 9c5a 06be 3a4d 113f c5c4 10be 36ca 5dbe
00000370: b2c4 c83d 5232 4e3e ebd5 f03a 4038 023e
00000380: aa7e 2dbe 164b 67bd c746 27be 1a17 4e3e
00000390: b398 8b3e fe7d 4abd d0d6 a13e da24 7ebc
000003a0: 3c8d 88be ff09 23be 86fd 1dbe 93e2 c83d
000003b0: 2fda 02bf ed3d c83d 7fae 89be 43c7 cbbe
000003c0: af77 8f3d 7362 243c 2201 0abe 3791 0c3e
000003d0: 90ca a43e ee46 a13d 7468 37bd 96eb fcbc
000003e0: 673e d73d 3b53 91bb 01b0 96bd 344c e53d
000003f0: 81c2 323d 7e1a 623e d991 7abe 016b 73bd
-0.1420512 -0.1476758 0.15819879 0.022391079 -0.08881948 0.1637628 0.030230984 -0.13572222
-0.053006597 0.16733699 -0.21479869 0.17267776 0.011986721 -0.01012975 0.173995 0.07737662
0.02718752 -0.045484226 -0.102287695 -0.008536254 0.04286277 0.07099796 0.11267972 0.04248581
0.040384717 0.02819529 0.027656544 0.11798967 0.14690343 -0.1750232 0.12731129 -0.17674866
0.04202823 -0.15280458 0.028917925 -0.0012240086 -0.023093773 -0.08347534 -0.20445079 -0.10051159
-0.076661386 0.13255401 -0.099914275 0.0040447125 0.12273776 -0.006217045 0.11674822 -0.15394096
0.073228255 -0.09437974 0.08722436 0.016729074 0.20007966 -0.046715636 -0.055158976 -0.11234516
-0.030612422 -0.01652205 0.17413291 -0.033139244 0.05990493 -0.19594577 -0.14571409 -0.06494128
0.06953552 -0.100422546 0.06221961 -0.13792074 -0.1045744 0.06895644 -0.035352923 -0.10712755
0.105243914 0.017011927 0.06965199 -0.0688336 -0.01712705 0.05818789 0.12532099 -0.040834825
0.15838833 0.014915331 0.07595028 0.04782831 -0.053865615 -0.050214436 -0.10154121 -0.100346856
-0.07589186 -0.11655364 0.044915937 -0.049198523 -0.082595274 0.056571268 0.094215505 0.095895045
-0.067132436 0.0397827 0.0062619653 0.09253718 -0.054674916 0.05821727 -0.025761735 0.070836544
-0.0017944365 0.072808966 -0.092414565 0.07768977 -0.023405021 -0.002991269 0.05139189 -0.038013294
0.11892666 -0.054555733 0.07879626 0.18141127 -0.19016112 -0.0040820464 -0.11393087 0.035881907
-0.0640359 0.06481367 -0.0972915 -0.10903916 0.024371961 0.06640988 0.009344164 -0.00670091
0.13759914 0.00611467 -0.14703044 0.31093872 0.15590227 -0.2389639 0.10412484 0.06783115
-0.116833955 -0.119637944 -0.0055331695 -0.0505057 -0.15912062 0.19485055 0.023250286 0.1380846
-0.15158181 0.16020764 0.47669965 -0.2793026 -0.17907223 0.29317123 -0.081605285 0.06350832
0.032852776 -0.07230902 0.3102009 0.17787838 0.1274487 0.108386144 0.21088673 -0.07677519
0.0054575163 0.10551852 -0.12887567 -0.3499389 0.19257185 -0.29475012 0.1640552 0.11358572
0.13800238 0.01763468 -0.33720618 0.16402423 0.0915593 0.36168036 0.029650735 0.15300325
0.34134877 -0.10504544 -0.19724444 -0.35787126 0.10892264 -0.0799904 -0.39941996 0.15874329
-0.13754329 -0.0641052 0.36009428 -0.0022587103 0.19929467 0.2968729 0.082392775 0.24829614
0.0670949 -0.23060887 -0.32639933 0.2201835 -0.114793465 -0.010283356 0.022352153 0.43301028
-0.18485811 -0.4679843 -0.11427727 0.079305395 -0.3861164 -0.100507036 -0.14109291 -0.08978617
0.30246606 0.14870618 0.44177583 -0.13096943 -0.6037772 0.0849607 -0.14887746 -0.15282014
-0.13120502 0.56758463 -0.14137562 -0.21659169 0.09803142 0.20136383 0.0018374299 0.1271677
-0.1694285 -0.056468092 -0.16335593 0.20126 0.27264938 -0.04943656 0.316092 -0.015511716
-0.26670253 -0.15921782 -0.15428743 0.098088406 -0.5111417 0.097774364 -0.26890942 -0.39800462
0.0700525 0.010033238 -0.13476995 0.1372727 0.32185793 0.07874857 -0.04477735 -0.030874055
0.10509949 -0.0044349707 -0.07357789 0.11196175 0.043642525 0.22080418 -0.24469699 -0.05942822

actor.2.bias f4 [64]
00000000: c112 bab9 931b cfbd d566 b6be c9f3 7b3e
00000010: 8836 77ba 9d8a 773c d8a6 9b3d 0e9a af3b
00000020: f96b f73d b3e5 3dbe d5b1 703c 39b4 9cbc
00000030: 3ec1 163c 6880 663d 9e84 2ebd c1bc 9b3d
00000040: eec9 e4bd a12d f7bd fc28 04be 1a27 473c
00000050: a288 c6bd 55e2 9f3c 6781 bebd bc2f 583d
00000060: 293c 4d3d 4bcd 9f3d e67f 19be 3853 47bc
00000070: 4f10 323e 3b63 09bc cdd7 50bd 1019 c43d
00000080: 2d1b 67bb ee7e b93d 1335 e5bc daed 83bd
00000090: c1b0 dcbd d775 9d3d 57fc bbbd eb6d 343d
000000a0: 868f 68bd 48e2 58bd 6de0 49bd c4c8 babd
000000b0: 3f53 473d 40b7 073e 33e5 64bc 319b bebd
000000c0: 1a74 643d 3079 5cbb 7784 59bd cba0 073e
000000d0: 7541 7dbc 43e6 5c3d a6c9 943d 9f0e 83bd
000000e0: d118 2cbc 0977 9abd cbfe f1be 1348 5d3d
000000f0: a86f 10bb 4e69 bcbd 695c 4f3d c738 aabd
-0.00035490657 -0.10112681 -0.3562533 0.24604715 -0.0009430428 0.015108732 0.07600182 0.005358941
0.12081141 -0.18544655 0.014690836 -0.019128906 0.009201346 0.0562748 -0.042606942 0.07604361
-0.111713275 -0.1206925 -0.1290626 0.012155319 -0.096940294 0.019517103 -0.09302025 0.052779898
0.0501062 0.078028284 -0.14990196 -0.012165837 0.17389034 -0.008385475 -0.050987054 0.09575093
-0.0035264 0.09057413 -0.02797941 -0.06441851 -0.10775901 0.07688492 -0.091789894 0.04405014
-0.0567775 -0.052950174 -0.049286295 -0.09120324 0.048663374 0.13253498 -0.013970661 -0.09306944
0.055774786 -0.003364157 -0.053104844 0.13244931 -0.015457501 0.053930532 0.07265024 -0.06399273
-0.010503964 -0.075422354 -0.47264704 0.054023813 -0.0022039209 -0.09199773 0.05062524 -0.08311611

actor.4.weight f4 [1, 64]
00000000: 800e 1d3e fa77 30b8 f315 993e 6908 81be
00000010: 69e2 563e 541e 363e 905d a43d 2c27 033e
00000020: e4c1 f4bd c060 7f3e 45f1 0c3e f78a 353e
00000030: 25a4 2e3e 9436 833d dc30 afbe 4347 0dbe
00000040: f96d 503e 5e9f bd3a f05d 883e fa14 f8bd
00000050: 5613 873e 542f 163e 9c4a 8c3d 03fa f0be
00000060: 2f23 0fbf 9443 2bbe ee42 d53d 4afe 60bd
00000070: 0e5d f0bd 61cf 2cbe 3640 d53d 5c96 3abe
00000080: e4b9 493d 9bec 2f3d fb27 953c aa1c 89be
00000090: c7fc 21be c5ea 0ebb 1580 3ebe 2969 11be
000000a0: 7e35 3fbe 519c 0b3c 18da 28be 7088 04bf
000000b0: 2777 813d 0f4c 32be bb87 b73c c9ca 343e
000000c0: 2cf1 0cbe c21c 0f3e 76e9 ddbd e173 613e
000000d0: 060e 2fbe 49a4 1e3e 9947 94be 453c a8bd
000000e0: 16dc 343e 217b 32be 7b2e 4bbe 283e 11be
000000f0: f49c 033e dcfb c03e 6993 e1bd 2012 193e
0.15337563 -4.2073407e-05 0.29899558 -0.2520173 0.20984806 0.17785007 0.08025658 0.12807912
-0.11951044 0.24939251 0.13763912 0.17728792 0.17054804 0.06406894 -0.34216964 -0.13796715
0.20354451 0.0014467051 0.2663417 -0.12113376 0.2638194 0.14666492 0.06850168 -0.47065744
-0.5591306 -0.16724998 0.104131564 -0.05493001 -0.11736499 -0.16875984 0.10412638 -0.1822142
0.049249545 0.042950254 0.01820754 -0.2677968 -0.15819083 -0.0021807414 -0.18603547 -0.14200272
-0.1867275 0.008521155 -0.16489446 -0.5177069 0.06321555 -0.17411827 0.022403589 0.17655481
-0.13763875 0.13975814 -0.10835545 0.2201686 -0.17095193 0.15492357 -0.28960875 -0.082146205
0.17662081 -0.17429782 -0.1984195 -0.14183867 0.12852842 0.37692153 -0.110144444 0.1494832

critic.0.weight f4 [64, 5]
00000000: dbb1 c03c 48b1 8ebf 6149 d03f 2503 883e
00000010: b374 dfbf caee 853f 3864 f93e e26b 8dc0
00000020: 8a1e 543e d989 8e3f 9af3 ad3e 0884 36bd
00000030: a3af aa3d 0d35 fd3f d2fa e23f cc9f 09bf
00000040: 49d7 afbf dd1e cebf 01ea 1fbe 4644 20bf
00000050: 8d34 35be f734 bf3d 5828 2640 5e3c 51c0
00000060: a4c7 3dc0 aa5d 33c0 19ac 41bf 2eae 83bf
00000070: 9b82 a33f b6ba a63f 3d23 14c0 a94d 0fbf
00000080: 069b 6b40 941a 85bf a4cb 80bf 595d 83bf
00000090: c12d 4f3e e55d cbbf 881c d8be 6895 d6be
000000a0: 0d69 1740 fbfe 813f c356 c03f a33c 09c0
000000b0: b743 fbbc 1a1c f8bf 80ab 1b3e 91d5 5fc0
000000c0: 0121 0440 6196 4440 62b0 c43f de9d c1be
000000d0: ae4f 1f40 cd21 9fbf 15de c2bf f511 60be
000000e0: d727 a8be 167a 2940 35be 643f 8cb2 5c3f
000000f0: 8a7f 2940 40c6 c63e cec0 eebf b673 b43e
00000100: 6c52 e33e 591a 4f3f b3e6 a63e e7f4 d1bf
00000110: e262 5340 1ee3 3740 a530 a83e a76c b7bf
00000120: d633 a93e 0dbc c63e 57ae 813f 67f7 4cc0
00000130: 9fa1 dfbe b6c3 9d3f 285e dbbf 0b47 62bf
00000140: 6e23 fe3e 8016 0f3f 1d5a ee3f d6ec b73f
00000150: 30d8 d53e cc2c 34c0 9382 8cbe f813 a5bf
00000160: 81db 1440 cb48 853f e129 26bf df37 54bf
00000170: eea8 61bf fd10 dabf c55b 7cbf 88e7 893e
00000180: e46f 0bbf fbea a93f 7dbc 19c0 7e44 093b
00000190: d2c2 203e f7ec 903e 93f2 60c0 da82 3040
000001a0: 8c7b 1540 13a8 fa3f df0b 46bd 2c02 2840
000001b0: e7b7 8ebf 1782 c83e 7662 ed3d 8a1c d73e
000001c0: 2bcd a340 1dac 48c0 6c3a 48c0 2e66 e13e
000001d0: e75d 4cbf 8876 38bf 9bc6 723e b863 16bf
000001e0: a145 963f 7350 1abf 7561 1240 a551 843f
000001f0: e4c2 cebd ebb8 b23e 6641 3b3f cbc2 9d40
00000200: b55a 21c0 837b 60c0 3871 2b40 56f0 8b3f
00000210: 1de8 b83f bbfc b2bf 35b9 9ebe 2336 1940
00000220: e4d1 6b3f 6b19 c23f 9018 93bf 3e41 163f
00000230: ce55 cabf 11f6 ed3e 81e5 8f3e 12d1 aabe
00000240: 2c52 333e 59ec 64bf 00df f83e e625 22bf
00000250: 0bcb e43e d79a 363f e91b 1040 3eba 5f3f
00000260: b5d1 a9be 59f4 c2be 2aa7 cfbe 87c2 4b3f
00000270: 12bb 133f 4542 a03f 89b0 923f fad5 f43e
00000280: 49b7 aebf fa7a e0be 94c7 5bc0 92de 0340
00000290: 2f4b aebe b9d8 b0bf 9146 11bf 3767 d5bf
000002a0: d134 583f 8834 063f 4fbb a1bf 570d 123f
000002b0: 4a27 cc3d c694 0dbf d94c 23bd 6c4c 4d3f
000002c0: ff45 563f 4953 1640 981b bbbe fd06 b03d
000002d0: 5b21 123f 5990 563e cf08 97c0 e6b5 7b3f
000002e0: 0ae7 e63f 5a47 443f 0647 5fbf ac2b 91be
000002f0: d34c 783f 90d5 94ba de00 40c0 512e 103f
00000300: a638 30bf cd04 35bf b046 5dbe b7fb 8cbe
00000310: dd5a 843e a3b9 c73f 38cc 17c0 8760 0dc0
00000320: 67b1 f3be bf77 86bf a9e0 debf bdfb b9be
00000330: 16d3 05bf 09f8 28bf 20ed adbd afb4 0f40
00000340: ff84 3dbe af2c 423f 794a 18bf 39ec dc3e
00000350: 1c4b 1840 7df3 a6bf c57d 803e 8003 723e
00000360: dcb4 afbd 9936 be3e da69 04c0 7f4c 34be
00000370: d980 183e d130 1abf 5e00 2bc0 57a4 0d3e
00000380: acac 2bbf d55c 403d ed75 67bf fd4d ffbe
00000390: 24fb 75bf 7f21 ef3e 11ff 2bc0 129b 85bd
000003a0: 1bd0 d83e e47a 0abe 61c4 4cbe c441 24c0
000003b0: e591 b13d e73c 20c0 c758 ccbf 1a56 853e
000003c0: c8b2 9fbf b1c0 c6bd 29bc 93c0 0a21 d93f
000003d0: a382 1840 07a5 b2bf 828e 25be b1a2 18c0
000003e0: 5281 b3be 5e64 0bbf f83a afbf a940 bc3e
000003f0: ffb4 9cbf 2339 0cbf 302f 56be e7fe 8d3e
0.023522308 -1.1147852 1.6272393 0.265649 -1.7457489 1.0463498 0.48709273 -4.4194193
0.20714775 1.1135818 0.33974916 -0.04455951 0.08334281 1.9781815 1.7732794 -0.53759456
-1.3737575 -1.6103169 -0.15616609 -0.62604177 -0.17695828 0.09336274 2.5962124 -3.2693095
-2.96531 -2.8025918 -0.75653225 -1.028753 1.2774233 1.302573 -2.3146508 -0.55977875
3.6813369 -1.0398736 -1.0062146 -1.0262862 0.20232297 -1.5888029 -0.42209268 -0.41910863
2.3657868 1.0155939 1.5026478 -2.144326 -0.030671937 -1.9383576 0.15202141 -3.49741
2.0645144 3.0716784 1.5366328 -0.37815756 2.4892383 -1.243219 -1.5224024 -0.2188185
-0.32842895 2.6480765 0.8935273 0.8620994 2.6484094 0.38823128 -1.8652589 0.3524453
0.4439882 0.8089958 0.32597885 -1.6402863 3.3029103 2.8732371 0.32849613 -1.4330033
0.3304736 0.38815346 1.0131329 -3.2026002 -0.43677995 1.2325351 -1.7138109 -0.8838965
0.49636406 0.5589371 1.862125 1.4369152 0.417665 -2.8152342 -0.2744337 -1.2896719
2.3258975 1.041284 -0.6490765 -0.8289775 -0.8814839 -1.7036434 -0.9857753 0.26934457
-0.54467607 1.3274835 -2.4021294 0.0020945366 0.15699318 0.2830579 -3.5148056 2.7579865
2.3356657 1.9582542 -0.048351165 2.6251326 -1.1149873 0.3916175 0.115910456 0.4201396
5.118795 -3.135505 -3.1285658 0.4402327 -0.79830784 -0.72055864 0.23708574 -0.5874591
1.1739999 -0.60279006 2.2871983 1.0337416 -0.10095766 0.34906706 0.73146665 4.9300284
-2.5211613 -3.5075386 2.6787853 1.093272 1.4445835 -1.3983377 -0.31000677 2.3939292
0.9211714 1.5164007 -1.1491871 0.586933 -1.5807436 0.46476796 0.28104785 -0.33362633
0.17511815 -0.8942314 0.48607635 -0.6333908 0.4468616 0.71330017 2.2517035 0.8739356
-0.33167806 -0.38077047 -0.40557224 0.795937 0.5770732 1.2520224 1.1460124 0.478195
-1.3649684 -0.43843824 -3.4340563 2.0604596 -0.34041736 -1.3816139 -0.567483 -1.6672124
0.8445559 0.52423906 -1.2635287 0.57051605 0.09968431 -0.55305135 -0.03986821 0.80194736
0.83700556 2.3488333 -0.3654449 0.08595083 0.57082146 0.20953502 -4.7198253 0.9832443
1.8039258 0.76671374 -0.8721775 -0.28353631 0.96992224 -0.001135515 -3.000053 0.56320673
-0.6883644 -0.7071045 -0.21608996 -0.27535793 0.25850573 1.5603527 -2.3718395 -2.2090166
-0.47596285 -1.0505294 -1.7412311 -0.36324874 -0.52275217 -0.6600347 -0.08492494 2.245403
-0.18507765 0.7584943 -0.59488636 0.43148974 2.3795843 -1.3043057 0.25095955 0.23634148
-0.08579418 0.3715103 -2.0689607 -0.17607306 0.14892901 -0.6023074 -2.6718974 0.13832222
-0.6706035 0.04696353 -0.90414315 -0.49864188 -0.96086335 0.46705243 -2.687443 -0.06523718
0.42346272 -0.13523442 -0.19996788 -2.566514 0.08670405 -2.5037172 -1.5964593 0.26042253
-1.2476435 -0.09704722 -4.616719 1.6963208 2.3829734 -1.3956612 -0.16167644 -2.38493
-0.350596 -0.54450023 -1.3689871 0.36768082 -1.2242736 -0.54774684 -0.20916438 0.27733538

critic.0.bias f4 [64]
00000000: 32da 013f 076c 02be 0c6b 713f 5f33 b33f
00000010: 9fba 4ebe 9ba0 143f 735e 133f 6afc 8d3f
00000020: 5efc 46bf a3df 3cbe 445d a13e 7498 393d
00000030: 4ba0 4ebe a169 e2bd 6d1b 633e 1931 ff3e
00000040: 8e81 923d 419c a43e c476 3e3f d346 233f
00000050: 51ca 793d 1239 853e 1deb ebbe c6da 41be
00000060: 39c3 05bf fb63 47bf 66f9 56bf 4e32 37bf
00000070: bf71 1abf a082 c139 2635 3ebf 05df d5be
00000080: ab1d a53e 3c20 e13e 74d1 6fbf 872f 95bf
00000090: 49c8 11be 4cc8 8fbf aa00 55bf b143 e3be
000000a0: 2c61 883f c642 83be cadf 1dbf e731 69be
000000b0: 6ad7 223f d94f 2f3f 6e3b 6ebe 3bfa 8ebe
000000c0: d4e5 0c3e 7665 ffbc 5c04 4a3f c7e9 0d3e
000000d0: da42 3f3f 4c38 0e3f 5281 a53d b618 fcbe
000000e0: 4685 863f cf47 2fbf 3387 5c3e 5272 bb3e
000000f0: 5968 a43e 7e0a 663d a02e 20bf 7d9c 32bf
0.50723565 -0.12736522 0.94303966 1.4000052 -0.20188378 0.58057564 0.57565993 1.1092656
-0.7772883 -0.18444686 0.3151647 0.045311406 -0.20178334 -0.11055303 0.22178431 0.49842146
0.07153617 0.32150462 0.7439997 0.63779944 0.06098396 0.26020104 -0.46077815 -0.18931112
-0.5225101 -0.77886933 -0.839743 -0.71561134 -0.6032981 0.00036909152 -0.7429985 -0.41771713
0.32249197 0.43969905 -0.93678975 -1.1655129 -0.14236559 -1.1233001 -0.8320414 -0.44387582
1.0654655 -0.25636882 -0.616696 -0.22772942 0.63609946 0.6848121 -0.23264858 -0.27925286
0.13759547 -0.03117631 0.789129 0.1385871 0.7471138 0.5555465 0.080813065 -0.49237603
1.0509422 -0.68468946 0.2153595 0.36610657 0.3211086 0.05616235 -0.62571144 -0.6977003

critic.2.weight f4 [64, 64]
00000000: 5581 aebc ace6 98be e8d2 3fbf 74f4 5fbe
00000010: 6285 123f 5876 11bf 2ff5 f6be 70e6 f8be
00000020: 0603 473f 8b94 88be 58f3 4f3f 8a18 9d3e
00000030: 9f4c a13e f692 d5be 87d7 053f 4c17 aabe
00000040: 172b 3e3f eece 33bf c377 e93c 1e34 24bf
00000050: 5c47 97bf 3241 993f 8c4a 1f3f 0d05 1c3e
00000060: 9216 b43e 3114 4e3f ad09 9f3f 88d3 4c3f
00000070: 2911 27bd 28a0 10bf c356 f73e 0a0e a9bd
00000080: eb48 22bf 40f4 92bf 3f19 d4be 3923 113f
00000090: ac4e 7fbe a71b 0a3f 7e6a 01bf a7d2 813e
000000a0: be25 73bd 0ea2 0f3f 1b8d 243f 4744 c93e
000000b0: d286 c1be 34ea b03e 2111 febd 2999 c83d
000000c0: 7402 d2bf e64c bd3e 9327 99be f6df b53e
000000d0: 0a6d b03e faeb 41bf 5778 c03e c522 473f
000000e0: 32ec 48be 7430 673e ad33 6dbf 4342 e53e
000000f0: 69e5 a03f cb73 b8bb c8a1 aabd b2b3 b43c
00000100: 6320 213e fb92 13bc 1fb9 e03e 9858 50bf
00000110: 3061 ca3d 56ce 82bf 87b3 a7bf 1d9c 21bf
00000120: 1dc3 7d3f 6acc 82bf 9931 793e b1cd 643b
00000130: 86ca a83f 1c10 a03f 0bbe 223f 464d cebf
00000140: d91d d13e c6a6 98bf 0223 40bf 6dc8 443c
00000150: cd68 003f dcce ebbd 522c 0fbf 5615 b8be
00000160: b24c d03e b235 283f 00ab 8a3f 9e5a d23f
00000170: 46c4 05bf 85e5 ccbd 497d 003f 99c2 ca3e
00000180: 4e43 03bf b954 603e 2fd0 e3be 2a3e 643f
00000190: c96f 833e 827f 113f 1ae4 7cbf 372a 89be
000001a0: 27fe 75bf 8bc6 9e3e c421 8b3e db3c 9d3c
000001b0: f6d0 e5be d925 3abc fc27 ecbe 6e54 49bf
000001c0: 7b39 38be 62b0 03bf ef0a 04bf 888d 313d
000001d0: 6c01 6bbf a935 fdbc b722 423c a608 733d
000001e0: 82ff 8a3e b81a 57bc 4f8d a2bd 7a1d b3bd
000001f0: f2f3 813b 9ec1 813e 3c01 6c3f 2fe9 013f
00000200: b617 353e c717 673f 556a 983f 21e3 adbf
00000210: 4fe5 31be b6e4 e83c 3c57 30c0 6e4e f2be
00000220: ed22 593f 6166 08bf d7f7 1dbe 5ed9 f9bc
00000230: d938 c23f 6ec5 7f3f 7c9c 883f 3ee6 37c0
00000240: 3bc3 143f 58e4 e13c b992 82bf 46b5 8c3f
00000250: 7d85 783e 3750 173e 7e33 35bf 5c56 6c3e
00000260: 91ee e13e 3451 493e ba41 873f a1d3 a13f
00000270: 0f69 1abf d3fc d83d 9fb3 833f d3a7 5b3f
00000280: 0d04 2cbe 7839 b3be 516b 54bf c657 82be
00000290: d430 0b3f e982 583e 5299 7ebf 8788 6abf
000002a0: 24d4 bcbf 6508 a03d 1000 dd3d 2f3e f8be
000002b0: 6fe2 643c 49c2 a6be 4c14 b5bf 06d4 adbf
000002c0: a06d 2dbc be15 d7bf 0b82 6fbc d1a3 9a3d
000002d0: 138c fdbe 4684 433e b62c d03e fe86 c73d
000002e0: 5a1a c63e 8e22 09bf 8c70 643f afa6 78bf
000002f0: 3eee 1cbd 4442 813f 9888 3e3f 771a 693f
00000300: da82 9fbf f283 4e3f 7c6b 83bf 8b91 8c3f
00000310: 6a3a 043f 4cda 02bf fb3c 30be 227c 8c3f
00000320: 9829 773e d03b febd 7784 bcbd b8a9 a2bf
00000330: d1d6 16bf 7b3a cbbe bacc a7bf 89b0 0dbd
00000340: d999 de3e fc8a 4ebf ce68 35be 5b26 2dbd
00000350: d7cb 003e b3a6 15bf 2365 003f abba 1ebf
00000360: 8d68 cbbf 366e 02be d146 003e 9452 3cbd
00000370: 6547 25bd b6d2 68be 1023 13be 32e1 3f3e
00000380: a9ec fb3e 8e3a bbbe 86d8 22be 2bd8 e3be
00000390: cfc2 d53e bffa efbe a05e 8c3e 6b72 fd3e
000003a0: efdf 163f f04d 55bf d749 18bf 271f 383d
000003b0: fd2f 663f d68e b0be ba65 603f 24cb 0a3f
000003c0: 2c25 213b 7887 273f a648 ab3f 75af 7dbf
000003d0: e442 4dbe 3613 56be 830d 42bf 8f4e 8d3d
000003e0: f7bb abbf 63d8 b5bd d973 41bc f88c 7b3e
000003f0: c509 a0be 95c6 933e 1311 97be 9df2 b73e
-0.021301905 -0.2986349 -0.7493119 -0.21870595 0.57234776 -0.56821203 -0.48233935 -0.4861331
0.7773899 -0.2667583 0.8123069 0.30682784 0.3150377 -0.41713685 0.52281994 -0.332209
0.742845 -0.70237625 0.02849949 -0.64142025 -1.1818652 1.1973021 0.62223125 0.15236302
0.3517347 0.8049956 1.2424828 0.8001027 -0.04078785 -0.5649438 0.4830838 -0.08254631
-0.63392514 -1.1480789 -0.4142551 0.5669437 -0.24932355 0.53948444 -0.5055312 0.25356027
-0.059362166 0.5610665 0.6427781 0.39309904 -0.37798172 0.34553683 -0.12405611 0.09794838
-1.6406999 0.3697273 -0.29913005 0.3552243 0.3445819 -0.75750697 0.37591812 0.7778743
-0.19621351 0.22577077 -0.92656976 0.44777116 1.257001 -0.005629038 -0.083316386 0.022058342
0.15735011 -0.009007211 0.43891236 -0.81385183 0.09881818 -1.0219219 -1.3101662 -0.63128835
0.99125844 -1.0218632 0.24335326 0.003491264 1.3186805 1.2504916 0.6357123 -1.6117332
0.40843084 -1.1925895 -0.7505342 0.012010676 0.50159913 -0.11514065 -0.55927 -0.35953778
0.40683514 0.6570693 1.0833435 1.6433904 -0.52252614 -0.10004715 0.5019117 0.3960159
-0.51274574 0.21907319 -0.4449477 0.89157355 0.25671223 0.56835186 -0.98785555 -0.2679002
-0.9609093 0.3101085 0.271742 0.019194057 -0.44885987 -0.011361563 -0.46124256 -0.78644454
-0.17990677 -0.51441014 -0.51579183 0.043347865 -0.91799045 -0.030909376 0.011849097 0.05933442
0.27148062 -0.013128929 -0.07937109 -0.087458566 0.003965848 0.2534303 0.92189384 0.50746435
0.17684826 0.90270656 1.190745 -1.3584939 -0.1737263 0.02842937 -2.7553244 -0.47325462
0.8481892 -0.5328122 -0.15426575 -0.030499157 1.5173599 0.9991063 1.0672755 -2.8734279
0.581104 0.027574703 -1.0201026 1.099282 0.24269672 0.14776693 -0.70781696 0.23079818
0.44127324 0.19659883 1.0566933 1.2642709 -0.60316557 0.105950974 1.0289191 0.85802954
-0.1679842 -0.35004783 -0.8297625 -0.2545759 0.5437138 0.21143688 -0.994527 -0.91614574
-1.475224 0.07814101 0.107910275 -0.48484942 0.013970002 -0.32570103 -1.4146819 -1.358033
-0.010585219 -1.680351 -0.014618407 0.07550777 -0.4952093 0.19093427 0.40659112 0.097425446
0.3869198 -0.5356835 0.8923423 -0.9712934 -0.038313143 1.0098348 0.74427176 0.9105601
-1.2461808 0.8067008 -1.0267177 1.0981916 0.5165163 -0.51114345 -0.17210762 1.0975382
0.2413696 -0.12413752 -0.09204953 -1.2708044 -0.58921534 -0.39693055 -1.3109353 -0.034592185
0.4347675 -0.80680823 -0.17715761 -0.042272907 0.12577759 -0.5845749 0.5015432 -0.6200358
-1.5891281 -0.12737355 0.12527014 -0.04597719 -0.04035129 -0.2273663 -0.14368844 0.18738249
0.49203995 -0.3656811 -0.1590291 -0.4450086 0.4175019 -0.46870992 0.27415943 0.49501356
0.58935446 -0.8332205 -0.5948767 0.044951584 0.89916974 -0.34483975 0.8765522 0.5421622
0.0024588807 0.65441084 1.3381546 -0.9909585 -0.20045048 -0.20905766 -0.7580187 0.068997495
-1.3416737 -0.08879163 -0.011807405 0.24565494 -0.31257454 0.28862444 -0.29505214 0.35927287

critic.2.bias f4 [64]
00000000: a72a 0bbf 5cd5 943e cfdc 063e 3f39 473e
00000010: 829f 183e 7f23 35be 98e2 9ebe 1265 3a3e
00000020: 0b3f 1dbe e2c5 183e 8cb9 953d 5f0a b63a
00000030: bea6 e53d d54e b2bd fac7 393f bc1e 15bf
00000040: 3ccd 63be 233c 0dbf d6b8 5cbe a611 d03e
00000050: aa68 113d 8513 9d3e e816 45bf cd21 48be
00000060: 0ba8 80be c9b3 22bf a9c3 3dbd 9f13 1abf
00000070: 937c 933f cbe4 323f a623 233f 8086 493e
00000080: ef68 81bd 3cad eebd 711d 51bf 8efe d33e
00000090: 56fe 92be b3ba 0a3f e0e1 8a3c 0629 9d3c
000000a0: bbb5 10bf 5b39 dd3e 1c2d e13e 3bad 25bf
000000b0: 07b0 d13d 7760 14bf c9a2 f33c 4a6d 163f
000000c0: 6bb0 89bc d7be ee3e b48e dabe dbc7 f9be
000000d0: e444 d9bd 864e cfbe 314f 1e3f 4e3b 71bf
000000e0: 8dbc 36bf 6c47 a9be 0568 c33d c5e2 0b3f
000000f0: da62 e5bd 54f2 9abe 63a4 fb3d 045e 053f
-0.5436196 0.2906903 0.1317017 0.19455431 0.14904597 -0.17689322 -0.31032252 0.18202618
-0.1535608 0.14919236 0.07310781 0.0013888589 0.11213444 -0.08706442 0.72570765 -0.5825002
-0.2224626 -0.55169886 -0.21554884 0.40638465 0.035500206 0.30678955 -0.7698808 -0.19544144
-0.25128207 -0.6355558 -0.046329174 -0.6018619 1.1522392 0.6988036 0.6372627 0.19680214
-0.063188426 -0.116541356 -0.8168555 0.41405147 -0.28709668 0.5419113 0.016953409 0.0191846
-0.565273 0.4320782 0.43979728 -0.64717454 0.10238653 -0.57959694 0.029740708 0.5876051
-0.016807755 0.46629974 -0.42687 -0.4878529 -0.10608843 -0.40489596 0.61839586 -0.94231117
-0.71381456 -0.33062303 0.095413245 0.546429 -0.11200495 -0.30263007 0.12287214 0.5209658

critic.4.weight f4 [1, 64]
00000000: 3035 9a3d db57 83be 29ff 6dbe b53d 8b3e
00000010: 88fe fcbb 5aa2 2e3e b39f 6cbe 507a 17be
00000020: 7221 5dbd 8cdc 44be 7eff 473e 47d9 1b3e
00000030: 7d56 9bbd ae45 51be 8817 27bd a2c5 c9bd
00000040: 3aa7 0d3f 9a00 c33d 38c0 7bbd 94c2 73be
00000050: 8ea5 ccbd fc33 0f3e 7421 063e d305 173d
00000060: 8444 58be a612 5e3e 56f1 643d efe0 df3e
00000070: 4717 373d ab94 56bd 6c39 a73a 9af9 023e
00000080: 7fde 0a3d 22b1 5ebe 918a 333e be19 813e
00000090: ec9c 12bf 5a42 1a3e fe58 f03c cea7 c53d
000000a0: e2ad 94bd 851e 68bc c0ad b83d 742b 27be
000000b0: 3a02 38bc c804 31be 421e 823e b361 983d
000000c0: a3ed c53d a6f6 e8bd aa66 ddbe 24df 11be
000000d0: ea7d 253e 745c fbbc 024a 603c 7d4d 15be
000000e0: 7504 64be ccf2 1b3e 7ac2 913e 7203 2c3d
000000f0: 5dcb e3bd 9387 81bd ef05 5f3e 9561 823d
0.07529676 -0.25652966 -0.23241867 0.27195516 -0.007720772 0.1705412 -0.23107795 -0.14792752
-0.053986974 -0.19224757 0.19531056 0.15219603 -0.07584856 -0.20436737 -0.040793926 -0.098521486
0.5533329 0.09521599 -0.06146261 -0.23804694 -0.099925146 0.13984674 0.13098699 0.03687079
-0.21119887 0.21686801 0.05589422 0.43726298 0.044699933 -0.052387875 0.0012758202 0.12790528
0.033903595 -0.21747258 0.17533328 0.25214952 -0.57270694 0.15064374 0.02933931 0.09651147
-0.07259728 -0.014167433 0.09017515 -0.1632517 -0.011231 -0.1728698 0.2541371 0.0744051
0.09664466 -0.113751695 -0.4324239 -0.14245278 0.16161314 -0.030683734 0.01368952 -0.1458034
-0.22267325 0.15229338 0.28468686 0.041995473 -0.11122773 -0.06324687 0.21779607 0.063662685
