controller/PPO_CartPole-dm_0_80000.pth (torch, 41249 bytes, 10 tensors)

actor.0.weight f4 [64, 5]
0.103702374 -0.34156573 -0.39224154 0.09985764 -0.03915321 0.09402087 0.05076323 -0.014200878
0.052360043 -0.03299298 0.0469736 0.5897739 0.20651868 0.13603619 0.23667458 -0.38217837
-0.30016387 0.53400135 0.12133911 -0.060091816 0.1588951 -0.5711089 -0.4467324 0.2310262
-0.29578525 0.042334825 0.5453158 0.45394427 0.1531414 0.17156574 0.34423593 0.044932317
-0.47431394 -0.08508887 0.2918996 -0.41719982 0.0070022126 0.10480019 0.28543493 -0.2646243
0.0018806257 0.34865427 0.3622035 0.45742396 -0.3967281 0.12279118 0.07725863 -0.21820483
-0.14871946 -0.051767085 -0.30585283 -0.41873583 -0.050562475 -0.2215395 0.05528486 -0.39417037
0.22856277 -0.010446615 0.4266375 -0.4556542 -0.23528855 -0.37579384 -0.19533183 -0.4325266
-0.066551276 0.038302537 0.34337145 0.14244868 0.29655302 -0.3021126 -0.16802976 0.13118993
-0.20324312 0.078002356 -0.5373981 0.19152008 -0.32902044 0.09877082 -0.19188236 -0.098989
-0.2934876 -0.24289677 -0.015117383 -0.29999024 0.21422517 0.35291293 -0.5126042 -0.36103684
0.28968117 -0.27392447 -0.40636048 -0.57801497 0.30094913 -0.37772363 0.38125977 0.104720175
-0.198779 -0.00033732815 -0.413036 0.105277345 0.19509396 0.14262454 0.4338276 -0.032506246
-0.19426414 0.04547848 0.6483862 0.50491774 0.20972419 -0.06672093 -0.23839629 -0.23317346
0.11242489 0.03445922 -0.0036192515 -0.23301055 -0.025549157 0.30042264 -0.201724 -0.45107773
-0.054012973 -0.13663134 0.21534997 -0.2550199 0.45818433 -0.15870592 -0.019104639 0.536829
-0.3255873 -0.19438761 0.21611188 0.046289165 -0.6050765 0.15560468 -0.1304926 0.037150603
0.37618226 0.43932912 -0.28830191 0.17489393 -0.39815035 0.5209108 0.048093207 0.40906247
0.18053666 0.385672 0.045536466 -0.22251354 -0.34367505 -0.04538906 -0.21228226 0.07970969
0.3228658 0.14366524 -0.49037597 0.22260065 -0.2621657 0.5908535 0.010551344 -0.2358749
-0.29951295 -0.23782323 -0.22237748 -0.3701457 0.22922331 -0.18998437 -0.44688055 0.56416893
-0.430529 0.38071737 -0.027779782 -0.06630624 0.26269326 -0.33443412 0.34289458 0.35161966
-0.5635234 0.26354375 -0.07563637 -0.0589249 -0.07380034 -0.28516224 0.028023358 -0.4187573
-0.36014313 -0.2193054 -0.41327175 -0.39945716 0.48512 -0.1768054 0.39419416 0.047791544
-0.45314944 -0.32330948 -0.45551303 0.1434647 0.21504194 -0.111104235 -0.25679713 -0.2602655
0.21120398 -0.6110601 -0.39276242 -0.42142782 -0.17715135 0.18756971 0.3930864 -0.07998365
0.12439035 0.15013674 -0.0236769 -0.12519875 -0.3392815 0.19279075 -0.28903043 -0.22518791
0.31915852 -0.15882352 -0.10611093 0.3825109 -0.41118 0.35927308 -0.35408136 -0.05963199
-0.44623214 -0.3541933 -0.18153587 -0.055767253 0.22962311 -0.0739091 -0.08890708 0.4504953
-0.061854772 0.5640571 -0.15412228 0.4361192 0.3692999 0.32502747 0.0037636643 -0.29388916
0.035698798 -0.30872932 0.02978914 -0.28501952 0.35419178 0.2813826 -0.46096373 0.038673874
0.04882362 -0.105454944 0.4872818 -0.19755961 -0.3698859 -0.40042248 -0.1493873 -0.09435437
00000000: e961 d43d b4e1 aebe e2d3 c8be 2a82 cc3d
00000010: 1e5f 20bd 048e c03d 1bed 4f3d cdaa 68bc
00000020: 7c77 563d a623 07bd 6467 403d 6cfb 163f
00000030: a279 533e 124d 0b3e d25a 723e e2ac c3be
00000040: 14af 99be 50b4 083f a480 f83d d622 76bd
00000050: 66b5 223e 3134 12bf 1cba e4be 2292 6c3e
00000060: 2a71 97be 4867 2d3d d199 0b3f 626b e83e
00000070: 19d1 1c3e eeae 2f3e b13f b03e f30a 383d
00000080: 47d9 f2be 1343 aebd dd73 953e 379b d5be
00000090: d172 e53b 7ba1 d63d 8724 923e d67c 87be
000000a0: 547f f63a d082 b23e bd72 b93e 7933 ea3e
000000b0: f21f cbbe f179 fb3d c639 9e3d 1671 5fbe
000000c0: ea49 18be b909 54bd be98 9cbe 8b64 d6be
000000d0: 991a 4fbd 40db 62be 6172 623d b3d0 c9be
000000e0: 5c0c 6a3e 4728 2bbc 3b70 da3e 824b e9be
000000f0: 7bef 70be 0d68 c0be 1105 48be 2074 ddbe
00000100: 094c 88bd 1fe3 1c3d 62ce af3e 11de 113e
00000110: ccd5 973e 81ae 9abe fe0f 2cbe a756 063e
00000120: f71e 50be b3bf 9f3d ec92 09bf d71d 443e
00000130: 5e75 a8be 5b48 ca3d cf7c 44be bfba cabd
00000140: 0244 96be eeb9 78be e6ae 77bc 5298 99be
00000150: d85d 5b3e 01b1 b43e 073a 03bf d2d9 b8be
00000160: 1751 943e d43f 8cbe 7b0e d0be caf8 13bf
00000170: 0116 9a3e fe64 c1be 7b34 c33e 8877 d63d
00000180: b98c 4bbe 6bdb b0b9 7479 d3be a69b d73d
00000190: b6c6 473e 2b0c 123e a71e de3e 4525 05bd
000001a0: 2eed 46be a547 3a3d a3fc 253f 4a42 013f
000001b0: f0c1 563e fca4 88bd 281e 74be 06c5 6ebe
000001c0: 053f e63d 1c25 0d3d f730 6dbb 519a 6ebe
000001d0: 774c d1bc ffd0 993e bc90 4ebe a9f3 e6be
000001e0: b53c 5dbd 16e9 0bbe b484 5c3e f891 82be
000001f0: 2397 ea3e ce83 22be 5581 9cbc a06d 093f
00000200: 61b3 a6be 8c0d 47be 6f4c 5d3e b599 3d3d
00000210: 4be6 1abf d556 1f3e da9f 05be 3b2b 183d
00000220: f69a c03e bfef e03e 4f9c 93be 6517 333e
00000230: 5dda cbbe 695a 053f 62fd 443d a370 d13e
00000240: 9ade 383e cd76 c53e 7284 3a3d 97da 63be
00000250: 2df6 afbe e1e9 39bd 8560 59be d53e a33d
00000260: ab4e a53e fb1c 133e 8f12 fbbe 6df1 633e
00000270: 953a 86be 2d42 173f 8bdf 2c3c 3189 71be
00000280: c359 99be ef87 73be ecb6 63be bd83 bdbe
00000290: 84b9 6a3e 438b 42be 87cd e4be 606d 103f
000002a0: 4c6e dcbe 63ed c23e 6d92 e3bc 91cb 87bd
000002b0: bb7f 863e f33a abbe e18f af3e 7e07 b43e
000002c0: 1243 10bf 35ef 863e 3ee7 9abd 3c5b 71bd
000002d0: a224 97bd c900 92be 3e91 e53c 5b67 d6be
000002e0: ae64 b8be 9891 60be 5b98 d3be a685 ccbe
000002f0: a661 f83e 7a0c 35be d1d3 c93e 11c1 433d
00000300: 3403 e8be d288 a5be 0139 e9be 69e8 123e
00000310: f433 5c3e 9e8a e3bd ea7a 83be 8541 85be
00000320: db45 583e 6f6e 1cbf 2818 c9be 63c5 d7be
00000330: 2a67 35be 4612 403e 9f42 c93e 78ce a3bd
00000340: 5ec0 fe3d 72bd 193e 0ff6 c1bc 1a34 00be
00000350: 4eb6 adbe f06a 453e ccfb 93be a997 66be
00000360: bf68 a33e a2a2 22be b050 d9bd 78d8 c33e
00000370: 2f86 d2be a4f2 b73e 274a b5be ac40 74bd
00000380: 8a78 e4be d358 b5be 8ae4 39be 346c 64bd
00000390: 5222 6b3e a75d 97bd ea14 b6bd 52a7 e63e
000003a0: 6e5b 7dbd 0c66 103f 3bd2 1dbe 044b df3e
000003b0: e014 bd3e 006a a63e cfa7 763b a478 96be
000003c0: e738 123d c511 9ebe 5b08 f43c 14ee 91be
000003d0: a058 b53e 6111 903e 7003 ecbe 7f68 1e3d
000003e0: 47fb 473d c3f8 d7bd 007d f93e 114d 4abe
000003f0: af61 bdbe 2d04 cdbe fcf8 18be dd3c c1bd

actor.0.bias f4 [64]
-0.2580809 0.019078538 -0.29156113 -0.3088826 -0.28815123 -0.03911313 0.50461817 -0.0031317486
-0.40286246 0.014261276 0.06986371 -0.41747433 0.27088624 -0.20253186 -0.012484578 -0.406234
0.17876585 -0.26389116 0.20522283 0.07752873 -0.02195257 -0.19566333 -0.030035969 -0.0056412136
0.19225916 -0.50666714 0.06562828 0.27943838 -0.033666383 -0.08781833 0.42244348 -0.34135544
-0.38317743 0.17334124 -0.036567796 -0.005203161 -0.35451245 -0.30372614 -0.063228115 0.37163702
-0.04228833 -0.44781226 0.18960473 0.19391592 -0.34628066 0.35839248 -0.026905831 0.3644101
0.33174342 -0.43116096 0.13640292 0.012826043 -0.39082402 -0.063439324 -0.36326945 -0.48398986
-0.44111264 0.050071318 0.34473497 0.10901757 -0.30229053 0.16810751 -0.32286605 0.19710495
00000000: 2e23 84be 984a 9c3c 8047 95be dc25 9ebe
00000010: 8f88 93be 1735 20bd a82e 013f 063e 4dbb
00000020: fd43 cebe 21a8 693c b414 8f3d 32bf d5be
00000030: 9ab1 8a3e 8364 4fbe 1e8c 4cbc e7fd cfbe
00000040: 650e 373e be1c 87be ef25 523e 62c7 9e3d
00000050: e0d5 b3bc f85b 48be fe0d f6bc eed9 b8bb
00000060: 96df 443e f0b4 01bf 1f68 863d 8c12 8f3e
00000070: c3e5 09bd 19da b3bd 834a d83e 24c6 aebe
00000080: d52f c4be 5e80 313e 1dc8 15bd 477f aabb
00000090: a882 b5be fe81 9bbe be7d 81bd 3547 be3e
000000a0: 8736 2dbd a647 e5be be27 423e e591 463e
000000b0: b34b b1be 387f b73e 9e69 dcbc f693 ba3e
000000c0: 46da a93e 21c1 dcbe 35ad 0b3e 5324 523c
000000d0: 161a c8be 7aec 81bd 74fe b9be 85cd f7be
000000e0: 84d9 e1be 9517 4d3d 1a81 b03e 9b44 df3d
000000f0: d3c5 9abe 6024 2c3e b34e a5be e1d5 493e

actor.2.weight f4 [64, 64]
-0.14191557 0.031718053 -0.111260146 0.10393062 -0.07118698 -0.11382602 -0.07818893 0.092890166
0.022966955 -0.053166486 -0.009102421 -0.032150313 0.0016303034 -0.068539105 -0.082608484 -0.064062715
-0.03661702 -0.036167208 0.040654328 0.09245668 0.021500748 0.0470473 0.11883338 -0.096158266
0.10445902 -0.008541329 -0.093050085 0.06645078 -0.14844576 -0.12925918 0.0900428 0.063117675
0.13492796 0.12474691 -0.028798647 0.07702249 0.004832828 0.115739375 -0.09039681 -0.063583165
0.032747686 -0.13323186 0.0705479 0.057274494 -0.057278685 -0.09487927 -0.06517272 -0.11417604
0.020090612 0.0053707827 -0.07062935 -0.07042772 -0.10225617 0.01845744 0.012765153 0.10571147
-0.081980556 0.098089285 0.06221606 -0.0031544901 0.046539064 0.08917432 -0.11000359 -0.07696074
-0.11541832 -0.10385856 -0.122146875 -0.09255865 0.09467755 0.016539529 -0.021685202 -0.04573921
0.041754834 -0.043595217 -0.13551073 0.037625927 -0.07318136 0.08802912 -0.05561697 -0.13849884
0.08204809 -0.11476313 0.0010847949 -0.025482649 -0.09513792 0.17585905 0.014856439 -0.12880586
0.010688978 -0.10387263 0.027767552 -0.030363243 -0.018409226 -0.13643734 -0.040218897 -0.08564253
0.08238425 0.08757036 0.08103064 0.059863452 0.05362087 -0.1117396 -0.064706616 0.104247056
0.04926371 0.09071923 0.10027995 0.08988378 0.10429115 0.16383408 0.05889559 0.086000495
-0.09494671 0.07685434 0.06257384 0.05670934 -0.07485608 0.02391078 -0.09390013 -0.008180399
-0.10275924 -0.0007634509 -0.14472063 0.085824475 0.038502395 -0.10640664 0.074591346 -0.0021915005
0.08976816 0.035444364 -0.13857622 0.09644098 0.098109916 -0.07619446 0.14153033 -0.109376244
0.05259977 -0.019664675 -0.1020568 0.0018116584 -0.109572925 -0.041995335 -0.094564684 -0.091244906
0.046245597 0.035827495 0.10061595 0.065471664 0.07773849 0.23014282 -0.07374732 0.06924093
0.07915181 0.052583627 0.013529583 -0.0013801171 -0.13714463 -0.10240497 0.12762015 0.03829481
0.067073 0.0990994 0.10218463 -0.02650322 0.0399282 0.08705646 0.06381587 0.064724214
-0.043898355 -0.097405046 0.10020501 -0.058574136 -0.1136933 0.08442326 0.115190655 -0.04481609
0.13356723 -0.017833665 0.030676361 0.10022783 0.03960427 -0.06363975 -0.08490433 0.015194974
-0.0629968 -0.07484052 0.06372587 0.037880074 -0.03495657 0.12114028 -0.014348033 0.08197732
-0.15939169 0.10462256 0.13368005 0.113320306 -0.14241703 -0.000608416 0.008150765 -0.005035262
-0.07144487 -0.0015889216 -0.17776735 -0.09477834 -0.08166513 0.08425515 -0.002794265 0.011439852
-0.13219808 -0.13231227 -0.05535467 0.065034345 -0.018839218 0.09262961 0.065335974 0.06199474
0.06522641 0.066055015 0.023995036 0.07456582 0.16501698 -0.010503497 0.07062759 -0.01812763
-0.056694012 0.08429702 0.08948243 -0.145684 -0.09014317 -0.14314 -0.090950474 0.07574642
-0.22744988 0.0520942 0.017642628 -0.00083184155 0.082966164 0.040239457 0.13912594 0.07604417
-0.037189677 -0.010389767 -0.086896084 0.024310755 0.0738047 0.06703127 0.10741028 0.016587824
0.05659142 0.08632072 -0.034672353 -0.047114626 -0.051101744 0.026691543 -0.049905326 0.092459485
00000000: 5152 11be caea 013d 5cdc e3bd 94d9 d43d
00000010: 7bca 91bd 9e1d e9bd 8521 a0bd 333d be3d
00000020: 3225 bc3c 1ac5 59bd 5222 15bc 0cb0 03bd
00000030: e8af d53a 3b5e 8cbd a32e a9bd 5033 83bd
00000040: bafb 15bd 1124 14bd 2785 263d ee59 bd3d
00000050: 5622 b03c abb4 403d ea5e f33d a0ee c4bd
00000060: 9cee d53d eef0 0bbc 0b91 bebd 5917 883d
00000070: 2a02 18be 855c 04be 5c68 b83d d743 813d
00000080: 8e2a 0a3e 4f7b ff3d 24eb ebbc f8bd 9d3d
00000090: b35c 9e3b c408 ed3d f621 b9bd e437 82bd
000000a0: 7022 063d ef6d 08be 6b7b 903d a998 6a3d
000000b0: 0e9d 6abd 1050 c2bd 4679 85bd 21d5 e9bd
000000c0: 1195 a43c 64fd af3b 1fa6 90bd 693c 90bd
000000d0: af6b d1bd 0f34 973c ef24 513c 417f d83d
000000e0: 6ce5 a7bd 09e3 c83d 44d6 7e3d 90bb 4ebb
000000f0: bf9f 3e3d 07a1 b63d 9049 e1bd 989d 9dbd
00000100: 7160 ecbd ccb3 d4bd 2428 fabd 648f bdbd
00000110: 4ee6 c13d e87d 873c 2aa5 b1bc 0a59 3bbd
00000120: 1e07 2b3d e690 32bd 53c3 0abe a51d 1a3d
00000130: 1ce0 95bd 9c48 b43d 9fce 63bd a4d2 0dbe
00000140: d408 a83d ef08 ebbd ad2f 8e3a fdc0 d0bc
00000150: abd7 c2bd 6514 343e 6c68 733c afe5 03be
00000160: d320 2f3c 2cbb d4bd c778 e33c 56bc f8bc
00000170: f2ce 96bc 3bb6 0bbe 92bc 24bd 5a65 afbd
00000180: 13b9 a83d 1758 b33d 64f3 a53d 6133 753d
00000190: 8fa1 5b3d bbd7 e4bd e784 84bd 7b7f d53d
000001a0: bec8 493d 01cb b93d 935f cd3d fd14 b83d
000001b0: 9996 d53d 1fc4 273e 813c 713d 0721 b03d
000001c0: 6c73 c2bd cf65 9d3d b726 803d 0e48 683d
000001d0: 254e 99bd 8ae0 c33c b64e c0bd 1507 06bc
000001e0: 7073 d2bd 5322 48ba a531 14be bec4 af3d
000001f0: b0b4 1d3d b9eb d9bd 59c3 983d 479f 0fbb
00000200: 5ed8 b73d 1c2e 113d ede6 0dbe d982 c53d
00000210: daed c83d d70b 9cbd 54ed 103e a700 e0bd
00000220: db72 573d d017 a1bc 2803 d1bd 2b75 ed3a
00000230: c567 e0bd 4d03 2cbd 21ab c1bd 9cde babd
00000240: 066c 3d3d dabf 123d bc0f ce3d 0216 863d
00000250: 5c35 9f3d 8faa 6b3e d608 97bd 30ce 8d3d
00000260: 581a a23d ee61 573d 2fab 5d3c 0ce5 b4ba
00000270: a46f 0cbe b2b9 d1bd dbae 023e 05db 1c3d
00000280: 925d 893d a0f4 ca3d 2d46 d13d 481d d9bc
00000290: c18b 233d a84a b23d e5b1 823d 218e 843d
000002a0: c3ce 33bd 4c7c c7bd 4938 cd3d 6feb 6fbd
000002b0: 08d8 e8bd 1ae6 ac3d 14e9 eb3d 1491 37bd
000002c0: d9c5 083e e817 92bc fe4c fb3c 4044 cd3d
000002d0: 1638 223d 8f55 82bd 52e2 adbd 57f4 783c
000002e0: 7704 81bd fd45 99bd b582 823d 2328 1b3d
000002f0: 9f2e 0fbd 6518 f83d 0314 6bbc bae3 a73d
00000300: 9337 23be 5a44 d63d 6ce3 083e 7a14 e83d
00000310: c5d5 11be 1b7e 1fba c98a 053c d7fe a4bb
00000320: b051 92bd 5d43 d0ba a508 36be 251b c2bd
00000330: 0c40 a7bd f78d ac3d fd1f 37bb 386e 3b3c
00000340: ef5e 07be de7c 07be 94bb 62bd ba30 853d
00000350: b454 9abc 98b4 bd3d dece 853d 32ee 7d3d
00000360: 6d95 853d da47 873d 3d91 c43c f7b5 983d
00000370: 36fa 283e dc16 2cbc 33a5 903d 6580 94bc
00000380: fb37 68bd eba3 ac3d 9042 b73d 302e 15be
00000390: fb9c b8bd 4b93 12be 3e44 babd f020 9b3d
000003a0: 9fe8 68be ba60 553d 4687 903c f10f 5aba
000003b0: 2aea a93d 21d2 243d 0877 0e3e 0cbd 9b3d
000003c0: 3454 18bd d739 2abc 93f6 b1bd 5927 c73c
000003d0: eb26 973d b147 893d ecf9 db3d 30e3 873c
000003e0: 68cc 673d ebc8 b03d 9904 0ebd 44fb 40bd
000003f0: 1050 51bd 39a8 da3c 8769 4cbd 665b bd3d

actor.2.bias f4 [64]
-0.13970777 0.07689103 -0.039420266 -0.0925688 -0.019155275 0.059791956 -0.075855486 -0.05456823
0.009296977 0.017498866 0.105953 0.00846813 -0.067908205 0.06837158 -0.116508864 -0.12578675
-0.0013669461 -0.1039158 -0.10751 0.061538413 -0.12085401 -0.021256488 0.07943574 -0.04067119
-0.041897852 -0.10156547 -0.11802983 -0.110152915 0.02481232 0.14632404 -0.11698587 0.006862185
-0.017923104 -0.06771046 0.036762625 0.09469859 -0.07885311 0.12298725 0.06708254 0.10936582
0.092859626 -0.041832704 0.07859439 0.024315208 0.04057176 -0.01736415 -0.028972384 0.08017435
-0.12148457 -0.027458092 0.03942209 -0.046084832 0.013503852 0.06115249 -0.06010282 -0.10900469
0.10161664 0.046463132 0.059191275 -0.07316323 0.10281873 -0.1033698 -0.0524934 0.0635408
00000000: 8e0f 0fbe 0b79 9d3d 2577 21bd b694 bdbd
00000010: 86eb 9cbc 69e8 743d 1f5a 9bbd f082 5fbd
00000020: 5952 183c c859 8f3c e3fd d83d e9bd 0a3c
00000030: 7513 8bbd 6606 8c3d 339c eebd 3ece 00be
00000040: 1a2b b3ba cfd1 d4bd 342e dcbd b40f 7c3d
00000050: 4f82 f7bd 1622 aebc 35af a23d d596 26bd
00000060: 159d 2bbd 8f01 d0bd a0b9 f1bd da97 e1bd
00000070: 3543 cb3c f8d5 153e 4a96 efbd 2edc e03b
00000080: 79d3 92bc c8ab 8abd 6894 163d 56f1 c13d
00000090: bd7d a1bd bde0 fb3d 9262 893d 30fb df3d
000000a0: 302d be3d c558 2bbd 18f6 a03d b030 c73c
000000b0: 932e 263d 433f 8ebc 7e57 edbc 7332 a43d
000000c0: e7cc f8bd cbef e0bc 0f79 213d 73c3 3cbd
000000d0: 433f 5d3c 097b 7a3d 602e 76bd da3d dfbd
000000e0: 631c d03d 2050 3e3d 8d72 723d 9bd6 95bd
000000f0: a092 d23d 8cb3 d3bd 5203 57bd ae21 823d

actor.4.weight f4 [1, 64]
0.11992553 0.08183512 0.13736098 -0.068398446 -0.051772676 -0.022966973 0.11657042 -0.062696755
-0.08957269 -0.034203146 0.119874306 -0.020767532 0.10901837 -0.002720555 -0.018543541 -0.051225245
-0.052845754 -0.06626625 -0.05484134 -0.034084328 -0.012973752 0.11773906 -0.17319559 0.048621938
0.15776196 0.22518389 0.08761154 0.13863298 0.062147185 0.05071625 -0.071869396 -0.01854747
-0.10898082 -0.16635619 0.08897986 0.0996876 0.087637834 0.14905776 0.057114586 0.061943177
0.09266827 -0.094656415 -0.07572056 0.11700359 -0.13786899 -0.10019452 0.11433791 -0.088351965
-0.04309266 -0.05876332 0.17099121 -0.18576457 0.19341703 -0.12567563 -0.086494975 -0.08900569
-0.18272486 0.0025555703 0.11104596 -0.08175543 0.07630378 -0.123254105 0.11085692 0.05169322
00000000: 849b f53d 2c99 a73d 5ba8 0c3e 7c14 8cbd
00000010: 960f 54bd 3c25 bcbc 79bc ee3d 2867 80bd
00000020: e371 b7bd 9918 0cbd a980 f53d ac20 aabc
00000030: 0645 df3d 574b 32bb a0e8 97bc 90d1 51bd
00000040: ca74 58bd 9ab6 87bd 50a1 60bd 029c 0bbd
00000050: dc8f 54bc 2d21 f13d 2f5a 31be cc27 473d
00000060: 5a8c 213e 9b96 663e ae6d b33d cef5 0d3e
00000070: 0c8e 7e3d d8bb 4f3d 4330 93bd ddf0 97bc
00000080: 5631 dfbd 4759 2abe 133b b63d 0329 cc3d
00000090: 777b b33d 99a2 183e fcf0 693d 21b8 7d3d
000000a0: ddc8 bd3d 39db c1bd 6213 9bbd 949f ef3d
000000b0: 872d 0dbe c932 cdbd ff29 ea3d e0f1 b4bd
000000c0: ee81 30bd cfb1 70bd 5218 2f3e 1139 3ebe
000000d0: 1d0f 463e 1db1 00be 4724 b1bd 9d48 b6bd
000000e0: 3a1c 3bbe 5b7b 273b 106c e33d 646f a7bd
000000f0: 2845 9c3d a66c fcbd f408 e33d 45bc 533d

critic.0.weight f4 [64, 5]
-0.3253966 0.4582846 -0.57004476 0.11604951 -0.21497688 0.032538813 0.41807774 -0.10700428
0.04773871 -0.47316542 -0.6308519 0.49054363 -0.5778688 -0.37164864 0.014272573 -0.069068566
0.3538218 1.1935841 0.04743568 0.37455937 -0.5743456 -0.18566158 -0.12690185 -0.046256974
0.008346868 0.16540624 0.46141693 -0.45729196 0.39851156 0.0078000855 -0.32582393 0.23399785
-0.52154875 0.0074419295 -0.1391107 -0.053039607 -0.4412559 -0.21142033 0.09245966 0.40143174
-0.0026276936 -0.269809 0.73464787 -0.016395973 0.24369092 0.1794507 0.06359739 -0.5425647
0.011643185 -0.15662938 0.21013497 0.27277797 -0.5808818 -0.35102606 -0.35982215 -0.5621267
-0.03801347 -0.108351044 0.23819548 0.08708461 -0.19576623 -0.35090703 -0.44513237 -0.37617543
0.24987593 -0.14335877 0.4813771 0.30668536 -0.6604129 -0.14632657 -0.28840375 0.3299683
-0.6270345 -0.059092335 -0.15683754 -0.5129084 0.113750935 -0.27646494 -0.17213692 0.17404233
0.26648715 -0.36560968 0.14380121 0.32450652 0.34199592 0.22028045 0.18960126 0.119814254
0.046270415 0.012226809 -0.51631176 0.21239042 0.5093176 -0.39857125 0.2783848 0.20212078
0.29118836 0.16572507 -0.3209088 -0.33247918 0.0593158 -0.4929117 -0.17854361 0.078021795
-0.15953147 -0.19663757 -0.30560407 -0.7036649 -0.13880993 -0.23926651 -0.28466028 0.0481583
0.17837067 -0.2787923 0.23707095 -0.2127801 -0.42356744 0.23168015 0.479937 -0.11780929
-0.009544419 0.4086875 0.13459781 -0.042163443 0.4370476 -0.041230064 -0.052061245 0.26384234
1.0164709 -0.045893803 0.42840257 -0.43849736 0.15034801 -0.109315075 0.31093165 -0.2555597
0.4778669 0.18238045 -0.52840805 0.3483122 0.5252109 0.46381822 0.36590707 0.12963235
-0.0035678723 -0.10866803 -0.35101572 0.4901576 -0.15131813 0.01755103 0.22884169 -0.104126275
0.0034469462 0.21004857 -0.053603437 -0.29778767 0.2150067 0.047108877 -0.7551915 -0.099917054
0.37149504 0.056354184 0.025130773 -0.126178 0.070240445 -0.13919112 -0.18859112 -0.045392014
0.105780795 0.021805428 0.059877153 -0.46104053 0.18956932 -0.3097804 0.2569195 0.14254586
-0.21773033 0.61319035 -0.51609266 -0.13830364 -0.5387005 0.08279338 0.17511466 -0.26334172
-0.0031476237 0.6838185 0.20938465 -0.28330055 0.2839698 -0.073020406 -0.03478159 0.32141075
-0.0817692 -0.21875489 -0.045600038 0.32987282 0.36297873 -0.039423905 0.32610536 0.22297007
-0.16165157 0.15074223 0.81250423 0.23896503 0.22738206 -0.22810853 0.02298718 -1.1357889
-0.010663289 -0.22801518 0.022434626 -0.16717832 0.90566295 -0.042364724 -0.15392536 0.009578019
-0.10962641 1.086972 0.002506584 0.2385037 0.3683684 -0.4178476 -0.012277126 -0.030962177
0.28342265 0.012566813 -0.5470445 -0.45751095 -0.1350452 0.15294904 -0.091813274 0.108539194
-0.46579352 -0.051310893 0.3056559 0.1533673 0.39384392 -0.15692376 -0.13138235 -0.16743316
-0.052202698 -0.52710724 0.77112204 -0.025802556 0.293144 0.38514656 -0.08447906 -0.4659433
-0.45266217 0.14602175 -0.24787068 -0.35031614 -0.4443763 0.34442434 0.34228703 0.32536602
00000000: 629a a6be 47a4 ea3e 74ee 11bf 5eab ed3d
00000010: e622 5cbe 6b47 053d 490e d63e 0f25 dbbd
00000020: aa89 433d bd42 f2be 837f 21bf 8928 fb3e
00000030: 36ef 13bf bb48 bebe 83d7 693c d273 8dbd
00000040: 2228 b53e 5dc7 983f ea4b 423d 3fc6 bf3e
00000050: 5008 13bf 121e 3ebe 8ff2 01be f477 3dbd
00000060: 4dc1 083c 4160 293e d73e ec3e 2c22 eabe
00000070: b509 cc3e dc97 ff3b 65d2 a6be 229d 6f3e
00000080: 3884 05bf 6edb f33b 0973 0ebe 0f40 59bd
00000090: 4bec e1be 927e 58be 7d5b bd3d 7688 cd3e
000000a0: 6235 2cbb 6824 8abe e211 3c3f d950 86bc
000000b0: 1d8a 793e edc1 373e 593f 823d 85e5 0abf
000000c0: 0fc3 3e3c 7463 20be 9f2d 573e 8ea9 8b3e
000000d0: abb4 14bf b0b9 b3be 9c3a b8be 89e7 0fbf
000000e0: 03b4 1bbd 27e7 ddbd 84e9 733e 6a59 b23d
000000f0: f176 48be 16aa b3be 64e8 e3be 119a c0be
00000100: 7adf 7f3e a4cc 12be 0f77 f63e dd05 9d3e
00000110: d210 29bf a2d6 15be a8a9 93be 9bf1 a83e
00000120: 5585 20bf ce0a 72bd 059a 20be f74d 03bf
00000130: 40f6 e83d d08c 8dbe a944 30be 2738 323e
00000140: 0171 883e 3131 bbbe a040 133e b825 a63e
00000150: 171a af3e 3391 613e d526 423e 2d61 f53d
00000160: 0c86 3d3d f452 483c 022d 04bf e07c 593e
00000170: a362 023f 8811 ccbe 7488 8e3e c0f8 4e3e
00000180: a416 953e d5b3 293e 294e a4be b63a aabe
00000190: 20f5 723d ec5e fcbe 23d4 36be e4c9 9f3d
000001a0: 385c 23be 5c5b 49be 2378 9cbe 6223 34bf
000001b0: 3124 0ebe 4802 75be febe 91be a341 453d
000001c0: cda6 363e ddbd 8ebe bac2 723e 07e3 59be
000001d0: d5dd d8be 903d 6d3e 4dba f53e ff45 f1bd
000001e0: 3260 1cbc 7d3f d13e 02d4 093e 93b3 2cbd
000001f0: b4c4 df3e dbe0 28bd 2c3e 55bd 5816 873e
00000200: b81b 823f 24fb 3bbd 9557 db3e ba82 e0be
00000210: d4f4 193e 95e0 dfbd 6f32 9f3e b9d8 82be
00000220: f8aa f43e f1c1 3a3e c045 07bf fa55 b23e
00000230: 3974 063f 9579 ed3e 2c58 bb3e 58be 043e
00000240: f7d2 69bb 588d debd 55b8 b3be f0f5 fa3e
00000250: 24f3 1abe 2dc7 8f3c 7a55 6a3e 2840 d5bd
00000260: 29e6 613b f916 573e 478f 5bbd a077 98be
00000270: b72a 5c3e 3df5 403d 3b54 41bf 50a1 ccbd
00000280: 9934 be3e a5d3 663d 0ddf cd3c ce34 01be
00000290: 39da 8f3d 1e88 0ebe 081e 41be faec 39bd
000002a0: 9aa3 d83d 4ca1 b23c bf41 753d 810d ecbe
000002b0: 761e 423e 899b 9ebe f48a 833e 8bf7 113e
000002c0: b3f4 5ebe 0bfa 1c3f a61e 04bf 789f 0dbe
000002d0: 47e8 09bf 938f a93d 4251 333e bad4 86be
000002e0: 5d48 4ebb bb0e 2f3f ee68 563e c50c 91be
000002f0: 7d64 913e b98b 95bd 2477 0ebd f38f a43e
00000300: 9c76 a7bd 4801 60be 1bc7 3abd 17e5 a83e
00000310: 59d8 b93e f67a 21bd 48f7 a63e 4452 643e
00000320: fd87 25be 2c5c 1a3e 4700 503f 40b3 743e
00000330: d8d6 683e 4895 69be 9c4f bc3c 8861 91bf
00000340: 13b5 2ebc d07c 69be d2c8 b73c cb30 2bbe
00000350: 87d9 673f a286 2dbd 9c9e 1dbe 20ed 1c3c
00000360: d083 e0bd e621 8b3f 8045 243b 503a 743e
00000370: c89a bc3e 1ff0 d5be 0026 49bc 64a4 fdbc
00000380: c61c 913e 09e5 4d3c 1c0b 0cbf e03e eabe
00000390: 4a49 0abe ac9e 1c3e 9908 bcbd cc49 de3d
000003a0: 7d7c eebe 5f2b 52bd ee7e 9c3e 510c 1d3e
000003b0: e9a5 c93e 9fb0 20be 1889 06be 9973 2bbe
000003c0: 7fd2 55bd 80f0 06bf 4168 453f e25f d3bc
000003d0: f816 963e ee31 c53e 5b03 adbd 1f90 eebe
000003e0: 56c3 e7be ba86 153e d0d1 7dbe a35c b3be
000003f0: 4a85 e3be 6358 b03e 3f40 af3e 6096 a63e

critic.0.bias f4 [64]
-0.62623364 -0.45599505 -0.20965385 0.26156983 -0.1214308 -0.03289248 -0.16662125 0.38100785
-0.15424454 0.4486158 -0.074292004 0.14042653 -0.12712887 -0.23521538 -0.18401656 0.0605369
0.24617338 -0.02378226 -0.34604213 0.11797743 0.49886322 -0.095605604 -0.10063904 -0.20658171
-0.33561912 0.026956461 -0.39175537 -0.49414468 -0.21413837 0.28968647 0.25958532 0.28120342
-0.22738425 -0.47237086 -0.28022113 0.42656586 -0.1458565 -0.45835787 0.4481054 -0.20344593
0.3505884 0.068234116 -0.19847639 -0.15703756 -0.31821373 0.3716661 -0.27235156 -0.36527753
-0.2727864 -0.16035353 0.40849602 -0.20773476 -0.16807435 0.5527117 0.14428939 -0.5173592
0.34282976 -0.54391575 0.33827055 0.3996378 0.12931252 -0.38752207 0.20969507 0.32042003
00000000: d950 20bf 2f78 e9be 80af 56be 7bec 853e
00000010: b6b0 f8bd 44ba 06bd c39e 2abe 7613 c33e
00000020: 48f2 1dbe f8b0 e53e 6826 98bd f9cb 0f3e
00000030: 122e 02be 4ddc 70be d66e 3cbe 8af5 773d
00000040: e014 7c3e 04d3 c2bc 6f2c b1be 279e f13d
00000050: 006b ff3e dfcc c3bd d71b cebd 288a 53be
00000060: 45d6 abbe ccd3 dc3c 2994 c8be 8800 fdbe
00000070: 1747 5bbe c951 943e 5ee8 843e e5f9 8f3e
00000080: 6bd7 68be 98da f1be 2579 8fbe d766 da3e
00000090: 685b 15be e2ad eabe 126e e53e 2154 50be
000000a0: 5380 b33e 54be 8b3d 653d 4bbe 74ce 20be
000000b0: e9ec a2be 054b be3e aa71 8bbe a805 bbbe
000000c0: a9aa 8bbe b733 24be 6426 d13e 6cb8 54be
000000d0: af1b 2cbe 847e 0d3f 99c0 133e a771 04bf
000000e0: 6287 af3e 103e 0bbf cc31 ad3e 539d cc3e
000000f0: 806a 043e 4b69 c6be 4eba 563e 180e a43e

critic.2.weight f4 [64, 64]
0.07116124 0.046453204 0.24907352 -0.2045998 -0.06811487 0.05197457 -0.025093984 0.054423623
-0.039390072 0.062909834 -0.110516965 0.031407967 -0.083316065 -0.074123405 -0.03219956 0.03755858
-0.0074677863 -0.027748132 -0.08671338 0.036002547 -0.032424644 0.0076100016 0.02096165 0.085740335
-0.064246215 -0.026174333 0.06283275 -0.0011607617 -0.068487786 0.14851055 0.11037061 0.06251883
-0.0016927575 -0.08440879 -0.023382531 -0.07530643 0.053054962 0.23305836 0.10685687 0.02973398
-0.12294978 -0.022797413 -0.12686169 0.13952705 -0.045226637 0.14396586 -0.12208895 0.09272558
0.13511267 -0.12837347 0.067935936 0.06285077 -0.081346825 -0.06244548 -0.08400834 -0.35741866
0.12689544 -0.12395909 -0.11388781 -0.13303375 0.16291451 -0.19419557 -0.1026671 -0.09799994
-0.23802793 0.06374415 -0.11410494 0.0958289 0.04389836 0.13512175 -0.030701468 -0.056720443
-0.10733007 0.10366884 -0.1167318 0.035784144 -0.015320239 0.054565478 -0.1576901 0.045364376
0.09265038 0.09438233 -0.039309487 -0.05849799 -0.051425613 0.076298885 -0.050445467 0.020879151
0.04285821 -0.016958565 -0.17595895 0.09101006 -0.12173246 -0.24394156 0.047694493 0.12289142
-0.05645 0.1725745 -0.16170408 -0.16602549 -0.01843138 -0.13060491 -0.16422987 -0.0007548986
0.022507308 0.051696945 -0.015531189 -0.0853318 -0.008475599 -0.09080433 0.14094791 0.058213405
-0.22924457 0.055802226 -0.035347167 0.03806865 0.11300902 0.16080342 -0.1177043 0.11930765
-0.050493345 0.16241236 0.14901644 -0.06967827 0.029352108 0.08685927 0.0641543 -0.102903664
-0.11059964 -0.07019497 0.18136194 0.022401288 -0.18587646 0.015731964 -0.01872964 0.2459203
0.082317665 0.07765492 -0.1097573 0.06304096 0.12968296 -0.13521942 0.05797087 0.028715419
0.15381709 0.018424997 -0.025379745 -0.04585888 0.06156133 -0.05605614 0.019804126 -0.14693268
0.04191232 -0.081244454 0.16040418 -0.034235943 0.06711561 0.13292083 0.035086147 -0.057260454
-0.16836323 -0.23363356 0.12385336 0.17581663 -0.056565825 0.14391214 0.20976028 -0.095445976
0.06617623 -0.082319476 -0.15418942 0.1483589 0.14794789 0.20392358 -0.06655032 -0.09678313
0.2389917 -0.053777453 0.16006766 0.111829564 -0.023169072 -0.062707 0.099504896 -0.07065114
-0.062516466 -0.17537358 -0.25727016 -0.028210185 0.1642214 0.038417898 -0.054923907 0.047382973
-0.047440883 -0.05081738 -0.27624807 0.21427159 -0.125605 -0.042504035 0.00680043 0.036411412
0.0849213 0.07958914 -0.012957511 -0.037735105 -0.100076176 -0.12136047 -0.09928792 -0.06516953
-0.07133038 -0.014902178 -0.082866706 0.09393987 0.044304628 0.06489703 0.102445535 -0.0817935
0.13390039 -0.0030310713 -0.063360505 0.08767431 0.08538537 -0.06938654 -0.0018334652 -0.09158624
0.14030561 0.23433296 -0.11658933 0.07479642 -0.11985976 -0.20409556 -0.19927639 -0.047098055
-0.016082702 -0.020589447 0.054279145 -0.109315895 0.038373236 0.08244685 0.046447564 -0.15331453
-0.062353414 0.060884483 -0.036449753 0.09903638 0.21819457 0.154626 -0.17765164 0.15814766
0.11463233 0.002705642 0.25768927 -0.06284529 0.07002366 0.14789866 0.0050874464 0.1773064
00000000: fcbc 913d b745 3e3d 210d 7f3e 9c82 51be
00000010: cf7f 8bbd 49e3 543d e691 cdbc 4eeb 5e3d
00000020: 7c57 21bd dfd6 803d b856 e2bd a4a5 003d
00000030: 9da1 aabd 03ce 97bd b0e3 03bd 07d7 193d
00000040: 55b4 f4bb 0d50 e3bc c996 b1bd 6877 133d
00000050: b4cf 04bd 525d f93b c4b7 ab3c a198 af3d
00000060: 8593 83bd 8e6b d6bc 75ae 803d b324 98ba
00000070: 5343 8cbd 2613 183e fd09 e23d df09 803d
00000080: 84df ddba 84de acbd b98c bfbc 423a 9abd
00000090: 2950 593d daa6 6e3e c6d7 da3d ad94 f33c
000000a0: 18cd fbbd a4c1 babc 08e8 01be 2ee0 0e3e
000000b0: 913f 39bd c96b 133e c509 fabd e9e6 bd3d
000000c0: fa5a 0a3e 5674 03be ff21 8b3d e8b7 803d
000000d0: 2a99 a6bd d5c6 7fbd 910c acbd 94ff b6be
000000e0: e1f0 013e 43de fdbd 033e e9bd 003a 08be
000000f0: 10d3 263e 34db 46be 2143 d2bd 31b4 c8bd
00000100: 98bd 73be 4b8c 823d daaf e9bd f141 c43d
00000110: c4ce 333d 5b5d 0a3e a581 fbbc b253 68bd
00000120: decf dbbd 5450 d43d 1511 efbd 6592 123d
00000130: bd01 7bbc 0d80 5f3d 8379 21be ffcf 393d
00000140: 7cbf bd3d 864b c13d fc02 21bd 979b 6fbd
00000150: aaa3 52bd 9742 9c3d e89f 4ebd c10a ab3c
00000160: 178c 2f3d b0ec 8abc 952e 34be 7b63 ba3d
00000170: de4e f9bd d1cb 79be 4d5b 433d 7fae fb3d
00000180: 1d38 67bd 5fb7 303e c195 25be 9602 2abe
00000190: 68fd 96bc 4bbd 05be e02b 28be 63e4 45ba
000001a0: 3f61 b83c 2dc0 533d 8776 7ebc 70c2 aebd
000001b0: 3ddd 0abc 9ff7 b9bd a654 103e 2e71 6e3d
000001c0: 17bf 6abe e090 643d 31c8 10bd dfed 1b3d
000001d0: 4671 e73d a7a9 243e f40e f1bd 9257 f43d
000001e0: 1cd2 4ebd 6d4f 263e c497 183e 7bb3 8ebd
000001f0: d573 f03c 46e3 b13d 5463 833d 28bf d2bd
00000200: 1082 e2bd 61c2 8fbd f2b6 393e e882 b73c
00000210: 6656 3ebe 52e0 803c e76e 99bc 88d2 7b3e
00000220: 2a96 a83d 8b09 9f3d 6fc8 e0bd 9e1b 813d
00000230: 9ccb 043e f676 0abe dd72 6d3d 993c eb3c
00000240: 3a82 1d3e 05f0 963c 2fe9 cfbc 85d6 3bbd
00000250: bc27 7c3d 209b 65bd 433c a23c 8575 16be
00000260: 41ac 2b3d 7e63 a6bd fe40 243e fd3a 0cbd
00000270: e973 893d 661c 083e 7eb6 0f3d f089 6abd
00000280: 6967 2cbe a33d 6fbe d5a6 fd3d 4609 343e
00000290: 91b1 67bd b45d 133e 66cb 563e 2e79 c3bd
000002a0: 6787 873d 1d97 a8bd d5e3 1dbe 65eb 173e
000002b0: a77f 173e 58d1 503e 894b 88bd 3c36 c6bd
000002c0: 3dba 743e bf45 5cbd c7e8 233e e606 e53d
000002d0: 11cd bdbc 876c 80bd 39c9 cb3d 8bb1 90bd
000002e0: a208 80bd 2295 33be eab8 83be 0c19 e7bc
000002f0: a829 283e 165c 1d3d e4f7 60bd a614 423d
00000300: 5f51 42bd e325 50bd 6370 8dbe 036a 5b3e
00000310: 999e 00be b618 2ebd 24d6 de3b 2224 153d
00000320: 38eb ad3d a2ff a23d bd4b 54bc 2090 1abd
00000330: bdf4 ccbd d78b f8bd 7757 cbbd 9a77 85bd
00000340: aa15 92bd 4428 74bc 05b6 a9bd 8c63 c03d
00000350: c578 353d bce8 843d f7ce d13d 5a83 a7bd
00000360: 2f1d 093e f0a4 46bb 27c3 81bd 978e b33d
00000370: 86de ae3d 881a 8ebd e250 f0ba 9191 bbbd
00000380: 46ac 0f3e fbf4 6f3e 63c6 eebd de2e 993d
00000390: 0979 f5bd 6dfe 50be 1c0f 4cbe e4e9 40bd
000003a0: dfbf 83bc 33ab a8bc cf53 5e3d 03e1 dfbd
000003b0: 412d 1d3d e5d9 a83d cd3f 3e3d 7cfe 1cbe
000003c0: 4b66 7fbd 0262 793d 564c 15bd 96d3 ca3d
000003d0: 666e 5f3e 4756 1e3e 50ea 35be 76f1 213e
000003e0: 5bc4 ea3d 2451 313b d9ef 833e 08b5 80bd
000003f0: 9168 8f3d bf72 173e 98b4 a63b cf8f 353e

critic.2.bias f4 [64]
0.20590915 -0.23096795 0.16454978 -0.09277705 0.078609146 0.019581573 -0.17505613 -0.011119916
0.17332421 -0.06384193 0.09330416 -0.15142393 -0.23288646 -0.00082789094 -0.16551277 0.013399574
-0.38639593 0.111453585 -0.012226884 -0.009656117 0.12693922 -0.21954757 0.012253505 -0.03950672
-0.09031199 -0.06423825 -0.009828191 -0.22172521 0.100795254 -0.40962476 0.014580831 0.29105914
0.00023911013 0.12799425 0.017350774 0.090260014 -0.016100109 0.03032301 -0.041488793 -0.261523
0.10293051 -0.21529506 0.11726117 -0.009068032 -0.20203315 0.09314275 0.34099507 -0.08660404
-0.16691442 -0.13132143 0.13601995 0.008563109 0.13268955 -0.08811558 -0.22038788 0.234582
0.073159665 0.3166809 -0.017332325 -0.11658486 -0.31027347 0.1862157 -0.007452856 -0.033649053
00000000: d9d9 523e dd82 6cbe bd7f 283e e501 bebd
00000010: d5fd a03d 8969 a03c ea41 33be 4f30 36bc
00000020: e77b 313e 8fbf 82bd 4016 bf3d e00e 1bbe
00000030: ca79 6ebe d206 59ba 2e7c 29be e389 5b3c
00000040: b0d5 c5be c741 e43d 4553 48bc b134 1ebc
00000050: 5bfc 013e 14d1 60be edc2 483c ccd1 21bd
00000060: 7ef5 b8bd 588f 83bd 6c06 21bc ef0b 63be
00000070: be6d ce3d 56ba d1be 70e4 6e3c b405 953e
00000080: a3b9 7a39 ed10 033e 3623 8e3c 3eda b83d
00000090: 60e4 83bc f667 f83c 27f0 29bd 58e6 85be
000000a0: 3bcd d23d 4f76 5cbe a026 f03d 1592 14bc
000000b0: c7e1 4ebe a0c1 be3d e896 ae3e 755d b1bd
000000c0: 9deb 2abe 2079 06be d048 0b3e 484c 0c3c
000000d0: c5df 073e f175 b4bd 5cad 61be 4436 703e
000000e0: bcd4 953d 0024 a23e 85fc 8dbc 0bc4 eebd
000000f0: 2adc 9ebe 54af 3e3e 1637 f4bb 97d3 09bd

critic.4.weight f4 [1, 64]
-0.17550476 0.20428483 -0.17219436 0.0774589 0.16752768 -0.18364473 0.18214794 0.17617221
-0.115014076 -0.088391095 -0.11061359 0.20035781 0.25463057 0.107319966 0.15234907 -0.10161774
-0.3525687 -0.02325062 0.06441073 -0.18268168 0.2509322 0.30857635 -0.007389124 0.09871024
-0.13329987 -0.13157134 -0.07889979 0.19865368 -0.07405334 0.202823 -0.10087676 -0.30674866
0.07281875 0.2613222 -0.20504855 0.23046799 0.1623496 -0.09504443 0.18929581 0.21480869
0.36149883 0.12164912 0.28049576 0.051343013 0.16095664 0.09352283 -0.20866749 0.1867678
0.0041882363 0.058043886 0.2079674 -0.08509631 -0.11279573 0.1493612 0.27757728 -0.19033453
0.023852855 -0.18260792 -0.10860044 -0.14731525 0.16244978 -0.20914428 -0.08627731 0.1427625
00000000: 85b7 33be 0b30 513e b853 30be c6a2 9e3d
00000010: 608c 2b3e 5d0d 3cbe fd84 3a3e 7d66 343e
00000020: 808c ebbd 6406 b5bd 6189 e2bd 992a 4d3e
00000030: f05e 823e 92ca db3d 6501 1c3e f61c d0bd
00000040: e283 b4be 1678 bebc c6e9 833d e810 3bbe
00000050: 2f7a 803e b8fd 9d3e 7720 f2bb 9828 ca3d
00000060: c37f 08be a3ba 06be 3796 a1bd df6b 4b3e
00000070: 47a9 97bd d5b0 4f3e 7a98 cebd 290e 9dbe
00000080: ff21 953d 06cc 853e 3ff8 51be cdff 6b3e
00000090: f93e 263e a7a6 c2bd c3d6 413e cff6 5b3e
000000a0: 6016 b93e 2c23 f93d 249d 8f3e 0d4d 523d
000000b0: d1d1 243e e688 bf3d eeac 55be 0f40 3f3e
000000c0: 793d 893b 6dbf 6d3d 68f5 543e f946 aebd
000000d0: 7301 e7bd 24f2 183e 9c1e 8e3e 0ee7 42be
000000e0: 1067 c33c 92fd 3abe e869 debd cfd9 16be
000000f0: 3c59 263e eb29 56be 29b2 b0bd 5530 123e
