controller/PPO_CartPole-dm_0_140000.pth (torch, 41263 bytes, 10 tensors)

actor.0.weight f4 [64, 5]
00000000: 0725 ea3d a64d 9fbe 2de8 d9be d1fa cb3d
00000010: 9fc6 c3bc 2f03 c13d 4784 1c3d 44db debb
00000020: 34cd e13c 6105 fdbc f0ec b93b 58d9 153f
00000030: b522 513e 517d d43d 304d 6a3e 564d c9be
00000040: 627e a4be be83 183f 161c 9c3d 580e 51bd
00000050: 7c22 143e 974a 23bf 96af 05bf d111 4a3e
00000060: b59b 8bbe 12ec 49bd 01dd 183f 185d e83e
00000070: 7a72 af3d edfc 2a3e 43ee b23e 665e 023e
00000080: e5c5 f4be bc88 1bbd 03ba 7b3e 559c debe
00000090: 07b2 7b3d 7961 c23d 5863 833e e224 87be
000000a0: a4a1 a2bc 7b75 aa3e dad4 8a3e d4e3 e03e
000000b0: 43a8 c9be 619d 003e ce96 cf3d 5e02 5ebe
000000c0: d97e 01be 8254 45bd 0144 93be d10a e4be
000000d0: b98e 6cbc 7433 4abe 8e6c 943d 6fb5 a6be
000000e0: af1a 723e ae5b 2c3d 6bfe dd3e 8a06 fabe
000000f0: 5922 6cbe ff89 bcbe 2118 7abe 12f8 e7be
00000100: ef8d a4bc a12d 513d fd28 b03e c256 583d
00000110: 967f 883e afe0 a4be 9412 82be e3cb 163e
00000120: d610 a7bd 8092 803d 49a0 e6be 9160 413e
00000130: 56fe c8be 0995 0f3e f006 84be fc81 10be
00000140: 111b 8dbe 157c 83be 3b79 a3bc 2d07 87be
00000150: a75e 5c3e 36af b73e 1163 08bf 00f2 c0be
00000160: 01bd 813e 12cd 8bbe 9958 afbe e376 18bf
00000170: 6ba9 ce3e 59c2 a5be 77ac ef3e 8585 da3d
00000180: 0cd6 4bbe 6eee 57bc 2fbe e5be 37ca 003e
00000190: 1988 4c3e a756 0a3e fc85 ce3e 37c7 07bd
000001a0: 110c 24be 772d 933c a792 213f 6707 003f
000001b0: 43a5 2b3e 9057 c9bd 7544 68be 06d3 65be
000001c0: d958 253e db67 8dbd 0efc 8fbc 050a 9cbe
000001d0: a24d 1abb e05b 043f cc97 91be 7e14 02bf
000001e0: f4b5 acbc ecf0 3bbe 6cda 503e 6ee7 6dbe
000001f0: af9b 0a3f 8197 2abe 7c29 bdbd 6827 073f
00000200: 7d3f a5be 18c9 35be b8d0 183e eeb7 07ba
00000210: 8869 36bf f9bb 5a3e c469 7ebd b004 05bd
00000220: 0d8b f73e 485d e23e 131e 89be 5c35 1a3e
00000230: 241c c6be a552 083f 10bc b13d 84ed cd3e
00000240: 67ca 643e 6cce e53e c084 103d bbc3 77be
00000250: cae3 90be ef36 1ebd efdd 99be 15a6 7d3d
00000260: 8d23 ac3e ad91 3f3e a0be edbe e03b 863e
00000270: 1c91 9fbe 6c0a 1b3f aada 88bc da52 5fbe
00000280: 7ff4 91be cca2 66be 46ac 7abe 4a1f bfbe
00000290: 1ea3 833e d865 2dbe 9e5f e9be 888a 1e3f
000002a0: 9559 d3be c597 ec3e 73b0 25bd 6707 f8bc
000002b0: 61f4 a73e ec75 d4be e410 b73e be66 cf3e
000002c0: e9d6 1cbf a7d5 743e a693 b6bd 43ae 55bd
000002d0: 8a69 07be d90b b4be a75c 0dbe 8b72 d5be
000002e0: ed8d 91be 8acd b4bd e22d 1bbf 8e1f b8be
000002f0: 1769 0a3f 262f c4bd 0ba6 a13e 3447 103d
00000300: 8434 09bf af8a 8fbe 007d ffbe 61cf 1c3e
00000310: c4ab 173e fef0 35be 9d02 84be a305 98be
00000320: e70d 883e b5d6 1bbf 7890 e3be a146 dbbe
00000330: f830 35be 110a 1e3e f3e4 d13e af4c f4bd
00000340: b925 a83d 059c 2c3e b44d c5bc 6d6d ebbd
00000350: 2a33 a9be 9939 0a3e dcdb 91be 0c83 44be
00000360: 85d4 a03e f414 dfbd 4b3b 99bd 575c d33e
00000370: 3ba2 abbe f7d2 973e 3a64 09bf 542e f8bd
00000380: 6185 debe ee5d afbe 83b9 1abe 2f1b 203d
00000390: b7d9 793e 0f4b babd 08cc e5bd 61bf f83e
000003a0: 9feb d6bc f5e0 163f 3071 3dbe 52a1 ce3e
000003b0: cac7 d53e 8604 be3e b8ad 8f3c 9e68 a6be
000003c0: 7fdb 82bc e391 a4be 8c3c eb3d 3644 87be
000003d0: d828 c93e c066 b73e 68a3 d4be f0ef c13d
000003e0: 1850 e73c 536b 0fbe 62db ff3e 61b4 82be
000003f0: 113c e5be 8912 c5be 8182 13be 148b 05be
0.11432844 -0.3111393 -0.4255995 0.09959949 -0.02389842 0.09424435 0.038212087 -0.006801041
0.027563669 -0.030886354 0.005673997 0.58534765 0.20423396 0.10375465 0.22881007 -0.39316815
-0.32127672 0.5957602 0.076225445 -0.05103907 0.1446628 -0.6378569 -0.5222105 0.19733359
-0.27267233 -0.0492974 0.59712225 0.45383525 0.085667565 0.16698046 0.34947404 0.12731323
-0.47807232 -0.037972197 0.24582677 -0.43478647 0.061449077 0.09491248 0.2566173 -0.26395327
-0.019852467 0.33292755 0.27115518 0.4392382 -0.39386186 0.12560035 0.101361856 -0.2168059
-0.12646045 -0.048176296 -0.2876282 -0.44539502 -0.014438325 -0.1974619 0.07247268 -0.32560298
0.23642991 0.04207962 0.43358168 -0.48833114 -0.23059978 -0.36824033 -0.24423267 -0.4530645
-0.02008721 0.051068906 0.34406272 0.052817114 0.2665984 -0.3220267 -0.254048 0.14726214
-0.08157508 0.06277943 -0.45044163 0.18884493 -0.39256543 0.14021696 -0.25786543 -0.14112085
-0.27559713 -0.25680605 -0.019955268 -0.26372662 0.21520482 0.35875863 -0.53276163 -0.3768463
0.2533951 -0.27304894 -0.34247282 -0.59556407 0.4036363 -0.32374838 0.46811268 0.10669998
-0.19905871 -0.013179405 -0.4487166 0.12577139 0.19973792 0.13509618 0.40336597 -0.03314897
-0.16020228 0.017966015 0.631144 0.50011295 0.16762261 -0.09831154 -0.22682364 -0.2244378
0.16147174 -0.069045745 -0.017576244 -0.30476394 -0.0023544808 0.5170269 -0.28436124 -0.5081252
-0.021082856 -0.18353623 0.20395821 -0.23232815 0.54143804 -0.16659357 -0.09236428 0.52794504
-0.32275 -0.17752492 0.1492337 -0.0005177249 -0.7125478 0.21360768 -0.062112585 -0.032475173
0.48348275 0.44211793 -0.26780757 0.15059417 -0.38693345 0.53251106 0.08678448 0.40220273
0.22342835 0.4488405 0.03528285 -0.24195759 -0.2829879 -0.038626608 -0.30052134 0.061925966
0.33620873 0.18707915 -0.46434498 0.26217556 -0.31165397 0.6056278 -0.01670583 -0.21808949
-0.28506848 -0.2252304 -0.2447978 -0.3732856 0.25710386 -0.16933382 -0.45580763 0.6193013
-0.41279283 0.4620954 -0.04045148 -0.030276967 0.32803634 -0.41496217 0.35755074 0.40508074
-0.61265427 0.23909627 -0.089148805 -0.052168142 -0.13223854 -0.3516529 -0.13804875 -0.41688952
-0.28428593 -0.08828266 -0.60616887 -0.35961574 0.54066604 -0.09579305 0.31571993 0.035224155
-0.5359576 -0.28035495 -0.49900055 0.15313484 0.14811617 -0.17767712 -0.25783244 -0.296918
0.26573107 -0.6087449 -0.44446158 -0.42827323 -0.17694461 0.15433528 0.40994987 -0.11928689
0.0821032 0.16856392 -0.024084903 -0.11495481 -0.33046848 0.13498534 -0.28488052 -0.19190615
0.3141214 -0.10892668 -0.07482012 0.41281387 -0.3352221 0.2965314 -0.5366856 -0.121182114
-0.43461135 -0.3425135 -0.1510983 0.039088424 0.24399458 -0.090963475 -0.112205565 0.4858351
-0.0262354 0.5893701 -0.18500209 0.40357453 0.4175399 0.37112826 0.01753889 -0.32501692
-0.015973805 -0.32142553 0.11486158 -0.26419228 0.39288974 0.3582058 -0.4153092 0.094695926
0.028236434 -0.14005785 0.49972063 -0.25528243 -0.4477239 -0.38490704 -0.14405252 -0.13041335

actor.0.bias f4 [64]
00000000: 9eeb 80be 8fa5 a73b 8772 b8be b2af a2be
00000010: 3f68 98be bb55 5abd c103 113f bee3 733c
00000020: 414a d5be 8521 363d f174 393d da78 cfbe
00000030: f992 853e 00b4 61be d213 4c3c 2f1b d9be
00000040: 66fd 623e 5eb8 82be c7ff 933e b5fc 423d
00000050: 07f9 80bd 1a09 18be 09e6 b3bd bab6 2fbd
00000060: 5511 703e b9cf 12bf b839 a23d 6537 9c3e
00000070: 14d4 bcbd b4ed efbd ed0d df3e 047f c0be
00000080: f352 c2be 850e 7c3e 6973 85bd bebe 51bd
00000090: 8e19 e8be c83f a3be 19ef 4cbe 92c7 c13e
000000a0: 2ec2 dcbc 79ac fcbe f94b 6c3e 7311 613e
000000b0: 23bb c8be da09 bb3e 9cc1 5c3a 463c ad3e
000000c0: 32e4 b23e 7542 dcbe b6fb 0a3e 15e5 c0ba
000000d0: c8ea cfbe 5622 3dbe 95c7 c2be 673d febe
000000e0: f220 08bf 8466 453d ad33 d93e e537 f63d
000000f0: 1d77 9fbe 8c4f 5e3e f37a aabe ae08 8d3e
-0.25179762 0.0051161717 -0.36024877 -0.3177467 -0.29767033 -0.053304415 0.56646353 0.014885841
-0.41658214 0.04446556 0.04527754 -0.4052189 0.26088694 -0.22041321 0.012455897 -0.42403552
0.22166976 -0.25531286 0.2890608 0.04760428 -0.06297498 -0.14847222 -0.0878411 -0.04289887
0.23444112 -0.5734821 0.07921165 0.30511013 -0.09220138 -0.1171526 0.43565312 -0.37596905
-0.3795391 0.24614914 -0.06516153 -0.051207297 -0.45331997 -0.318846 -0.20013084 0.37847573
-0.02694806 -0.49350336 0.23075856 0.21979313 -0.39205274 0.36530954 0.0008421184 0.33835047
0.34939724 -0.43019453 0.13572583 -0.0014716709 -0.4060881 -0.1847013 -0.38042894 -0.4965622
-0.5317527 0.04819347 0.42422238 0.1202238 -0.31145564 0.21710032 -0.33296928 0.27545685

actor.2.weight f4 [64, 64]
00000000: 59c9 0cbe 28e3 213d 6218 02be 3d4b db3d
00000010: 0f94 7dbd fe0b fcbd 58f8 9dbd 84ab d13d
00000020: d805 f33c 6c8f ebbc 3f08 0dbc 7e69 0dbd
00000030: 0058 183c 6513 7fbd 2e5d afbd 7072 81bd
00000040: baf9 4fbd a52f e8bc 993a 353d b6dc c53d
00000050: 4380 063d 8467 003d 988e d83d 6ec8 97bd
00000060: 6742 e93d dc28 40bc 695b d1bd 3cab 8e3d
00000070: 8222 2bbe 8f2c c8bd 93bf cf3d 6e12 763d
00000080: 0421 eb3d a363 0c3e 1ba6 c7bc e72e b63d
00000090: ba45 0cbc 1991 e53d 082a b5bd c488 2dbd
000000a0: 7a08 4d3d 88ca 1bbe bd27 a33d b1d5 763d
000000b0: 5140 8dbd c12e dcbd e579 72bd 701f c9bd
000000c0: a113 cc3c f1c5 683c c354 42bd 19fd 93bd
000000d0: df82 f3bd 06e9 803c bb12 20bb c46e da3d
000000e0: 90ef bdbd 1af9 b03d d862 943d ae7f 03bc
000000f0: e325 593d fa6a c33d d3a1 d1bd 15c8 93bd
00000100: 1df4 e8bd ad0e e7bd 94ed 09be 1ae2 55bd
00000110: 5a5a d13d d815 c13b be97 01bd 1263 e7bc
00000120: 44fb 513d 6d2f 20bd 9889 e3bd 506f 3b3d
00000130: 4d67 97bd 411a bf3d 463e 65bd ce62 15be
00000140: 6d96 9e3d 05df e9bd e25d 2e3c f1cd f6bc
00000150: 2e46 b8bd 653e 203e cbab 593d f218 e1bd
00000160: 37fe 8e3c 733f d3bd 0f2d 963c 79e9 04bd
00000170: fcb3 e3bc e99b 11be 447c febc 20e1 b7bd
00000180: 44c5 9c3d 789b ce3d f76b ad3d cffb 403d
00000190: 5ae8 453d b277 cebd 94dc 89bd ae67 ec3d
000001a0: 03a6 723d 7f72 993d 889a d93d 23fb bf3d
000001b0: 66df d43d e155 2a3e b052 913d 0f0a b63d
000001c0: c647 c1bd 8ba0 953d 6ff8 8f3d 5386 6d3d
000001d0: 323b b2bd 28c0 8d3c d664 d1bd 1dca 863c
000001e0: 26d0 d7bd d014 cebb c11b 11be 4558 a43d
000001f0: 3bb1 333d 89b5 d6bd 8225 9b3d df4b 8bbb
00000200: b026 c03d 6271 8c3c 387d 15be a916 f83d
00000210: ef30 cc3d 8eb8 a0bd 49d4 0f3e 9ca2 cbbd
00000220: 6f80 5c3d 1c37 cbbc 68c1 85bd 5ac1 633b
00000230: 7cee f6bd ecf4 3bbd 839d d2bd 60b7 e8bd
00000240: 2b28 533d 9615 f33c 1f0e f83d 8bc9 8a3d
00000250: bd12 9c3d 52f6 423e 6f8f 40bd 3fb0 b23d
00000260: 44af c23d 1dea 0b3d 4a2d 92bb 8502 143b
00000270: 5c6f 11be 8846 d4bd d6a2 043e b4a5 bb3c
00000280: 7157 8b3d 4910 003e d32e ed3d 3f2b f0bc
00000290: 89d2 b63c b758 c43d 5c7c 5f3d 7485 903d
000002a0: d629 2fbd 938a e0bd fc49 c73d ab04 49bd
000002b0: 1b41 fabd b433 9f3d a966 fc3d ea97 45bd
000002c0: 30ed 123e 964d e6bc 55f8 0b3d af50 bd3d
000002d0: c5d2 0a3d eab0 a5bd 500f b4bd 356d 193d
000002e0: 72db 9dbd 50e3 91bd 0c2b 5e3d 84c1 a33c
000002f0: e11d 19bd 17d3 023e 59f6 5fbb e8b9 c03d
00000300: b005 46be e90b e73d 39d1 103e 7541 ec3d
00000310: 4c6f 1cbe d75c d83b f95b 78bc 7b1a 58bc
00000320: 2e12 81bd c0a7 1bbc b307 4abe 9e0e bcbd
00000330: 438a 99bd 13db c13d 7807 533c b328 a13c
00000340: 8ce7 10be be81 09be fd17 96bd 8945 6d3d
00000350: ca4d cabb 3223 153e 8ed3 933d 3756 5b3d
00000360: b6f1 3f3d 23c6 c03d b02f d83c cef6 b43d
00000370: 28df 413e c52e 36bd 62de 913d 02f5 423c
00000380: a8db 55bd 58f7 923d 6fcc b63d 7d80 24be
00000390: 8098 98bd aa5f 29be abdd 95bd de11 983d
000003a0: bef9 79be b27e 863d f771 343c e25a a4bc
000003b0: 4235 ca3d 28e8 303d f900 123e 5984 a83d
000003c0: 5b75 5bbd f6cc 7abc bbd7 d4bd 5894 ae3c
000003d0: 26d8 9e3d f0eb ae3d 5194 d43d 1e9e 9c3b
000003e0: 779a 953d e310 903d 99a5 c3bc 13e3 babc
000003f0: 1ea3 07bd febb 443c 7d48 7fbd 6e08 903d
-0.13748683 0.039523274 -0.12704614 0.1070771 -0.061908778 -0.12306975 -0.077133834 0.10237792
0.029665872 -0.028754912 -0.008607923 -0.034524433 0.009298325 -0.062274355 -0.085626945 -0.06320655
-0.050775267 -0.028343031 0.044245336 0.09661238 0.032837164 0.03134872 0.105740726 -0.07411276
0.11389618 -0.011728492 -0.10222513 0.06966254 -0.16712382 -0.09774124 0.10143962 0.06007617
0.114809066 0.13709883 -0.024371197 0.08895665 -0.008561546 0.11209316 -0.088459074 -0.042366758
0.050056912 -0.15213978 0.07966564 0.060262386 -0.06897033 -0.10751105 -0.05919828 -0.09820449
0.024911704 0.014207349 -0.047444116 -0.07226009 -0.11890196 0.015736114 -0.0024425227 0.10665658
-0.092742085 0.08641262 0.072454154 -0.008026047 0.053014647 0.095418885 -0.10235944 -0.07215897
-0.11374686 -0.11282096 -0.13469535 -0.05221758 0.10222311 0.0058924966 -0.031638853 -0.028245483
0.051265016 -0.03910773 -0.11110228 0.045760453 -0.0739275 0.093311794 -0.05596759 -0.14588472
0.07743535 -0.11419491 0.010642501 -0.030127497 -0.08997761 0.15648802 0.05314235 -0.10991086
0.017455203 -0.10314836 0.018332032 -0.03244922 -0.027795784 -0.14219631 -0.031065114 -0.08978486
0.07654813 0.10088247 0.08467858 0.047115143 0.04831729 -0.10081424 -0.06731525 0.11543213
0.059240352 0.074925415 0.106251776 0.093740724 0.10394172 0.16634323 0.070958495 0.08888637
-0.09437518 0.07306012 0.07029807 0.05798943 -0.08702697 0.017303541 -0.10224311 0.016453797
-0.10537748 -0.006289102 -0.14170744 0.080246486 0.043870192 -0.10483844 0.075755134 -0.004250988
0.09382379 0.017143909 -0.14598548 0.12113697 0.09970271 -0.07847701 0.14045824 -0.09943125
0.05383342 -0.024806552 -0.0653103 0.0034752698 -0.12057206 -0.045887873 -0.10283949 -0.11363101
0.05155198 0.029673379 0.121120684 0.067767225 0.076207615 0.19039276 -0.04701179 0.087250225
0.095060855 0.034158815 -0.0044609653 0.002258451 -0.14202636 -0.10365015 0.12952742 0.022906162
0.068037875 0.12506212 0.11581197 -0.029317496 0.022317188 0.095872335 0.054561958 0.07056704
-0.042764507 -0.10963931 0.09730908 -0.049076717 -0.12219449 0.077735335 0.12324268 -0.04824058
0.14348292 -0.028113168 0.034172375 0.09243905 0.03389241 -0.08090384 -0.08791983 0.037457664
-0.077078715 -0.071234345 0.05424027 0.019989736 -0.03738201 0.12775837 -0.0034173934 0.09410459
-0.19338107 0.112815686 0.14142312 0.115359224 -0.15276831 0.0066028642 -0.015158647 -0.013189907
-0.063022956 -0.009500444 -0.197295 -0.091824755 -0.074970745 0.09465613 0.012880199 0.019672727
-0.14150828 -0.13428399 -0.07328794 0.057927642 -0.006173824 0.14564207 0.07218085 0.053549018
0.046861373 0.094127916 0.026389927 0.08836137 0.18932784 -0.044478197 0.07122494 0.011899235
-0.052211434 0.07176083 0.08925711 -0.1606464 -0.07450962 -0.16540399 -0.073176704 0.07425283
-0.24411675 0.06567134 0.011013499 -0.020062868 0.09873439 0.04319015 0.14258184 0.08228368
-0.053578716 -0.015307656 -0.1039271 0.02131097 0.07756071 0.08541095 0.103798516 0.004779591
0.073048525 0.07034471 -0.023882674 -0.022813356 -0.033114545 0.012007711 -0.06232499 0.07032858

actor.2.bias f4 [64]
00000000: 14e6 20be dc5e 593d 7b45 81bd cda3 87bd
00000010: 9ef0 4a3c a70f a63d 119c ccbd ca89 78bd
00000020: d867 f43c 040b 3d3d f31a f43d 682f 793d
00000030: 3aba c1bd eff1 983d 708c cabd 19e1 f5bd
00000040: 30f9 fa3c d29e 90bd b033 92bd b8c0 bf3d
00000050: 9cd6 e2bd 6ddd 3ebd beaf c63d 3fc4 85bd
00000060: d009 83bd beed 0fbe 5ab0 1bbe 1120 10be
00000070: 0639 2b3c 4535 093e 62f7 cbbd 21a8 303d
00000080: f4c5 7d39 719f 2abd bac8 173b 8db1 6c3d
00000090: 3b1f d2bd 5c0f 053e 7b0d 2c3d 1b2c ad3d
000000a0: 605a 793d 6d22 74bd 6a0b da3d 1016 27ba
000000b0: 0431 713d c668 ffbc 5b2a 68bd c0dd 053e
000000c0: b09f b9bd 801a aabc ccc7 af3c 09d5 1bbd
000000d0: f705 8bbc 464b c43d 0023 11bd 2392 b3bd
000000e0: fb83 f73d dd74 1e3d 566c 023d bee6 3cbd
000000f0: 7799 e33d f841 e4bd 37a9 a7bd 681d 9e3d
-0.15712768 0.05306898 -0.063120805 -0.066230394 0.012386469 0.08108454 -0.09990705 -0.06067828
0.029834673 0.046153083 0.11919203 0.060836226 -0.09459348 0.0746802 -0.098900676 -0.120058246
0.0306364 -0.070615426 -0.07138765 0.0936293 -0.1107609 -0.046597887 0.09701489 -0.065315716
-0.06398356 -0.14055535 -0.15203992 -0.14074732 0.010450607 0.13399227 -0.09959294 0.04312909
0.00024201703 -0.04165596 0.0023160414 0.057786513 -0.10259863 0.1299414 0.042005043 0.08455678
0.060877204 -0.059603143 0.10646708 -0.0006373832 0.058884636 -0.03117789 -0.05668102 0.13072872
-0.09063661 -0.02076459 0.021457575 -0.038044963 -0.016970618 0.0958467 -0.03543377 -0.08768108
0.1208572 0.03868567 0.0318416 -0.04611849 0.111132555 -0.11145395 -0.08186572 0.077204525

actor.4.weight f4 [1, 64]
00000000: f5ac 0c3e 9fc3 913d 75c7 373e 955b 9fbd
00000010: dc3d 88bd d1c3 f8bc 5fa7 f73d 5e1a 75bd
00000020: f4b7 b2bd 8afc 27bd 876a 023e 1bc0 70bd
00000030: a60d 003e c523 84ba ec56 c3bc 7ce6 67bd
00000040: 65f1 a8bd 6468 92bd 0cdb 39bd 8f8a 4fbd
00000050: 178a 50bc 7594 fe3d 9738 4abe 9e12 6c3d
00000060: 6dfc 4f3e c1a9 733e ab71 f33d 84b0 243e
00000070: 7a4d 843d 5680 4a3d 6407 adbd c83a 13bd
00000080: 9335 e2bd 454f 36be 5deb d33d c9eb d53d
00000090: 6997 df3d 733d 233e dcfd 8a3d 18ec a73c
000000a0: 5925 c93d be4d d4bd d6a5 f1bd b813 ed3d
000000b0: c440 2bbe a2c1 cebd 5669 183e 0e6f c0bd
000000c0: bd34 4dbd 3cdd 7bbd 3aa6 313e f317 52be
000000d0: 0918 353e 885c 28be 446a 9abd 4e59 c0bd
000000e0: 91a6 2fbe 145f a4ba d967 d43d 60ea bcbd
000000f0: 35d3 ac3d 034d f9bd 5551 dc3d b815 9a3d
0.13737853 0.0711739 0.1794718 -0.0778114 -0.06652424 -0.03036681 0.120924704 -0.0598396
-0.087264925 -0.041012324 0.1273595 -0.058776956 0.12505206 -0.0010081461 -0.023845159 -0.05661629
-0.08249167 -0.07148817 -0.045374915 -0.05066925 -0.012728236 0.1243066 -0.1974815 0.057634942
0.20311137 0.23795225 0.11886915 0.1608296 0.0646009 0.049438797 -0.08448675 -0.03594473
-0.11045375 -0.17803676 0.10347626 0.10445363 0.10917551 0.1594141 0.06786701 0.02049832
0.098215766 -0.10366391 -0.11799209 0.11576027 -0.16723925 -0.10095526 0.14883932 -0.09396182
-0.050099123 -0.061490282 0.17348567 -0.20516948 0.1768495 -0.16441548 -0.075398 -0.093920335
-0.17153384 -0.0012540543 0.1037137 -0.09224391 0.08438722 -0.12172892 0.107577 0.07523674

critic.0.weight f4 [64, 5]
00000000: 225f a7be 03e4 113f af1f 13bf e17a 5e3d
00000010: 8778 81be 625d 7a3d 0c75 2e3f e65d 80be
00000020: bb4c dbbd f6fd abbe c4a0 34bf 4a25 e03e
00000030: 74c6 e3be 8ffb f9be a7eb ac3d 1224 823b
00000040: 6fd0 a23e 972a a73f b6d6 253d c69a ce3e
00000050: 6cc0 2dbf 6211 f4bd 2a54 debd d37f 12bd
00000060: eca3 b13d 7fab b13e f4f0 043f ab91 bebe
00000070: 98e1 f83e 3950 83bc 44c2 aebe eefa a03e
00000080: 367b 08bf d7dc aa3b 135a 47be fe57 313a
00000090: 6898 1dbf 8986 e03b f905 383e a95f 953e
000000a0: d22e 0ebc b8d3 9fbe 44a9 543f 7539 bf3c
000000b0: 2cf8 713e a5ba 8f3e 0e3e 713d cb31 1ebf
000000c0: a9d8 b5bd b9d8 a4bd 7184 513e f567 c13e
000000d0: ce4b 62bf f0c0 66be e46c a7be a3cd 2bbf
000000e0: eca1 e6bd d18b af3d b346 a53e a535 4f3d
000000f0: 04cd 70be ddc5 e1be a926 27bf 46d4 6ebe
00000100: 58f7 633e 8693 5cbe 749b 343f c0de 903d
00000110: cad0 dabe 2848 03be 989f 94be 81d6 ce3e
00000120: c76e 26bf fc82 00bd 2c80 42be fdb2 fabe
00000130: 98b3 d43d df8e aabe 3d9c 08be 2597 4b3e
00000140: cee5 133f 95c9 05bf f892 d93e bda7 cf3e
00000150: c878 a53e db99 873e a661 403e fcb7 0e3e
00000160: 5011 81bd 7e25 ae3c 48e7 1fbf 37f5 633e
00000170: bbd6 ac3e 08e3 76bd be19 8e3e 2128 433e
00000180: 2ed1 f03e f129 f93d fc59 13bf 05cb 78be
00000190: 3b54 a83d 9b20 2dbf 8f32 22be e049 343d
000001a0: 0131 15be 5ae5 6cbe 6b92 60be d595 5abf
000001b0: 83e5 a0bd b98d 98be 811d abbe 2bcc 4cbc
000001c0: 7d4f 523e a040 74be 6134 3c3e b8d9 98be
000001d0: 2b8a e6be f64b 8d3e 19ad b13e 2d4e babc
000001e0: 8d24 643d 0d89 db3e 366b d4bc ef2a f8bc
000001f0: 884d dc3e c4e8 82bc 7031 d7bd fe17 ce3e
00000200: 268d 6b3f b0d4 eabd dd2f fc3e aaf4 24bf
00000210: cba3 b43e ec79 58bd cd67 8e3e e90c 8bbe
00000220: 19b3 123f 1a48 a93d 9fbc 01bf cf78 c93e
00000230: 704a 0a3f 0676 df3e 068b d83e fbd6 053e
00000240: 844d 97bd d36e 4fbe 8347 efbe 7b94 dd3e
00000250: a470 e9bc cd28 acbc 8dcd aa3e 2965 d0bd
00000260: f5c9 1fbc 664d a73e ef60 6ebd b816 a4be
00000270: f969 9b3e 9198 a1bc f64f 2ebf 5d9d cebd
00000280: a4fc d93e 3c06 46bd add0 5b3d 5510 43be
00000290: 9739 ff3d 06c7 0cbe 081f f7bd df88 bcbc
000002a0: e31e 78bd 6f89 a23c a894 7d3d 4ad1 0ebf
000002b0: cf2b f63d 11c9 dabe 93e8 7d3e 5fdf 3f3d
000002c0: d778 65be 2d0a 2a3f ceda 22bf 334e 12be
000002d0: 18a9 30bf 6539 aa3d 6303 e03d 8f55 95be
000002e0: ea43 db3c 9feb 373f 1e56 b13d 7a89 a9be
000002f0: 1d56 393e 32a0 85bd 4539 acbc 698f b03e
00000300: d5ae 22be 3d77 f6bd a87f d23c 321e ea3e
00000310: 9e3a a53e 8c11 523d 7d25 713e 1c9f 583e
00000320: 5767 e2bd 0af2 d93d a645 5f3f 156a 2b3e
00000330: 8092 6d3e acd3 17be 0a0f 903e a803 a4bf
00000340: 7771 36be 0aac 74be fe5a b23c 59ea 54be
00000350: f788 6f3f cc6d bb3d e05a 24be 9d61 703c
00000360: 8100 4dbe 3c00 a33f 913f 053e a1d4 7f3e
00000370: 786c 003f bec1 15bf c5f5 783e d5d7 c23d
00000380: 39ed 603e 4fef 503c 8a18 4abf 17e1 ccbe
00000390: 2fb7 8ebe 8152 2e3e 98e4 613c ceb9 343e
000003a0: 552c 18bf c2cf a8bd 0f5d 9f3e ac54 3a3d
000003b0: 5f14 fb3e d48b 61be 5e6d c1bd d0b6 f2bd
000003c0: 6953 5abd f354 11bf 2991 553f e67f 51bd
000003d0: 7b85 943e b9c6 de3e f258 2cbe 2083 29bf
000003e0: de33 93be def9 1d3e f9e4 93be 75b3 febe
000003f0: 2fbd abbe 6374 d13e 6218 a03e b373 c53e
-0.32689768 0.56988543 -0.5747022 0.054316405 -0.25287268 0.061124213 0.6814735 -0.2507164
-0.107079946 -0.33592194 -0.7055781 0.4377845 -0.44487345 -0.48824736 0.084433846 0.003971585
0.31799647 1.3059872 0.040487967 0.40352458 -0.6787174 -0.11917378 -0.10855897 -0.035766434
0.08673844 0.34701154 0.51930165 -0.3722051 0.48609614 -0.016029464 -0.34132588 0.31441444
-0.53313005 0.0052143144 -0.19467954 0.0006765126 -0.6156068 0.0068519753 0.17971028 0.29174545
-0.008678155 -0.31216216 0.8307078 0.023342827 0.23629826 0.28072086 0.05889707 -0.6179473
-0.08879215 -0.08049149 0.20460679 0.37774625 -0.8839692 -0.22534537 -0.32700264 -0.6711065
-0.11261353 0.0857159 0.32280502 0.05058827 -0.23515707 -0.4409627 -0.65293366 -0.23323163
0.22262323 -0.2154065 0.705497 0.07073736 -0.42737418 -0.12820494 -0.2902801 0.40398028
-0.6501278 -0.031374916 -0.18994206 -0.48964682 0.10385817 -0.33312127 -0.1334085 0.19881876
0.5777253 -0.52260715 0.4249494 0.40557662 0.3231871 0.2648457 0.1878725 0.13937372
-0.0630213 0.021258112 -0.6246228 0.22261511 0.33757576 -0.060275108 0.27754015 0.19058277
0.4703459 0.12166203 -0.5755918 -0.24296196 0.08219191 -0.67627877 -0.15839599 0.044015765
-0.14569475 -0.23134366 -0.21930854 -0.85384876 -0.07856276 -0.29795626 -0.33420947 -0.012499849
0.20538135 -0.23852777 0.18379356 -0.29853606 -0.4502729 0.27597016 0.34702376 -0.022742355
0.05569892 0.42878 -0.025930028 -0.03029391 0.43027902 -0.015980132 -0.10507476 0.4025268
0.9201225 -0.11466348 0.49255267 -0.6443583 0.35281214 -0.05285065 0.2781357 -0.27158287
0.5730453 0.082657054 -0.5067844 0.39349982 0.5401983 0.43644732 0.42293566 0.1307029
-0.07387832 -0.2025712 -0.46734247 0.43277344 -0.028496094 -0.02101555 0.33359948 -0.10175545
-0.00975274 0.32676238 -0.05819791 -0.32048583 0.30354288 -0.01972607 -0.6809076 -0.100886084
0.42575562 -0.04834579 0.053665806 -0.19049199 0.12462156 -0.13747796 -0.120664656 -0.023014484
-0.06057633 0.019840924 0.061909348 -0.557881 0.120200746 -0.42731526 0.24795751 0.046843883
-0.22409378 0.66421777 -0.6361512 -0.14287643 -0.69008017 0.083117284 0.10938146 -0.2916684
0.026765782 0.71843904 0.08659004 -0.331127 0.18099256 -0.065246955 -0.021023402 0.34484413
-0.15887006 -0.12034462 0.025695637 0.45726162 0.32271284 0.051286265 0.23549457 0.21154445
-0.11054867 0.106418684 0.8721565 0.16739686 0.23200417 -0.1482684 0.28136474 -1.2813616
-0.17816721 -0.23893753 0.021771904 -0.20792522 0.93568367 0.091518015 -0.16050291 0.01467171
-0.20019723 1.2734447 0.1301253 0.24983455 0.5016551 -0.5849875 0.24312504 0.09513823
0.21965493 0.012752368 -0.78943694 -0.4001548 -0.27874133 0.1702366 0.013787411 0.17649004
-0.59442645 -0.08242752 0.31125686 0.045490906 0.4903898 -0.22025996 -0.09444688 -0.11851275
-0.053302202 -0.5677025 0.8342462 -0.051147364 0.29008088 0.43510988 -0.16830805 -0.66215706
-0.2875051 0.15427348 -0.2888563 -0.4974629 -0.33542773 0.4090911 0.31268603 0.38564834

critic.0.bias f4 [64]
00000000: 690a 27bf 27d3 0dbf 90ff 4dbe ce74 6a3e
00000010: 2260 c3bd d067 cbbc f0dd 69be 9e1d f23e
00000020: 6da2 9bbd d15d d73e 6e10 9ebe b57f 583e
00000030: 834f 11be c42b 2fbe 104e 86be dc6f 0d3d
00000040: 3a31 023f c148 76bd 5fe5 c1be c27f cc3d
00000050: 23ab 133f 8801 13be 8aa8 b0bd 2b48 83be
00000060: 0bcb b6be c704 dc3c 4252 8fbe 1187 06bf
00000070: d31e 49be 5eda 943e f21d 843e 4fe8 bd3e
00000080: 02ab 79be 33fd 00bf 6259 7abe 66d5 cc3e
00000090: eb0d 2cbe f920 f9be 4f74 df3e e3b2 e0bd
000000a0: 75cd bc3e 741d 27bd 919f 4fbe 2eac 023d
000000b0: 9f55 57be c0ea a23e 62fa 89be 3694 f1be
000000c0: 7577 0bbe 2a13 06be 2c5a dd3e caf0 27be
000000d0: 354e 9abd 6018 073f 15ca 453e 44e5 0bbf
000000e0: 2996 ba3e 207c 05bf b1a7 bf3e 3226 d73e
000000f0: d95a 033e 932b cabe f7dc 673e 5bf3 d63e
-0.6525026 -0.5540032 -0.2011702 0.2289612 -0.0953982 -0.024829775 -0.22838569 0.4728822
-0.0759934 0.42063764 -0.3087191 0.21142466 -0.14190488 -0.17106539 -0.26231432 0.034530506
0.50856364 -0.060127977 -0.3787031 0.09985305 0.5768301 -0.14356053 -0.08625896 -0.25640997
-0.35701784 0.026857747 -0.27992445 -0.52549845 -0.19640665 0.2907285 0.25804096 0.370913
-0.2438164 -0.5038635 -0.2444816 0.4000656 -0.16802184 -0.4865797 0.43643424 -0.1097162
0.368755 -0.040799573 -0.20275714 0.031902485 -0.21028756 0.31819725 -0.2694884 -0.47183388
-0.13619788 -0.13093248 0.43232858 -0.16400447 -0.07534448 0.5277157 0.1931537 -0.54646707
0.36442688 -0.52142525 0.37432626 0.42021328 0.12827624 -0.3948637 0.22642885 0.4198254

critic.2.weight f4 [64, 64]
00000000: d5b0 bd3d 464c 1e3d 966d 6f3e a4b2 62be
00000010: b119 aabd 1f02 173d fd05 c0bc 5395 573d
00000020: 73eb 86bd c945 a83d 3252 eabd 3b47 d23c
00000030: 58d8 9dbd 9e23 9fbd 2186 d0bc b73b 9b3d
00000040: 1fdc b03c 0c94 5b3c bc18 b0bd 625d 273d
00000050: dbf3 45bd 04a7 ad3c b30a b13c 59f7 3e3d
00000060: 2e0b a2bd 2bf6 8dbd e42b 893d f165 04bc
00000070: 6110 c5bd a182 373e 43f7 ec3d b3d6 a83d
00000080: 679c bf3c ba85 dbbd 8ab4 81bc d8bb eabd
00000090: 055f 613d c50d 393e c8ac b23d 9560 113d
000000a0: cca4 f9bd 00bd c33a 977f 0abe f3a5 dd3d
000000b0: a13a 21bd e51d 2d3e 7b77 10be 372c cf3d
000000c0: a0df e03d a524 65bd b3d7 853d 1280 733d
000000d0: 1fe5 61bd 077c 5fbd 60ef 03be a867 cdbe
000000e0: e52b 093e bfff 0cbe 89f6 f3bd 9515 f7bd
000000f0: 8aa5 3e3e 990a 52be 5cb7 e2bd 22ce 70bd
00000100: 5a22 9abe 3bef 873d fac0 3abe d418 093e
00000110: 4099 16bd 936b 613e e5aa b0bd f3df 4dbd
00000120: 9b21 d6bd e736 073e 5133 e0bd 1bfa 383c
00000130: f8ab ebbc fe9c 4fbc 6497 55be 3e0b 0d3c
00000140: 102c b83d 2ead 5f3e 0f46 9cbd 2a4a 5bbd
00000150: 9f04 f4bc 044d 9f3c 8f65 8cbd 6e52 0dbd
00000160: 32fb 913d ab74 f73c 231e 2cbe a0fd c03d
00000170: f64e e93b 591a 8bbe d938 e33d ab57 863d
00000180: e160 6fbc 94af 013e 1b83 40be bcfb 3abe
00000190: d60d 10be e802 4abd 2c50 dabd d1ea a53d
000001a0: 255d 623d 65ea 813c 3d8a 86bd d293 8cbd
000001b0: 1f9c ba3a b11e b2bd c435 353e 4c2c a93c
000001c0: f200 7bbe 80c5 1c3d 3da6 b3bc 0fed 9d3d
000001d0: c082 183e 86b5 503e 7bd9 dbbd 800b e03d
000001e0: 1f68 6dbd f162 263e a1a6 fe3d ce35 a6bd
000001f0: 6276 9f3d 494b c23d 087f 383d 6ac2 0bbe
00000200: e139 6ebe ef81 cbbd f37d 0b3c 8fc7 0ebd
00000210: 59cc 84be 4873 793d bf01 29be 74ce 8f3e
00000220: 6c00 d23d 66a0 043e 6096 eebd cbb5 343d
00000230: 53a2 ca3d 990e 77be 22d5 c9bd e077 1dbd
00000240: 55d3 ce3e 298e 9a3d 4f70 03be 8a5c 19bd
00000250: 6511 fa3d 91ea 17be 75d1 a1bd 211e cebd
00000260: ec53 543d 7a22 aebd a9da 963e 60d7 07be
00000270: ebd1 dc3d fead 0c3e 4d5c 233e cbd4 28be
00000280: 29a4 10be b075 77be d5b9 253e 77a0 193e
00000290: 26e0 83be 66c9 863e 25c5 093e a98e 293d
000002a0: f1b4 da3d e677 2dbe 039f 17be fc31 2a3e
000002b0: 2afd 943e f7c3 863e 3016 4ebd 7d3a 80be
000002c0: 2a87 783e 5437 fcbc 22d5 153e e974 e03d
000002d0: 6304 0d3e 8f72 6cba b548 fa3c f0f6 88bd
000002e0: 4d59 58bc 6562 d0bd af44 98be 4234 c1bd
000002f0: 37b0 fd3d 56fc c93d d0e2 97bd 4e18 65bd
00000300: 4123 6cbd eff2 f8bc cb95 88be 4547 5e3e
00000310: dca8 c2bd 8a7b 8bbd 9683 6f3c 9cd1 833c
00000320: 57b0 b83d 845b b03d dc00 6e3c 36f3 cbbc
00000330: 7cc4 09be bf2d cbbd 0c21 c1bd e212 e8bd
00000340: 4c2e fdbd 9744 a4bd 9ff0 d0bd dbcd 0c3e
00000350: 85c8 b03d 9423 943d c78d af3d d59a 41bd
00000360: d1f6 fc3d 56d5 b53d d87c 80bd 597b 8d3d
00000370: 3b9a d73d 37ad 81bc 532a 0b3a f801 96bd
00000380: f0a4 d93d 7d18 5f3e 6f68 0dbe ec17 193e
00000390: 3633 b6bd 9e92 61be e208 0fbe 7926 a0bd
000003a0: 10ff 04bd d8d0 b3bc c8c1 c73d a335 c9bd
000003b0: 0aa2 d93c a456 6d3d 8279 073d 7489 1bbe
000003c0: e05f 70bd 756b d3bc a167 87bd 1995 b03d
000003d0: c54a 523e ddf4 2b3e 4d4c a3bd af67 243e
000003e0: ad4a 0d3e 208b ff3c 2893 923e bfdc 54bd
000003f0: ddac 073d 12a7 ee3d 1156 103d 1510 293e
0.09262244 0.03864696 0.23381647 -0.22138458 -0.083056815 0.036867257 -0.023440355 0.05263264
-0.06587877 0.082164355 -0.11441459 0.025668731 -0.0770728 -0.07770465 -0.025454583 0.07579749
0.021589337 0.013401996 -0.08598468 0.04086054 -0.04832826 0.021197803 0.021611547 0.046622608
-0.079122886 -0.069317184 0.066978246 -0.008080945 -0.09622265 0.17920925 0.11570599 0.082440756
0.023390008 -0.10718866 -0.015833158 -0.114616096 0.05502226 0.18071659 0.08724362 0.0354925
-0.12189636 0.0014933646 -0.13525234 0.10822668 -0.039362554 0.16905935 -0.14108078 0.10115855
0.10980153 -0.05594315 0.06535282 0.05944831 -0.055150148 -0.05456164 -0.12884283 -0.40118146
0.1339565 -0.13769434 -0.11912257 -0.12064663 0.18617836 -0.20511855 -0.11070129 -0.058790334
-0.30104333 0.066374265 -0.18237677 0.13388377 -0.036767244 0.22013693 -0.086263455 -0.050262403
-0.104556285 0.13204537 -0.10947288 0.011290099 -0.028768525 -0.012671707 -0.20858532 0.008608637
0.08992779 0.21843407 -0.0763055 -0.053537525 -0.02978736 0.019445904 -0.06855308 -0.03450244
0.0712799 0.030206999 -0.16808371 0.09423375 0.0071200086 -0.2716854 0.11094827 0.0655969
-0.0146105 0.12664634 -0.18800013 -0.18260092 -0.14067778 -0.049319178 -0.10659823 0.08101428
0.05526461 0.015858838 -0.065693356 -0.06864132 0.0014237202 -0.0869726 0.17696291 0.020651005
-0.2451208 0.03827429 -0.021929855 0.07711231 0.14893627 0.20381746 -0.107348405 0.109396935
-0.057960626 0.1624868 0.12434126 -0.08115731 0.077862516 0.09487016 0.04504302 -0.13648382
-0.23264267 -0.09936892 0.008513915 -0.034858283 -0.25937155 0.060900956 -0.16504572 0.280872
0.10253987 0.12951812 -0.116497755 0.044118684 0.09894242 -0.24126662 -0.09855105 -0.0384444
0.4039561 0.07546646 -0.12835811 -0.037441768 0.12210349 -0.14835574 -0.07901279 -0.100643404
0.051837847 -0.0850267 0.294637 -0.13265753 0.10782226 0.13738248 0.15953179 -0.16487424
-0.14125122 -0.24165988 0.1618417 0.15002619 -0.2575695 0.2632553 0.13454111 0.041395817
0.10679043 -0.16940269 -0.14806752 0.1662063 0.290994 0.26321384 -0.05031413 -0.25044623
0.24270311 -0.030788101 0.14632085 0.10959799 0.13771205 -0.0009019756 0.030552248 -0.066877246
-0.013204885 -0.10175017 -0.297399 -0.094337955 0.12387126 0.098625824 -0.07416308 -0.055931382
-0.05765081 -0.030389277 -0.26676783 0.21706875 -0.095048636 -0.068106726 0.014618775 0.01609116
0.09018009 0.08611205 0.014526572 -0.024896245 -0.13453859 -0.09920835 -0.09430131 -0.113317266
-0.12362346 -0.08020895 -0.10202145 0.13750403 0.08631996 0.072333485 0.08571964 -0.0472668
0.12351764 0.08878581 -0.06273812 0.06908292 0.10527464 -0.015829666 0.0005308736 -0.07324594
0.106271625 0.21786685 -0.1380937 0.14950532 -0.088964865 -0.22028586 -0.13968232 -0.07819838
-0.03246981 -0.02195017 0.09753758 -0.098246835 0.026566524 0.057943955 0.033074863 -0.15189153
-0.058685184 -0.025808075 -0.066115625 0.08622188 0.20536335 0.16792627 -0.079735376 0.16055177
0.13798018 0.03119427 0.28627896 -0.051968332 0.03312384 0.1165296 0.03523833 0.16510041

critic.2.bias f4 [64]
00000000: 5896 883e a8aa 67be d1df 233e 7c04 cdbd
00000010: 14a0 e43d e9d5 3c3d bf73 1dbe 43c5 893c
00000020: 2740 393e a0a4 adbd 45a1 053e babc 2fbe
00000030: e7ad 6abe f31c e8bb 0000 58be dc0f 803d
00000040: b5ac 91be e201 f13d 735a 74bc 394d b13c
00000050: 1c42 1d3e cf9c 86be 8d1e 29bc 1bd9 1ebd
00000060: 8ae7 92bd a43a e0bd 6cbe 503c 4bd8 80be
00000070: c20e d73d 4e9b f5be 4ad4 2e3d 1032 b13e
00000080: 8969 5d3c 537a 123e 1863 0b3b ec4a 0b3d
00000090: 32db 2f3c 8ce1 083d f0d3 98bd da4d b1be
000000a0: c333 ae3d c093 71be be7b 363e 1bd1 41b8
000000b0: 0fd9 97be 56b5 373d 3475 c83e 8a7a 40be
000000c0: e67a 1abe 4a45 06be 3d8a 943d 8b3c ee3c
000000d0: 8d74 103e 43eb 5bbd 1616 46be ae00 813e
000000e0: 0292 883d 1dbe b73e 07a2 3dbd 0f56 89bd
000000f0: 7ac1 f1be 5d36 573e 4d2b 753c 2858 6fbd
0.26677203 -0.22623694 0.16003348 -0.10010621 0.11163345 0.046102438 -0.15376185 0.016817695
0.18090878 -0.08478665 0.130498 -0.17161837 -0.22917901 -0.007083529 -0.2109375 0.06253025
-0.28452078 0.11767937 -0.014914143 0.021643268 0.1535725 -0.2629151 -0.010322225 -0.038781267
-0.07173069 -0.10948685 0.012740713 -0.25165018 0.10500862 -0.4797005 0.042682923 0.34608507
0.013513931 0.14304475 0.0021268781 0.034006998 0.010733413 0.033418223 -0.07462299 -0.3462971
0.085059665 -0.23591518 0.17820641 -4.620953e-05 -0.2965779 0.04485067 0.3915192 -0.18796745
-0.15085945 -0.13112369 0.07252929 0.029081604 0.1410696 -0.05369116 -0.19344363 0.2519583
0.06668474 0.35887232 -0.0462971 -0.067058675 -0.47217923 0.21016832 0.014963937 -0.05843368

critic.4.weight f4 [1, 64]
00000000: b1c8 0ebe 7921 363e bd0a 44be c3c7 4e3d
00000010: b950 383e fe55 0abe f5b0 923e 648a 2d3e
00000020: aa51 b0bd 7780 b5bc f73e 39bd 691a 4e3e
00000030: 0101 6d3e ffd4 b63d 9f54 ea3d 8c3d ffbd
00000040: 1508 b7be 669e 71bb f820 243d b679 70be
00000050: 9fda 883e ec20 733e e16b 42bb 91c6 763d
00000060: 55c3 e7bd 3971 ecbd d713 c8bd 15c1 1a3e
00000070: 7ba7 1fbd 9cf1 103e 2713 80bd 8ba6 86be
00000080: 83d6 5e3d 5bf9 683e 582f 6bbe 5d3a 943e
00000090: a1c8 2a3e ac71 cdbd 326e d13d 93fc 413e
000000a0: 1b38 993e 6884 893d 9c8c b83e 17d0 9b3c
000000b0: b858 013e 1abc b73d 779f 48be 12c5 643e
000000c0: 4691 2e3c 8ec5 1d3c bd58 843e 895c 82bd
000000d0: d3a0 f2bc 6731 fa3d e280 6c3e 9402 23be
000000e0: 2700 583c 553d 2fbe e8bd 0bbe 1b8a 1fbe
000000f0: ad21 1f3e 317c 2abe 80de 10bc 26ff 9d3d
-0.13943745 0.17786206 -0.19144721 0.050483476 0.17999543 -0.13509366 0.28650633 0.16947323
-0.08609326 -0.022155983 -0.045226064 0.20127262 0.23144914 0.089273445 0.114419214 -0.12462911
-0.35748354 -0.0036868094 0.040070504 -0.23483929 0.26729295 0.23743027 -0.0029666352 0.06024796
-0.113165535 -0.11545033 -0.09769409 0.15112717 -0.03897808 0.14154667 -0.06253653 -0.26298937
0.054403793 0.22751372 -0.22967279 0.28950778 0.16678096 -0.10031447 0.10226096 0.18944006
0.29925618 0.067147076 0.36044776 0.019020123 0.126315 0.089714244 -0.19592081 0.22340801
0.010654753 0.00962962 0.25848952 -0.06365306 -0.029617703 0.12216454 0.2309604 -0.15918952
0.01318363 -0.1711324 -0.13646662 -0.15580027 0.1554019 -0.16648938 -0.008842111 0.07714681
