controller/PPO_CartPole-dm_0_900000.pth (torch, 41263 bytes, 10 tensors)

actor.0.weight f4 [64, 5]
0.16289307 -0.07620618 0.65663373 -0.0761295 0.08619294 -0.324766 -0.269285 -0.9582568
-0.0984774 -0.1565001 0.006727826 -0.24397679 0.3733382 0.31710556 0.033276968 0.22614788
0.16732971 0.78061765 -0.44123474 0.06517884 0.041180167 0.2821071 0.452001 0.22251132
0.17270006 -0.012914825 0.30337438 0.17863101 -0.375993 0.44308457 -0.21117334 0.501271
0.0057482533 0.067765415 -0.06841346 0.17371947 0.5085086 -0.44013938 -0.11065708 -0.13869281
-0.080450386 0.060100358 -0.5822477 0.41828388 0.11452906 -0.22936808 -0.4651248 0.7132384
0.23680954 0.15533984 -0.27829248 -0.4803324 -0.59787124 0.37473953 -0.28828713 -0.3668682
0.15742481 -0.40958792 -0.15697634 -0.12910981 0.1324298 -0.677213 0.1843766 0.30399615
0.12138819 0.53117454 -0.15192926 0.1619135 0.4385109 -0.04318413 -0.54730093 -0.5120698
0.31191352 -0.29162803 -0.11080593 -0.1910864 -0.44757143 0.251058 0.015896326 -0.23074311
0.506397 0.17765693 0.36625123 -0.08932672 -0.0033716038 -0.5356094 0.1873681 -0.88993317
-0.34126478 -0.38142684 0.20078574 0.49863112 -0.057419688 -0.15393116 -0.10289248 -0.08830338
-0.42566913 -0.94854695 0.023732353 0.11034369 -0.26454037 -0.5704728 0.36802652 0.2505498
0.12372294 0.23509802 0.18289088 -0.30246153 -0.34538656 -0.14186114 -0.40773493 -0.05138461
-0.43428522 0.3269563 0.42402065 -0.24570341 -0.3482449 0.2898834 -0.44589412 -0.058014896
-0.503269 -0.38076723 -0.20562035 -0.5470973 -0.16883938 0.2605199 0.4718318 -0.42334488
-0.061113127 -0.1533684 -0.41866052 -0.13881166 0.722426 -0.026922239 -0.28849807 -0.02259962
-0.58646226 0.3323695 -0.128505 -0.049199905 -0.3613456 0.3490447 0.58501995 -0.12786937
0.085147895 0.04327567 0.56037736 -0.7116525 0.072386645 -0.28845277 -0.47273418 0.5523961
0.5018905 -0.21594721 0.042072162 -0.1321323 0.40408254 -0.60601807 0.21596584 -0.14164822
-0.01640699 0.32854486 0.4246894 -0.028997956 0.35603172 0.12546162 0.053175297 0.13410853
0.5149492 -0.061061203 0.15790872 -0.480196 0.615042 0.14658955 0.16241257 0.07626157
0.21375854 0.1310617 0.093947805 0.69999164 0.4363216 0.5548693 -0.29992068 0.03998528
-0.08201655 0.19621542 -0.47201505 -0.017323578 -0.31234676 0.30966035 -0.70753455 0.24822891
-0.514652 -0.43975958 -0.3993352 0.113242984 -0.21519595 -0.65469754 -0.13587604 -0.2988774
0.26180148 -0.38009033 0.12277297 -0.0034262897 -0.0701928 -0.3415069 -0.45360717 0.41200992
-0.12922879 -0.049127497 -0.062623106 -0.14858298 -0.44025216 -0.38295317 0.7446507 -0.0025298607
0.30024856 -0.13995211 0.13704614 -0.6096101 -0.7366535 0.47595897 0.27355367 -0.3392938
0.4207287 -0.34776634 -0.07614636 0.03402037 0.17975304 -0.6571455 0.09969178 0.16627823
1.0404875 0.07885693 0.535887 0.16385023 -0.48102015 -0.27972195 0.3196434 -0.06276576
0.19360663 -0.13595091 0.022505978 -0.19570288 -0.103588484 0.587252 -0.3240078 -0.1681124
0.28627306 0.06270069 -0.19133231 0.36018154 -0.5797675 0.03547483 0.29690748 -0.18285967
00000000: 71cd 263e fc11 9cbd 2619 283f c9e9 9bbd
00000010: ed85 b03d bb47 a6be b9df 89be 5150 75bf
00000020: 85ae c9bd 9041 20be 1875 dc3b 0dd5 79be
00000030: 2f26 bf3e a95b a23e 6e4d 083d 4f93 673e
00000040: 7b58 2b3e 8fd6 473f 85e9 e1be 7c7c 853d
00000050: 89ac 283d 5870 903e ad6c e73e 02da 633e
00000060: 49d8 303e b498 53bc e353 9b3e 0ceb 363e
00000070: 2882 c0be fbdb e23e d33d 58be 4c53 003f
00000080: d85b bc3b 98c8 8a3d 5b1c 8cbd 84e3 313e
00000090: 9f2d 023f f359 e1be 2ea0 e2bd 7d05 0ebe
000000a0: 2cc3 a4bd cb2b 763d 2f0e 15bf 4e29 d63e
000000b0: 368e ea3d 77df 6abe d624 eebe cb96 363f
000000c0: 337e 723e 6811 1f3e 5a7c 8ebe 21ee f5be
000000d0: 170e 19bf dcdd bf3e 5f9a 93be 26d6 bbbe
000000e0: f833 213e 82b5 d1be 68be 20be 5d35 04be
000000f0: ad9b 073e d55d 2dbf 38cd 3c3e 62a5 9b3e
00000100: 5f9a f83d 0efb 073f 5893 1bbe a7cc 253e
00000110: 8084 e03e d8e1 30bd ea1b 0cbf 0217 03bf
00000120: 21b3 9f3e 4550 95be 38ee e2bd 27ac 43be
00000130: 1528 e5be ad8a 803e 0339 823c ec47 6cbe
00000140: 3ca3 013f b3eb 353e 4885 bb3e edf0 b6bd
00000150: 20f6 5cbb b31d 09bf 6cdd 3f3e a9d2 63bf
00000160: 42ba aebe 614a c3be c79a 4d3e 944c ff3e
00000170: e830 6bbd 21a0 1dbe 4bb9 d2bd 67d8 b4bd
00000180: 4ef1 d9be f9d3 72bf 5a6a c23c dffb e13d
00000190: d671 87be 810a 12bf f96d bc3e 1048 803e
000001a0: 7462 fd3d 89bd 703e bf47 3b3e 3ddc 9abe
000001b0: 82d6 b0be 0c44 11be a2c2 d0be ab78 52bd
000001c0: a25a debe d166 a73e 3c19 d93e ad99 7bbe
000001d0: 284d b2be 996b 943e 3c4c e4be 07a1 6dbd
000001e0: 3dd6 00bf ecf3 c2be 248e 52be 920e 0cbf
000001f0: 3be4 2cbe dd62 853e f093 f13e a9c0 d8be
00000200: c251 7abd 9b0c 1dbe ac5a d6be a524 0ebe
00000210: e9f0 383f 078c dcbc 05b6 93be d722 b9bc
00000220: 6422 16bf 562c aa3e d196 03be d785 49bd
00000230: 4a02 b9be fdb5 b23e dec3 153f 30f0 02be
00000240: 0562 ae3d d441 313d e474 0f3f dc2e 36bf
00000250: 733f 943d 15b0 93be 370a f2be d569 0d3f
00000260: e57b 003f 4421 5dbe dc53 2c3d b14d 07be
00000270: e8e3 ce3e 0024 1bbf 2626 5d3e 3b0c 11be
00000280: f467 86bc 0837 a83e e470 d93e 1f8d edbc
00000290: ca49 b63e 0379 003e 57ce 593d bf53 093e
000002a0: b6d3 033f 501b 7abd d3b2 213e 40dc f5be
000002b0: 6473 1d3f 921b 163e 7b4f 263e 072f 9c3d
000002c0: 85e3 5a3e 0a35 063e b567 c03d a732 333f
000002d0: 8b65 df3e ea0b 0e3f 348f 99be 9bc7 233d
000002e0: 4bf8 a7bd b2ec 483e f5ab f1be 2dea 8dbc
000002f0: eaeb 9fbe cd8b 9e3e fc20 35bf b82f 7e3e
00000300: 3cc0 03bf 2b28 e1be aa75 ccbe f0eb e73d
00000310: 545c 5cbe 429a 27bf 1723 0bbe 7506 99be
00000320: d80a 863e 339b c2be 6570 fb3d 9a8b 60bb
00000330: 3ec1 8fbd fed9 aebe 333f e8be f7f2 d23e
00000340: 8d54 04be ea39 49bd 8b40 80bd 2326 18be
00000350: bb68 e1be 7012 c4be 6ea1 3e3f 05cc 25bb
00000360: 2eba 993e 9b4f 0fbe d355 0c3e 680f 1cbf
00000370: 5395 3cbf e5b0 f33e 3a0f 8c3e ebb7 adbe
00000380: c169 d73e 6e0e b2be 9ff2 9bbd f258 0b3d
00000390: 2e11 383e b03a 28bf 342b cc3d d744 2a3e
000003a0: b22e 853f be7f a13d e42f 093f 5bc8 273e
000003b0: 4648 f6be b737 8fbe 4da8 a33e 568b 80bd
000003c0: d140 463e b736 0bbe 755e b83c 5666 48be
000003d0: 3326 d4bd 2656 163f 5ae4 a5be a825 2cbe
000003e0: 6292 923e 3869 803d 9eec 43be b769 b83e
000003f0: a56b 14bf 0e4e 113d 4204 983e 913f 3bbe

actor.0.bias f4 [64]
-0.46896282 -0.15038677 -0.12444477 -0.60221875 -0.5207092 0.5246203 0.17303506 0.17093034
-0.30031174 -0.04563309 -0.32817358 0.2853642 -0.017000575 -0.21084258 0.16974714 -0.4943177
0.34012145 -0.015110145 -0.16166784 -0.06473546 0.1215758 -0.3379567 -0.5333067 0.30952415
0.43268204 0.3046287 -0.15122297 -0.45759588 -0.11927788 0.03722912 -0.30821544 0.05173586
-0.35125008 0.0853468 -0.22935422 0.746648 0.28178126 0.073432066 0.54994994 -0.36931762
-0.37381712 -0.04751194 -0.18642724 0.14301859 -0.18731286 -0.17146266 -0.27702412 -0.20708334
-0.50001955 -0.16746515 -0.096320994 0.263555 0.10813293 -0.40274876 -0.21070594 0.30426252
0.38019842 0.03772728 -0.6290748 0.19150902 0.24428008 0.047471788 0.30781084 -0.40943646
00000000: e51b f0be fdfe 19be e6dc febd 022b 1abf
00000010: 334d 05bf 844d 063f 1a30 313e 5d08 2f3e
00000020: 76c2 99be c3e9 3abd 5e06 a8be 421b 923e
00000030: ca44 8bbc 1ee7 57be 32d2 2d3e 3617 fdbe
00000040: 6624 ae3e 8b90 77bc 418c 25be 0694 84bd
00000050: bcfc f83d a908 adbe ca86 08bf f379 9e3e
00000060: 8088 dd3e 4bf8 9b3e 32da 1abe 024a eabe
00000070: f647 f4bd 907d 183d 6ace 9dbe fbe8 533d
00000080: 0dd7 b3be 4eca ae3d d5db 6abe 5324 3f3f
00000090: a245 903e 8d63 963d 85c9 0c3f 3317 bdbe
000000a0: f564 bfbe e19b 42bd c8e6 3ebe 7773 123e
000000b0: f1ce 3fbe e893 2fbe 1bd6 8dbe a80d 54be
000000c0: 4801 00bf fc7b 2bbe f143 c5bd aef0 863e
000000d0: cc74 dd3d 1635 cebe 4cc3 57be 4cc8 9b3e
000000e0: 5ea9 c23e ec87 1a3d 0c0b 21bf f11a 443e
000000f0: 8f24 7a3e c771 423d 6299 9d3e a8a1 d1be

actor.2.weight f4 [64, 64]
-0.13897812 -0.16729626 0.19909497 -0.023235131 -0.011408062 0.14999807 0.05019713 -0.15625666
-0.053272963 0.20582537 -0.19224428 0.1590424 0.013102282 -0.009257061 0.1898167 0.087296814
-0.0043031904 -0.0055199093 -0.12321525 -0.04114745 0.075939864 -0.037771918 0.12097898 0.03322872
0.046869125 0.011661123 0.0693576 0.115960784 0.23720689 -0.16644314 0.22022222 -0.11773918
0.052957583 -0.1249948 0.04131387 0.0057010935 -0.03764586 -0.14332947 -0.17858848 -0.115303755
-0.07259928 0.15111494 -0.11999896 0.05869579 0.19144686 0.0027510633 0.14459996 -0.1490711
0.0638334 -0.12682995 0.08868487 0.03570876 0.22147101 -0.10606906 -0.1390882 -0.056617875
-0.04462468 -0.090675995 0.167471 0.020227859 0.09696549 -0.17428589 -0.053162728 -0.066919126
0.05954542 -0.108213656 0.06548319 -0.16065435 -0.093909755 0.05965607 -0.03793532 -0.10625215
0.09248835 0.024441894 0.060897224 -0.082140155 -0.015311079 0.08684192 0.11556582 -0.049274743
0.1718538 0.02270834 0.07070614 0.049133416 -0.048469443 -0.05582991 -0.106365725 -0.09732901
-0.11254042 -0.11639517 0.029967403 -0.051823605 -0.06582401 0.06926042 0.07803173 0.110634096
-0.07092404 0.015398539 0.01319972 0.08596467 -0.054303676 0.06484511 -0.021498421 0.08322887
-0.0033090445 0.07181772 -0.06708832 0.06726503 -0.025812276 -0.008498897 0.03794725 -0.04165516
0.10780305 -0.038181648 0.09027721 0.17334089 -0.1776117 -0.005084266 -0.10929574 0.040090915
-0.05786424 0.09604376 -0.08705852 -0.11047669 0.0135777425 0.06963761 0.029932681 -0.004806603
0.038411487 -0.036064204 -0.3038111 0.23191763 -0.025670998 -0.12688349 0.17037608 0.15830001
-0.2315825 -0.25026247 -0.10327254 0.107241735 -0.26400015 0.020709254 -0.046444114 0.046882264
-0.07983857 0.27738452 0.5657349 -0.2957041 -0.27636185 0.36470878 -0.14332955 0.07475157
0.11198374 0.01121743 0.18287055 0.099141076 0.19336624 0.18198322 0.30120787 -0.003049211
0.055988286 -0.044830624 -0.23552865 -0.26090482 0.26968354 -0.28363612 0.28258154 0.0605257
0.055889484 -0.06404267 -0.23267147 0.14733386 0.26111084 0.19300303 -0.100707814 0.05047024
0.27208427 -0.2256459 -0.006400937 -0.25614622 0.1553499 0.006134652 -0.46213758 0.22564003
-0.035632767 0.08881611 0.2759134 -0.021120545 0.30400318 0.24501319 -0.09133352 0.15102756
0.026557738 -0.07616041 -0.22794038 0.117487825 -0.091576435 0.021534748 0.1711937 0.12656148
-0.16978374 -0.093275115 -0.05451567 0.285256 -0.3615214 -0.29814607 -0.002314733 -0.08574274
-0.09064394 0.17894478 0.06452967 -0.0791769 -0.18424909 -0.09157463 -0.0710963 -0.05267873
0.026587697 0.267342 -0.04558851 -0.1988736 0.18863787 0.05469399 0.11710301 0.10732607
-0.04428481 0.00016295002 -0.1788762 0.17906833 -0.014536544 -0.060908303 0.29456323 -0.11171745
-0.3688093 -0.038260628 -0.043282073 -0.038725287 -0.14989765 0.07043946 -0.17013797 -0.33489376
-0.10158955 -0.33883035 -0.14450893 0.09917669 0.4165951 0.01791531 -0.04103553 -0.02539398
0.08095081 -0.02613888 -0.046230946 0.032956343 0.2245694 0.10267468 -0.040747974 -0.0751956
00000000: 4850 0ebe b64f 2bbe 8ddf 4b3e 9a57 bebc
00000010: e1e8 3abc 1899 193e 819b 4d3d bf01 20be
00000020: c034 5abd e3c3 523e afdb 44be 03dc 223e
00000030: f4aa 563c eeaa 17bc 4f5f 423e acc8 b23d
00000040: c701 8dbb 5be0 b4bb 4758 fcbd 3b8a 28bd
00000050: 5c86 9b3d bab6 1abd d4c3 f73d d71a 083d
00000060: d7f9 3f3d 4b0e 3f3c 5b0b 8e3d d97c ed3d
00000070: 5de6 723e 1270 2abe ef81 613e 3d21 f1bd
00000080: 0dea 583d 46fd ffbd bc38 293d 3dd0 ba3b
00000090: 8c32 1abd f6c4 12be e6df 36be 6024 ecbd
000000a0: eeae 94bd e0bd 1a3e 04c2 f5bd ff6a 703d
000000b0: a50a 443e 2f4b 343b 0312 143e 18a6 18be
000000c0: 16bb 823d b6df 01be 6aa0 b53d 5943 123d
000000d0: 4cc9 623e bc3a d9bd 236d 0ebe 25e8 67bd
000000e0: 5ec8 36bd 56b4 b9bd 857d 2b3e e5b4 a53c
000000f0: d895 c63d 0078 32be 29c1 59bd e50c 89bd
00000100: e6e5 733d 1f9f ddbd 0d1c 863d 9382 24be
00000110: c253 c0bd ec59 743d 1162 1bbd ba9a d9bd
00000120: 886a bd3d 5e3a c83c 5e6f 793d 1939 a8bd
00000130: 52db 7abc 2dda b13d c6ad ec3d 50d4 49bd
00000140: 71fa 2f3e d706 ba3c 61ce 903d 1f40 493d
00000150: e587 46bd e7ad 64bd 46d6 d9bd 6f54 c7bd
00000160: 977b e6bd 9760 eebd 337e f53c fd44 54bd
00000170: bdce 86bd 68d8 8d3d 1acf 9f3d 2194 e23d
00000180: a040 91bd 274a 7c3c a343 583c 3f0e b03d
00000190: 886d 5ebd 83cd 843d 751d b0bc e673 aa3d
000001a0: 8edc 58bb 2b15 933d 9a65 89bd 40c2 893d
000001b0: 4474 d3bc f53e 0bbc 936e 1b3d 9a9e 2abd
000001c0: d8c7 dc3d 5c64 1cbd 42e3 b83d 4680 313e
000001d0: d7df 35be ea99 a6bb 72d6 dfbd 5f36 243d
000001e0: 0e03 6dbd 97b2 c43d bd4b b2bd 9a41 e2bd
000001f0: 2e75 5e3c 2a9e 8e3d 6235 f53c b580 9dbb
00000200: 5d55 1d3d 0fb8 13bd 218d 9bbe d17b 6d3e
00000210: fc4b d2bc bfed 01be 1177 2e3e 6619 223e
00000220: f623 6dbe 6722 80be 8e80 d3bd 8ea1 db3d
00000230: 072b 87be 74a6 a93c 2f3c 3ebd 9e07 403d
00000240: 6782 a3bd 5805 8e3e 01d4 103f 8766 97be
00000250: 4d7f 8dbe 1cbb ba3e fbc4 12be 5a17 993d
00000260: bb57 e53d 50c9 373c 6b42 3b3e 7a0a cb3d
00000270: cd01 463e cf59 3a3e eb37 9a3e 46d5 47bb
00000280: f953 653d 51a0 37bd 6c2e 71be 5195 85be
00000290: f613 8a3e c138 91be 87ae 903e cce9 773d
000002a0: 5fec 643d ce28 83bd 6e41 6ebe b0de 163e
000002b0: 52b0 853e 96a2 453e e63f cebd e2b9 4e3d
000002c0: a14e 8b3e b80f 67be f4be d1bb 9925 83be
000002d0: 0b14 1f3e 3105 c93b 4c9d ecbe 2e0e 673e
000002e0: aaf3 11bd 38e5 b53d 8544 8d3e fe04 adbc
000002f0: 4ea6 9b3e bde4 7a3e 120d bbbd f8a6 1a3e
00000300: 9d8f d93c fdf9 9bbd 3469 69be 759d f03d
00000310: 6d8c bbbd a469 b03c 674d 2f3e 5599 013e
00000320: cadb 2dbe 0607 bfbd d34b 5fbd 130d 923e
00000330: 5519 b9be 9aa6 98be c7b2 17bb e499 afbd
00000340: 88a3 b9bd 4d3d 373e 2228 843d 8027 a2bd
00000350: cbab 3cbe 7b8b bbbd f09a 91bd a7c5 57bd
00000360: 71ce d93c 0de1 883e 04bb 3abd 85a5 4bbe
00000370: 492a 413e ce06 603d b4d3 ef3d c5cd db3d
00000380: fd63 35bd 90dd 2a39 532b 37be b05d 373e
00000390: af2a 6ebc fc7a 79bd fed0 963e 1ecc e4bd
000003a0: 93d4 bcbe 2db7 1cbd 8b48 31bd 689e 1ebd
000003b0: c57e 19be 9042 903d a638 2ebe 3277 abbe
000003c0: 2f0e d0bd 2c7b adbe 26fa 13be 261d cb3d
000003d0: f44b d53e 21c3 923c df14 28bd 0907 d0bc
000003e0: 8ac9 a53d 3421 d6bc a95c 3dbd 3bfd 063d
000003f0: 85f5 653e 1a47 d23d 59e7 26bd 2700 9abd

actor.2.bias f4 [64]
-0.010118766 -0.07792495 -0.27566954 0.29243124 0.008458384 -0.008010654 0.08741593 0.014099035
0.10540452 -0.1985214 0.011724873 -0.005586278 0.031137167 0.06973422 -0.059260722 0.04928913
-0.09287221 -0.1007349 -0.14679292 0.011449665 -0.085699424 0.02733003 -0.08226916 0.05389386
0.06834178 0.060604278 -0.13642755 -0.020833125 0.15260012 0.15864013 -0.04404022 0.08290362
0.0070228404 0.1039988 -0.030366475 -0.08251674 -0.058429968 0.08433245 -0.0966162 0.035285693
-0.07013474 -0.05052735 -0.06795003 -0.07775681 0.059678853 0.11268545 0.0005617786 -0.07232019
0.08991216 0.0078018843 -0.0644476 0.11141775 -0.030155325 0.016046688 0.06198037 -0.07823389
-0.01321889 -0.08420409 -0.3841315 0.03475093 0.018316396 -0.11261679 0.031749595 -0.06890315
00000000: 2ec9 25bc 1e97 9fbd 8f24 8dbe 8cb9 953e
00000010: 0995 0a3c 1e3f 03bc 2007 b33d a4ff 663c
00000020: 53de d73d 3249 4bbe af19 403c 190d b7bb
00000030: 5f13 ff3c d1d0 8e3d 5fbb 72bd 66e3 493d
00000040: c933 bebd 194e cebd e250 16be 6097 3b3c
00000050: 2e83 afbd 3ae3 df3c bc7c a8bd cfbf 5c3d
00000060: c6f6 8b3d 313c 783d aab3 0bbe 3baa aabc
00000070: 3543 1c3e 8f72 223e 8563 34bd 60c9 a93d
00000080: db1f e63b 53fd d43d 1dc3 f8bc 89fe a8bd
00000090: 4354 6fbd 7eb6 ac3d b7de c5bd bb87 103d
000000a0: cda2 8fbd c4f5 4ebd 6329 8bbd f63e 9fbd
000000b0: d071 743d a1c7 e63d 5344 133a 9c1c 94bd
000000c0: de23 b83d f3a6 ff3b 1afd 83bd fd2e e43d
000000d0: 4d08 f7bc 5874 833c 21df 7d3d 1739 a0bd
000000e0: 0b94 58bc 3273 acbd e2ac c4be fe56 0e3d
000000f0: 440c 963c a2a3 e6bd dd0b 023d 181d 8dbd

actor.4.weight f4 [1, 64]
0.18719032 0.0688242 0.2823388 -0.23233713 0.21510248 0.1784799 0.11590377 0.13564436
-0.12241169 0.20901078 0.1353542 0.17970896 0.18003485 0.06542948 -0.3586224 -0.12680319
0.21415573 0.044733316 0.2594756 -0.11211685 0.26932752 0.15370815 0.093830034 -0.3290838
-0.36044386 -0.18214011 0.13909568 -0.12681864 -0.12278775 -0.1337817 0.13744617 -0.19522502
0.051051516 0.083344534 0.020805141 -0.2777539 -0.13874061 -0.024106339 -0.21185726 -0.14728895
-0.09944546 0.024724832 -0.16215207 -0.28484195 0.07698516 -0.17805752 0.07519399 0.1645743
-0.12295121 0.13641511 -0.12436748 0.2062618 -0.21622854 0.14642394 -0.29438958 -0.11118867
0.1731027 -0.18748705 -0.16637242 -0.15452187 0.14691481 0.3049473 -0.114426024 0.16224727
00000000: d2ae 3f3e b4f3 8c3d b68e 903e c9e9 6dbe
00000010: d343 5c3e 6fc3 363e f55e ed3d 5be6 0a3e
00000020: fbb2 fabd ec06 563e 4b9a 0a3e a005 383e
00000030: 0e5b 383e e4ff 853d 5b9d b7be b2d8 01be
00000040: a44b 5b3e 483a 373d fcd9 843e 859d e5bd
00000050: 4ce5 893e ab65 1d3e f629 c03d ac7d a8be
00000060: 198c b8be f082 3abe 196f 0e3e bfdc 01be
00000070: 2578 fbbd 12fe 08be b0be 0c3e 11e9 47be
00000080: 651b 513d 8ab0 aa3d 8b6f aa3c c235 8ebe
00000090: 0512 0ebe a87a c5bc 1cf1 58be ead2 16be
000000a0: 10aa cbbd bb8b ca3c 310b 26be ced6 91be
000000b0: 65aa 9d3d b654 36be 4eff 993d 2a86 283e
000000c0: d8cd fbbd 67b0 0b3e 61b4 febd 4b36 533e
000000d0: 046b 5dbe 28f0 153e 3bba 96be e3b6 e3bd
000000e0: d641 313e 9bfc 3fbe 885d 2abe fb3a 1ebe
000000f0: d670 163e 0d22 9c3e 3158 eabd 2624 263e

critic.0.weight f4 [64, 5]
0.41942856 -1.057057 0.36150324 0.29398707 -0.377533 0.0970369 0.35954073 -0.9660295
-0.35118806 0.8781817 -0.08681547 -0.7273791 0.36509937 0.8336091 0.12722087 -0.26368102
-1.3224717 -1.1895603 -0.26902658 -0.4636495 -0.15867041 0.44499266 -1.3138257 -0.35922202
-0.7695022 -0.9127508 -1.0640842 0.16297024 0.7270077 -0.41457582 -0.46312678 -0.78382653
1.7272383 0.09212265 -0.3407573 -0.79755026 0.19680855 -0.62525284 -0.29821038 -0.15793365
0.19358099 0.7677265 -0.08255526 0.025245678 -0.47692135 -0.87198585 -0.29585582 -0.0699789
0.48024192 0.081597604 0.9874589 -1.0837132 -0.40092152 -0.75717854 0.20736982 0.22906803
-0.41642496 1.897698 0.33922976 0.5494102 0.44623104 0.4783567 -1.9279422 0.061910152
-0.3210277 0.30634704 0.1594584 0.78141636 0.47772953 0.4417565 0.40700942 -0.60332936
-0.49628833 -0.27481577 0.19093323 -0.82341236 -0.6847953 0.45591462 0.07446465 -1.0175971
0.61310905 0.6691439 1.2201071 0.32639235 0.4843626 -1.3421248 -0.9974268 0.72331643
0.5917143 -0.03276925 -0.4180496 -1.0357269 -0.3395356 -0.32085863 -0.35417184 0.83251876
0.044602245 0.9236768 0.012318773 -0.18493018 -0.30841133 0.16356203 -1.280454 0.64428085
0.033349827 0.058115683 -0.68186885 0.19677974 -0.561169 0.21268776 0.013957128 0.028992187
2.0081806 -0.20712292 -0.9292196 -0.16138117 -0.9612163 -0.71562743 -0.6043997 0.18465115
0.8330111 -0.62043005 0.8698804 0.31934762 0.25346065 0.31787348 0.70817 1.4378195
-0.05959965 -0.19604826 0.57850605 0.9174619 -0.29291862 0.23009394 -0.40551662 0.48948118
0.8468054 -0.15829678 0.29102305 -0.42915782 -0.85821784 -0.15193129 -0.46347976 0.05261834
-0.07333204 -0.76083434 0.9314305 -0.02349515 0.6417671 -0.32645887 0.06096357 0.6143792
-1.1945665 -0.07712757 -0.4350552 0.58019686 0.81762457 0.9220248 0.24078216 0.44789764
-0.23224509 -0.17548984 -1.2275664 -0.2649303 0.29469126 -0.07164225 0.18929836 -1.0017325
0.22632712 0.039130926 -0.9808824 0.31917807 -0.10010575 -0.1410462 -0.025034474 0.43393928
0.7807872 0.63521045 -0.04786578 0.17565571 0.22776504 0.15376355 -0.88204664 -0.34198347
0.8883446 1.1535008 -0.7246828 -0.8947012 -0.21856354 -0.01883118 -0.95254993 0.5546976
-0.48290303 -0.28852895 0.1633932 -0.09077407 0.34602666 -0.22620013 -0.70445025 -0.117460586
-0.35683665 -1.0961914 -0.784585 -0.24933144 -0.41684294 0.30114684 0.25232244 2.2070503
0.24377856 0.50141567 0.18496446 0.46372205 1.670645 0.11697663 0.39223462 -0.5388823
-0.7086002 0.06484076 -1.0161432 -0.11340447 -0.22502987 -0.6251736 -1.9311309 -0.17314364
-0.4666778 -0.21679921 -0.87809813 -0.68294346 -0.2347831 -0.37655878 -0.2762516 0.30204022
1.113278 -0.3069406 0.4598845 -1.3925521 -0.15725163 -0.41802993 -0.48915842 0.04198663
-0.49662462 0.46131688 -0.6810433 0.42826927 -0.036735456 -0.6545751 -0.42817625 -0.49276018
-0.49070793 -0.02426802 -0.82024306 0.5920497 -0.6489719 -0.37779748 -0.018833438 0.30174357
00000000: 57bf d63e a54d 87bf f416 b93e 7985 963e
00000010: 014c c1be 48bb c63d b915 b83e b64d 77bf
00000020: ecce b3be 84d0 603f 4fcc b1bd 8435 3abf
00000030: 4eee ba3e 6867 553f 3046 023e 3301 87be
00000040: c146 a9bf 8343 98bf dabd 89be 7863 edbe
00000050: 7f7a 22be 14d6 e33e 712b a8bf f3eb b7be
00000060: 19fe 44bf 09aa 69bf e933 88bf ace1 263e
00000070: 2d1d 3a3f 4843 d4be f41e edbe dba8 48bf
00000080: 2516 dd3f cdaa bc3d be77 aebe 412c 4cbf
00000090: 2e88 493e 9210 20bf 08af 98be 5cb9 21be
000000a0: 183a 463e b989 443f bb12 a9bd 06d0 ce3c
000000b0: 092f f4be 773a 5fbf 6a7a 97be 1951 8fbd
000000c0: 45e2 f53e a51c a73d 1bca 7c3f 1db7 8abf
000000d0: 9645 cdbe 74d6 41bf c158 543e cf90 6a3e
000000e0: a735 d5be c5e7 f23f 86af ad3e 26a6 0c3f
000000f0: 6578 e43e 2beb f43e cfc6 f6bf 8095 7d3d
00000100: be5d a4be 85d9 9c3e 1049 233e e70a 483f
00000110: f798 f43e e82d e23e 8a63 d03e cb73 1abf
00000120: 8119 febe a7b4 8cbe 0084 433e 27cb 52bf
00000130: bf4e 2fbf a46d e93e ec80 983d 9f40 82bf
00000140: b7f4 1c3f 044d 2b3f 782c 9c3f e61c a73e
00000150: 60fe f73e bfca abbf 5d57 7fbf 442b 393f
00000160: 977a 173f 0d39 06bd 990a d6be b392 84bf
00000170: 9cd7 adbe 9547 a4be 0356 b5be f31f 553f
00000180: d8b0 363d 1576 6c3f aed4 493c 565e 3dbe
00000190: 17e8 9dbe ce7c 273e ebe5 a3bf 97ef 243f
000001a0: d499 083d b60a 6e3d f58e 2ebf a180 493e
000001b0: c6a8 0fbf d2ca 593e 70ac 643c 0681 ed3c
000001c0: 0886 0040 0818 54be 56e1 6dbf 1b41 25be
000001d0: 4512 76bf 5c33 37bf f0b9 1abf 3115 3d3e
000001e0: 3740 553f 81d4 1ebf 7bb0 5e3f 8881 a33e
000001f0: 98c5 813e 50c0 a23e a14a 353f 780a b83f
00000200: c31e 74bd e0c0 48be f918 143f c8de 6a3f
00000210: 6ef9 95be bf9d 6b3e e09f cfbe 479d fa3e
00000220: 3dc8 583f 8d18 22be f900 953e 93ba dbbe
00000230: 2ab4 5bbf e093 1bbe 384d edbe 5486 573d
00000240: 1c2f 96bd 0ac6 42bf 3b72 6e3f e778 c0bc
00000250: d94a 243f 9e25 a7be f0b4 793d f547 1d3f
00000260: 8ee7 98bf 0ff5 9dbd 8ebf debe c887 143f
00000270: d84f 513f d109 6c3f 998f 763e d752 e53e
00000280: a8d1 6dbe 9cb3 33be e520 9dbf f2a4 87be
00000290: c6e1 963e 2cb9 92bd 6ed7 413e c538 80bf
000002a0: 4cc2 673e c047 203d 1c1b 7bbf 4f6b a33e
000002b0: 3e04 cdbd 6a6e 10be 1915 cdbc 4a2d de3e
000002c0: ace1 473f 279d 223f e80e 44bd 17df 333e
000002d0: 3d3b 693e 3174 1d3e cfcd 61bf 7518 afbe
000002e0: 8d6a 633f eaa5 933f d084 39bf 230b 65bf
000002f0: 1fcf 5fbe d943 9abc 50da 73bf a900 0e3f
00000300: 113f f7be 11ba 93be 8c50 273e c1e7 b9bd
00000310: 682a b13e 02a1 67be da56 34bf 2d8f f0bd
00000320: 4bb3 b6be 0050 8cbf 90da 48bf be50 7fbe
00000330: 706c d5be eb2f 9a3e 6830 813e 5040 0d40
00000340: 16a1 793e c75c 003f 5367 3d3e fa6c ed3e
00000350: b2d7 d53f 7291 ef3d fad2 c83e 31f4 09bf
00000360: d366 35bf 3bcb 843d fb10 82bf 9a40 e8bd
00000370: 3b6e 66be 610b 20bf 4c2f f7bf 914c 31be
00000380: 65f0 eebe 9d00 5ebe 0acb 60bf 62d5 2ebf
00000390: fb6a 70be 50cc c0be da70 8dbe 04a5 9a3e
000003a0: e57f 8e3f 5127 9dbe fb75 eb3e 263f b2bf
000003b0: 9206 21be 0508 d6be f972 fabe 2cfa 2b3d
000003c0: 9545 febe ba31 ec3e db58 2ebf 1c46 db3e
000003d0: eb77 16bd 3c92 27bf eb39 dbbe 104b fcbe
000003e0: 123e fbbe bacd c6bc 73fb 51bf 9290 173f
000003f0: 0623 26bf ac6e c1be 9548 9abc 227e 9a3e

critic.0.bias f4 [64]
0.53448874 -0.22358425 0.34064877 1.27894 0.13260481 0.24286604 0.34869072 0.80413955
-0.97282827 -0.45935902 -0.53671104 -0.08412639 -0.16952485 -0.25988647 0.9332449 0.18929608
0.13806544 -0.2930297 0.59880316 0.9619314 0.027344832 -0.30226874 -0.88299745 -0.16255039
-0.26595506 -0.823949 -0.8248185 -0.7155693 -0.5651904 0.5399145 -0.6233635 -0.21107224
0.5987832 1.0697652 -0.83952373 -1.0135128 -0.21045558 -0.48609355 -0.8447306 -0.40063238
0.85511065 -0.10345782 -0.5432118 -0.8621848 0.6305525 0.73221457 0.22204866 -0.6284132
0.8072102 -0.4053986 0.62921906 0.113678716 0.70485276 1.4001989 0.108977824 -1.081143
0.69387597 -0.921768 -0.23154609 0.37893912 -0.18815495 0.37577015 -0.58449453 -0.8200489
00000000: 41d4 083f 45f3 64be 8469 ae3e 4eb4 a33f
00000010: 8ec9 073e e0b1 783e 9787 b23e 17dc 4d3f
00000020: 460b 79bf 1b31 ebbe e565 09bf 754a acbd
00000030: ec97 2dbe d70f 85be 23e9 6e3f d5d6 413e
00000040: 0761 0d3e fd07 96be 2a4b 193f 2341 763f
00000050: 4502 e03c f8c2 9abe 1f0c 62bf 9c73 26be
00000060: 432b 88be 52ee 52bf 4e27 53bf 8d2f 37bf
00000070: 51b0 10bf d637 0a3f c094 1fbf 5223 58be
00000080: db49 193f 11ee 883f 07eb 56bf caba 81bf
00000090: ab81 57be 41e1 f8be 4440 58bf b01f cdbe
000000a0: 88e8 5a3f b2e1 d3bd ee0f 0bbf 25b8 5cbf
000000b0: e36b 213f 6a72 3b3f b960 633e b0df 20bf
000000c0: 54a5 4e3f 6890 cfbe 8014 213f 63d0 e83d
000000d0: 3b71 343f b839 b33f c42f df3d e562 8abf
000000e0: dba1 313f fdf8 6bbf 6b1a 6dbe 4f04 c23e
000000f0: b1ab 40be f264 c03e 6fa1 15bf baee 51bf

critic.2.weight f4 [64, 64]
-0.39351293 -0.032598145 -0.19250508 -0.36504096 0.33987767 -0.24720447 -0.36742136 -0.19557135
0.44833583 0.16807453 -0.06945276 -0.168997 -0.1618401 0.078712925 -0.3125553 -0.16375384
0.30287543 0.04602033 -0.08331541 -0.7204178 -0.13219708 0.18365459 0.21528976 0.17216346
0.049138013 0.4186659 0.60830563 0.6312772 0.27117303 0.30536553 0.1599217 0.038071055
-0.09147234 -0.44536975 0.19488679 0.34673926 -0.19266497 0.14384916 0.19405033 0.2462751
-0.0983671 0.12005731 0.15821949 0.3982047 -0.1578672 -0.111686885 -0.0844613 0.38910118
-0.40093544 0.30639073 -0.06372393 0.178538 -0.35235614 -0.18184102 0.10395697 0.39042476
-0.3832968 0.9204642 -0.013910433 -0.30274576 0.05037518 0.30355462 0.20960435 0.8293847
0.13915497 0.23232985 -0.6268453 0.0052510947 0.32808286 -0.7820845 -0.7180736 -0.30673978
0.25140333 -0.5959249 0.23993906 -0.48132622 0.6906101 0.07494279 0.04709751 -0.6084114
-0.09802837 -1.1536963 -0.066921964 0.080231495 -0.020511111 -0.285023 -0.45907488 -0.20540857
0.17662789 0.0040499405 0.02295454 0.255798 -0.30768982 -0.14146864 0.28391477 -0.12788732
0.013036092 0.303999 -0.11089724 0.54364026 0.20743813 0.33566797 -0.27512813 0.61880314
-0.08233104 -0.40385184 -0.0020818305 -0.10975485 0.15490225 -0.026179213 -0.29517543 -0.31029147
0.089839935 0.06416125 -0.3249031 0.16338973 -0.23347275 -0.40514222 -0.25578612 -0.09658702
-0.13343892 0.03889918 0.24410462 -0.04835023 -0.2069963 0.4941839 0.37141564 0.11842185
0.2989034 0.27092844 0.25759584 -0.28291973 0.35626775 0.07803502 -0.99287295 -0.14062887
0.1212549 -0.11341431 -0.7628964 -0.30438775 0.022589669 0.20291679 0.49298793 -0.70203805
0.58765554 0.009537527 -0.49522626 0.49050358 -0.0048012007 -0.39360642 -0.8504961 -0.14099608
-0.19796528 0.0058281273 0.1880477 0.10462231 -0.066537626 0.51365536 0.23560707 0.58551466
0.14571661 0.12275516 -0.33017644 -0.24032804 -0.11045172 -0.4715379 -0.06101911 -0.53487664
-0.3851557 0.18776801 0.05945953 -0.5570862 -0.0102765 -0.44521382 0.13405278 -0.6302345
0.42065117 -0.5514154 0.20420863 0.1964416 -0.2557846 0.995863 -0.08872009 -0.36852992
-0.2403381 -0.18694529 -0.1346656 0.009249336 -0.38927513 0.6310301 0.22086698 0.46400398
-0.5262499 0.22484131 -0.28094974 -0.25701538 -0.1391915 0.21459481 0.4002224 0.31655496
-0.20562187 0.3829104 0.13788849 0.21581542 -1.0811862 -0.13935222 -1.0293609 0.3921055
0.14008753 0.09402601 -0.07629318 0.20691867 -0.24171123 0.015910884 0.7506717 -0.3865456
-0.330963 0.056096856 -0.3869728 -0.60266644 -0.1309594 -0.52327627 -0.54064673 0.2129663
0.15297535 -0.3008756 0.06514378 -0.12888071 0.23620567 -0.15032712 -0.06804656 0.17406017
-0.14943321 0.28664488 0.3964806 0.34383258 -0.47021714 -0.20561711 0.59093374 0.28759962
-0.5273608 0.49780872 0.40503427 -0.22681513 0.29944143 -0.25943628 -0.5489953 0.10394192
-0.20803338 0.08378484 -0.3890753 0.35651815 0.5425312 -0.2927362 -0.06167141 -0.12208594
00000000: 877a c9be a285 05bd 0d20 45be a6e6 babe
00000010: 7204 ae3e 2b23 7dbe a71e bcbe db43 48be
00000020: 468c e53e bb1b 2c3e 403d 8ebd 8d0d 2dbe
00000030: 69b9 25be 3e34 a13d 4007 a0be 16af 27be
00000040: 7d12 9b3e d07f 3c3d 45a1 aabd 4d6d 38bf
00000050: ac5e 07be f30f 3c3e eb74 5c3e 9e4b 303e
00000060: f144 493d 605b d63e ebb9 1b3f 629b 213f
00000070: 31d7 8a3e df58 9c3e 84c2 233e 65f0 1b3d
00000080: da55 bbbd 8107 e4be 6790 473e cf87 b13e
00000090: f749 45be 324d 133e 21b5 463e 8a2f 7c3e
000000a0: b174 c9bd 9be0 f53d 4a04 223e 7de1 cb3e
000000b0: f0a7 21be 18bc e4bd 0cfa acbd 4538 c73e
000000c0: 6947 cdbe 3fdf 9c3e b181 82bd aad2 363e
000000d0: 0668 b4be 8834 3abe 64e7 d43d c1e5 c73e
000000e0: 7a3f c4be 8ba3 6b3f 96e8 63bc 7e01 9bbe
000000f0: 3456 4e3d 836b 9b3e 86a2 563e 8e52 543f
00000100: a47e 0e3e e0e7 6d3e ef78 20bf 6011 ac3b
00000110: 7afa a73e b136 48bf acd3 37bf ff0c 9dbe
00000120: f0b7 803e 898e 18bf 96b2 753e 6470 f6be
00000130: d3cb 303f 9b7b 993d 52e9 403d d9c0 1bbf
00000140: 19c3 c8bd 52ac 93bf 620e 89bd 6950 a43d
00000150: eb06 a8bc 89ee 91be dd0b ebbe a056 52be
00000160: f1dd 343e 5db5 843b 290b bc3c f5f7 823e
00000170: 8589 9dbe 28dd 10be 475d 913e e5f4 02be
00000180: 5595 553c c2a5 9b3e 181e e3bd 022c 0b3f
00000190: a96a 543e acdc ab3e 98dd 8cbe e269 1e3f
000001a0: 2d9d a8bd abc5 cebe 526f 08bb 27c7 e0bd
000001b0: b29e 1e3e ca75 d6bc 3c21 97be 86de 9ebe
000001c0: 00fe b73d f966 833d b359 a6be a34f 273e
000001d0: 7b13 6fbe cd6e cfbe 66f6 82be 6acf c5bd
000001e0: 36a4 08be bf54 1f3d 90f6 793e e40a 46bd
000001f0: d7f6 53be ac05 fd3e 312a be3e 2887 f23d
00000200: de09 993e 22b7 8a3e 9ae3 833e dbda 90be
00000210: ba68 b63e d3d0 9f3d ec2c 7ebf 0401 10be
00000220: 7d54 f83d c345 e8bd 2e4d 43bf b6d8 9bbe
00000230: f80d b93c 6bc9 4f3e ea68 fc3e c4b8 33bf
00000240: 9870 163f 4a43 1c3c 4c8e fdbe 4923 fb3e
00000250: 6453 9dbb c886 c9be 1dba 59bf 4761 10be
00000260: 69b7 4abe e0f9 be3b 948f 403e 3944 d63d
00000270: e144 88bd eb7e 033f fb42 713e 4ae4 153f
00000280: bc36 153e 0f67 fb3d e30c a9be 8e18 76be
00000290: 8334 e2bd 6a6d f1be 2def 79bd aded 08bf
000002a0: 2133 c5be 4246 403e d68b 733d 349d 0ebf
000002b0: c45e 28bc 11f3 e3be 2245 093e 0c57 21bf
000002c0: 975f d73e 8f29 0dbf 111c 513e fd27 493e
000002d0: 33f6 82be e1f0 7e3f e1b2 b5bd f4af bcbe
000002e0: 311b 76be 966e 3fbe c7e5 09be 878a 173c
000002f0: 124f c7be 308b 213f f42a 623e ee91 ed3e
00000300: 50b8 06bf cd3c 663e a5d8 8fbe 8597 83be
00000310: 3788 0ebe bebe 5b3e f3e9 cc3e 7e13 a23e
00000320: 8a8e 52be d50c c43e a432 0d3e b8fe 5c3e
00000330: 4f64 8abf 59b2 0ebe 19c2 83bf 0dc2 c83e
00000340: 1b73 0f3e b590 c03d 993f 9cbd 7de2 533e
00000350: 2683 77be 8b57 823c 052c 403f 4ee9 c5be
00000360: fb73 a9be d1c5 653d 4d21 c6be 5948 1abf
00000370: 391a 06be 6ff5 05bf d367 0abf d613 5a3e
00000380: 92a5 1c3e 5e0c 9abe 1a6a 853d 4ef9 03be
00000390: e6df 713e 5aef 19be ff5b 8bbd d43c 323e
000003a0: 0505 19be 1ec3 923e 81ff ca3e d30a b03e
000003b0: 4dc0 f0be 4b8d 52be 6f47 173f 4240 933e
000003c0: 1e01 07bf c9e0 fe3e a760 cf3e 3a42 68be
000003d0: 6350 993e d5d4 84be f58a 0cbf 80df d43d
000003e0: b406 55be 6397 ab3d e134 c7be 8c89 b63e
000003f0: 53e3 0a3f 85e1 95be 299b 7cbd 3108 fabd

critic.2.bias f4 [64]
-0.74665177 0.24943164 0.07297204 -0.18225943 -0.023148935 -0.3043499 0.10025227 0.0149222575
0.41599643 0.15517147 -0.39369154 -0.46177846 0.44144312 0.4042381 -0.09779366 0.15089016
0.33800766 -0.3311578 0.20724443 0.86759275 0.2769495 0.1789582 -0.179131 -0.45822042
0.21610694 -0.9687117 -0.17366546 -0.059629437 0.34451404 0.7538715 0.50945425 -0.14510325
-0.31216425 -0.16125563 -0.54205036 0.13859762 0.071732804 -0.11493018 0.036634933 -0.14837018
0.15971038 0.24217592 0.06480152 -0.39678004 0.22809298 -0.5539736 -0.2324748 0.0084500015
-0.3642746 -0.018293189 -0.66855586 -0.2911723 0.22188327 -0.023223115 0.4600565 -0.42448786
-0.29970425 -0.09776923 -0.19227208 0.28195286 -0.011991953 -0.011973619 0.32569724 0.12455719
00000000: 9224 3fbf 026b 7f3e 5d72 953d 37a2 3abe
00000010: d6a2 bdbc c0d3 9bbe 1051 cd3d 7c7c 743c
00000020: 7cfd d43e 45e5 1e3e f091 c9be 3a6e ecbe
00000030: d504 e23e 4cf8 ce3e 0b48 c8bd f382 1a3e
00000040: 570f ad3e 848d a9be e237 543e 8f1a 5e3f
00000050: 53cc 8d3e d240 373e 1e6e 37be de9b eabe
00000060: 234b 5d3e 7dfd 77bf 5cd5 31be ff3d 74bd
00000070: 2564 b03e b9fd 403f 986b 023f f295 14be
00000080: fed3 9fbe 3220 25be d0c3 0abf 89ec 0d3e
00000090: a6e8 923d 8460 ebbd 830e 163d 5aee 17be
000000a0: 1e8b 233e f7fc 773e a9b6 843d c126 cbbe
000000b0: 3591 693e 37d1 0dbf e00d 6ebe e071 0a3c
000000c0: 3382 babe 99db 95bc 7a26 2bbf 8914 95be
000000d0: 5e35 633e 673e bebc 878c eb3e 7956 d9be
000000e0: d672 99be 3c3b c8bd f9e2 44be 205c 903e
000000f0: e579 44bc 002d 44bc cac1 a63e d717 ff3d

critic.4.weight f4 [1, 64]
0.1827731 -0.11057519 0.07272505 0.14408626 -0.08700662 0.20969991 0.021290379 -0.12535599
0.05525926 -0.12213037 -0.060007434 0.099881686 0.09159005 -0.15474463 0.1867727 -0.06472841
-0.22395496 0.19869108 -0.21276979 -0.30320635 -0.216694 0.06888509 -0.19948371 0.08056297
-0.017534135 0.31853625 0.07585749 0.094995834 -0.22120526 -0.09526181 -0.14114557 0.08423087
-0.16350104 0.03673446 -0.14822674 0.1437518 0.067932926 0.15972264 0.12534004 -0.11370964
-0.15291649 -0.24430697 0.118483596 -0.13262868 0.010800244 0.16861819 0.13433373 0.015216561
-0.028889026 0.1713528 0.09500885 0.022264104 -0.090000615 -0.09297941 -0.11950164 -0.2476767
0.11584229 0.08890876 0.3369867 0.04035222 0.033007674 -0.16820146 -0.1351684 0.14531164
00000000: df28 3b3e 3f75 e2bd dff0 943d 598b 133e
00000010: 8730 b2bd 93bb 563e 2969 ae3c 525d 00be
00000020: 8957 623d 7d1f fabd 5bca 75bd c58e cc3d
00000030: 9093 bb3d 6075 1ebe 5841 3f3e 5490 84bd
00000040: 7354 65be ad75 4b3e 53e0 59be dd3d 9bbe
00000050: 08e5 5dbe a013 8d3d 7545 4cbe 33fe a43d
00000060: bfa3 8fbc 2f17 a33e 2c5b 9b3d 2d8d c23d
00000070: a283 62be a018 c3bd 7788 10be 3c81 ac3d
00000080: d16c 27be e076 163d c0c8 17be ac33 133e
00000090: 6b20 8b3d 558e 233e 2459 003e 9ae0 e8bd
000000a0: 2496 1cbe 9b2b 7abe 87a7 f23d d0cf 07be
000000b0: 82f3 303c 3faa 2c3e c88e 093e e24e 793c
000000c0: aea8 ecbc 1c77 2f3e 0094 c23d 3663 b63c
000000d0: 3e52 b8bd fd6b bebd 47bd f4bd f69e 7dbe
000000e0: b93e ed3d cc15 b63d 8589 ac3e 5f48 253d
000000f0: 0e33 073d 013d 2cbe 9669 0abe 93cc 143e
