controller/PPO_CartPole-dm_0_3000000.pth (torch, 41277 bytes, 10 tensors)

actor.0.weight f4 [64, 5]
000000 4d 7b 0f 3d d4 61 a0 bd af 43 33 3f 71 ba c2 bc
       0.0350297 -0.07831159 0.7002515 -0.023770543
000010 78 49 42 3e c0 04 5c be 20 d8 85 be b8 e8 ba bf
       0.18973339 -0.21486187 -0.26141453 -1.460227
000020 a0 b5 3c be b1 c6 3a be e2 6b 7f bd ef 58 78 be
       -0.1842866 -0.18239857 -0.062358744 -0.24252675
000030 bd bb e6 3e fb 16 d2 3e 8e 5d 94 bc 94 d3 b5 3d
       0.45065108 0.41033158 -0.018111017 0.08878246
000040 41 0b 4d 3e 89 b5 1d 3f 15 5f bd be 9e 7e e0 bb
       0.20023824 0.61605126 -0.36986604 -0.0068510314
000050 f7 c9 e0 bd f6 c7 a7 3e 7a d0 7b 3f 6a 58 90 3e
       -0.10976022 0.32769746 0.98364985 0.28192455
000060 75 ff 2b 3e 12 f7 76 bd d0 14 a7 3e db d2 01 3f
       0.16796668 -0.06029422 0.32633066 0.50712365
000070 c9 77 04 bf 3a 83 d8 3e e6 08 4e be 88 47 ec 3e
       -0.5174528 0.42287618 -0.20120582 0.46148324
000080 e1 4b 7e bd bd d2 e7 3d fa 96 04 be d2 89 e2 3e
       -0.062084083 0.11319492 -0.12948218 0.44245774
000090 d9 6a 06 3f a1 15 d9 be 0b e9 51 3b ba b5 40 bd
       0.52506787 -0.42399314 0.0032029774 -0.047048308
0000a0 d1 54 18 bc 75 23 0a bd 5b 72 0a bf 0b aa 34 3f
       -0.009297566 -0.03372522 -0.5408074 0.70571965
0000b0 4c 9c 17 3e 45 cf 21 bf b9 b0 c1 be 78 54 88 3f
       0.14805716 -0.63206893 -0.3783014 1.0650778
0000c0 d7 db b8 3e d4 76 92 bd 77 a5 45 be 91 0e fc be
       0.36105224 -0.07151571 -0.19301401 -0.49229863
0000d0 a8 8c 76 bf 96 bb 1a 3f 4c 55 93 be 87 d9 25 be
       -0.96308374 0.60442483 -0.28776014 -0.16196261
0000e0 3b e3 38 bd 46 18 57 bf 00 f2 84 be d3 b9 f5 bd
       -0.04513858 -0.84021413 -0.2596588 -0.11998334
0000f0 dd 41 e4 3d 3e 29 29 bf 3f 61 99 3e 9a 7c 1c 3e
       0.11145375 -0.66078556 0.29957005 0.15281907
000100 ab 8b 0f 3e df 47 08 3f 41 18 15 be dd d8 c4 3e
       0.14018123 0.53234667 -0.14560033 0.38446704
000110 57 1a 27 3f 4e f4 68 bc b9 10 0d bf a8 c9 05 bf
       0.65274566 -0.014218403 -0.5510364 -0.5226083
000120 6f 3b 7a 3e 12 52 a4 be 6a 99 25 be 2b 58 51 be
       0.24436735 -0.32093865 -0.16171804 -0.2044379
000130 c7 89 f3 be 6d 8d 1f bc 92 c3 92 3d cb 66 ae be
       -0.47566053 -0.009738308 0.07166208 -0.340628
000140 dd 8b 10 3f 55 7d 38 3e 93 8b 1c 3f 53 e1 8a bd
       0.56463414 0.1801656 0.61150473 -0.067812584
000150 47 5e 52 bd 4f 99 ff be fc db 29 3e 0a 66 9a bf
       -0.05135944 -0.49921653 0.16587824 -1.206239
000160 c8 ea c1 be a2 40 f5 be cf f7 60 3e 5d 0a f9 3e
       -0.37874436 -0.47900873 0.21969531 0.4864072
000170 ef c8 0b 3d 82 88 86 bd 05 2a e0 bd 61 43 3d 3c
       0.034127172 -0.065690055 -0.109455146 0.011551709
000180 cd 4b ce be 7a 9d a4 bf 97 45 ec bd 97 6b 85 3e
       -0.40292206 -1.2860558 -0.11536711 0.26058647
000190 34 27 0d bf da 32 1b bf 3a e2 a6 3e e1 6d d3 3d
       -0.55137944 -0.6062447 0.32594472 0.10323692
0001a0 5e 16 60 3e 57 be ac 3e 6c dc 8d 3e 4a 9b 43 bf
       0.21883532 0.33738968 0.2770723 -0.7640883
0001b0 07 5a ef be 69 d7 69 bd a1 97 bf be 1b 9d ab bd
       -0.46748373 -0.057090197 -0.3742037 -0.08379575
0001c0 e7 91 9e be b7 e5 c8 3e 1f a3 85 3e cf 22 9f be
       -0.3097069 0.3923776 0.26101014 -0.31081244
0001d0 1b 27 cc be f5 e6 00 be e5 61 06 bf eb 0c 47 bd
       -0.39873585 -0.12588103 -0.52493125 -0.048596304
0001e0 7e 94 ea be 48 bb d8 be c7 1c 1c bf 24 4e 0a bf
       -0.45816416 -0.42330384 -0.6098141 -0.54025483
0001f0 67 9c 1c be d2 e2 07 3f ca 36 fd 3e ac 30 f4 be
       -0.15294038 0.53080475 0.49455863 -0.47693384
000200 28 e9 93 bd 87 81 9c bd 0a 02 1d bf be 17 3b be
       -0.072222054 -0.07641893 -0.61331236 -0.18270776
000210 b4 99 1f 3f 19 1e 4e 3d a9 bf c3 be 03 ea a0 bd
       0.6234391 0.050321672 -0.38232163 -0.07857134
000220 71 d7 16 bf e1 cc 65 3d 46 78 46 be 97 e6 ae 3e
       -0.5892249 0.05610359 -0.19381818 0.341603
000230 b2 69 dc be b9 cb ba 3e b9 e9 68 3f 8c c9 34 bd
       -0.4304939 0.36483553 0.9098163 -0.044137523
000240 63 ec 67 3c 97 41 da 3d 0f 0f 01 3f a2 58 77 bf
       0.01415548 0.106570415 0.504136 -0.9661962
000250 ba 6a ab 3d f9 62 bb be 9e c6 05 bf 1b e3 0e 3f
       0.08369966 -0.36598948 -0.5225619 0.55815285
000260 d5 cf 1d 3f 32 64 e6 bd a6 68 43 3c 93 75 cd bd
       0.6164525 -0.112495795 0.011926806 -0.10032191
000270 bf 81 96 3e 84 3e 67 bf cd 77 86 3e 82 42 c3 bd
       0.29395863 -0.90329766 0.26263276 -0.0953417
000280 3a 85 b7 bd a5 c7 b6 3e e7 4e 48 3f 6e 2f bc bd
       -0.08960958 0.35699192 0.78245395 -0.09188734
000290 8b fc cd 3e 19 ba f1 3c 5a f5 a9 3c c9 09 74 3f
       0.40231737 0.029507684 0.020746876 0.9532743
0002a0 7f 6f 41 3f e3 e1 84 be f6 ba fb 3c 2d 5c f3 be
       0.75560755 -0.25953588 0.030728798 -0.47531262
0002b0 9d 18 57 3f ed 0f 67 3e ef 46 50 3d f0 6c d0 3d
       0.8402193 0.22564669 0.050848898 0.10177028
0002c0 9e 65 57 3e da c8 7b bd 61 91 16 3e 49 51 5f 3f
       0.21034858 -0.061470844 0.14703895 0.87233406
0002d0 6f dc 09 3f 53 95 08 3f 6a 85 7e be 0c e6 03 3e
       0.5385198 0.5335285 -0.24855581 0.12880725
0002e0 e1 a3 29 bd d9 0c 84 3e 1a 6a e1 be b6 6e b6 be
       -0.041416053 0.25791052 -0.44026262 -0.3563134
0002f0 bb 9c b2 be 09 54 bc 3e 81 28 33 bf c8 d8 6b 3e
       -0.348852 0.36782864 -0.6998368 0.23031914
000300 41 e1 09 bf 28 a8 bd be df d9 27 bf 37 98 34 3e
       -0.53859335 -0.37042356 -0.6556682 0.1763619
000310 0f e7 6e be 1e 33 83 bf 6d b4 69 bd cc de 96 be
       -0.2333033 -1.0249975 -0.057056833 -0.29466856
000320 90 4a 6e 3e e0 33 c1 be 85 9c 99 3e c0 b9 9d bc
       0.23270631 -0.3773489 0.30002227 -0.019253612
000330 fc 98 05 be 8e 5f c3 be dc 4a e6 be ae d0 c0 3e
       -0.1304664 -0.3815884 -0.44978988 0.3765921
000340 d8 7a 1e be 67 72 0e be b4 ee db bc 88 23 e8 bd
       -0.15476549 -0.13910829 -0.026847221 -0.11334902
000350 d5 84 6f bf ea 3e cc be a0 db 70 3f 8b 15 ed b7
       -0.9356206 -0.3989175 0.9408512 -2.8262633e-05
000360 17 a1 c4 3d 7b aa 87 be 93 13 5b 3e 51 18 16 bf
       0.09601038 -0.26497254 0.21394186 -0.58630854
000370 3d ab 38 bf 0d 8c ff 3e 5a e8 bc 3e 8b 19 a5 be
       -0.7213629 0.49911538 0.3689602 -0.3224605
000380 7f 2a a5 3e 0b d6 73 be 41 c0 38 be 4a 20 7e 3e
       0.32258984 -0.2381212 -0.18042089 0.24817005
000390 8c 4a 16 3e 84 09 95 bf 0c 22 99 3d 95 94 3d 3e
       0.14676875 -1.1643529 0.07477197 0.18513711
0003a0 22 81 af 3f 34 3e 9b 3d 6f 75 03 3f fd 8f 4d 3e
       1.3711283 0.07580224 0.51351064 0.20074458
0003b0 01 aa fe be 90 91 25 be 0b ef 0a 3f 9e 7f e4 3c
       -0.49739078 -0.16168809 0.54271 0.027892884
0003c0 65 19 2b 3e 1a dc ea bd 0b e4 43 3e fe 8e 88 be
       0.16708906 -0.11467762 0.1912996 -0.26671594
0003d0 8b 0d c3 bd 61 cf 18 3f 90 22 9e be 4d cd 34 3d
       -0.095240675 0.59691435 -0.30885744 0.044141103
0003e0 05 a5 97 3e e5 d6 bd 3d 52 70 20 be 33 61 b5 3e
       0.29618087 0.092695035 -0.15667847 0.3542572
0003f0 7e cf d3 be 22 82 ba bb 3b 76 b9 3e a5 cf 3f be
       -0.4136924 -0.0056917826 0.36223015 -0.18731554

actor.0.bias f4 [64]
000000 8f eb ec be 6e 77 14 be 66 df 02 be 6a 12 11 bf
       -0.46273467 -0.14498684 -0.12780532 -0.5666872
000010 68 34 06 bf f7 7f 0a 3f a6 e7 d5 3d 16 e1 fa 3d
       -0.52423716 0.5410151 0.10444574 0.12249963
000020 07 40 b2 be 1b 79 c6 3d 20 5b ab be 6d 4c 0a 3e
       -0.34814474 0.09691068 -0.3346796 0.13505717
000030 55 28 b7 3b ed 4a 5d be d7 65 1e 3e f3 4e fe be
       0.0055895247 -0.21610613 0.15468536 -0.49669608
000040 e4 a4 a0 3e 89 e0 1a bd 1f d1 44 be af 9b 23 bd
       0.31375802 -0.03781179 -0.19220398 -0.039943393
000050 4d 24 11 3e ea ae a7 be 56 c8 10 bf 8b 5e 89 3e
       0.14174004 -0.32750636 -0.5655569 0.26829943
000060 bf c4 c9 3e 3d 30 90 3e ce 04 46 be ea 51 e0 be
       0.39407918 0.28161803 -0.1933777 -0.43812495
000070 76 2f cf bd 6d db aa bc fd 56 9d be 10 7f 8c bd
       -0.10116474 -0.020856583 -0.3073043 -0.06860173
000080 05 e0 a5 be 02 90 0d 3d ce 02 2d be 06 f0 3f 3f
       -0.32397476 0.034561165 -0.16895601 0.7497562
000090 ed 27 7a 3e cd 8c d5 3d 46 12 08 3f 1c 7f c5 be
       0.24429293 0.10427246 0.53152883 -0.3857354
0000a0 53 9c c1 be cb 41 4a bd c5 45 1f be 83 fb 3b bd
       -0.37814578 -0.04937915 -0.15553959 -0.045894157
0000b0 e8 db 22 be db b8 86 be ed 22 83 be 8b 7e 78 be
       -0.159042 -0.2631291 -0.25612584 -0.24267022
0000c0 97 6d 01 bf 03 f4 1b be c1 36 dc bd 10 6e 87 3e
       -0.50557846 -0.15229802 -0.10752631 0.2645116
0000d0 bb 3a eb 3d 7f 4c c7 be 73 5a d2 bc c1 7b 91 3e
       0.11485811 -0.3892555 -0.025677895 0.2841473
0000e0 da 4c bd 3e 13 c0 44 3e 3c 84 20 bf 9d 13 1a 3e
       0.36972696 0.19213895 -0.62701774 0.15046544
0000f0 85 64 3d 3e f7 d0 b8 3c 40 36 8a 3e 1d 6a f4 be
       0.18495376 0.02256058 0.26994514 -0.47737208

actor.2.weight f4 [64, 64]
000000 8a f5 10 be 1d a3 18 be a3 f3 21 3e d4 d0 c8 3c
       -0.14156166 -0.14905973 0.15815596 0.02451364
000010 c4 c2 b6 bd 0e e8 26 3e ac 03 f5 3c 09 01 0a be
       -0.08923867 0.1629946 0.029908977 -0.13476957
000020 f2 d0 5f bd ec 5a 26 3e 63 8c 5b be b9 1a 2b 3e
       -0.054642625 0.16245621 -0.21440272 0.16709413
000030 c7 23 46 3c 5b 75 08 bc 4d 93 2e 3e 26 f0 9e 3d
       0.012093491 -0.008328761 0.17048378 0.077606484
000040 08 f0 f3 3c 60 06 41 bd a2 7e cd bd 4c d0 23 bc
       0.029777542 -0.04712522 -0.10033919 -0.009998392
000050 4a 1b 26 3d 80 e8 9c 3d a9 67 e3 3d 83 00 17 3d
       0.04055337 0.07661533 0.11103756 0.036865722
000060 3e 9a d4 3c 6b a5 ee 3c 4c 75 dd 3c c1 f3 f0 3d
       0.025952455 0.029131612 0.02703347 0.11765242
000070 43 56 15 3e c7 d4 31 be 47 d0 00 3e f0 d8 35 be
       0.14583687 -0.17366324 0.12579452 -0.17758536
000080 f4 09 14 3d 4d b9 12 be 82 18 f1 3c b3 b7 fe ba
       0.036142305 -0.14328499 0.029430632 -0.0019433409
000090 b6 5d b4 bc 97 e0 ab bd c2 77 51 be ba 8f cc bd
       -0.022017341 -0.083924465 -0.2045584 -0.09988351
0000a0 bf 12 9c bd 33 80 06 3e 14 d1 d8 bd ce ff 5a 3c
       -0.07620763 0.13134842 -0.105867535 0.013366653
0000b0 45 dc f4 3d 0c 6c 37 bb 53 cb ed 3d f6 73 1d be
       0.119560756 -0.0027987985 0.11611047 -0.15376267
0000c0 a1 34 97 3d c2 c0 be bd 9f cb aa 3d 54 d6 71 3c
       0.07383085 -0.093141094 0.08339619 0.014760572
0000d0 82 9e 4c 3e db 9e 31 bd 1f b3 78 bd 28 56 e6 bd
       0.19982341 -0.043364387 -0.0607177 -0.11246902
0000e0 b0 7e fe bc 47 cc fa 3a 94 d2 32 3e 46 20 f7 bc
       -0.031066269 0.0019134366 0.17463142 -0.030166756
0000f0 3a 53 71 3d 65 47 45 be c7 5d 19 be 0c ff 81 bd
       0.05891726 -0.19265516 -0.1497718 -0.063474745
000100 8c 8f 91 3d a8 c0 db bd f2 14 81 3d fe 51 0e be
       0.071074575 -0.10730106 0.06302823 -0.13898465
000110 01 a9 ea bd d5 08 92 3d cd d7 24 bd ec cf d8 bd
       -0.11458016 0.07130591 -0.040244866 -0.10586533
000120 33 10 d6 3d d3 21 9e ba 1f 0d 8c 3d 53 13 9e bd
       0.104523085 -0.0012064524 0.0683844 -0.077185296
000130 8d 1c 4d bc dc c3 7a 3d e4 11 e9 3d ff 17 39 bd
       -0.012519014 0.061221942 0.113803655 -0.0451889
000140 be 5f 28 3e 49 b2 48 bb b6 62 93 3d 32 c1 5c 3d
       0.16442773 -0.0030623844 0.07196562 0.053895183
000150 15 a4 6d bd 95 b3 25 bd e3 c4 d1 bd d8 31 e2 bd
       -0.05801781 -0.040454466 -0.10242631 -0.11044663
000160 ff 2e d8 bd c7 3e ec bd 9f 99 cb 3c 70 cf 3f bd
       -0.10555839 -0.11535411 0.024853526 -0.046828687
000170 b9 47 b9 bd c1 d9 69 3d 93 be a8 3d 31 aa b0 3d
       -0.09046883 0.057092432 0.08239474 0.086262114
000180 2d 83 b6 bd 68 4c 68 3c ab b8 13 3c ee b3 c1 3d
       -0.089117385 0.014178373 0.009016196 0.09458147
000190 04 72 58 bd 6b 61 91 3d c0 39 04 bd 74 77 8e 3d
       -0.05284311 0.07098659 -0.032281637 0.069563776
0001a0 07 51 5e bb ce 6c 8d 3d ee b5 bb bd 06 66 93 3d
       -0.0033922808 0.069055185 -0.0916556 0.07197194
0001b0 d3 1a 05 bd 7f a1 f4 ba c5 a1 3c 3d 32 41 19 bd
       -0.032496285 -0.0018663852 0.046052713 -0.03741569
0001c0 b3 81 f0 3d 49 65 4e bd b7 6e 9c 3d c1 6b 37 3e
       0.11743488 -0.05038956 0.07638305 0.17912199
0001d0 67 5d 45 be 60 da 87 bc 6b 54 e2 bd 38 5f c7 3c
       -0.19273911 -0.016583622 -0.11051258 0.024337396
0001e0 3b 24 74 bd 83 2f 32 3e ea bf ca bd b6 39 c8 bd
       -0.059604865 0.17400937 -0.09899886 -0.097766325
0001f0 23 0a 9d 3c e4 bd 7e 3d a1 0b af bc fd bb df bb
       0.019169873 0.062192813 -0.02136785 -0.00682783
000200 90 0d 03 3e d7 9f d6 bb 8b 24 21 be eb 89 9b 3e
       0.12798142 -0.006549816 -0.15736596 0.3037866
000210 11 40 13 3e 93 09 6b be 38 d3 e8 3d 27 af a0 3d
       0.14379908 -0.22952871 0.11368412 0.07845908
000220 89 94 05 be 12 e0 05 be 08 33 82 bc 41 61 4b bd
       -0.13044943 -0.13073757 -0.015893474 -0.049653295
000230 70 0b 2d be 07 51 3f 3e 77 32 35 3c bb 88 03 3e
       -0.16898894 0.18683253 0.011059395 0.12845127
000240 16 6b 0c be dc b5 2d 3e 19 42 fa 3e b7 27 96 be
       -0.13712725 0.16963905 0.48878554 -0.29327175
000250 b2 d6 43 be c0 c8 93 3e dc a1 c3 bd 28 b1 4c 3d
       -0.19124869 0.28864098 -0.095523566 0.049973637
000260 df 29 aa 3c 79 31 7c bd d3 1e 9b 3e 0a 66 2b 3e
       0.020771919 -0.06157062 0.30296955 0.16738144
000270 5c 46 0c 3e 15 68 f5 3d 68 b5 60 3e ff c2 8c bd
       0.13698715 0.11982743 0.21944201 -0.0687313
000280 02 5e f7 bb df a7 07 3e dd 24 0d be 36 98 ae be
       -0.0075490484 0.13247631 -0.13783593 -0.34100503
000290 68 4b 50 3e f5 96 9c be e5 34 33 3e dd e2 d4 3d
       0.20341265 -0.3058392 0.17500646 0.10394833
0002a0 df 98 03 3e 95 25 f4 3b 5d 45 b8 be 21 18 4b 3e
       0.12851284 0.007450769 -0.3599042 0.19833423
0002b0 24 fc c6 3d 0d 7e b7 3e dc 9e 57 3c 9c eb 11 3e
       0.09716061 0.35838357 0.013160434 0.14250034
0002c0 83 ff a9 3e b5 da e9 bd e2 95 47 be 9c b9 b3 be
       0.33202752 -0.11418668 -0.1949077 -0.35102546
0002d0 a8 25 f5 3d 46 a4 d3 bd 76 29 d8 be c0 6a 2e 3e
       0.11970073 -0.10334067 -0.42219132 0.1703291
0002e0 7d 1d 04 be ed a6 ca bc ff b0 b3 3e c3 48 41 3c
       -0.12901874 -0.0247378 0.35095975 0.011797133
0002f0 7f f9 55 3e 40 82 a4 3e 33 83 b7 3d 75 ff 75 3e
       0.20895956 0.32130623 0.08960571 0.2402323
000300 08 78 a5 3d 95 01 5a be b5 53 bb be 39 7d 8a 3e
       0.08079535 -0.21289666 -0.365873 0.27048662
000310 b5 8a 1f be 93 e1 dc bc fb 84 a5 bc e6 ec ce 3e
       -0.15580256 -0.02696303 -0.020205012 0.40415114
000320 7b 6f 79 be 54 7c da be be eb 00 be 2b f8 b6 3d
       -0.24358933 -0.4267298 -0.12589929 0.08934053
000330 e4 fd b5 be 2f 08 f9 bd 44 66 ba bd 65 18 2f bd
       -0.35545266 -0.12159764 -0.09101537 -0.042747874
000340 5c 65 d8 3e b9 ca 2d 3e f2 ff f6 3e 77 67 33 be
       0.4226483 0.16971864 0.48242146 -0.17519937
000350 b3 53 1b bf a5 83 18 3e df 4a 52 be 9c 16 c5 bd
       -0.6067459 0.14893968 -0.20536374 -0.09623453
000360 82 ab ad bd 72 cc 07 3f 43 53 d0 bd da 0f 4e be
       -0.08479978 0.53046334 -0.10172131 -0.20123234
000370 f7 b5 a5 3d b6 fe 39 3e 06 40 2b bd f4 ea 98 3d
       0.08091348 0.18163571 -0.041809104 0.07466689
000380 9f be 7f be 15 32 63 bd ee c0 ef bd 5e 0a 19 3e
       -0.2497506 -0.055467684 -0.1170672 0.14945361
000390 c0 7f 6e 3e 84 0e f0 bc 51 fd a7 3e 4c 17 12 3d
       0.2329092 -0.029303797 0.32810453 0.03566675
0003a0 92 3d 51 be bd 3c e6 bd 69 b3 73 be 0b 6a 26 3e
       -0.20433643 -0.11242054 -0.23798908 0.1625139
0003b0 bc 35 14 bf 46 88 24 3e de 3b ab be e7 15 da be
       -0.5789449 0.16067609 -0.33444113 -0.42594835
0003c0 f0 20 26 3e 58 7e e1 3c 0b e1 45 be f7 d7 a2 3d
       0.16223502 0.027526066 -0.19324128 0.07951348
0003d0 fe 55 ad 3e 9e b9 01 bc c5 19 d4 bd de 1b 92 bb
       0.3385467 -0.00791779 -0.10356478 -0.0044588884
0003e0 ae 39 6e 3d fc 8a 0e 3d 3e c8 a2 bc 76 f4 cc 3c
       0.058160476 0.034800515 -0.019870874 0.025018912
0003f0 98 c0 2f 3d 0f af 9b 3e ba 0a 73 be f3 65 63 3a
       0.04290828 0.30406997 -0.2373456 0.00086745544

actor.2.bias f4 [64]
000000 9f 6e 09 ba 52 c8 c5 bd 68 06 b1 be 57 1a 66 3e
       -0.0005242619 -0.09657349 -0.345752 0.22470985
000010 ec cc bf ba 87 fc 84 3c 35 b1 9a 3d 54 37 a3 3b
       -0.0014633215 0.016233696 0.07553331 0.004980961
000020 15 7c f7 3d 75 9f 3b be fe 9d 83 3c 88 4a 97 bc
       0.12084214 -0.18322547 0.016066547 -0.018468156
000030 70 5e 15 3c 9c 6f 67 3d 8c 0f 30 bd 75 98 9c 3d
       0.009116754 0.056502923 -0.042983577 0.07646266
000040 1c 78 e3 bd 1c dd f0 bd 69 a7 0a be 76 91 6f 3c
       -0.111068934 -0.11760923 -0.13540424 0.014622083
000050 cb fb c6 bd 98 6e 9e 3c ea 93 bf bd 63 52 00 3d
       -0.097159944 0.019339845 -0.09354384 0.03132857
000060 93 2d 49 3d 0f 9c a1 3d f5 6c 19 be 7c 6e 5f bc
       0.04911573 0.07891094 -0.1498297 -0.013637181
000070 8e 40 33 3e cd 7e 51 bc 93 2c 4f bd cc 6a c6 3d
       0.17505094 -0.012786579 -0.05057962 0.09688339
000080 78 f7 5e bb c9 63 b8 3d 9a 47 cd bc 54 b0 83 bd
       -0.0034022015 0.090034075 -0.025058556 -0.06430116
000090 9b 70 dc bd cd 2d 9b 3d 73 45 bb bd 81 25 36 3d
       -0.10763665 0.07577095 -0.09144106 0.04446936
0000a0 b2 f6 65 bd d8 93 59 bd b5 8b 48 bd 1a dc ba bd
       -0.05614347 -0.05311951 -0.04896136 -0.09124012
0000b0 54 fe 43 3d 52 d6 07 3e a4 58 8c bc 2d 1f bd bd
       0.047849968 0.1326535 -0.01713211 -0.09234462
0000c0 0d a5 61 3d 0a b3 15 bb f0 d8 5c bd 2f bd 0d 3e
       0.055089045 -0.0022842311 -0.053917825 0.13841699
0000d0 d7 0a 82 bc 06 c3 65 3d 8f 0b 96 3d 27 48 83 bd
       -0.01587431 0.056094192 0.073264234 -0.06410246
0000e0 ee 12 0b bc e2 e4 99 bd 69 48 cc be 66 ff 61 3d
       -0.0084884 -0.07514359 -0.39898995 0.055175208
0000f0 94 91 16 bb e0 d5 cb bd 11 f2 4f 3d ec a4 ab bd
       -0.0022974955 -0.09952903 0.050767962 -0.08381066

actor.4.weight f4 [1, 64]
000000 0d c6 f9 3d 90 c5 72 3b d7 b2 99 3e cf 85 81 be
       0.12195978 0.0037044026 0.30019256 -0.252974
000010 ca 7e 51 3e d6 af 34 3e a3 1f 63 3d cf 2c ea 3d
       0.20458522 0.17645201 0.055450093 0.11434328
000020 0b cb e9 bd 5a d5 7e 3e f2 54 0b 3e 05 0e 2f 3e
       -0.114156805 0.24886075 0.13606623 0.17095192
000030 3c 4f 2b 3e 73 b8 71 3d 42 34 aa be b8 bc 0b be
       0.16729444 0.059013795 -0.33242995 -0.13646209
000040 b8 1b 4b 3e 11 5a d6 ba a4 f4 86 3e 07 dc f4 bd
       0.19834793 -0.0016353746 0.2635852 -0.119560294
000050 89 99 7f 3e 9e ba 0c 3e c6 2f 68 3d d8 aa f0 be
       0.24960913 0.13743064 0.056686185 -0.47005343
000060 2c 79 0a bf 14 ec 25 be 8b e1 b7 3d fb 49 11 3b
       -0.54091144 -0.16203338 0.08978566 0.002216934
000070 fa cf ea bd c0 c5 27 be fd 30 73 3d 87 31 33 be
       -0.1146545 -0.1638403 0.05937289 -0.17499362
000080 53 40 3c 3d d9 f7 14 3d fd 1e 67 3c fc 8c 70 be
       0.04595978 0.03636918 0.014106509 -0.23491281
000090 70 f6 21 be ef f3 1d bb da 9c 36 be 8a c9 08 be
       -0.15816665 -0.0024101695 -0.17833272 -0.13358131
0000a0 2e 5b 2f be cd 68 16 bd 84 93 27 be c1 6b fa be
       -0.17124626 -0.03672104 -0.16364866 -0.48910335
0000b0 67 18 4d 3d 64 e4 1e be be 61 b8 ba 0b 89 29 3e
       0.0500721 -0.15516812 -0.0014067215 0.16556184
0000c0 c2 02 0c be 47 35 0b 3e 6b 9d d0 bd 0f 41 63 3e
       -0.13672927 0.13594542 -0.10186275 0.22192787
0000d0 c7 be e2 bd ec 36 1e 3e 02 59 91 be 50 f1 97 bd
       -0.11071544 0.15450639 -0.2838822 -0.074190736
0000e0 29 d4 32 3e 4f 11 2a be 94 0c 4b be cf 15 08 be
       0.17463745 -0.16608165 -0.19829017 -0.1328957
0000f0 59 7c 01 3e c8 f7 c0 3e 40 aa a3 bd a3 40 16 3e
       0.12645091 0.37689042 -0.07991457 0.14673094

critic.0.weight f4 [64, 5]
000000 2d 07 0d bf 33 37 54 bf 47 42 fc 3f 60 bd 34 bc
       -0.55089074 -0.8289673 1.9707726 -0.011031479
000010 31 c9 07 c0 d2 21 bd 3f e8 22 ba 3e ab 64 5f c0
       -2.1216547 1.4775946 0.36354756 -3.4905193
000020 a1 df a0 3f 8a 32 ea 3f ed 66 1e 3e 2a 6c 0a be
       1.2568246 1.8296673 0.1546895 -0.13517824
000030 fb e0 93 3f 37 9c 43 40 63 22 02 40 c2 56 8b be
       1.1553034 3.0564096 2.0333488 -0.27214628
000040 91 84 c3 bf 92 3d ca bf a4 96 17 bf 0b bf da be
       -1.5274831 -1.580004 -0.59214234 -0.4272388
000050 48 12 c3 3d 5b 16 85 3e 3f e2 fc 3f 6a 5f 9a c0
       0.09524971 0.25993618 1.9756545 -4.824147
000060 72 f8 8a c0 47 bb 40 c0 9a 62 77 bf 06 08 78 c0
       -4.342828 -3.0114305 -0.9663483 -3.8754897
000070 d7 5b d6 3f 62 ad d7 3f 51 d1 1c c0 ed 2d 33 bf
       1.6746777 1.6849787 -2.4502757 -0.6999195
000080 f4 79 38 40 85 e2 05 c0 c6 c2 a9 bf 33 d4 3f bf
       2.8824434 -2.0919507 -1.3262565 -0.74933165
000090 33 41 50 bd ca cc 01 c0 9d 90 ae be d4 33 4a be
       -0.05084343 -2.0281243 -0.34094706 -0.19746333
0000a0 9b 6a 1d 40 85 01 a1 3f 8b 46 54 40 dc 70 27 c0
       2.4596317 1.2578589 3.3168056 -2.6162634
0000b0 90 1a 8a bf 7f d3 03 c0 1b b4 99 bd 57 40 bc c0
       -1.0789356 -2.0597837 -0.075050555 -5.882854
0000c0 27 d0 43 40 99 3e 5e 40 97 cf d2 3f 86 7b 61 be
       3.0595796 3.4725707 1.6469601 -0.22019777
0000d0 79 91 79 40 61 05 0d c0 5a 96 e8 bf d3 42 2e bf
       3.899504 -2.2034533 -1.8170884 -0.68070716
0000e0 5a ff 98 be cf b5 1f 40 87 c5 87 3f 03 70 8a 3f
       -0.29882318 2.4954717 1.0607156 1.0815433
0000f0 e4 19 33 40 0d 9e 0d 3f 72 1c c2 bf 1a 92 66 3f
       2.7984552 0.5531929 -1.5164931 0.90066683
000100 f1 81 8e 3f c3 40 1f 3f a6 66 47 3e 6a 5c 6a bf
       1.1133405 0.62208194 0.19472751 -0.9154726
000110 b3 0b a1 40 86 7f 88 40 df 2e 99 3e fb 73 9f bf
       5.032678 4.265567 0.29918572 -1.245727
000120 d2 a2 77 3f 79 60 75 3e de f7 80 3f 5f 33 4e c0
       0.9673282 0.23962583 1.0075643 -3.2218854
000130 d2 eb 1e bf d4 95 3d 3f 03 6e 37 c0 ac 9f 85 bf
       -0.62078583 0.74056745 -2.8660896 -1.0439353
000140 81 b4 db 3e 2c bb 07 3f 94 54 3e 40 62 86 14 40
       0.4291115 0.53019977 2.9739122 2.320702
000150 21 d0 65 3f dd 31 3d c0 33 e1 17 bf 59 d1 74 c0
       0.89770705 -2.9561684 -0.59328 -3.8252776
000160 e9 07 3e 40 da 2d c2 3f db 0a 08 bf a3 6a 44 bf
       2.9692328 1.5170243 -0.53141564 -0.76725215
000170 05 98 ef bf 62 f7 3a c0 f3 9b 0d c0 d7 46 55 3f
       -1.8718268 -2.921349 -2.2126434 0.8331122
000180 f1 db 19 bf 43 5c 68 3f 97 8c 58 c0 e1 2c fb be
       -0.6010123 0.9076578 -3.383581 -0.49057677
000190 6d 53 e6 3d 58 d8 aa 3d 87 2e 66 c0 74 38 87 40
       0.11246381 0.083420455 -3.5965898 4.2256413
0001a0 66 6a 5f 40 74 cd 06 40 67 fe c0 3d 19 32 50 40
       3.490869 2.1062899 0.094235234 3.2530577
0001b0 43 e2 9d bf 6a 4e 32 be 1d b3 90 3e 4f d3 ff 3e
       -1.2334675 -0.17412725 0.28261653 0.49965903
0001c0 87 9d c7 40 0b c3 97 c0 33 ab 7c c0 c2 48 0b 3f
       6.2379794 -4.742559 -3.9479492 0.54407895
0001d0 a0 f7 7e bf 43 ca aa 3e c1 9c 3d be 6a e5 6a bf
       -0.99596596 0.33357438 -0.18516828 -0.9175631
0001e0 37 95 38 3f 85 e1 e1 be 38 03 4a 40 37 90 6c 3f
       0.72102684 -0.4411737 3.1564465 0.92407554
0001f0 da 5f 11 bf 0f 5a 08 3f 61 13 5c 3f 07 65 bd 40
       -0.5678688 0.5326242 0.8596707 5.9185824
000200 02 e7 89 c0 b9 1b 80 c0 c2 aa 2f 40 78 58 ab 3f
       -4.309449 -4.003384 2.7447972 1.3386374
000210 cb c1 61 40 9d 29 c4 bf 7c 73 16 bf 4c a5 1c 40
       3.5274532 -1.5325199 -0.58769965 2.447589
000220 b0 90 97 3f 90 d1 3d 40 17 a8 80 bf 2b b8 23 3f
       1.184103 2.9659157 -1.0051297 0.63952893
000230 9d d7 f6 bf fa 4e b9 3e e0 da 9b be b1 cc d0 be
       -1.928455 0.36193067 -0.30440426 -0.40781167
000240 9b 41 c4 3d f3 aa cd be a1 f8 08 3d c1 0e 6f 3c
       0.09582826 -0.40169486 0.033440236 0.01459092
000250 11 7a a2 3f fd 5d cd 3e f3 d9 19 40 1a 68 8f 3f
       1.2693502 0.4011077 2.4039276 1.1203644
000260 87 2d 55 3f 29 25 d4 3d 78 64 88 be de 42 64 3f
       0.83272594 0.1035865 -0.26639152 0.8916453
000270 95 99 02 3f da 2d a5 3f f8 9d 05 40 68 3f a3 3f
       0.510156 1.2904618 2.0877666 1.2753725
000280 47 87 88 bf f0 d4 57 bf ed 35 35 c0 23 bf 36 40
       -1.0666283 -0.8430929 -2.8314164 2.855416
000290 39 15 03 be 27 78 b3 bf d1 82 41 bf 30 76 31 c0
       -0.12801065 -1.4021043 -0.75590235 -2.7728386
0002a0 8f 32 a5 3f 89 53 3e 3f 46 7e be bf a3 6f 0c 3f
       1.2906054 0.74346215 -1.4882286 0.54857844
0002b0 d2 47 03 bf d3 e4 6c bf ae ff ca be b0 a2 3e 3f
       -0.51281464 -0.9253666 -0.39648193 0.7446699
0002c0 b5 9c 8c 3f 1b 95 86 40 ff a1 59 bf fa fc 3d be
       1.0985323 4.2057014 -0.8501281 -0.18553534
0002d0 9f ee 81 3f 8d 33 5d bb 25 fc a1 c0 6b bd f6 3f
       1.0150946 -0.003375265 -5.0620294 1.9276556
0002e0 81 54 41 40 6d 01 0e 3f 06 0b 1b bf f2 31 75 be
       3.0207827 0.55470926 -0.60563695 -0.23944834
0002f0 57 9a bd 3f 83 16 9e bd c6 75 52 c0 95 b7 cb 3e
       1.4812726 -0.077191375 -3.2884383 0.397885
000300 93 12 2a c0 21 22 74 bf ae a4 c3 be d7 ea 05 be
       -2.6573837 -0.95364577 -0.38211578 -0.13077866
000310 57 97 c5 3e 5c fa fc 3f f0 d6 6e c0 31 7f 31 c0
       0.38592026 1.9763904 -3.7318687 -2.7733881
000320 d8 70 32 be 80 e6 9c bf aa be c9 bf ac ea 9c bf
       -0.17425859 -1.2257843 -1.5761311 -1.2259116
000330 73 0f 82 bf 02 05 6f bf 1a f1 86 bd d8 c4 f7 3f
       -1.0160965 -0.93367016 -0.06588955 1.9356947
000340 a1 ec c1 be 8d 17 f0 3e 28 8a 0a bf 15 1b ee 3e
       -0.37875846 0.46892968 -0.5411706 0.46505037
000350 ae 8b 1f 40 ce 3c 17 c0 97 50 39 be 7f 85 78 3e
       2.4929004 -2.3630862 -0.18097149 0.24269675
000360 ad 46 a0 3d 2e a2 a2 3f 9c 8a 42 c0 b2 41 50 bf
       0.0782598 1.2705743 -3.03971 -0.81350243
000370 4d e4 f1 3d ee de 0b bf 1b 12 3b c0 90 76 2d 3f
       0.11811123 -0.5463704 -2.92298 0.67759037
000380 ee 54 2a bf 11 47 2f 3e ac f5 50 bf cd 76 3a bf
       -0.6653584 0.17116953 -0.81624866 -0.72837526
000390 a0 28 b4 bf d0 6d e0 3d d3 68 3a c0 af bb 5a be
       -1.4074898 0.10958445 -2.912648 -0.21360658
0003a0 b4 df a1 bf ff 8e 90 be bd 6d 02 bf cf 36 32 c0
       -1.2646394 -0.28234097 -0.509487 -2.7845953
0003b0 1e 00 6a 3c 3b 8f 40 c0 48 6a 17 c0 0c f1 c3 be
       0.0142822545 -3.008742 -2.365862 -0.38269842
0003c0 1d 57 b1 bf 52 0b 5a be d8 75 ca c0 4b 53 2b 40
       -1.385471 -0.21293381 -6.326885 2.6769588
0003d0 4f 2a 3b 40 63 3e b1 bf 8b 1b 96 be 3a fe 37 c0
       2.9244573 -1.3847164 -0.2931789 -2.8748918
0003e0 de e1 bf bf 0a ba 8d bf f8 88 42 bf e6 fe af 3d
       -1.4990804 -1.10724 -0.7599025 0.0859354
0003f0 48 3a e7 bf 4d 9b ca be 67 dd a6 bd 33 ed 74 3e
       -1.8064661 -0.3957161 -0.08147698 0.2391861

critic.0.bias f4 [64]
000000 55 a5 4a 3f 24 51 80 be ae f1 57 3f cf a7 a0 3f
       0.79158527 -0.25061905 0.8435315 1.2551211
000010 78 75 07 bd e4 f7 bb 3e ad 59 e1 3e 86 e0 68 3f
       -0.03307101 0.36712563 0.4401373 0.90967596
000020 58 9d 09 bf 00 8a d5 be 26 a2 f1 3e 47 a0 79 3d
       -0.5375571 -0.41706848 0.47194022 0.060943868
000030 ea 42 24 bd 71 90 7a be 1a 60 d3 3e ec f6 a2 3e
       -0.040102877 -0.24469163 0.41284257 0.3182901
000040 aa 55 42 3d 98 28 c2 3b 63 1e 4e 3f fc 63 15 3f
       0.047444977 0.0059252493 0.80515116 0.5835569
000050 f5 9b 10 be b6 42 d2 3e a9 54 c3 be 8a b8 ce be
       -0.14121993 0.4106652 -0.38150528 -0.40375167
000060 5c a0 e3 be 52 4e 26 bf bd 28 19 bf 0f ef eb be
       -0.44458282 -0.6496326 -0.59827787 -0.46080825
000070 90 ca 32 bf 2a aa ea be 81 97 02 bf 55 6a f7 be
       -0.69840336 -0.4583295 -0.51012427 -0.48323312
000080 ba 9e b5 bd ed 3b 7b 3e 3d 72 76 bf 4a 6d 6a bf
       -0.08868165 0.24534579 -0.96268064 -0.9157301
000090 ff 78 b8 be 18 e3 91 bf bd d0 7c bf 0b 34 a3 be
       -0.36029813 -1.1397429 -0.9875601 -0.31875643
0000a0 53 98 64 3f 61 0d 70 be db f4 15 bf da 77 83 bd
       0.8929493 -0.23442604 -0.58576745 -0.06419344
0000b0 b2 e9 31 3f 1e 6f 46 3f 8d 3b c2 be d8 08 b2 be
       0.69497216 0.775133 -0.3793606 -0.34772372
0000c0 14 d5 af 3c 2e 3c 27 be 5b 5c 13 3f 7f 1c 89 3c
       0.021463908 -0.1633155 0.575628 0.01673722
0000d0 46 8b 51 3f b4 c4 00 3f ef ca b9 3e 6f 18 b7 be
       0.8185314 0.50300145 0.3628764 -0.3576083
0000e0 3b 89 6d 3f f7 5a 33 bf 9e 1a bd 3c d1 11 f8 3e
       0.9278752 -0.70060676 0.023083981 0.48451093
0000f0 49 2e e2 3e 1b 28 59 3e 8b cf 23 bf 0e fd 50 bf
       0.44175938 0.21206705 -0.6398856 -0.8163613

critic.2.weight f4 [64, 64]
000000 e5 56 ca be 76 ca ff be d2 00 96 be 0e 88 d9 be
       -0.3951942 -0.49959153 -0.292975 -0.42486614
000010 cb 56 19 3f d4 8f 6d bf 4a a7 03 bd 36 3d f7 bb
       0.5989806 -0.9279759 -0.03214196 -0.0075451387
000020 0d 13 a5 3f fa 8f f2 be bc 5b 2d 3f d1 c5 8b bd
       1.2896439 -0.4737547 0.677181 -0.0682484
000030 78 be 60 3e a0 14 38 be b9 a3 85 3d 50 d1 47 3e
       0.21947658 -0.17976618 0.06525368 0.1951344
000040 70 db 9d 3f 12 a2 7a bf fd 15 1b be 30 ff 82 bf
       1.2332592 -0.9790355 -0.15145107 -1.0234127
000050 06 7c 87 bf 30 dd d6 3f cf f8 88 3f d3 a6 af be
       -1.0584724 1.6786251 1.070093 -0.34306964
000060 61 e3 02 be 98 62 8b 3f f8 e8 e8 3f 2c 0e a8 3f
       -0.1278205 1.0889463 1.8196096 1.3129325
000070 e1 a7 67 3e 2f 04 54 be 47 d6 60 3f 68 00 68 be
       0.22622634 -0.20704721 0.8782696 -0.22656405
000080 3d d1 a9 bf 31 55 d8 bf aa 62 53 bf 2f 30 8d 3f
       -1.326698 -1.6900998 -0.82572424 1.103033
000090 4d 1d 45 bf ee ea 2b 3d 82 19 fe be 2e 43 34 3f
       -0.76997834 0.041972093 -0.49628836 0.7041501
0000a0 71 61 04 bf 36 73 e3 3d 42 f3 62 3f 6c 63 16 be
       -0.51711184 0.11105959 0.8865243 -0.14686364
0000b0 eb 62 d0 be 7a 94 fb bd 0f de 03 bf ed ad 8c 3e
       -0.40700468 -0.12284179 -0.5151071 0.27476445
0000c0 f4 3d d8 bf e7 8d 07 be a5 04 38 3e ee 2e f5 bd
       -1.6893907 -0.13237725 0.17970522 -0.11971842
0000d0 0d 31 1b 3f 8b 7d cd be 59 f5 bc bd f8 df 9f 3f
       0.6062172 -0.40134844 -0.09226484 1.2490225
0000e0 fa 7a 56 bc ff 12 02 3f d0 aa e7 be 7f 29 75 3f
       -0.013090843 0.50810236 -0.45247507 0.95766443
0000f0 77 dc b2 3f 97 e6 b8 3e d6 88 db 3e 23 06 99 bd
       1.397353 0.36113426 0.42877835 -0.074718736
000100 1e ea 61 be 10 31 f1 3d 20 6c 2d 3f a6 06 73 bf
       -0.22061965 0.11776936 0.6774311 -0.9493202
000110 e8 31 3d 3d 61 98 b6 bf c0 86 87 bf 2f 5f b5 be
       0.046190172 -1.4265252 -1.0587997 -0.35424182
000120 b4 10 ac 3f b5 52 97 bf 3a 5a 3e 3e 97 90 43 bd
       1.3442597 -1.1822115 0.18589106 -0.047745313
000130 53 7c b3 3f 20 32 b7 3f 4f a0 e5 3e 9f 80 b5 bf
       1.4022316 1.4312172 0.44848868 -1.4179877
000140 f8 78 3c 3f 98 49 a4 bf de 59 64 bf 64 78 64 bc
       0.73622084 -1.2834959 -0.89199626 -0.013944719
000150 6e 44 13 3f 12 f7 da 3e a7 cd b4 be e5 23 22 bf
       0.5752629 0.42766625 -0.3531315 -0.6333602
000160 84 9e 13 3e cc 67 54 3f 63 cf b6 3f 9b 83 e2 3f
       0.14415938 0.8297088 1.4282039 1.7696413
000170 75 bf 2d bf c4 6f 14 3e 43 31 e1 3e 9d 1b 28 3f
       -0.67870265 0.1449576 0.43982896 0.65667135
000180 ad da 5d bf e5 d9 fe bd 33 67 6e bf 50 06 4b 3f
       -0.866618 -0.12443904 -0.9312622 0.7930651
000190 cf 5e cf 3d 7c e4 c3 3e 5e 37 92 bf 69 ce c6 be
       0.10125505 0.38260257 -1.1423147 -0.38829353
0001a0 03 f4 9a bf dd 94 88 3c 95 b4 d5 3d f1 67 32 be
       -1.2105716 0.016672546 0.10434834 -0.17422463
0001b0 90 1d e1 be 6e b6 d0 be de df 15 bf b9 bd 8d bf
       -0.43967867 -0.40764183 -0.5854472 -1.1073524
0001c0 4b 46 92 be 43 9b 68 bf 12 d0 7b be 36 15 3c be
       -0.28569254 -0.9086191 -0.24591091 -0.18367466
0001d0 5e 70 6c bf 18 de b7 3d 9d 9d 81 be 50 a8 33 3d
       -0.9235896 0.08977908 -0.25315562 0.043861687
0001e0 97 c7 a1 3e 0f 94 b7 3e c7 a3 3a 3e 39 bd 8a 3d
       0.31597587 0.35855147 0.18226539 0.067743726
0001f0 7c 31 c7 3e f6 54 7e 3e c2 b6 81 3f c4 58 e0 3e
       0.3890494 0.24837098 1.0133898 0.43817723
000200 04 4c 83 3d 18 5f 92 3f 55 95 a9 3f 14 d3 94 bf
       0.06410983 1.143527 1.3248698 -1.1626916
000210 08 c1 8b be 03 96 e3 be 0e 75 32 c0 cb a8 a9 be
       -0.2729571 -0.44450387 -2.7883945 -0.3313659
000220 05 ef 98 3f ae c9 30 bf 4d 16 91 3e 39 8e 1a be
       1.1947943 -0.6905774 0.28337327 -0.15093316
000230 c0 f1 0d 40 a2 67 64 3f fd 7a 71 3f 98 d1 35 c0
       2.2178802 0.8922063 0.9432829 -2.8409176
000240 68 69 38 3f 42 00 f6 be 6c e0 25 bf 5d a2 99 3f
       0.7203584 -0.48047072 -0.64795566 1.2002674
000250 4c e1 b8 3d 66 f3 4a 3f 49 15 25 bf ea bc 87 3d
       0.09027347 0.79277647 -0.64485604 0.066278294
000260 b3 80 94 3e e3 70 86 3e 5f cd c2 3f 0f 8c d7 3f
       0.2900444 0.26258 1.5218924 1.6839617
000270 8d f5 1a bf 88 61 0e 3e e5 54 b1 3f cc 9e 2d 3f
       -0.6053093 0.13904393 1.3854033 0.6782043
000280 b4 f7 e9 be c5 73 3b bf e2 03 94 bf d3 fd 10 be
       -0.45696795 -0.73223525 -1.1563685 -0.14159326
000290 7c d1 a3 3e b8 2c 69 3d 54 68 c4 bf 69 c5 4f bf
       0.3199576 0.056927413 -1.5344338 -0.811606
0002a0 61 59 d5 bf ba f2 13 be d2 b1 9d 3e 34 09 6a be
       -1.6667901 -0.14448062 0.3079973 -0.22855073
0002b0 41 cd 8f bd c1 d5 25 be 24 74 fe bf 79 b4 b2 bf
       -0.07021571 -0.16194822 -1.9879193 -1.3961326
0002c0 41 d7 9c be e5 07 0b c0 ee f6 e2 3d 87 33 9e bd
       -0.30632976 -2.1723568 0.11082254 -0.07724672
0002d0 22 35 8d be 0a ab 03 3e d4 c7 8e 3e e7 11 f0 3e
       -0.275796 0.12858215 0.27886832 0.46888658
0002e0 50 27 a3 3e d8 d8 c2 be de af 85 3f 12 6b 41 bf
       0.3186593 -0.38056064 1.0444295 -0.75554
0002f0 4e 4a 64 3e 3e c4 a9 3f 63 67 6e 3f 7e fa 48 3f
       0.2229397 1.3263013 0.93126506 0.7850722
000300 fc bd a3 bf 71 74 37 3f ce c9 83 bf f7 52 53 3f
       -1.2792354 0.7166205 -1.0295961 0.8254847
000310 cd 51 07 3f e9 4d 84 be d8 99 3b 3d 83 5d 61 3f
       0.52859193 -0.2584069 0.045801014 0.8803331
000320 f2 00 aa 3c 69 a8 22 be 5c 3e 09 bd ae f4 7e bf
       0.020752404 -0.15884556 -0.033506736 -0.995921
000330 b8 2e 50 bf d0 07 de be f0 4b 99 bf a7 bf 97 3c
       -0.8132129 -0.43365335 -1.1976299 0.018524004
000340 17 7e e0 3e 9d 8e 44 bf 43 2d 2a be b4 01 e6 3e
       0.438462 -0.7678011 -0.16618828 0.44923174
000350 11 4e d9 3d fd 80 01 bf 74 6f 09 3f ee 3b 22 bf
       0.10610593 -0.50587445 0.5368569 -0.63372695
000360 bf e7 c4 bf 2f 98 34 3c 3d ec 84 be 4f 03 15 be
       -1.5383223 0.0110226115 -0.25961486 -0.14552043
000370 15 4d d2 bd 3e 7d 65 be 44 c6 24 3b 73 ce 2f 3e
       -0.102686085 -0.22411057 0.002514259 0.17168598
000380 01 aa 6f 3e 9e 45 f4 bd d8 3b a1 3e 65 36 c2 be
       0.23404695 -0.11927341 0.3149097 -0.37932125
000390 28 5f cf 3e 4b 9a 2a bf ed c1 d8 3d e5 d1 03 3f
       0.40502286 -0.6664168 0.105838634 0.5149215
0003a0 f6 c3 a8 3e bd 02 30 bf 8c fe 9d be ae fc 94 3e
       0.32962006 -0.6875418 -0.30858266 0.2909903
0003b0 64 68 1f 3f 9f 84 f7 bd 88 31 05 3f 20 6b 10 3f
       0.6226866 -0.12085842 0.52028704 0.5641346
0003c0 50 b3 99 bd e1 d9 c0 3e a2 47 a6 3f 26 49 78 bf
       -0.07504904 0.37666228 1.2990611 -0.96986616
0003d0 1d 4b e3 bd ed 35 9a be 7b 9f 2c bf b6 40 14 be
       -0.11098311 -0.30119267 -0.6743085 -0.1447781
0003e0 93 ee ac bf ea ad 06 bf 1b 7a 87 be 9d 7a 8d 3e
       -1.3510307 -0.5260912 -0.26460347 0.2763261
0003f0 6b 17 aa be 79 9a 51 3e 8d 6b 3f 3c 97 c5 a6 3e
       -0.33220991 0.20469083 0.011683357 0.32572624

critic.2.bias f4 [64]
000000 ca 8b 2c bd fb 1a 0e 3f d8 4d 94 3e ae 0f 43 3e
       -0.0421255 0.5550992 0.2896564 0.1904895
000010 54 bc 93 3e 44 00 0d be 02 d8 cd be 57 23 94 bd
       0.2885462 -0.13769633 -0.40203863 -0.07233303
000020 10 23 11 3e a0 60 a1 3e 40 19 b6 3e 2a 53 87 3e
       0.14173532 0.31519032 0.3556614 0.26430637
000030 47 5d a2 3e a1 a2 c9 be d6 a9 59 3f 3f 39 30 bf
       0.3171179 -0.39381889 0.85024774 -0.6883735
000040 c6 24 4d 3e a4 06 12 bf c5 a3 58 be 62 6a 29 3d
       0.20033559 -0.5704138 -0.21156223 0.04136122
000050 4e 9c 31 be 60 92 9b 3e b8 ed 21 bf a2 07 e3 be
       -0.17344782 0.30385113 -0.63253355 -0.4434176
000060 01 e8 9e be 43 8b 3d bf c7 d5 aa be 7a 5e d3 be
       -0.3103638 -0.7404062 -0.33366224 -0.41283017
000070 4d 66 51 3f 5e 8b 92 3f f7 55 a8 3e 43 d0 b6 3e
       0.81796724 1.1448781 0.32878086 0.35705766
000080 3c ed 46 be fe e6 85 be 55 57 2f bf 8d 28 19 3f
       -0.19426435 -0.26152796 -0.68492633 0.598275
000090 ae d5 d7 be 06 0e 50 3f 0b 80 7f be 5f 49 71 3e
       -0.42155212 0.812714 -0.24951188 0.23563145
0000a0 f4 6c 92 bf 92 47 96 3e dc c5 14 3f 94 fa 17 bf
       -1.14395 0.2935148 0.5811441 -0.59366727
0000b0 ac fe 12 be e7 35 0c bf 49 d4 a7 3e 0c 57 1b 3f
       -0.14354962 -0.5476975 0.32779148 0.606797
0000c0 1c f6 52 bd e3 c5 67 3e 7a 6e e4 be b9 13 3c bf
       -0.05150424 0.22634082 -0.44615537 -0.73467594
0000d0 82 1f 9c 3e d1 97 a1 be 90 f1 b4 3e a7 ec 87 bf
       0.3049279 -0.3156114 0.35340548 -1.0619096
0000e0 02 84 12 bf 96 c6 6b be 13 cf c4 3e 94 55 26 3f
       -0.5723268 -0.23024973 0.38439235 0.6497433
0000f0 87 77 d8 bd 7a bf 4f be 7e 7c cc 3d 02 f1 f9 3e
       -0.10569673 -0.20287886 0.099846825 0.48816687

critic.4.weight f4 [1, 64]
000000 a2 38 d4 3c 39 c5 80 be 85 1e 4e be 06 62 4b 3e
       0.02590591 -0.2515047 -0.2012883 0.19861612
000010 6e 02 50 3d 07 e1 6a 3e 64 2e 1c be d1 a1 47 be
       0.050783567 0.22937404 -0.15252072 -0.19495322
000020 ae 11 2e 3e 50 19 90 be ab 8c da 3e ae 01 52 3e
       0.16998932 -0.28144312 0.42685446 0.20508453
000030 20 e2 cd 3e 94 c6 86 be 01 32 ab bd 39 67 0e bd
       0.40211582 -0.26323378 -0.08359147 -0.03476641
000040 6e e6 45 3f b3 28 95 3e 61 a4 28 be 7f 3d 3b be
       0.7730473 0.29132614 -0.16468956 -0.18285178
000050 f3 06 23 be e8 ec 96 3e 86 0e 8c 3f a2 4e 36 be
       -0.1592062 0.2947762 1.0941932 -0.17803434
000060 fa 4a bc bd 67 dd c5 3e 90 0c 04 bd 99 f2 29 3f
       -0.09193988 0.3864548 -0.032238543 0.663858
000070 2b db 9f be 24 66 73 bb 4e c2 a8 bd f4 d9 92 3d
       -0.312219 -0.0037139738 -0.08240186 0.071704775
000080 33 c2 98 be 4a 35 f3 be 05 f2 60 3e 3d e3 3a 3e
       -0.29835662 -0.47501594 0.21967323 0.18250747
000090 a2 b9 9c be 7e 4c 15 3e c8 94 d2 bd dd cd 03 3e
       -0.30610377 0.1457996 -0.10282284 0.128715
0000a0 bd 40 83 bc 90 02 bb be dc 41 46 3d cd f6 df bd
       -0.01602208 -0.36525393 0.048402652 -0.109357454
0000b0 3e a6 81 be d5 19 61 be 6d 86 95 3e 97 7b 34 3c
       -0.25322145 -0.2198251 0.2920412 0.011015794
0000c0 8a bd 03 bf ce 79 3f be f3 b8 0e bf 34 26 b6 bd
       -0.5146109 -0.18698809 -0.5575096 -0.088940054
0000d0 6d 86 6c 3d 94 bc 90 be 2d 02 09 be 48 ee e4 bd
       0.057745386 -0.28268874 -0.13379736 -0.11178261
0000e0 25 34 0b 3e df b2 33 bc 68 71 73 3e 62 c5 af 3d
       0.1359411 -0.010967939 0.2377373 0.0858257
0000f0 e0 f1 45 be 84 ca f3 3a 67 34 d7 3e 2b f6 31 3d
       -0.19330549 0.0018599783 0.42032167 0.043447655
