controller/PPO_CartPole-dm_0_2100000.pth (torch, 41277 bytes, 10 tensors)

actor.0.weight f4 [64, 5]
0.019199833 -0.08219081 0.79136026 -0.019527879 0.20701976 -0.23502515 -0.26015592 -1.3384161
-0.107197694 -0.19752915 -0.058725305 -0.24335192 0.38470742 0.38260853 -0.0049852217 0.119580135
0.18848056 0.60076076 -0.40002254 -0.009590163 -0.08892229 0.28282434 0.9735262 0.23940562
0.18312125 -0.08466255 0.32392502 0.32751387 -0.50265336 0.49105123 -0.20326336 0.4689286
-0.12378777 0.1003319 -0.14472108 0.41553062 0.47258064 -0.58368194 -0.059894044 -0.023802666
-0.0062359166 -0.04236276 -0.60640097 0.598245 0.16591655 -0.6118981 -0.37400487 1.0855241
0.33979952 -0.08664608 -0.21875453 -0.48580548 -0.7867931 0.6446656 -0.35049132 -0.17216165
0.07834626 -0.87597144 -0.24507847 -0.11559565 0.12980326 -0.66047955 0.4085689 0.19953556
0.124608584 0.5180837 -0.1556307 0.17628396 0.6025822 -0.033658795 -0.5493766 -0.5159487
0.11273635 -0.3575259 -0.19488107 -0.18644474 -0.4723492 0.07677714 0.18053159 -0.36490744
0.5667258 0.17782862 0.48692167 -0.1559996 -0.015621727 -0.5049882 0.1684387 -1.075388
-0.33415905 -0.508441 0.22405435 0.48212484 -0.11110919 -0.1322645 -0.08901687 -0.007850705
-0.4019075 -1.2001439 -0.0667754 0.1839187 -0.5321979 -0.5670761 0.5440889 0.25758016
-0.023810307 0.33716485 0.27104062 -0.7146018 -0.44529507 -0.05755506 -0.3759327 -0.08429939
-0.3841038 0.28812167 0.30692393 -0.28822622 -0.3523627 0.1418102 -0.52052236 -0.053825885
-0.4794931 -0.40374875 -0.5588245 -0.5627051 -0.21823236 0.5017347 0.44008872 -0.5731002
-0.089436784 -0.070865005 -0.5990109 -0.17666946 0.75778484 0.11837913 -0.36650404 -0.08085151
-0.5863562 0.12750691 -0.16992122 0.37218016 -0.405606 0.36409006 0.8210696 -0.10517088
0.047333643 0.099519625 0.5058625 -0.8454386 0.15753666 -0.38411805 -0.5051114 0.55568
0.5583382 -0.18842578 0.013749684 -0.10320078 0.29764554 -0.79533625 0.3856209 -0.15429904
-0.07016445 0.3538939 0.65506434 -0.112555206 0.46022645 0.048799016 0.020455595 0.7484495
0.71762425 -0.22951096 0.058761146 -0.44779932 0.89372927 0.19953737 0.05945237 0.10722736
0.20351797 0.2312698 0.16317838 0.82323295 0.5320573 0.5201103 -0.40157816 0.08081403
-0.012484268 0.25969443 -0.44232884 -0.21220039 -0.37491477 0.33885562 -0.6905591 0.23204301
-0.449991 -0.38078523 -0.66993904 0.16514727 -0.23272951 -0.895354 -0.05829251 -0.31609792
0.24761455 -0.38673422 0.15290363 -0.017697193 -0.11604068 -0.36530417 -0.44659492 0.28657886
-0.17222282 -0.12693638 -0.030151991 -0.1186151 -0.74377054 -0.37927625 0.9245492 -0.030062657
0.11477973 -0.27747327 0.22803128 -0.6759916 -0.70737857 0.4963706 0.2575019 -0.37648726
0.4168822 -0.26086122 -0.16282739 -0.058383144 0.20335889 -1.019324 0.08836589 0.18322699
1.2251711 0.04706245 0.5652478 0.19335087 -0.5039889 -0.2664851 0.45503497 0.018994762
0.19119434 -0.12425922 0.010313612 -0.27430424 -0.0794465 0.6021686 -0.31631175 0.10927239
0.30580214 0.104834855 -0.15201029 0.36021227 -0.49372497 -0.06486565 0.33589154 -0.18862033
00000000: f848 9d3c a853 a8bd 9696 4a3f eef8 9fbc
00000010: fdfc 533e 6faa 70be 2833 85be 3851 abbf
00000020: 778a dbbd 1545 4abe f289 70bd 3f31 79be
00000030: 5ff8 c43e 44e5 c33e 125b a3bb 6ee6 f43d
00000040: 0c01 413e 75cb 193f c1cf ccbe 0f20 1dbc
00000050: e41c b6bd 5ace 903e 0339 793f bf26 753e
00000060: 2384 3b3e 8f63 adbd 80d9 a53e e6af a73e
00000070: e4ad 00bf 116b fb3e 4524 50be 6917 f03e
00000080: 7184 fdbd d07a cd3d c331 14be 6ec0 d43e
00000090: 17f6 f13e 2e6c 15bf 7553 75bd cffd c2bc
000000a0: a956 ccbb 9384 2dbd 183d 1bbf 9626 193f
000000b0: 07e6 293e 5ba5 1cbf 917d bfbe 74f2 8a3f
000000c0: 34fa ad3e 8073 b1bd 3001 60be 7fbb f8be
000000d0: 466b 49bf ce08 253f 9973 b3be 254b 30be
000000e0: 0174 a03d aa3f 60bf daf5 7abe 6abd ecbd
000000f0: 25eb 043e 3015 29bf f12f d13e 0d53 4c3e
00000100: c932 ff3d 22a1 043f a75d 1fbe c883 343e
00000110: d442 1a3f cedd 09bd f2a3 0cbf 3715 04bf
00000120: 51e2 e63d a20d b7be e78e 47be 5feb 3ebe
00000130: c1d7 f1be 553d 9d3d 46dd 383e 26d5 babe
00000140: f114 113f b518 363e cc4d f93e 5cbe 1fbe
00000150: 46f2 7fbc e846 01bf 327b 2c3e 50a6 89bf
00000160: e516 abbe 3029 02bf 816e 653e 11d9 f63e
00000170: 378d e3bd 5870 07be 7a4e b6bd 3ea0 00bc
00000180: d2c6 cdbe 519e 99bf 8ac1 88bd 2f55 3c3e
00000190: 1f3e 08bf e62b 11bf 6949 0b3f 8ce1 833e
000001a0: d50d c3bc dfa0 ac3e d6c5 8a3e 25f0 36bf
000001b0: b7fd e3be dbbe 6bbd 407a c0be 29a5 acbd
000001c0: 41a9 c4be af84 933e 2225 9d3e 6392 93be
000001d0: e268 b4be b136 113e f440 05bf 8878 5cbd
000001e0: 1f80 f5be 28b8 cebe 1f0f 0fbf 710d 10bf
000001f0: 4e78 5fbe af71 003f 4f53 e13e b2b6 12bf
00000200: a22a b7bd ac21 91bd c758 19bf d7e8 34be
00000210: 30fe 413f c270 f23d 6ba6 bbbe 7a95 a5bd
00000220: 711b 16bf 2c91 023e d4ff 2dbe 668e be3e
00000230: 97ab cfbe 036a ba3e 9e31 523f d563 d7bd
00000240: ece0 413d f2d0 cb3d 3480 013f aa6e 58bf
00000250: 4a51 213e 1fab c4be fb4e 01bf 0b41 0e3f
00000260: 41ef 0e3f b0f2 40be 5b46 613c ee5a d3bd
00000270: ff64 983e 289b 4bbf 1a70 c53e 9100 1ebe
00000280: 61b2 8fbd 9531 b53e 4cb2 273f 5883 e6bd
00000290: cda2 eb3e 7ae1 473d 7e92 a73c 639a 3f3f
000002a0: 39b6 373f ec04 6bbe 87af 703d f445 e5be
000002b0: 71cb 643f 8653 4c3e 5484 733d 059a db3d
000002c0: 0467 503e fed1 6c3e 3c18 273e 65bf 523f
000002d0: e834 083f f325 053f a79b cdbe d381 a53d
000002e0: d18a 4cbc abf6 843e ed78 e2be 0f4b 59be
000002f0: d4f4 bfbe 7c7e ad3e 7bc8 30bf af9c 6d3e
00000300: 3865 e6be 48f6 c2be 2081 2bbf 5e1c 293e
00000310: a550 6ebe eb35 65bf 21c4 6ebd 96d7 a1be
00000320: ab8e 7d3e 0702 c6be c592 1c3e b4f9 90bc
00000330: bca6 edbd 2609 bbbe 17a8 e4be 77ba 923e
00000340: 2e5b 30be 9cfb 01be 4f01 f7bc 79ec f2bd
00000350: bf67 3ebf 7f30 c2be 42af 6c3f f645 f6bc
00000360: a311 eb3d fa10 8ebe 0881 693e c90d 2dbf
00000370: c316 35bf 4a24 fe3e 4ad7 833e f0c2 c0be
00000380: 9571 d53e 9a8f 85be 39bc 26be 2a23 6fbd
00000390: 503d 503e 3579 82bf 2df9 b43d db9f 3b3e
000003a0: 68d2 9c3f 8ec4 403d 14b4 103f c5fd 453e
000003b0: 6b05 01bf bc70 88be 58fa e83e e79a 9b3c
000003c0: 73c8 433e 9e7b febd 6dfa 283c 9b71 8cbe
000003d0: d9b4 a2bd b927 1a3f 9df3 a1be 34ca df3d
000003e0: 1992 9c3e a8b3 d63d 96a8 1bbe be6d b83e
000003f0: 85c9 fcbe 48d8 84bd faf9 ab3e b025 41be

actor.0.bias f4 [64]
-0.46282467 -0.14464562 -0.12791651 -0.58066875 -0.54651546 0.5416266 0.11357661 0.09897382
-0.3557655 0.09671724 -0.3300672 0.23483814 0.00300601 -0.22063398 0.15837815 -0.49982804
0.312389 -0.03616952 -0.19203006 -0.038873646 0.17445189 -0.3283314 -0.5652515 0.29614437
0.39754337 0.2695064 -0.18819514 -0.44068328 -0.10184488 -0.020725349 -0.3070021 -0.068770945
-0.3268826 0.034858137 -0.18844129 0.7440618 0.23791678 0.101064846 0.53172153 -0.38715246
-0.3813847 -0.048529044 -0.16003695 -0.029015433 -0.15910897 -0.2530199 -0.25769278 -0.24676749
-0.5108378 -0.15728875 -0.10093847 0.26071417 0.11445988 -0.39196205 -0.033744663 0.2865492
0.37209263 0.18188278 -0.6223139 0.149697 0.18942098 0.024814034 0.27678922 -0.47217944
00000000: 5bf7 ecbe fb1d 14be 8cfc 02be b5a6 14bf
00000010: 70e8 0bbf 0aa8 0a3f db9a e83d c9b2 ca3d
00000020: e526 b6be b013 c63d 91fe a8be 6979 703e
00000030: 7b00 453b e0ed 61be e22d 223e 76e9 ffbe
00000040: 73f1 9f3e 7e26 14bd 87a3 44be f939 1fbd
00000050: 84a3 323e 0e1b a8be 53b4 10bf 3ca0 973e
00000060: ce8a cb3e befc 893e 3ab6 40be 3da1 e1be
00000070: 0c94 d0bd 35c8 a9bc 612f 9dbe c8d7 8cbd
00000080: 285d a7be 68c7 0e3d c1f6 40be d67a 3e3f
00000090: 75a0 733e 16fb ce3d e71e 083f d938 c6be
000000a0: db44 c3be 64c6 46bd bae0 23be c6b1 edbc
000000b0: 76ed 22be d38b 81be 4ff0 83be 9eb0 7cbe
000000c0: 44c6 02bf 4d10 21be d4b8 cebd 547c 853e
000000d0: f169 ea3d 40af c8be d837 0abd 94b6 923e
000000e0: ed82 be3e 7b3f 3a3e f74f 1fbf 2c4a 193e
000000f0: 93f7 413e cd46 cb3c 51b7 8d3e 81c1 f1be

actor.2.weight f4 [64, 64]
-0.14492048 -0.14234863 0.16263849 0.018016635 -0.091057114 0.16714033 0.030684363 -0.13970579
-0.0553299 0.16862543 -0.21008706 0.17718244 0.011614961 -0.014598972 0.17566329 0.073550515
0.021122228 -0.039104626 -0.11147411 -0.006383432 0.04925259 0.06611282 0.11297566 0.04689577
0.048332475 0.02502563 0.026707603 0.11711928 0.14687721 -0.17466362 0.1247411 -0.17737736
0.030088782 -0.16631386 0.028054483 0.00020078215 -0.025771145 -0.081899725 -0.20290372 -0.10309908
-0.07882447 0.1322216 -0.09945078 0.0061796135 0.12776193 -0.006067665 0.10682608 -0.15396695
0.06989132 -0.09687115 0.090264946 0.018514805 0.20022702 -0.05096743 -0.06823419 -0.1098979
-0.027081642 -0.01665371 0.17227432 -0.026113179 0.062064167 -0.18545184 -0.14937107 -0.06642314
0.06253045 -0.096754625 0.061804045 -0.14629842 -0.11505036 0.0654958 -0.032281224 -0.10397666
0.096474424 0.018708408 0.071351856 -0.06157572 -0.018981535 0.06413122 0.12716018 -0.03571913
0.15894093 0.02061314 0.0714951 0.049266383 -0.052536186 -0.040537696 -0.109287016 -0.09054881
-0.07403453 -0.115006536 0.04662048 -0.0535849 -0.088659674 0.061784472 0.08609177 0.101127915
-0.079680026 0.037184946 0.0053452053 0.08753004 -0.05532687 0.056043826 -0.021240398 0.07772231
-1.7093168e-06 0.07745888 -0.099347085 0.08531753 -0.0385455 0.0021953986 0.04055251 -0.039353266
0.116689 -0.05908017 0.065377034 0.17289513 -0.19078483 -0.016392738 -0.12317882 0.04118175
-0.06928284 0.06932318 -0.09183612 -0.10563808 0.028088935 0.07672745 0.013548273 5.5829434e-05
0.13042454 0.006370774 -0.1560867 0.3040114 0.14468367 -0.23326397 0.10960461 0.07748104
-0.12490195 -0.14283395 -0.011379946 -0.041431665 -0.16586697 0.18801214 0.01816826 0.1299489
-0.14796805 0.1670296 0.4852137 -0.2790407 -0.19155069 0.31663555 -0.08619989 0.06083722
0.032341816 -0.063731804 0.2924681 0.17287003 0.12908381 0.11694202 0.21365651 -0.06898084
-0.009731855 0.08813185 -0.13782477 -0.34109175 0.20046136 -0.2971537 0.16948496 0.10981438
0.1316953 0.010146463 -0.32388964 0.16402262 0.094939746 0.34338734 0.011062434 0.14726381
0.33572036 -0.1102349 -0.18293048 -0.3463957 0.11190969 -0.068413444 -0.40784675 0.163265
-0.1260583 -0.06263926 0.35089594 -0.0070009655 0.20489088 0.32273683 0.050092503 0.23915185
0.08620723 -0.24996538 -0.3611983 0.22426954 -0.11048916 0.008852684 0.013245922 0.43678987
-0.18265429 -0.47561917 -0.14532262 0.07201928 -0.3856721 -0.09182266 -0.13703293 -0.09558329
0.2894793 0.14874147 0.4623187 -0.13387637 -0.6107222 0.122248635 -0.15259284 -0.15640092
-0.12593004 0.5370529 -0.14174974 -0.20065011 0.111802295 0.18102086 0.013308329 0.11728996
-0.15229812 -0.07352705 -0.17191583 0.1962817 0.2658516 -0.033971287 0.3147859 -0.0324127
-0.2741403 -0.15695058 -0.15198568 0.08279671 -0.48059666 0.09865387 -0.2557295 -0.39298433
0.08777912 0.009579706 -0.13653074 0.1318551 0.3259026 0.08298124 -0.05013427 -0.030809833
0.102354184 0.014126328 -0.06820225 0.092964195 0.04455169 0.19897377 -0.25457177 -0.05531623
00000000: 0966 14be d7c3 11be b48a 263e 9f97 933c
00000010: 277c babd d626 2b3e c65d fb3c 090f 0fbe
00000020: 9ba1 62bd 25ac 2c3e 1021 57be 506f 353e
00000030: ad4c 3e3c 8730 6fbc 14e1 333e a7a1 963d
00000040: 8608 ad3c 2c2c 20bd 8a4c e4bd 1c2c d1bb
00000050: 15bd 493d 2866 873d c85f e73d c715 403d
00000060: 46f8 453d 8d02 cd3c e7c9 da3c 3cdc ef3d
00000070: fb66 163e 05db 32be 4378 ff3d 69a2 35be
00000080: c07c f63c 2e4e 2abe 84d2 e53c 0c89 5239
00000090: 021e d3bc 0bbb a7bd fec5 4fbe 9c25 d3bd
000000a0: b96e a1bd 1965 073e daac cbbd 5b7e ca3b
000000b0: 06d4 023e 43d3 c6bb a2c7 da3d 83a9 1dbe
000000c0: 2e23 8f3d 6264 c6bd d4dc b83d 5cac 973c
000000d0: 5008 4d3e 39c3 50bd 5ebe 8bbd 2612 e1bd
000000e0: 52da ddbc 5c6d 88bc ae68 303e 4eeb d5bc
000000f0: ff36 7e3d 16e7 3dbe bbf4 18be db08 88bd
00000100: f70f 803d 4a27 c6bd 3d26 7d3d 41cf 15be
00000110: 869f ebbd a922 863d 5139 04bd b7f1 d4bd
00000120: 6294 c53d 6042 993c ec20 923d d236 7cbd
00000130: 2a7f 9bbc 3b57 833d 4736 023e 394e 12bd
00000140: 69c1 223e e3dc a83c 066c 923d 8ccb 493d
00000150: 2f30 57bd db0a 26bd dfd1 dfbd a871 b9bd
00000160: 6a9f 97bd 8c88 ebbd 1ef5 3e3d d77b 5bbd
00000170: 3493 b5bd b711 7d3d e250 b03d 271c cf3d
00000180: 482f a3bd 3e4f 183d d526 af3b f342 b33d
00000190: 6e9e 62bd 368e 653d 5800 aebc e02c 9f3d
000001a0: ae6b e5b5 c3a2 9e3d 7c76 cbbd f5ba ae3d
000001b0: e3e1 1dbd ade0 0f3b 641a 263d e430 21bd
000001c0: a4fa ee3d 0cfe 71bd 65e4 853d 6c0b 313e
000001d0: 195d 43be 104a 86bc 2d45 fcbd 32ae 283d
000001e0: 29e4 8dbd 50f9 8d3d 9314 bcbd c758 d8bd
000001f0: c41a e63c 4823 9d3d 93f9 5d3c 662a 6a38
00000200: 038e 053e edc1 d03b 31d5 1fbe 62a7 9b3e
00000210: f527 143e c0dc 6ebe 6278 e03d 61ae 9e3d
00000220: 98cc ffbd 1043 12be f472 3abc 40b4 29bd
00000230: 08d9 29be 4186 403e 9ad5 943c 5311 053e
00000240: f084 17be cf09 2b3e ee6d f83e 6cde 8ebe
00000250: dd25 44be 0e1e a23e 9189 b0bd 7330 793d
00000260: da78 043d d285 82bd 61be 953e d704 313e
00000270: 8c2e 043e 4c7f ef3d c6c8 5a3e d445 8dbd
00000280: 5c72 1fbc 797e b43d f021 0dbe 94a3 aebe
00000290: be45 4d3e 8824 98be 778d 2d3e 5de6 e03d
000002a0: 22db 063e 5a3d 263c ddd4 a5be 8cf5 273e
000002b0: c56f c23d 77d0 af3e 363f 353c 53cc 163e
000002c0: 8ae3 ab3e d6c2 e1bd 2152 3bbe c75a b1be
000002d0: e830 e53d 591c 8cbd 4ad1 d0be f12e 273e
000002e0: 6d15 01be 0349 80bd a2a8 b33e 5b68 e5bb
000002f0: eace 513e c33d a53e cc2d 4d3d 39e4 743e
00000300: 6b8d b03d edf6 7fbe fcee b8be eaa6 653e
00000310: 2448 e2bd d90a 113c 6c05 593c eca2 df3e
00000320: ba09 3bbe 5b84 f3be 74cf 14be d87e 933d
00000330: d076 c5be 850d bcbd 5c52 0cbe 2cc1 c3bd
00000340: a136 943e af4f 183e 09b5 ec3e e316 09be
00000350: 4a58 1cbf 7e5d fa3d 4c41 1cbe 9027 20be
00000360: cef3 00be 4d7c 093f d826 11be 3977 4dbe
00000370: 9af8 e43d 885d 393e 2d0b 5a3c b835 f03d
00000380: 0af4 1bbe 5a95 96bd b40a 30be 12fe 483e
00000390: b31d 883e 7a25 0bbd 9e2b a13e 2ec3 04bd
000003a0: 1e5c 8cbe a7b7 20be 22a2 1bbe 5291 a93d
000003b0: c410 f6be 0a0b ca3d faee 82be 3e35 c9be
000003c0: 8ac5 b33d 33f4 1c3c b7ce 0bbe 0605 073e
000003d0: b5dc a63e 11f2 a93d 9859 4dbd e764 fcbc
000003e0: 129f d13d 1d72 673c 9fad 8bbd 0364 be3d
000003f0: d57b 363d c8bf 4b3e 3b57 82be 4593 62bd

actor.2.bias f4 [64]
0.0019750237 -0.09196219 -0.3509329 0.2333636 -0.0003750755 0.010984853 0.07458076 0.0026825347
0.12247157 -0.18338324 0.009096202 -0.02177034 0.0085697165 0.056686655 -0.041411318 0.07216513
-0.11402373 -0.12191414 -0.11514432 0.012973199 -0.09814476 0.019407988 -0.09569834 0.05052695
0.051629294 0.08079866 -0.15025124 -0.010493271 0.17487618 -0.0043151095 -0.052449755 0.09551744
-0.0009788718 0.09053186 -0.027829682 -0.06352017 -0.1066434 0.080088444 -0.092077084 0.044999868
-0.04838195 -0.060741104 -0.05211689 -0.089637615 0.05018583 0.13356368 -0.014235354 -0.09327774
0.05883467 -0.005290873 -0.051647414 0.12350072 -0.0150911575 0.049461525 0.07327526 -0.064390644
-0.014230768 -0.07442774 -0.47142935 0.05279677 -0.0035241656 -0.09862983 0.053410858 -0.08497761
00000000: 666f 013b ac56 bcbd 7aad b3be def6 6e3e
00000010: c8a5 c4b9 d0f9 333c ccbd 983d 77cd 2f3b
00000020: 60d2 fa3d d1c8 3bbe 3d08 153c b657 b2bc
00000030: ff67 0c3c 4430 683d ea9e 29bd 50cb 933d
00000040: 4685 e9bd 1fae f9bd c9d0 ebbd 8a8d 543c
00000050: 1f00 c9bd 80fd 9e3c 7efd c3bd 59f5 4e3d
00000060: 3d79 533d c579 a53d 76db 19be f8eb 2bbc
00000070: be12 333e c365 8dbb 8ed5 56bd a69e c33d
00000080: 7d4d 80ba c568 b93d 13fb e3bc dd16 82bd
00000090: db67 dabd 6905 a43d e992 bcbd c851 383d
000000a0: 272c 46bd aacb 78bd 8578 55bd ed93 b7bd
000000b0: a88f 4d3d ebc4 083e 673b 69bc 6608 bfbd
000000c0: 9ffc 703d 0f5f adbb 3d8c 53bd f2ed fc3d
000000d0: e740 77bc 2b98 4a3d 5711 963d 3edf 83bd
000000e0: 2b28 69bc 926d 98bd 305f f1be 6d41 583d
000000f0: b0f5 66bb 70fe c9bd 58c5 5a3d be08 aebd

actor.4.weight f4 [1, 64]
0.15262452 0.004067558 0.29705873 -0.25474417 0.20994674 0.17744835 0.082543194 0.13665394
-0.11906772 0.24959104 0.13875458 0.17911348 0.1720653 0.06184589 -0.34282935 -0.13668516
0.20837791 0.011525331 0.2678422 -0.11995199 0.26026332 0.14561658 0.07165744 -0.46605527
-0.5296898 -0.16900672 0.097645886 -0.059256587 -0.11479868 -0.16211717 0.09895399 -0.1848578
0.04789387 0.041302726 0.017078627 -0.26907063 -0.15681306 -0.008978435 -0.18726783 -0.13800658
-0.1772611 0.0041612894 -0.16345595 -0.4776089 0.059453446 -0.17128271 0.031721685 0.18093215
-0.13763182 0.13800195 -0.10522918 0.21914406 -0.18152115 0.1548357 -0.28994218 -0.082560666
0.17629401 -0.17191309 -0.19766884 -0.13956189 0.12984806 0.3691577 -0.11651574 0.15132366
00000000: 9a49 1c3e 2649 853b 1518 983e d46d 82be
00000010: 47fc 563e 05b5 353e 680c a93d 03ef 0b3e
00000020: c7d9 f3bd cb94 7f3e ae15 0e3e 8669 373e
00000030: e331 303e 1e52 7d3d 5487 afbe 32f7 0bbe
00000040: 0561 553e bed4 3c3c 9d22 893e 64a9 f5bd
00000050: 3c41 853e 831c 153e 23c1 923d cc9e eebe
00000060: c099 07bf 1910 2dbe 91fa c73d 09b7 72bd
00000070: 921b ebbd 0b02 26be 64a8 ca3d 5d4b 3dbe
00000080: 5d2c 443d 0c2d 293d 7ae8 8b3c a0c3 89be
00000090: 9a93 20be 491a 13bc 23c3 3fbe 9951 0dbe
000000a0: ef83 35be 6d5b 883b ff60 27be 2789 f4be
000000b0: 7585 733d bc64 2fbe 99ee 013d 4746 393e
000000c0: 5bef 0cbe 6250 0d3e 6582 d7bd 4d67 603e
000000d0: aee0 39be 408d 1e3e 4d73 94be 9115 a9bd
000000e0: 6b86 343e fc09 30be b369 4abe 50e9 0ebe
000000f0: e4f6 043e 3d02 bd3e ce9f eebd 97f4 1a3e

critic.0.weight f4 [64, 5]
0.14927006 -1.0241008 1.7542758 0.3931552 -1.4010893 0.9827963 0.25634354 -3.7532165
0.19558433 1.4595673 0.32327595 -0.066011965 0.031852417 1.9071351 1.7021121 -0.39737853
-1.4563705 -1.4632291 -0.03761108 -0.3803076 -0.4448997 0.10643706 0.9008241 -2.427451
-2.277398 -2.4713001 -0.5266147 -0.06832803 1.3226177 0.9654943 -2.110101 -0.5084928
3.5942135 -1.4038935 -0.69154936 -0.9014949 0.1701331 -1.7836113 -0.40276706 -0.42579362
2.1701498 0.8931797 0.6135992 -1.7101521 -0.10233839 -1.462905 0.27183264 -2.0738149
1.7095468 2.3800933 1.2386792 -0.50656754 1.5907041 -1.0504407 -1.0463535 -0.033601653
-0.29232147 2.7958586 0.6909217 0.7460783 2.355864 0.4359368 -2.5703213 0.77761096
-0.0071961377 0.9985626 0.34434557 -1.1015604 2.7781208 2.287132 0.17915809 -1.2956941
0.4311797 0.39601985 0.9842211 -2.8358152 -0.41960806 1.4325054 -2.025131 -0.50775397
0.43830287 0.5817056 1.9066467 1.4398437 0.32862893 -2.5764067 -0.092330545 -0.08208646
1.9293168 0.8330032 -0.5251618 -0.83749944 -0.74893886 -1.6093104 -1.0438867 0.002218464
-0.4794643 1.1332881 -1.5645735 -0.2626402 0.2976761 0.22454867 -3.4107993 2.561519
1.658133 1.4046779 -0.265724 2.521651 -1.2974943 0.37244052 -0.12129997 0.3771568
3.9213696 -2.5666902 -2.277522 0.5231406 -0.82125986 -0.6530612 0.2301058 -0.38975215
1.1494062 -0.6757399 2.301952 0.55078715 0.33662742 0.01821712 0.77419275 3.7594433
-1.9045585 -2.7100792 2.443948 0.8842869 1.0211327 -0.75082725 -0.27017277 2.2704582
0.8048489 0.7793242 -0.95195526 0.09804702 -1.4085829 0.39026302 0.25397304 -0.21098281
-0.021540858 -0.77590805 0.48225957 -0.5447326 0.73868287 0.43401423 1.9596206 0.68642557
-0.76547766 -0.44246206 -0.36088547 0.6501724 0.66400486 0.94905335 1.1843983 0.61059535
-0.85161585 -0.33913606 -2.5449047 2.0950933 -0.026092384 -1.2442008 -0.4366037 -1.170139
0.785783 0.32733777 -1.0216632 0.53954977 0.16730438 -0.5945768 -0.15508726 0.64893854
0.61936545 2.295602 -0.29780072 0.061876617 0.6795302 0.04803594 -3.0560517 0.7339401
1.740973 1.0201746 -1.1018565 0.064077444 0.39531294 0.07129161 -2.4183302 0.890781
-0.6394431 -0.5996872 -0.5842506 -0.25800505 0.21053064 0.59454983 -1.9572002 -2.0204947
-0.39416534 -1.147341 -1.5289874 -0.4237296 -0.47916165 -0.91211843 -0.07068623 2.5617101
-0.19377805 0.63316 -0.6997553 0.49300995 2.4031122 -1.1247127 0.3626118 0.24572279
-0.15654498 0.6927384 -1.9556171 0.14964981 0.39798772 -0.5451157 -2.7618413 0.16659063
-0.619669 0.109806344 -1.0942801 -0.22389385 -0.80732137 0.3554199 -2.1705158 -0.022526274
1.0263546 -0.6034739 -0.29068124 -2.056027 0.30040377 -2.61444 -1.3188418 0.11442144
-0.8977161 0.004573119 -3.6196747 1.2986746 1.5038579 -1.0889958 -0.10372126 -2.1473942
-0.6004124 -0.5760293 -1.0353667 0.4720905 -1.6985731 -0.5614624 -0.41987154 0.48989323
00000000: 40da 183e bc15 83bf 1c8c e03f a34b c93e
00000010: e556 b3bf 8a98 7b3f 763f 833e b334 70c0
00000020: 4247 483e 1ad3 ba3f 6d84 a53e 4831 87bd
00000030: ae77 023d 011d f43f cfde d93f 3375 cbbe
00000040: 596a babf 174b bbbf 130e 1abd aeb7 c2be
00000050: e5c9 e3be acfb d93d 699c 663f 5b5b 1bc0
00000060: e4c0 11c0 c829 1ec0 39d0 06bf 91ef 8bbd
00000070: 894b a93f a22a 773f e50b 07c0 962c 02bf
00000080: 9807 6640 c8b2 b3bf 6109 31bf 5fc8 66bf
00000090: 5f37 2e3e 604d e4bf 7c37 cebe 9f01 dabe
000000a0: bce3 0a40 6da7 643f d614 1d3f 44e6 dabf
000000b0: ca96 d1bd 7940 bbbf a62d 8b3e 62b9 04c0
000000c0: 6ed2 da3f 7353 1840 0a8d 9e3f 69ae 01bf
000000d0: 319c cb3f d774 86bf e9ee 85bf e3a1 09bd
000000e0: 29ab 95be 59ef 3240 3fe0 303f fdfe 3e3f
000000f0: 7ac6 1640 1c33 df3e 2580 24c0 8311 473f
00000100: 94cd ebbb cca1 7f3f 104e b03e eeff 8cbf
00000110: bbcc 3140 5f60 1240 3875 373e 4ed9 a5bf
00000120: 96c3 dc3e 1dc3 ca3e eaf5 7b3f ff7d 35c0
00000130: ded6 d6be 565c b73f bf9b 01c0 2afc 01bf
00000140: 3c69 e03e a8ea 143f 000d f43f cc4c b83f
00000150: 0d42 a83e d9e3 24c0 cc17 bdbd f21c a8bd
00000160: daf3 f63f b33f 553f 0171 06bf 5d66 56bf
00000170: 75ba 3fbf e2fd cdbf 149e 85bf a663 113b
00000180: 587c f5be 960f 913f f243 c8bf c778 86be
00000190: 0069 983e 16f0 653e 894a 5ac0 edef 2340
000001a0: b43d d43f 7ccc b33f fa0c 88be bb62 2140
000001b0: 4b14 a6bf 86b0 be3e 1e6c f8bd b21a c13e
000001c0: b8f7 7a40 a744 24c0 ecc2 11c0 8bec 053f
000001d0: 163e 52bf 052f 27bf dba0 6b3e 988d c7be
000001e0: be1f 933f 4afd 2cbf 2e53 1340 6300 0d3f
000001f0: 6e5a ac3e 123c 953c 7f31 463f b89a 7040
00000200: 93c8 f3bf f071 2dc0 a569 1c40 a060 623f
00000210: 7ab4 823f 3736 40bf 1654 8abe 304f 1140
00000220: 940a 4e3f ca81 473f 57b3 73bf e0cc c83d
00000230: 724c b4bf 8ed0 c73e c108 823e e10b 58be
00000240: 7476 b0bc e9a1 46bf baea f63e 9873 0bbf
00000250: 521a 3d3f 1d37 de3e d9d4 fa3f 96b9 2f3f
00000260: 58f6 43bf 638a e2be fbc5 b8be b371 263f
00000270: 39fc 293f 29f5 723f 5d9a 973f fa4f 1c3f
00000280: 7f03 5abf 3ea3 adbe b8df 22c0 0216 0640
00000290: b2bf d5bc f941 9fbf 858a dfbe 1dc7 95bf
000002a0: 1329 493f d198 a73e dcc5 82bf ef1f 0a3f
000002b0: d751 2b3e 2f36 18bf 32cf 1ebe d620 263f
000002c0: bc8e 1e3f 25eb 1240 5679 98be 5672 7d3d
000002d0: b1f5 2d3f 55c1 443d 5a96 43c0 80e3 3b3f
000002e0: 34d8 de3f 1595 823f a209 8dbf 093b 833d
000002f0: 7566 ca3e 5601 923d ecc5 1ac0 390a 643f
00000300: 8bb2 23bf 1a85 19bf 7391 15bf 3d19 84be
00000310: 5895 573e 6b34 183f 8985 fabf c94f 01c0
00000320: 0ad0 c9be 12dc 92bf dcb5 c3bf 16f3 d8be
00000330: ad54 f5be 9880 69bf f1c3 90bd 0ff3 2340
00000340: c16d 46be c616 223f 2a23 33bf cd6b fc3e
00000350: 97cc 1940 96f6 8fbf 41a8 b93e c19e 7b3e
00000360: 544d 20be 4e57 313f a951 fabf cd3d 193e
00000370: 0cc5 cb3e b48c 0bbf 02c2 30c0 bc96 2a3e
00000380: a1a2 1ebf 26e2 e03d 5f11 8cbf 6e44 65be
00000390: 9dac 4ebf 99f9 b53e bbe9 0ac0 0589 b8bc
000003a0: 965f 833f 447d 1abf 2cd4 94be f295 03c0
000003b0: 86ce 993e fc52 27c0 cfcf a8bf ca55 ea3d
000003c0: b9d0 65bf 1ada 953b c0a8 67c0 f83a a63f
000003d0: 6a7e c03f 3764 8bbf d06b d4bd e86e 09c0
000003e0: a1b4 19bf a876 13bf e586 84bf d9b5 f13e
000003f0: d86a d9bf 00bc 0fbf 67f9 d6be 49d3 fa3e

critic.0.bias f4 [64]
0.58698875 -0.35104978 0.92046326 1.3417176 -0.19189958 0.80662614 0.62903 0.98446476
-0.89817756 -0.06294518 0.18323174 0.09605512 -0.14988741 -0.09331229 0.35919714 0.5148262
0.10456479 0.4991434 0.73512954 0.70410913 -0.0025935648 0.074397326 -0.50601614 -0.19590789
-0.5716303 -0.73218316 -1.0034919 -0.820598 -0.6502178 -0.009298332 -0.73199016 -0.32292542
0.40389675 0.54278964 -0.9824671 -1.3593415 -0.29430163 -1.1136407 -0.5395097 -0.4903037
0.9749308 -0.29133597 -0.55091393 -0.29773903 0.71340185 0.5002623 -0.19139165 -0.08640084
0.24292628 0.0119829355 0.74443316 0.174583 0.7245766 0.67194027 -0.010148229 -0.5721669
1.1181288 -0.995216 0.18367954 0.49937513 0.19107512 -0.05209601 -0.6375147 -0.77411705
00000000: e544 163f ccbc b3be 7ba3 6b3f 67bd ab3f
00000010: 5381 44be 0d7f 4e3f 1c08 213f e205 7c3f
00000020: f7ee 65bf 67e9 80bd 1aa1 3b3e 8cb8 c43d
00000030: 167c 19be 841a bfbd b0e8 b73e a6cb 033f
00000040: 1126 d63d b98f ff3e 7331 3c3f 7f40 343f
00000050: ccf8 29bb a05d 983d 468a 01bf 149c 48be
00000060: 5d56 12bf 5b70 3bbf 6c72 80bf b612 52bf
00000070: ac74 26bf 0858 18bc b563 3bbf 7b56 a5be
00000080: 8ecb ce3e 43f4 0a3f f782 7bbf e7fe adbf
00000090: b4ae 96be c78b 8ebf 4f1d 0abf 1609 fbbe
000000a0: 1195 793f fd29 95be b208 0dbf 4071 98be
000000b0: 81a1 363f 3111 003f 2cfc 43be ecf2 b0bd
000000c0: abc1 783e 1354 443c 2c93 3e3f e3c5 323e
000000d0: da7d 393f 4704 2c3f c244 26bc 8879 12bf
000000e0: d81e 8f3f 7ac6 7ebf 7d16 3c3e 19ae ff3e
000000f0: 32a9 433e a062 55bd 2a34 23bf 892c 46bf

critic.2.weight f4 [64, 64]
-0.020274678 -0.2739927 -0.81293756 -0.27532554 0.45102513 -0.4652669 -0.5499072 -0.73112047
0.6937503 -0.06499513 0.6423064 0.36222827 0.046967264 -0.31563082 0.64670664 -0.39105332
0.47475576 -0.44168785 -0.06116492 -0.8058358 -1.0709349 1.0309781 0.4789462 0.27224258
0.43404514 0.70832455 1.03537 0.75857854 0.46353528 -0.45435542 0.38109422 -0.0334582
-0.3973323 -0.7063897 0.14238676 0.7226084 -0.162519 0.75402725 -0.35468203 0.17196484
-0.1146285 0.6979908 0.36785448 0.5238214 -0.48141676 0.27019617 -0.031672116 0.90035915
-1.49046 0.39890364 -0.50672895 0.4544832 0.22856407 -0.572593 0.538858 0.64004517
-0.16541834 0.2921681 -1.0210965 0.41043055 1.0363427 -0.123549044 -0.07847989 0.12095069
0.11762541 0.041325565 0.4079155 -0.77613354 0.3595021 -1.2203848 -1.0852197 -0.4890374
1.1992975 -1.1293592 0.3700855 -0.42143157 1.1708325 1.0760701 0.42465225 -1.1880338
0.4631814 -1.3891199 -0.4886393 0.46796837 0.36169752 0.024661224 -0.45176372 -0.38235006
0.3682048 0.72729343 1.2921053 1.7273784 -0.52250445 -0.19420317 0.8179662 0.26066235
-0.69755924 0.008847867 -0.49500242 0.91089416 0.105183475 0.4541481 -0.92895454 -0.12525058
-0.8343587 0.17307195 0.423738 -0.005275364 -0.3121601 -0.09895022 -0.36527565 -0.71974325
-0.27107453 -0.46530154 -0.4177305 -0.032976177 -0.6655398 0.13870977 -0.115909405 0.17132531
0.023663644 -0.24638906 0.047347374 0.0533422 0.08403288 0.6769159 0.8896417 0.11554642
0.28478444 0.2066439 1.2206694 -0.5429529 -0.6865235 0.2771096 -2.4196372 -0.3955254
0.44406012 -0.14768113 -0.4626654 -0.030365484 0.7735082 1.057974 0.9480455 -2.5082133
0.59709233 0.2443261 -0.57496923 0.4337815 0.39007017 -0.22785458 -1.1958207 0.20964512
0.39446047 -0.56029 0.6985563 0.86276555 -0.1294384 0.20674649 0.63023657 0.65328646
0.43509635 -0.14177987 -0.66341645 -0.3430899 0.24372071 0.18519126 -0.7266131 -1.0145372
-0.619703 -0.0033842376 -0.40166888 -0.53167236 0.37884086 -0.5530805 -0.65339565 -1.1075879
0.40637127 -0.39337105 0.04079049 0.06641007 -0.5312781 0.4473086 0.28288808 -0.1726777
0.74223256 -0.5908058 0.97268504 0.008615975 -0.46626022 0.50096625 0.05272648 0.6736473
-1.1769841 0.75471157 -1.0376647 1.0056558 0.55140346 -0.48905194 -0.048702646 1.0484822
0.21893002 -0.16701211 -0.05896251 -1.3414694 -0.49877894 -0.4478418 -1.4163289 -0.027081145
0.31691894 -0.79699665 -0.12195618 0.046427704 0.081936546 -0.6668176 0.5005379 -0.5420603
-1.5199679 -0.1420945 0.1277398 -0.044317823 -0.19365548 -0.2715947 -0.092792906 0.12311664
0.52587014 -0.37352908 -0.088372186 -0.41644672 0.3745016 -0.36681396 0.09045136 0.50252193
0.59753656 -0.9675297 -0.5786125 0.1071424 0.9623998 -0.41311753 0.77122474 0.3636361
-0.019289747 0.62910426 1.2686778 -0.9161043 0.0026393682 -0.36907607 -0.9034063 0.09239404
-1.3422328 0.0054045445 0.028905407 0.32458654 -0.2713212 0.3503787 -0.18240699 0.2733438
00000000: 1517 a6bc c548 8cbe ad1c 50bf 78f7 8cbe
00000010: c4ec e63e 7737 eebe b8c6 0cbf b62a 3bbf
00000020: 9f99 313f 2b1c 85bd 316e 243f fc75 b93e
00000030: bf60 403d 5d9a a1be 918e 253f 2438 c8be
00000040: 3013 f33e e924 e2be 1188 7abd 414b 4ebf
00000050: 6514 89bf 17f7 833f 7038 f53e 6163 8b3e
00000060: 2a3b de3e c254 353f 0187 843f 3432 423f
00000070: 7f54 ed3e 46a1 e8be c81e c33e 770b 09bd
00000080: 246f cbbe f5d5 34bf d6cd 113e ddfc 383f
00000090: 616b 26be ee07 413f e298 b5be 8d17 303e
000000a0: 59c2 eabd 86af 323f 6c57 bc3e 2919 063f
000000b0: 427c f6be 2757 8a3e 9fba 01bd f07d 663f
000000c0: 65c7 bebf 193d cc3e fdb8 01bf 06b2 e83e
000000d0: b30c 6a3e 7495 12bf 99f2 093f 00da 233f
000000e0: 6d63 29be 0f97 953e 4ab3 82bf f423 d23e
000000f0: e1a6 843f 4807 fdbd 11ba a0bd ffb4 f73d
00000100: 97e5 f03d ff44 293d 4dda d03e b0b0 46bf
00000110: a910 b83e 9235 9cbf 7be8 8abf 1c63 fabe
00000120: 9582 993f d88e 90bf d97b bd3e e1c5 d7be
00000130: d7dd 953f aabc 893f 056c d93e 7e11 98bf
00000140: 1d26 ed3e aece b1bf ee2e fabe 8d99 ef3e
00000150: 6b30 b93e 5606 ca3c 934d e7be 63c3 c3be
00000160: 5785 bc3e e72f 3a3f b563 a53f bc1a dd3f
00000170: dac2 05bf 32dd 46be 3c66 513f 8975 853e
00000180: 3e93 32bf a5f6 103c f570 fdbe 5c30 693f
00000190: 6f6a d73d 1a86 e83e f7cf 6dbf b041 00be
000001a0: 8898 55bf c639 313e 30f4 d83e f6dc acbb
000001b0: 73d3 9fbe 6aa6 cabd 6905 bbbe 1841 38bf
000001c0: 48ca 8abe 013c eebe c6e0 d5be 0712 07bd
000001d0: d160 2abf ef09 0e3e e961 edbd e76f 2f3e
000001e0: 42da c13c 6a4d 7cbe 52ef 413d 5a7d 5a3d
000001f0: 6e19 ac3d 5c4a 2d3f 8fbf 633f 9aa3 ec3d
00000200: 44cf 913e 759a 533e e53e 9c3f f6fe 0abf
00000210: 01c0 2fbf 4fe1 8d3e 56db 1ac0 4e82 cabe
00000220: d95b e33e b939 17be 7be2 ecbe 09c1 f8bc
00000230: a204 463f b16b 873f 1cb3 723f 9186 20c0
00000240: 0bdb 183f 9f30 7a3e 2f31 13bf 9c18 de3e
00000250: 47b7 c73e b652 69be a710 99bf 36ad 563e
00000260: b9f6 c93e 2a6f 0fbf 96d4 323f 34de 5c3f
00000270: 808b 04be 5ab5 533e 2f57 213f c83d 273f
00000280: f3c4 de3e be2e 11be a9d5 29bf 7ba9 afbe
00000290: ec91 793e c7a2 3d3e 5103 3abf 5bdc 81bf
000002a0: dba4 1ebf 16ca 5dbb 8ba7 cdbe ae1b 08bf
000002b0: 6ef7 c13e af96 0dbf f044 27bf 71c5 8dbf
000002c0: e50f d03e ee67 c9be ee13 273d 0102 883d
000002d0: d701 08bf a205 e53e b5d6 903e 6cd2 30be
000002e0: f402 3e3f 0d3f 17bf e301 793f 052a 0d3c
000002f0: a9b9 eebe 533f 003f b9f7 573d 2674 2c3f
00000300: 6aa7 96bf c734 413f 32d2 84bf 54b9 803f
00000310: c728 0d3f 0465 fabe 6d7c 47bd aa34 863f
00000320: 312f 603e 3905 2bbe ac82 71bd 45b5 abbf
00000330: f45f ffbe 854b e5be 444a b5bf 47d9 ddbc
00000340: 3343 a23e f907 4cbf 29c4 f9bd fa2a 3e3d
00000350: 59ce a73d 8fb4 2abf 4023 003f 77c4 0abf
00000360: 4f8e c2bf 3881 11be 39ce 023e 9b86 35bd
00000370: 9f4d 46be 760e 8bbe 350a bebd 9424 fc3d
00000380: 6d9f 063f 343f bfbe 7afc b4bd 8138 d5be
00000390: acbe bf3e 0acf bbbe 903e b93d 47a5 003f
000003a0: 28f8 183f 07b0 77bf f31f 14bf 7a6d db3d
000003b0: d55f 763f 2484 d3be fc6e 453f 832e ba3e
000003c0: 8805 9ebc fa0c 213f 0964 a23f d085 6abf
000003d0: 40f9 2c3b 8af7 bcbe a345 67bf 1639 bd3d
000003e0: 49ce abbf 9b18 b13b 08cb ec3c 3530 a63e
000003f0: 9dea 8abe d664 b33e e6c8 3abe b8f3 8b3e

critic.2.bias f4 [64]
-0.8824971 0.42608452 0.14625011 0.06678813 -0.02168963 -0.18992114 -0.14409485 0.6030841
-0.027210345 0.11755829 0.030311354 -0.1081595 0.4424189 -0.32402334 0.6421816 -0.46239498
-0.098300725 -0.7006861 -0.26874682 0.54605097 -0.36156854 0.073537216 -0.80737215 -0.75236017
-0.22475213 -0.90280396 -0.008526703 -0.55067044 1.3013791 0.7883636 0.3440641 0.10102745
0.08569529 -0.1056401 -0.8286222 0.47379166 -0.15552513 0.3289081 -0.12811595 -0.16760987
-0.42617717 0.21637401 0.462664 -0.6167256 0.09113026 -0.5372715 0.0328994 0.5185353
-0.07635754 0.28153872 -0.41797188 -0.40341973 -0.11472977 -0.36226642 0.9075282 -0.8993597
-0.79001427 -0.3972209 0.025578545 0.7227676 -0.36404788 -0.2537943 0.113891184 0.4092661
00000000: 54eb 61bf c027 da3e 97c2 153e 37c8 883d
00000010: 73ae b1bc b07a 42be 9a8d 13be b863 1a3f
00000020: 3be8 debc 67c2 f03d 844f f83c ba82 ddbd
00000030: bb84 e23e 63e6 a5be 0366 243f 09bf ecbe
00000040: e451 c9bd 2a60 33bf 2f99 89be ffc9 0b3f
00000050: 831f b9be ae9a 963d f1af 4ebf ad9a 40bf
00000060: 6c25 66be 291e 67bf 96b3 0bbc bdf8 0cbf
00000070: 9793 a63f 32d2 493f 2b29 b03e 7be7 ce3d
00000080: 0381 af3d d659 d8bd 9620 54bf d294 f23e
00000090: fb41 1fbe a466 a83e d430 03be eca1 2bbe
000000a0: e533 dabe 2691 5d3e 4ce2 ec3e bbe1 1dbf
000000b0: 80a2 ba3d a08a 09bf 85c1 063d bbbe 043f
000000c0: 5861 9cbd d825 903e 6900 d6be 088d cebe
000000d0: 71f7 eabd fc7a b9be c553 683f 703c 66bf
000000e0: 603e 4abf 8a60 cbbe 198a d13c 4c07 393f
000000f0: 7c64 babe 54f1 81be c83f e93d 548b d13e

critic.4.weight f4 [1, 64]
0.013584879 -0.19899377 0.014923092 0.25251913 -0.2242541 0.10244261 -0.2760323 0.05419209
-0.06477207 -0.24184786 0.1334677 0.15854692 -0.11884624 -0.25664145 -0.074694015 -0.12634881
0.18238194 0.08024062 0.026143583 -0.26400945 -0.06803542 -0.038804185 0.16627704 0.024738384
-0.19049107 0.17038631 0.043857116 0.2710212 0.07913695 -0.052886806 -0.050047588 0.17861377
-0.13843907 -0.2601596 0.21431148 0.2859548 -0.43046305 0.14259207 0.029202918 -0.027846597
-0.075245716 0.045438167 0.10043175 -0.16668725 0.27584934 -0.33543703 0.27262253 0.13100271
0.15305907 -0.038188364 -0.42373708 -0.12142034 0.098119915 -0.06953021 0.022564331 -0.17405099
-0.23885617 0.2040582 0.29696202 0.038381707 -0.083939806 -0.12069914 -0.007085595 0.043754287
00000000: 1d93 5e3c 06c5 4bbe fc7f 743c 304a 813e
00000010: dea2 65be 6ecd d13d 1b54 8dbe 86f8 5d3d
00000020: 38a7 84bd f7a6 77be c2ab 083e 205a 223e
00000030: a865 f3bd 8266 83be 2df9 98bd 9561 01be
00000040: 55c2 3a3e 3255 a43d 112b d63c 3f2c 87be
00000050: 2756 8bbd 23f1 1ebd 8744 2a3e 27a8 ca3c
00000060: 1710 43be c079 2e3e 85a3 333d 4ac3 8a3e
00000070: 8e12 a23d d69f 58bd b3fe 4cbd 87e6 363e
00000080: f9c2 0dbe a433 85be 7874 5b3e ab68 923e
00000090: a765 dcbe a803 123e f53a ef3c 8c1e e4bc
000000a0: 6d1a 9abd 5f1d 3a3d 29af cd3d 10b0 2abe
000000b0: 203c 8d3e 67be abbe 2e95 8b3e 9325 063e
000000c0: 84bb 1c3e 676b 1cbd 11f4 d8be 3aab f8bd
000000d0: 18f3 c83d db65 8ebd d5d8 b83c 6c3a 32be
000000e0: b696 74be a2f4 503e 680b 983e 2336 1d3d
000000f0: a2e8 abbd 1c31 f7bd 472e e8bb b237 333d
