controller/PPO_CartPole-dm_0_1500000.pth (torch, 41277 bytes, 10 tensors)

actor.0.weight f4 [64, 5]
000000 e2 43 ad 3d 2d 4a 90 bd bb 51 4a 3f 57 a6 6b bd
       0.08460213 -0.07045398 0.7903096 -0.05753168
000010 90 63 0d 3e c6 49 83 be 48 d8 85 be 0a a1 a2 bf
       0.13807511 -0.25642222 -0.26141572 -1.2705395
000020 1a 73 db bd f7 6d 9f bd a2 0f 89 bd 9f 13 7a be
       -0.10715313 -0.07784646 -0.06692435 -0.24421547
000030 04 35 b7 3e 9f c4 a9 3e 7c 81 66 3c 07 25 7b 3e
       0.35782635 0.33157822 0.014068957 0.24525844
000040 14 6e 47 3e 8c aa 30 3f 6e c7 d4 be b9 87 15 bb
       0.19475585 0.69010234 -0.41558403 -0.0022816493
000050 40 60 63 bd 75 88 97 3e 69 27 5e 3f a5 b2 58 3e
       -0.055511713 0.29596296 0.86778885 0.21161897
000060 d7 c6 11 3e b0 b9 47 bd a3 f9 9f 3e fe aa a0 3e
       0.14236008 -0.04876107 0.31245145 0.31380457
000070 cc d9 01 bf 92 36 16 3f 62 93 4e be b3 53 f7 3e
       -0.50722957 0.5867702 -0.2017341 0.48306045
000080 51 41 0c be a4 41 c3 3d 6e 97 d4 bd db fb 9f 3e
       -0.13696791 0.09534004 -0.103804454 0.31246838
000090 9e 90 e5 3e 45 b8 21 bf 7e 82 1f bd 60 34 3d bd
       0.44836897 -0.631718 -0.038942806 -0.046192527
0000a0 18 d6 33 be 7c 34 58 bd 1a d1 df be a4 c3 b5 3e
       -0.17562139 -0.052784428 -0.4371422 0.35500824
0000b0 11 ff 71 3e 81 cc fd be 48 bb c5 be 1d 53 85 3f
       0.23632456 -0.49570087 -0.38619447 1.0415989
0000c0 cd cc 21 3e 11 67 06 3d d2 63 6d be 53 a5 f4 be
       0.15800782 0.032813136 -0.2318261 -0.47782382
0000d0 91 a7 21 bf 5c c7 e1 3e 18 c7 f9 be 67 74 72 be
       -0.6314631 0.44097412 -0.4878471 -0.23677216
0000e0 05 78 bc 3d 71 93 4e bf c0 2f 78 be 96 f1 61 bd
       0.092025794 -0.8069373 -0.24236965 -0.055162035
0000f0 ad ac 19 3e 8e f5 29 bf 6b 66 a3 3e 3d 8d 98 3e
       0.15007277 -0.6639031 0.31914076 0.29795256
000100 ae d8 5c 3d d3 de f8 3e fd 39 27 be c0 7a c8 3d
       0.05391758 0.486075 -0.16330715 0.09789038
000110 9f 9c 04 3f 9f 8d c3 bb 98 90 07 bf 2d 31 04 bf
       0.51801485 -0.0059678103 -0.5295501 -0.51637536
000120 f6 eb 64 3e 4d 21 a9 be cd fc 2d be 0f 45 38 be
       0.22355637 -0.3303322 -0.16990967 -0.17995094
000130 e3 87 e9 be 1a 96 3c 3e 82 19 85 3d 98 bc 90 be
       -0.45611486 0.18416634 0.06499006 -0.28268886
000140 8d cc 15 3f a7 ee 36 3e a2 1c da 3e c6 88 e6 bd
       0.58515245 0.17864476 0.4259997 -0.11256556
000150 3c 03 f9 bc 44 18 04 bf 5b 97 36 3e 94 be 85 bf
       -0.03039705 -0.51599526 0.17831175 -1.0448785
000160 3c d3 ab be 60 13 d0 be 3b c9 79 3e 2b ee f9 3e
       -0.33559597 -0.40639782 0.2439317 0.4881452
000170 12 5b d2 bd a0 f7 09 be aa 06 fb bd e7 ff b2 bc
       -0.102712765 -0.13473368 -0.122571304 -0.02185054
000180 1c 2f d1 be aa 10 99 bf ad 74 7d bd 2d 5c 4d 3e
       -0.40856254 -1.195821 -0.06187885 0.20054694
000190 f2 52 e8 be 64 56 0d bf 6b 53 f1 3e be 98 0b 3e
       -0.45375782 -0.55209947 0.47133955 0.13632485
0001a0 ae ff e9 3d b8 d1 d7 3e 67 cd 5c 3e 14 c9 05 bf
       0.1142572 0.4215219 0.2156273 -0.52259946
0001b0 57 c6 b1 be 57 cd 00 be d9 30 d3 be 58 d5 92 bd
       -0.34721634 -0.12578331 -0.41248205 -0.07169598
0001c0 3a bb d9 be 91 bf 9f 3e 30 7d bb 3e cf ef 8b be
       -0.42525655 0.3120084 0.36618948 -0.27331397
0001d0 da 38 af be a8 83 36 3e b2 80 de be 18 c3 cd bd
       -0.34223062 0.1782366 -0.43457562 -0.10046977
0001e0 cc 39 fd be 4c 51 cb be de 9b e6 be 3e 0e 08 bf
       -0.49458158 -0.39710462 -0.45040792 -0.5314673
0001f0 6a 4a 72 be 30 23 d6 3e f6 27 d9 3e 06 58 28 bf
       -0.23661199 0.4182372 0.424133 -0.65759313
000200 c8 8a 49 3a 0d 47 0b be 2d 39 13 bf b3 16 20 be
       0.00076882215 -0.13601322 -0.5750912 -0.15633659
000210 52 f5 33 3f 12 d5 86 3d ef b6 9c be 63 3e bd bc
       0.70296204 0.06583609 -0.30608317 -0.023101037
000220 13 97 19 bf 33 28 b3 3e e8 33 7e be 66 86 54 3e
       -0.59996146 0.34991607 -0.24824488 0.20754394
000230 d6 e5 c2 be 9f 49 b9 3e be 21 37 3f 49 8e dd bd
       -0.38065976 0.3618898 0.7153586 -0.10818154
000240 12 73 a0 3b b4 eb 64 3d eb e8 05 3f f8 57 60 bf
       0.00489653 0.055888847 0.5230853 -0.8763423
000250 e9 43 3f 3e 9f d6 a5 be 32 8c f2 be a2 66 0f 3f
       0.1867825 -0.32390305 -0.47372586 0.5601598
000260 c5 94 da 3e 91 aa 49 be 23 af d3 bc 3f f9 17 be
       0.42691627 -0.19693972 -0.025840348 -0.14841174
000270 3b c2 9c 3e 0f 99 4d bf ea a6 c9 3e 21 68 2a be
       0.30616936 -0.80311674 0.39385158 -0.16641285
000280 84 d9 01 bd 33 1b af 3e 04 f8 1f 3f 12 f2 2c bd
       -0.03170158 0.3420044 0.62487817 -0.042223044
000290 f4 c0 d9 3e ae 66 7a 3c f0 f4 bc 3c 4e 61 26 3f
       0.42530024 0.01528327 0.023066014 0.64992225
0002a0 b5 02 2a 3f 31 12 42 be e1 84 db 3d f9 d6 ec be
       0.6641038 -0.18952252 0.10718704 -0.4625776
0002b0 8e 6e 64 3f 50 e8 58 3e 87 45 9d bb 69 31 b8 3d
       0.89231193 0.2118237 -0.004799548 0.08993799
0002c0 67 3b 4a 3e cb 61 b5 3d c5 1a 14 3e 9e f8 47 3f
       0.19749223 0.08856543 0.14463337 0.78113735
0002d0 53 7d 02 3f 5d ba 02 3f b9 b8 c1 be 6c 4a a8 3d
       0.5097248 0.5106562 -0.37836245 0.0821732
0002e0 b5 e3 12 be a3 bd 8a 3e b8 75 e5 be ed ff 18 be
       -0.14344676 0.27097806 -0.44816375 -0.14941378
0002f0 ff 90 ba be 79 f1 90 3e f6 4d 27 bf 07 5b 7a 3e
       -0.36438748 0.2830923 -0.65353334 0.24448787
000300 c5 90 06 bf 4c 5b e7 be ff 03 13 bf 92 5a 2e 3e
       -0.5256465 -0.4518684 -0.5742797 0.17026737
000310 5e 1a 61 be 30 d4 52 bf 27 fe f7 bd 06 85 a0 be
       -0.21982715 -0.8235502 -0.121090226 -0.3135149
000320 a1 0d 64 3e bf 6d c4 be f5 07 d1 3d b9 88 01 bb
       0.22270824 -0.3836498 0.10206596 -0.001976533
000330 a8 61 ad bd 8b 75 b7 be 97 33 e6 be 0c 11 b9 3e
       -0.08465892 -0.35831866 -0.44961235 0.36145818
000340 29 62 2e be a4 dd e5 bd ed 86 36 bd 82 cb 06 be
       -0.17029633 -0.11223915 -0.04456227 -0.1316357
000350 f6 20 12 bf 00 2f e2 be e8 aa 83 3f 2a 14 15 bc
       -0.57081544 -0.44176483 1.0286531 -0.009099046
000360 05 80 46 3e 0f 6f 8b be 86 b6 4b 3e 69 8e 57 bf
       0.19384773 -0.27233168 0.19893846 -0.84201676
000370 34 4a 2b bf 0f f9 fb 3e 1e 6a 4c 3e 1a ab bc be
       -0.669101 0.49213454 0.19962355 -0.3684929
000380 3d d0 db 3e e5 47 9e be 55 99 e8 bd 7c 02 92 bc
       0.4293231 -0.30914226 -0.11357371 -0.01782345
000390 07 ff 26 3e f6 46 85 bf a3 e6 cf 3d e8 81 38 3e
       0.16308223 -1.041228 0.10151412 0.18018305
0003a0 48 01 93 3f 1a f2 96 3d 11 1d 13 3f c8 78 11 3e
       1.1484766 0.07370396 0.57466227 0.1420623
0003b0 d7 a5 01 bf da 4b ba be 7b 2f af 3e 1b fe 85 bd
       -0.50643677 -0.36385995 0.34215912 -0.065426074
0003c0 ee 27 4d 3e 6d e2 04 be b5 f8 4e 3d ae 8f 70 be
       0.20034763 -0.12977 0.050530154 -0.2349231
0003d0 91 4c d3 bd 38 fb 14 3f c1 ce aa be f0 7b 00 3e
       -0.10317338 0.5819583 -0.33360866 0.12547278
0003e0 c9 1c 9f 3e 57 f0 18 3d b0 8e 57 be ed 38 b5 3e
       0.3107665 0.03733858 -0.21050525 0.35394993
0003f0 61 f9 03 bf e9 7a 8a 3a 1d 58 97 3e 9d 31 24 be
       -0.51552397 0.0010565195 0.29559413 -0.16034551

actor.0.bias f4 [64]
000000 26 ce eb be 7b 47 13 be fe f8 04 be 0c 21 18 bf
       -0.46055716 -0.14382736 -0.12985608 -0.59425426
000010 cf 54 11 bf 61 f8 06 3f c0 23 0e 3e 12 74 d8 3d
       -0.5677003 0.52722746 0.13880825 0.10569014
000020 c4 db ba be 41 3d 5d 3d 7e a7 a5 be b5 3c 83 3e
       -0.36495793 0.054013494 -0.3235435 0.25632253
000030 47 71 a9 bb bc a5 6b be 11 b1 29 3e 6d 3f fe be
       -0.0051709744 -0.23012441 0.16571452 -0.49657765
000040 a1 00 a4 3e d7 5a e0 bc f5 f7 39 be c3 63 2c bd
       0.3203173 -0.027387066 -0.18160994 -0.042087328
000050 01 1c 2b 3e e9 79 a4 be cb 6e 0c bf 12 8f 9f 3e
       0.16709901 -0.3212426 -0.54856557 0.3116384
000060 7f 26 d5 3e 48 c1 8b 3e 38 83 36 be 5a cd de be
       0.41630933 0.272959 -0.17823493 -0.43516046
000070 c3 32 d6 bd 2d 04 39 bc 64 1d 98 be 40 e4 56 bd
       -0.10458901 -0.0112924995 -0.29709923 -0.05246377
000080 7b 97 ad be 98 d7 1c 3d 3e 14 5c be a6 7f 3b 3f
       -0.33904633 0.038291544 -0.21492097 0.7324165
000090 4c 71 7c 3e 43 98 c5 3d 50 03 09 3f 99 99 c1 be
       0.24652594 0.09648182 0.5352068 -0.37812498
0000a0 6e 30 c6 be 63 34 3a bd e9 c5 29 be c3 85 e4 3c
       -0.38708824 -0.045460116 -0.16579403 0.027895814
0000b0 c1 21 27 be e1 3c 55 be 4a fd 87 be ab 92 72 be
       -0.1632147 -0.20824005 -0.26560432 -0.23688762
0000c0 ea a7 01 bf b4 f5 35 be de 48 cd bd 2e 77 7f 3e
       -0.5064684 -0.1776951 -0.10023664 0.24947807
0000d0 f8 5f e8 3d 78 46 cb be 0c fb eb bd f4 b2 97 3e
       0.113464296 -0.397022 -0.11522493 0.29628718
0000e0 19 9f c1 3e 28 80 23 3e 28 29 1f bf e4 95 1d 3e
       0.37816694 0.15966856 -0.62172174 0.1538921
0000f0 6f df 68 3e 99 d5 0a 3d 0a f0 92 3e c1 34 d4 be
       0.22741483 0.03389511 0.2869876 -0.41446498

actor.2.weight f4 [64, 64]
000000 d2 d7 10 be 28 a8 1f be e4 b9 38 3e d0 c5 4a 3b
       -0.14144829 -0.1559149 0.18039662 0.003094066
000010 9c a3 a7 bd 9b 7a 1d 3e 7f 0f e6 3c c9 07 1a be
       -0.08185503 0.15378802 0.028083561 -0.15042032
000020 b1 ff 71 bd 9a eb 38 3e ec 89 44 be da 65 21 3e
       -0.059081737 0.18058625 -0.19193238 0.1576151
000030 08 67 bb 3c 20 c7 bd 3b f1 90 47 3e 32 ef b5 3d
       0.022876278 0.00579156 0.19488885 0.088835135
000040 70 c3 69 3c 40 2e 3f bb 83 de e3 bd ea 9a 38 bc
       0.014267787 -0.0029171854 -0.11126425 -0.011267403
000050 da 65 62 3d 4f d8 7b 3d 85 d4 df 3d 4a ea 36 3d
       0.055272914 0.061485585 0.10929207 0.04465703
000060 76 c7 7d 3d 25 00 98 3c 52 5e 44 3d 6f 2c f1 3d
       0.0619578 0.018554756 0.047941513 0.11776053
000070 ab 7c 03 3e 61 1d 2a be a9 68 d7 3d c7 e6 13 be
       0.12840526 -0.1661277 0.10518009 -0.14443503
000080 16 59 9a bd a4 a5 11 be 7e ff 2b 3d 5b 25 90 bb
       -0.07536523 -0.14223343 0.041991703 -0.0043989844
000090 ea 0a 02 bd 2f 16 bc bd 75 21 45 be fa 65 ba bd
       -0.03174869 -0.09183919 -0.19251044 -0.09101482
0000a0 00 44 82 bd e7 cb 18 3e 7f 79 1a be 04 cf 8f 3d
       -0.06360626 0.14921533 -0.1508541 0.07021907
0000b0 55 9d b9 3d 69 62 5c 3c af e2 cd 3c c3 8b 0e be
       0.09063212 0.013451197 0.025132505 -0.13920502
0000c0 52 a6 a4 3d 8f dd b1 bd 4f 88 72 3d f2 56 ea 3b
       0.080395356 -0.08684837 0.059212025 0.007151478
0000d0 16 13 44 3e 28 53 08 be 59 62 fc bd b5 11 b8 bd
       0.19147906 -0.13312972 -0.12323446 -0.08987752
0000e0 51 e2 2d bd ef b7 36 bd ef c4 35 3e 43 e8 84 3c
       -0.04245216 -0.044609006 0.17750905 0.016224032
0000f0 d9 f1 6f 3d b3 8a 00 be 3f 4c 05 be 84 d1 6e bd
       0.058580253 -0.1255291 -0.13017367 -0.05830528
000100 80 a6 72 3d 24 e7 ca bd 81 13 87 3d e7 c8 10 be
       0.059240818 -0.09907368 0.06595517 -0.14139138
000110 89 b4 ed bd 5f 73 93 3d b0 a0 02 bd b8 e8 d3 bd
       -0.116067 0.0719974 -0.031891525 -0.10347122
000120 06 83 ce 3d 60 4d 80 3c 72 a3 81 3d 90 6d 82 bd
       0.100835845 0.015661895 0.06330003 -0.06368554
000130 4d fa 94 bc e2 aa 8c 3d 6d 39 f8 3d ca ae 26 bd
       -0.018185759 0.06868531 0.12120328 -0.040694036
000140 63 c9 2d 3e 7a ed 0d 3c 03 15 a1 3d 06 ad 50 3d
       0.16971354 0.008662576 0.07865336 0.050946258
000150 56 89 68 bd 3f fb f0 bc 31 e4 e4 bd 72 02 e0 bd
       -0.0567716 -0.029416678 -0.111763366 -0.109379664
000160 1f 18 bb bd 25 2c e9 bd 25 dd 20 3d cb 51 69 bd
       -0.0913546 -0.11385373 0.0392734 -0.05696277
000170 e6 d8 b7 bd 0d 9c 84 3d 17 83 a6 3d 2d e1 da 3d
       -0.08976917 0.06475077 0.08130472 0.1068748
000180 68 0b 98 bd a2 d9 8e 3c c4 5d bd 3b 29 dd b6 3d
       -0.074240506 0.01743776 0.005779 0.08928902
000190 f8 00 52 bd 6a 1e 8e 3d 54 3d ae bc ee de a4 3d
       -0.051270455 0.06939395 -0.021269478 0.08050333
0001a0 47 6d 87 39 6d 70 93 3d be f4 bd bd a1 57 90 3d
       0.00025830625 0.07199178 -0.092751965 0.07047964
0001b0 95 f4 0c bd fd ff 59 38 33 a4 4f 3d 2b 33 11 bd
       -0.03441294 5.197524e-05 0.050693702 -0.03544919
0001c0 3f f2 ee 3d 9f 72 6a bd d2 a1 91 3d fd 47 30 3e
       0.116672985 -0.057238217 0.07110943 0.17214961
0001d0 c0 dd 3e be 2e 66 35 bb 75 d3 d0 bd 88 78 02 3d
       -0.18639278 -0.0027679312 -0.10196582 0.03185323
0001e0 e7 f0 86 bd 14 34 a0 3d 10 6e be bd 2c 44 e5 bd
       -0.06588917 0.07822433 -0.092983365 -0.111946434
0001f0 e8 ba c9 3c 15 18 5c 3d aa 61 7f 3c 4a df 7f bb
       0.024625257 0.053733904 0.01558725 -0.0039043003
000200 fe 65 cb 3d 27 53 ad bc d0 09 44 be bf a6 8c 3e
       0.09931563 -0.021157814 -0.19144368 0.27470967
000210 6a 48 d2 3d 4c b9 4f be f1 d3 08 3e a0 09 df 3d
       0.10267718 -0.20285529 0.13362099 0.10890508
000220 74 e3 21 be b6 5a 42 be 3e 0c 29 bd ca 04 6c bb
       -0.15809423 -0.18979916 -0.04127144 -0.0036013597
000230 0c 65 46 be 94 c0 1b 3e e4 62 8e bc 96 59 ca 3d
       -0.19374484 0.15210181 -0.01738114 0.098803684
000240 47 14 e4 bd a7 03 54 3e 57 fb 03 3f 19 65 99 be
       -0.1113668 0.20704518 0.5155539 -0.29959944
000250 30 eb 68 be e4 dd a2 3e 70 ff ec bd c1 4e 58 3d
       -0.22745967 0.31809914 -0.11572158 0.05280948
000260 c7 fe 4c 3d 7c 57 08 bd f7 f6 7b 3e 42 da 16 3e
       0.050047662 -0.033286557 0.24605928 0.14731696
000270 56 20 18 3e 84 f0 0f 3e 6d 42 70 3e 35 15 39 bd
       0.14856085 0.14056593 0.2346284 -0.04518624
000280 be 92 ac bc 04 56 72 3d e0 57 2d be af ab 9d be
       -0.021066066 0.059164062 -0.16928053 -0.30795047
000290 b3 f9 6b 3e b3 c0 9a be f1 8a 4e 3e 8f e5 a6 3d
       0.23044471 -0.30225143 0.2017019 0.081492536
0002a0 e7 60 d2 3d 2a f7 a8 bc eb 39 a5 be 4a 0d 2c 3e
       0.10272389 -0.02062567 -0.3227075 0.16801944
0002b0 39 d4 fe 3d f8 d9 96 3e 2a ff 11 bd 3d bc f1 3d
       0.12442822 0.29463172 -0.035643734 0.11803482
0002c0 df 75 9e 3e 92 6e 10 be 39 cd 10 be 37 b4 9e be
       0.30949304 -0.14104679 -0.14140786 -0.30996868
0002d0 1a 33 08 3e b0 af cb bd e5 9e e5 be 54 29 45 3e
       0.13300744 -0.09945619 -0.4484779 0.19254047
0002e0 0a ef c1 bd 83 82 82 3b 50 d6 a3 3e 3f 69 09 3c
       -0.09469421 0.0039828434 0.31999445 0.008386909
0002f0 b2 c9 71 3e 80 24 a9 3e 8a fa de ba 57 30 4f 3e
       0.23612097 0.3303566 -0.0017011922 0.20233284
000300 66 31 01 bd 88 c3 97 bd 5c 1a a4 be 72 17 ec 3d
       -0.03154125 -0.074103415 -0.3205136 0.11527909
000310 de f6 2b be 25 07 d8 bc b6 84 5d 3e 9b 7c 9f 3e
       -0.16793391 -0.026370594 0.21632656 0.31149754
000320 53 76 2a be 54 9b 88 be 35 e6 60 bd b3 0e a5 3e
       -0.166467 -0.26681006 -0.054907043 0.32237777
000330 19 a5 15 bf 6b 2d 4b be b9 83 00 bd 9b 6a 89 bd
       -0.58455044 -0.19841544 -0.03137562 -0.067097865
000340 dc 58 92 3b c8 41 9a 3e b6 05 63 3e 12 de 1b be
       0.0044661593 0.30128312 0.22170147 -0.15221432
000350 f4 05 c2 be 5c 8e b5 bc b6 9d c7 bd 4b 8f af bd
       -0.37895167 -0.022162609 -0.09746878 -0.08572253
000360 f4 e2 94 3c 03 75 ea 3e d8 b3 40 bd d1 84 78 be
       0.018174626 0.45792398 -0.047046512 -0.24269415
000370 df a1 20 3e fd 13 73 3e 06 5d bb 3d 1d 2a 7c 3e
       0.15686749 0.23738094 0.09148602 0.2462544
000380 71 b6 1b be c0 de 45 3c f0 29 a4 be 65 c9 30 3e
       -0.15206315 0.0120770335 -0.32063246 0.17264326
000390 be 4a 22 3e d0 8e 34 be b3 c9 da 3e dc 2d 2a bd
       0.15848824 -0.17632604 0.4273201 -0.04154764
0003a0 99 8e a7 be e9 f2 88 bd 7b ee fa bd 55 c5 72 3d
       -0.3272598 -0.066869564 -0.12252518 0.05927022
0003b0 7c 16 a1 be 86 21 a6 3d 91 bc 9e be 6a 4e ba be
       -0.31462467 0.08111863 -0.3100324 -0.3638795
0003c0 4f 30 84 bd 61 e8 81 be 02 ca f2 bd 7b 86 19 3e
       -0.06454527 -0.25372604 -0.11854936 0.14992706
0003d0 bd 50 bf 3e 7f f4 81 3c 0f cb d2 bd ae 9d b9 3d
       0.37366286 0.015863655 -0.102926366 0.09063278
0003e0 23 57 ac 3d 43 07 21 be 79 f2 40 bd 7e fb ad 3d
       0.084150575 -0.15725426 -0.04710624 0.08495234
0003f0 5f f7 83 3e 00 50 84 3e 9e 97 a4 bd cc ac 66 bd
       0.25774667 0.25842285 -0.08036731 -0.056317136

actor.2.bias f4 [64]
000000 45 c2 fc bb 3b a0 bb bd 9e 66 a4 be 03 64 9b 3e
       -0.0077135884 -0.09161421 -0.3210954 0.3034974
000010 1b 38 70 ba c7 50 1b bc 9f 50 9a 3d 64 e5 94 3b
       -0.0009163634 -0.009479708 0.075349085 0.004543947
000020 95 b4 f4 3d 92 f1 75 be 7f 06 15 3c 0b 83 95 bc
       0.11948506 -0.24017933 0.009095787 -0.018250963
000030 6f fa 95 3c 40 2f 73 3d 73 43 3d bd c1 eb 65 3d
       0.018307893 0.059371233 -0.046206903 0.056133036
000040 65 1f e1 bd 1b c0 ea bd 0f 8e c5 bd 50 c8 0b 3c
       -0.10992316 -0.114624225 -0.09646236 0.008531645
000050 7b 77 c6 bd c2 f4 a6 3c c5 15 c2 bd 59 a2 1c 3d
       -0.09690758 0.020380381 -0.094768085 0.038240764
000060 bc 38 91 3d e5 f8 99 3d 63 9d 13 be fe 96 5d bc
       0.07090899 0.07518176 -0.14415507 -0.013524769
000070 96 a9 34 3e 33 b4 f0 3c 3c 88 58 bd cf 4d b0 3d
       0.17642817 0.0293828 -0.0528643 0.08608591
000080 e4 87 fd b9 25 96 bb 3d 76 fe e3 bc 4f 3e 8e bd
       -0.00048357167 0.09159497 -0.027831297 -0.06945478
000090 36 01 cd bd 8c 3b aa 3d dd 16 bb bd bc 01 36 3d
       -0.100099966 0.08312139 -0.0913522 0.044435248
0000a0 0b 1b 08 bd 73 b7 79 bd bf 63 82 bd d6 20 9e bd
       -0.033228915 -0.060965966 -0.06366681 -0.07721107
0000b0 12 04 4e 3d a2 07 03 3e 10 9b 04 bc ed 68 b6 bd
       0.05029685 0.1279588 -0.00809361 -0.08906732
0000c0 59 03 ae 3d be 42 1a bb 91 ea 5d bd 9a 5e 18 3e
       0.08496732 -0.0023538317 -0.054178778 0.14879838
0000d0 01 13 a2 bc c2 3c b3 3c 9b ac 8f 3d 6f 74 89 bd
       -0.019784452 0.021879558 0.07015344 -0.06711661
0000e0 af 4a b6 bc 7f 82 9b bd af 71 c5 be 99 04 5e 3d
       -0.022252409 -0.075932495 -0.38563296 0.054203603
0000f0 19 82 dd 3b d9 51 06 be 2b 82 43 3d 3b dd a9 bd
       0.0067598936 -0.1311716 0.04773156 -0.082941495

actor.4.weight f4 [1, 64]
000000 94 e6 1a 3e bd bc 48 3d 89 71 8b 3e d5 3b 7c be
       0.15127021 0.04900812 0.27235058 -0.24632199
000010 a3 76 5a 3e 69 74 3a 3e e1 27 d5 3d 51 ed 17 3e
       0.21334319 0.1820847 0.10407997 0.14836623
000020 03 a8 00 be 11 06 64 3e d2 7a 09 3e 94 14 3e 3e
       -0.12564091 0.22267939 0.13425758 0.18562537
000030 92 47 2c 3e 89 b3 51 3d 7e 41 b5 be 64 a5 0a be
       0.16824177 0.05119661 -0.3540153 -0.13539654
000040 56 07 59 3e d1 92 33 3d 7b c6 92 3e 76 d6 d6 bd
       0.21194205 0.043841187 0.28667054 -0.10490124
000050 e8 81 91 3e e6 ec 17 3e 52 21 c5 3d e1 a5 dd be
       0.28419423 0.14836463 0.09625496 -0.43290618
000060 04 8e f4 be 23 f7 32 be 00 8a 05 3e cc e9 eb bd
       -0.477646 -0.17477088 0.13040924 -0.115192026
000070 8e 73 f1 bd 5f 4a 05 be 36 5e f5 3d 98 84 3b be
       -0.117896184 -0.13016652 0.1198086 -0.18312299
000080 07 0a 4b 3d 01 4d 68 3d c3 13 bd 3c f1 4d 95 be
       0.04957011 0.05671406 0.023080712 -0.29161027
000090 57 76 1a be 01 15 85 bc 92 37 55 be d8 ba 1b be
       -0.15084206 -0.016245367 -0.2082198 -0.15207994
0000a0 74 47 1f be dd ab d5 ba aa 20 28 be 8b 48 d0 be
       -0.15554601 -0.001630183 -0.1641871 -0.40680346
0000b0 52 6f 8f 3d 16 b8 40 be 32 b5 55 3d 5f 18 32 3e
       0.070036545 -0.18820223 0.052174754 0.1739211
0000c0 c2 7a 0c be ee 0a 10 3e 9d b9 ec bd 25 f4 52 3e
       -0.13718703 0.1406667 -0.115588404 0.20600946
0000d0 80 71 52 be 89 50 1b 3e de e7 9a be c4 cd ca bd
       -0.2055111 0.1516744 -0.30255026 -0.09902528
0000e0 f3 23 3d 3e 22 5a 4a be e9 e0 42 be 11 aa 1f be
       0.18470745 -0.19760945 -0.19031109 -0.15592219
0000f0 47 58 02 3e 25 f9 ac 3e 73 7a dc bd a7 f8 1b 3e
       0.12728988 0.33783832 -0.10765543 0.15231572

critic.0.weight f4 [64, 5]
000000 a7 6a 67 3e 4c a4 97 bf ca 01 92 3f f5 13 18 3f
       0.22599278 -1.1847014 1.1406796 0.5940545
000010 a3 66 3b bf b6 31 13 3f 1a 74 03 3f 39 b2 d6 bf
       -0.73203486 0.5749773 0.5134903 -1.6773139
000020 99 5d 70 be f0 3c 99 3f 91 43 ba bd dd 8e cb be
       -0.23473205 1.1971722 -0.090949185 -0.39757434
000030 6f 74 21 bf cb a1 eb 3f f1 51 d6 3f 6b 12 8f 3d
       -0.6306829 1.840875 1.6743757 0.06985935
000040 c5 13 c9 bf 27 ed b9 bf 09 fc 86 bd 39 63 fc be
       -1.5709158 -1.4525498 -0.06591041 -0.4929445
000050 b2 82 1a be 61 09 5b 3e 31 0e 48 be d5 1b 99 bf
       -0.15088919 0.21390297 -0.19536664 -1.1961619
000060 44 cf fc bf 2c 41 10 c0 eb 87 48 bf 08 47 82 3e
       -1.9750752 -2.2539778 -0.78332394 0.25444818
000070 2b 18 61 3f a4 61 5c 3e 32 f7 dc bf 7a e4 10 bf
       0.879275 0.21521622 -1.7262938 -0.5659863
000080 d0 71 27 40 2c d3 7a bf 85 bc 34 bf 98 09 89 bf
       2.6163216 -0.9797847 -0.7060016 -1.0706053
000090 c5 82 9f 3c fa 2c de bf df f1 0f bf 7b 44 b3 3c
       0.019471535 -1.7357476 -0.5622844 0.02188324
0000a0 25 a4 dd 3f 2e b4 86 3f 33 8e 9d 3f 08 c3 01 bf
       1.7315718 1.0523736 1.2309021 -0.5068822
0000b0 d1 f0 82 bd c4 a2 b9 bf c8 38 d9 3d 75 be c4 bf
       -0.06393588 -1.4502797 0.10606533 -1.5370623
0000c0 ae be 91 3f e7 aa ae 3f a6 03 ba 3f 1d 9e 32 bf
       1.1386316 1.3645905 1.4532363 -0.6977251
0000d0 37 c5 92 3f 41 ef 54 bf c2 c1 bb be 17 69 32 bd
       1.1466435 -0.8317757 -0.36671263 -0.043557253
0000e0 9f b9 e6 be 53 9d 1a 40 9e 8b 04 3f a0 02 1e 3f
       -0.45063493 2.4158523 0.5177554 0.61722755
0000f0 76 28 ff 3f 7d e1 a8 3e b1 57 20 c0 ae fd 84 3f
       1.9934223 0.32984534 -2.5053523 1.0389917
000100 5f c8 a2 bd 78 63 37 3f 54 25 63 3e 26 2b eb bf
       -0.07948374 0.7163615 0.22182208 -1.8372543
000110 57 c8 de 3f 2b af f5 3f 25 b2 05 3f 56 63 84 bf
       1.7404889 1.9194082 0.5222495 -1.0342815
000120 38 08 05 3e d2 4c af bd ca 20 53 3e ee 88 0e c0
       0.12991416 -0.08559574 0.20617977 -2.2271075
000130 72 6d c3 be f1 45 a5 3f 5a f0 98 bf 61 95 1a bf
       -0.38169438 1.291197 -1.194835 -0.60384184
000140 89 68 07 3f 32 93 18 3f ff 04 bb 3f b6 c8 93 3f
       0.52893883 0.595996 1.46109 1.1545627
000150 f8 e1 29 3e e3 8f 25 c0 f1 0f bd be 7a 41 03 3e
       0.16590106 -2.5869071 -0.36926225 0.12817946
000160 45 e7 aa 3f f9 6a b3 3e e3 16 82 be 8b 75 8f bf
       1.3351828 0.3504255 -0.25408086 -1.1207746
000170 3c ae 83 bb e0 17 5c bf 52 0b 50 bf 59 80 a7 3e
       -0.004018573 -0.8597393 -0.81267273 0.3271511
000180 d2 a8 fe bc 5c 66 48 3f 39 bf e0 be 4e cd a2 be
       -0.03108636 0.7828119 -0.4389589 -0.3179726
000190 4b 81 39 be 0c ea 35 3e df 35 68 c0 a8 b4 c9 3f
       -0.18115728 0.17765063 -3.628288 1.5758257
0001a0 72 77 bf 3f 47 54 19 3f ad 2f 04 bf 25 14 2b 40
       1.4958327 0.5989422 -0.5163525 2.6731045
0001b0 0f ec 45 bf 1a 70 0a bf c6 a2 c0 bd b6 80 0e 3f
       -0.7731332 -0.54077303 -0.094060466 0.5566515
0001c0 98 6c 80 40 7f 65 b0 bf a9 be b5 bf 55 a1 2d 3f
       4.013256 -1.3780974 -1.419881 0.678243
0001d0 d1 af 68 bf 77 39 04 3e cd b1 b0 bd b1 e0 f7 be
       -0.90893275 0.12912546 -0.08627663 -0.48413613
0001e0 d0 18 8e 3f 3b 45 f0 be 8f 86 18 40 e2 01 00 3f
       1.1101322 -0.4692782 2.3832128 0.5000287
0001f0 ab 04 3f bd 96 db 35 3e 0a 3f 57 3f 02 b5 50 40
       -0.04663531 0.17759547 0.84080565 3.2610478
000200 7d 86 56 bf a5 43 be bf b9 62 e8 3f 63 75 84 3f
       -0.8379896 -1.4864393 1.8155128 1.0348324
000210 3f 4c b6 3f fc 3c 2a be ed d4 7c be 01 bb f6 3f
       1.4242018 -0.16624826 -0.246906 1.9275819
000220 48 7a 70 3f f4 7b b2 3f 92 07 80 be ca 42 14 bd
       0.93936586 1.3944077 -0.25005776 -0.036196508
000230 1c 6e 75 bf 6e 09 04 be b3 34 1f 3d f2 8d c6 be
       -0.9587114 -0.12894222 0.038868617 -0.3878017
000240 be 7e c9 3a f8 57 66 bf 9f ce 74 3f 29 ea 66 bf
       0.0015372855 -0.8997798 0.9562778 -0.9020105
000250 25 89 23 3f 41 5c a8 3e fd 1c e1 3f 31 a1 43 3f
       0.6388114 0.32882884 1.7586972 0.76417834
000260 f8 b9 18 3e d5 13 59 be 5f 30 8e be 69 68 ca 3e
       0.14914691 -0.21198972 -0.2777128 0.39532784
000270 13 5f 67 3f ae 7d 08 3f bd f5 57 3f d7 07 48 3f
       0.90379447 0.5331677 0.8435934 0.7813696
000280 ad 5f 58 be fc 4d ce be f7 5f 40 c0 4d 89 e6 3e
       -0.21130247 -0.40293872 -3.0058572 0.45026627
000290 22 c5 9b 3e 07 bf 56 bf 14 ef f9 bd 71 58 9d bf
       0.30423838 -0.83885235 -0.12203804 -1.2292615
0002a0 19 42 49 3e 0d 17 c7 3c 04 36 98 bf 6d b8 9f 3e
       0.1965412 0.024302984 -1.1891484 0.31195393
0002b0 6a 70 35 be 60 d4 f7 be bb b4 d4 bb 32 6a 5b 3f
       -0.17718664 -0.48404217 -0.0064912713 0.85708916
0002c0 62 b6 6e 3f 1c 72 01 40 f7 05 d2 be f8 68 87 3d
       0.93247044 2.0225897 -0.41020176 0.06611818
0002d0 09 f4 86 3f 9c 07 73 3e a5 2e d7 bf 1c 3d c2 3e
       1.0543224 0.23733371 -1.681111 0.37937248
0002e0 44 ae 03 3f 67 f6 a3 3f 57 f0 26 bf 0a 7a df 3e
       0.51437783 1.2809571 -0.6521048 0.43647796
0002f0 7f be 0b 3e b1 10 65 be 28 1d c9 bf ed 38 38 3f
       0.13646887 -0.22369649 -1.5712023 0.7196186
000300 fa 74 86 bf 6a b8 00 bf 00 d3 cb be 64 bf 85 3e
       -1.0504448 -0.50281394 -0.39809418 0.26122582
000310 3b b7 72 3e fd 99 38 3f 7b c0 b4 bf d5 e1 b9 bf
       0.2370271 0.7210997 -1.412124 -1.4522043
000320 f1 1f fc bd 76 c1 a0 bf 09 e0 60 bf 0c 55 7f be
       -0.1231078 -1.255904 -0.8784185 -0.24934787
000330 ba 75 ce be 4a c9 4d bf 13 73 1a 3e fc a5 0e 40
       -0.40324193 -0.8038527 0.1508296 2.228881
000340 cf 55 77 bd bd 38 0c 3f 6b 43 bd be 42 69 23 3f
       -0.060384568 0.54774076 -0.36965498 0.63832486
000350 31 e0 01 40 5d b3 6d bf be 1e 84 3e b2 cc 84 3e
       2.0293086 -0.9285181 0.25804704 0.2593742
000360 e0 72 22 be 01 16 2a 3f e9 30 ff bf 98 aa c1 3d
       -0.15864134 0.66439825 -1.9936801 0.09456366
000370 75 a4 ff 3e 3d bc 47 bf 97 26 ff bf 5f d2 74 bd
       0.49930158 -0.78021604 -1.9933652 -0.059770938
000380 77 ca 48 bf 09 a6 05 3e 8c 7f 8f bf 89 89 f5 3d
       -0.78433937 0.13051619 -1.1210799 0.119891234
000390 57 72 c9 be c1 87 1c bd 6e 0d e8 bf bb a3 b2 3c
       -0.39345047 -0.038215403 -1.8129098 0.021806588
0003a0 c9 1f e4 3e da 2b 28 bf 89 b1 ba be c2 33 cc bf
       0.445555 -0.6569191 -0.36463574 -1.5953295
0003b0 f8 0a 31 3d 24 21 0b c0 e3 5c b0 bf 1e 0d 21 3e
       0.04322335 -2.1738977 -1.3778347 0.1572766
0003c0 04 f3 8f bf ca fb 97 bd 22 82 52 c0 ab bb 55 3f
       -1.1246037 -0.07421072 -3.2891927 0.83489484
0003d0 be c7 66 3f ab 21 47 bf ee 9e b3 be 2b c5 9b bf
       0.9014853 -0.7778575 -0.3508219 -1.2169546
0003e0 3a 64 22 bf 35 79 f0 be 1c 78 86 bf 49 ee e4 3e
       -0.63434184 -0.46967474 -1.0505404 0.44713047
0003f0 94 ce fc bf 04 d1 19 bf 67 60 1b be e8 6d 56 3f
       -1.9750543 -0.6008456 -0.15173493 0.83761454

critic.0.bias f4 [64]
000000 25 3f dd 3e 65 c6 7d bd 20 27 1e 3f 8a b5 8e 3f
       0.43212238 -0.061956782 0.6177845 1.1149151
000010 40 7c b4 bd 78 69 0e 3f f5 14 0b 3f 42 33 32 3f
       -0.08812761 0.5562968 0.5432885 0.69609463
000020 29 87 52 bf fe 89 21 be ca 9d 0c bc 8a e7 17 be
       -0.8223749 -0.15775296 -0.008582542 -0.14834419
000030 8c 90 9d be fc 71 61 be 94 ad 26 3f ac bc fa 3e
       -0.30774343 -0.22016138 0.6510861 0.4897207
000040 c2 61 54 3d 62 37 9f 3e 57 d6 f9 3e 00 e1 7e 3f
       0.05185104 0.3109694 0.4879634 0.9956207
000050 6c e2 98 bc 91 bd c7 bd 7d 60 ab be 16 fb 66 bd
       -0.018662654 -0.09752954 -0.33472052 -0.056391798
000060 87 83 57 be 07 38 33 bf 00 b7 4f bf c3 9c 32 bf
       -0.21046267 -0.70007366 -0.8113861 -0.6977045
000070 5e d2 2d bf f3 c7 b4 3e 4a 56 1e bf 05 a6 ec bd
       -0.6789912 0.353088 -0.61850417 -0.11555103
000080 6d c6 ba 3e d7 dc 45 3f a8 32 69 bf 7b 68 69 bf
       0.36479512 0.772901 -0.9109292 -0.9117505
000090 b8 e4 cc bd df ff f5 be 86 e5 37 bf 2e 38 ee be
       -0.10004562 -0.48046777 -0.718346 -0.46527237
0000a0 92 b2 3f 3f 70 49 3c be 62 8d e9 be 56 4f 82 be
       0.7488185 -0.18387389 -0.4561568 -0.25451154
0000b0 44 55 fc 3e ef d2 08 3f d0 d4 07 be 65 14 d5 be
       0.49283803 0.5344686 -0.13264775 -0.41617122
0000c0 18 20 2a 3e f8 c0 3e be eb 50 f4 3e 31 4c 1c 3e
       0.16613805 -0.18628299 0.47717986 0.1526344
0000d0 18 83 0b 3f c3 2a 49 3f 62 8d 4f bd fb c9 22 bf
       0.5449691 0.78580874 -0.050671943 -0.6358945
0000e0 c8 29 5c 3f b0 e4 23 bf 6d 34 4c bd 99 bc 48 3e
       0.86001253 -0.64020824 -0.049854685 0.19603194
0000f0 db ff 8a 3e 15 7d b3 3e c0 7e d2 be 3a 0f 31 bf
       0.27148327 0.35056368 -0.41112328 -0.6916386

critic.2.weight f4 [64, 64]
000000 42 68 be be e9 00 1c be 5e 24 ae bf 51 5e c8 be
       -0.37188917 -0.15234722 -1.3604848 -0.39134458
000010 31 37 6e 3f 70 42 0f bf 80 8f 9c be 7d 46 50 be
       0.93052965 -0.5596075 -0.30578232 -0.20339389
000020 a5 a5 de 3e b2 aa e1 be 60 c4 8f 3e 54 21 73 be
       0.43485752 -0.44075543 0.2807951 -0.23743182
000030 16 b2 ce be 70 5d 52 bf c3 3e a9 3c 29 25 84 b9
       -0.40370244 -0.82173824 0.02065981 -0.00025204688
000040 be 1d b9 3e 45 ff f1 be bb 45 af bd 72 2d f8 be
       0.36155504 -0.47265068 -0.08558222 -0.48472172
000050 9e 42 c2 bf e5 68 5c 3e 03 e1 7c 3f fb f4 5f bc
       -1.517658 0.21524389 0.9878084 -0.013669248
000060 5c a7 45 3e 94 7a 8e 3f f6 98 4b 3f f0 f9 63 3f
       0.19302124 1.1131158 0.79530275 0.8905325
000070 48 41 82 3c e4 61 25 3e 9f 3e 64 3d 34 6d eb 3d
       0.01590027 0.16150624 0.055723783 0.11495438
000080 01 b3 79 be ec 1a 80 be ba ea e4 bd f4 a0 3b 3f
       -0.24384691 -0.2502054 -0.11177583 0.7329247
000090 63 b7 fa be e8 c4 43 3e 00 ad 3a 3c de 92 33 3f
       -0.48968038 0.19118083 0.0113937855 0.70145977
0000a0 3e 11 10 be f6 58 ce 3e 75 5d 0c 3f 5b 8d 39 3f
       -0.14069077 0.40302247 0.54830104 0.72481316
0000b0 6f 61 a6 be 3e ba 30 be d1 c6 67 3e 64 a9 ed 3e
       -0.3249621 -0.17258546 0.22634436 0.46418297
0000c0 f8 63 b7 bf de dd 7c 3e 0b 41 64 3c 36 aa b3 3d
       -1.4327383 0.2469401 0.013931523 0.087726995
0000d0 0e 0e 87 bd 0f a3 82 bd d8 6a e4 3c f2 f3 2d 3e
       -0.065944776 -0.06378757 0.027882978 0.16987589
0000e0 e2 a1 57 bf cb 46 1b 3f 64 ee 52 bf 85 b1 96 3d
       -0.8423139 0.60654896 -0.82395005 0.07358078
0000f0 06 2c b7 3f 77 db e8 3e 3f 22 9b 3e 1e f7 04 3e
       1.431031 0.45479938 0.30299565 0.12984893
000100 b6 06 bf 3e 1b 33 a7 3e 69 9d 7d be df bf 18 bd
       0.37309808 0.32656178 -0.24767078 -0.037292358
000110 70 a3 64 3e 5d 45 9d bf 1a e4 90 bf fe 7a 05 bf
       0.22327971 -1.2286793 -1.1319611 -0.52140796
000120 30 03 34 3f 9b 09 8f bf 5d 5f 0e 3f 04 45 bc be
       0.70317364 -1.1174806 0.5561426 -0.36771405
000130 ed e1 a6 3f 12 2c 1e 3f 1b 25 f9 3e 26 4d 8f bf
       1.3037697 0.61785996 0.48661122 -1.1195419
000140 e8 aa 07 be c2 aa e1 bf 73 ea 1a be d7 ae 13 3e
       -0.1324879 -1.7630236 -0.15128498 0.14422165
000150 6b 7c f4 bc 3f ae 02 be 18 f7 b0 be 70 47 d1 bd
       -0.029844483 -0.12761782 -0.34563518 -0.10218704
000160 25 b2 de 3e 28 c2 64 3e cd d9 40 3f 4c 01 65 3f
       0.43495288 0.2233969 0.7533234 0.89455104
000170 fa 48 09 bf b7 25 91 be 4a b1 02 3f 49 9c 6b bd
       -0.5362698 -0.28349087 0.5105177 -0.057522092
000180 7f 8e 01 3c 1d d4 8b 3e 13 3f 13 bf 99 11 53 3f
       0.007907509 0.27310267 -0.5751812 0.82448727
000190 1e ad 02 3f a9 84 ea 3e 02 35 92 bf 9d c2 e9 3e
       0.51045406 0.45804337 -1.1422427 0.4565629
0001a0 c2 83 70 be b7 25 84 be 18 eb 43 bd ba 4b 55 3e
       -0.23487762 -0.25810024 -0.047831625 0.20829669
0001b0 17 c5 d1 3d 3d 5e 0b be af ab 05 bf b6 d0 0b bf
       0.1024267 -0.13610168 -0.52215093 -0.5461534
0001c0 1b 09 60 be b1 cb 1b bd f9 16 f1 be a8 09 86 3e
       -0.21878473 -0.038036052 -0.4708784 0.26179242
0001d0 45 2b f3 be 16 30 f9 be 1e 4b 61 bd b3 9a 84 bc
       -0.4749395 -0.486695 -0.055003278 -0.016187048
0001e0 4c 42 3c 3e 3f f7 04 3d 27 4b 7b 3e 3d 2c 0a 3d
       0.18384665 0.032462355 0.24540387 0.033733595
0001f0 c5 09 3c 3d 2f 9c 0a 3f 27 70 fa 3e 04 e9 ca 3e
       0.045907754 0.5414457 0.4891369 0.39630902
000200 99 6d 12 3f 98 48 39 3e 51 0c 46 3f a6 91 33 be
       0.5719848 0.18094099 0.77362543 -0.17536029
000210 19 5c a5 be 87 4c 2c 3e 6f 41 04 c0 7a 42 29 bf
       -0.32296827 0.16826068 -2.0664937 -0.6611706
000220 19 8e 98 3e 06 0a 8d be f1 76 7c be 98 08 24 3e
       0.29795912 -0.2754671 -0.24654748 0.16018903
000230 c2 e3 f7 3e 7f 2e 1a 3f b8 1b 8f 3f 36 e1 1a c0
       0.48415953 0.602272 1.1180334 -2.4199958
000240 2b 59 cd 3e a9 db 82 3d 23 76 d6 be 94 59 60 3e
       0.40107092 0.06389553 -0.41887006 0.21909171
000250 1d 14 8d 3c 29 40 b8 bc c3 05 6d bf 0a d7 f4 3e
       0.017221505 -0.022491531 -0.92586917 0.47820312
000260 c5 bd 24 3f ea 03 d9 be 5b d2 22 3f 0b 8b 37 3f
       0.64352065 -0.423858 0.63602227 0.7169654
000270 f6 2e 97 b9 58 59 60 bd 3e 07 c4 3e b5 be db 3e
       -0.00028835953 -0.054772705 0.38286775 0.42918935
000280 ae 45 2a 3f 81 8a 4c be 2f 14 0b bf 4c ed 31 bd
       0.6651257 -0.1997471 -0.5432767 -0.043439195
000290 6c bc 24 3e 0c 5b e3 3e b0 d0 7c bf e7 f7 21 bf
       0.16087502 0.444054 -0.9875593 -0.63268894
0002a0 1c ab 9f be f1 56 9c 3e 9f 83 2f bd 04 33 ff be
       -0.31185234 0.3053508 -0.042850133 -0.4984361
0002b0 bf 8d 7f bc b0 79 af be 1f 4b ce be 67 d6 af bf
       -0.01559776 -0.34272528 -0.40291688 -1.3737305
0002c0 52 25 b8 3d 5e bc 86 be 44 65 64 be 91 ab ae 3e
       0.08991493 -0.26315588 -0.22304255 0.3411527
0002d0 2b 05 b0 be 47 d3 96 3e 13 f6 e2 3e 79 36 94 bd
       -0.34378943 0.29458067 0.44328365 -0.07236952
0002e0 75 c5 18 3f 83 46 db be 51 dd 16 3f ea ca 93 3e
       0.59676296 -0.42827234 0.5893145 0.2886575
0002f0 15 25 78 be 54 c7 ae 3e 8c 1a d3 bd e7 29 75 3f
       -0.24232896 0.3413645 -0.10307798 0.9576706
000300 09 e1 6b bf 98 78 b2 3e 8c 92 56 bf ea 1b fe 3a
       -0.9214025 0.3485763 -0.8381736 0.0019386981
000310 8b 4e 2a 3f 9e 4a b4 bd 67 11 a3 3e 93 5a 83 3f
       0.665261 -0.088032946 0.31849214 1.0262016
000320 00 c1 92 be 40 ab 64 be 4f d9 62 bd 36 c3 e6 be
       -0.28662872 -0.22330952 -0.055383023 -0.4507081
000330 25 2c 95 bf 1f a5 13 bf 91 ad 65 bf c6 d1 07 3f
       -1.1654097 -0.5767383 -0.89717966 0.53054464
000340 d3 b3 4f 3e 94 a5 ab be de 88 65 bd 98 bb 8c 3e
       0.20283441 -0.33524764 -0.05603873 0.27486873
000350 59 92 87 be d7 f7 af be 38 67 21 3f 5c 2b d8 be
       -0.26478842 -0.34368774 0.63048124 -0.4222058
000360 20 21 9b bf 29 22 a6 3d 17 94 61 be f6 36 f3 be
       -1.2119484 0.08111984 -0.22029148 -0.4750287
000370 57 3a 9d be d9 0b b0 be 44 a3 11 bf 26 52 2e 3e
       -0.30708572 -0.3438404 -0.5688975 0.17023525
000380 c5 17 c1 3e ce d0 00 be 27 43 b7 bd 4c db b4 be
       0.37713447 -0.12579653 -0.08948355 -0.3532356
000390 8a 6b 75 3d 7f 78 8c be 6f c4 01 be 95 7e dc 3e
       0.05991701 -0.2743568 -0.1267259 0.43065324
0003a0 9e d5 ef bc cb 8b 37 be 92 12 a6 3e 4c e7 d1 3e
       -0.029276665 -0.1792442 0.32436043 0.40996778
0003b0 57 b7 66 3e 42 5a 56 be 80 29 73 3f cc 11 bd 3e
       0.22530876 -0.20932868 0.949852 0.3692764
0003c0 f1 ee c3 bd 52 79 f9 3e e6 e4 88 3f cd c3 12 bf
       -0.09567059 0.48725373 1.0694854 -0.5733002
0003d0 0d 5d c5 3e 32 18 c3 3d d7 b7 2c bf f0 84 62 be
       0.38547555 0.09526099 -0.6746802 -0.22121024
0003e0 cf 89 94 bf 48 09 0a be 4a e3 bd be c3 8f a2 3e
       -1.1604556 -0.13480103 -0.3708747 0.31750306
0003f0 29 5e 02 3e 0d ad 77 3b 06 dd 47 bc 65 a5 ec be
       0.12731232 0.0037792355 -0.012198692 -0.46219936

critic.2.bias f4 [64]
000000 98 25 02 bf fb 47 c4 3e b6 5a d6 bd f8 44 de bb
       -0.50838614 0.38336167 -0.104665205 -0.006783124
000010 f3 61 ff bd f9 68 6c be 77 87 9c 3e 67 86 46 3e
       -0.12469854 -0.23086919 0.305721 0.19387208
000020 f5 29 9c 3c a5 4a aa bd e7 38 22 3e 70 62 b3 bd
       0.019062975 -0.083150186 0.15842019 -0.0875901
000030 59 06 1a 3f 80 ff ed bc 63 15 65 bc b0 bd 4a 3e
       0.60165936 -0.029052496 -0.01398215 0.19798923
000040 76 ed f9 3c 9d ca d4 be 59 f4 1e bd b4 f2 4f 3f
       0.030508738 -0.41560832 -0.038807247 0.8122971
000050 bc 12 b4 3d 26 1f 1b 3c f0 ff 3e be 8c 72 e4 be
       0.08792636 0.009467876 -0.1865232 -0.44618642
000060 f1 72 30 3e 27 d3 32 bf a8 db 0c be 19 ec f2 be
       0.17231347 -0.6985344 -0.13755667 -0.47445753
000070 c3 94 f0 3e 0c 30 88 3f 53 b1 0d 3f fb e7 a9 bd
       0.46988496 1.0639663 0.553487 -0.082962
000080 16 33 6e be 29 be dd 3b cd ef 21 bf 7a 24 03 3f
       -0.23261675 0.0067670536 -0.6325653 0.51227534
000090 cc 30 5e be b8 d1 80 3c 81 26 00 be a6 32 e3 3e
       -0.21698302 0.015725002 -0.12514688 0.4437458
0000a0 2e e4 94 be a1 26 e3 3d 57 d4 6e 3e ff 19 39 3c
       -0.29080337 0.11091352 0.23323189 0.011297702
0000b0 b6 2f 96 be 63 ed 11 bf 06 cb 26 bf 09 12 d4 3e
       -0.29333276 -0.5700285 -0.6515354 0.4142001
0000c0 55 c5 86 be 79 c6 a6 3d f9 54 08 bf c7 20 ee 3b
       -0.26322427 0.081433244 -0.5325466 0.007267091
0000d0 2f 94 c6 3d eb 89 19 bf 42 ba 66 3f d0 8c 29 bf
       0.096962325 -0.5997607 0.90127957 -0.6623049
0000e0 1c 60 80 be 47 9b 11 bf 3b 08 16 bf 15 e2 f7 3e
       -0.25073326 -0.5687756 -0.5860631 0.48414674
0000f0 6f de 87 be 3f 84 ff bd e1 8b bf 3e 01 2c 71 3d
       -0.2653689 -0.12476396 0.37411407 0.058879856

critic.4.weight f4 [1, 64]
000000 e7 ee 13 be f2 9b 9b be 6a 25 00 be 72 15 65 3d
       -0.14446603 -0.30392414 -0.12514272 0.055928655
000010 43 51 83 be fb 95 cb 3d 3c 24 9c be 5f bb c4 bd
       -0.25647935 0.09940716 -0.30496395 -0.09606051
000020 e7 ef 23 be 99 2e ab bd ce 1d 3f 3e e9 34 a4 3d
       -0.16009484 -0.08358497 0.18663713 0.08017904
000030 96 f7 f9 bd ed c2 a9 be e3 b9 3b 3c 63 df 85 be
       -0.122054264 -0.3315653 0.011457893 -0.26146993
000040 36 e4 42 bc 80 c4 7d 3e 86 c4 55 bd d0 75 11 bf
       -0.01189523 0.2478199 -0.052189372 -0.5682039
000050 81 70 96 be 15 a9 09 bd 3f 2a 70 bd 7f 91 62 3c
       -0.2938271 -0.033608515 -0.05863404 0.013828634
000060 af 00 66 be 7d 71 49 3e fd 3a 74 3e d4 e3 03 3e
       -0.22461198 0.19672199 0.23850627 0.12879878
000070 0f d0 db bb 05 c6 c7 bd 94 92 61 be aa fe 29 3e
       -0.006708152 -0.09754566 -0.22028571 0.16601053
000080 db 18 37 be f5 aa 91 be 2b 05 91 3e 10 55 d3 3e
       -0.17880575 -0.28450742 0.28324255 0.41275835
000090 00 64 ca bd ad bc 55 3e b9 02 02 3e ae f7 1e be
       -0.09882355 0.20872755 0.12696351 -0.1552417
0000a0 0d c2 27 be c3 5d d5 bd 3e bb 3e 3e 5b 40 00 be
       -0.16382618 -0.10418274 0.18626115 -0.1252455
0000b0 03 77 68 3e 80 2e eb 3d 92 bd 9d 3e 87 78 5d 3e
       0.2270165 0.114834785 0.30808693 0.21628009
0000c0 98 81 3f 3e 04 1c 8c 3d fd 96 75 3e 25 ee e0 bd
       0.1870178 0.06841281 0.23983379 -0.109829225
0000d0 ed 5f 97 3e 11 d5 94 3d 99 d3 2d 3e 6d f8 87 be
       0.29565373 0.07267202 0.1697525 -0.2655672
0000e0 c0 3d 32 bd 64 9c 1c 3e 4d f2 4d 3e 30 18 2d 3e
       -0.04351592 0.15294033 0.20111962 0.16903758
0000f0 eb 06 65 3e ac 4a 15 be 5b 9c 5b be c8 34 53 3c
       0.2236592 -0.14579266 -0.21446364 0.012891002
