controller/PPO_CartPole-dm_0_40000.pth (torch, 41249 bytes, 10 tensors)

actor.0.weight f4 [64, 5]
000000 91 75 86 3d ec f7 a6 be 30 b7 ab be 70 1e 34 3e
       0.06565393 -0.32611024 -0.33538198 0.17589736
000010 49 d9 4c bc 8a 5f c1 3d 8e 00 10 3d 10 21 17 bd
       -0.012502977 0.09442051 0.03515678 -0.036896765
000020 c8 73 00 3d 60 fd 1f bd 52 01 9c 3d 9e 71 11 3f
       0.031360418 -0.039059997 0.07617439 0.5681399
000030 41 b2 0e 3e 65 d1 97 3d 75 69 82 3e cc 7f c5 be
       0.13935186 0.07412986 0.25471082 -0.38574064
000040 e4 b6 ac be 7c 58 fc 3e 1f d3 20 3e c7 50 6d bd
       -0.33733284 0.49286258 0.15705536 -0.057938363
000050 98 a4 0b 3e 0f 78 11 bf ba 26 c1 be 37 8b 94 3e
       0.13637006 -0.5682382 -0.3772486 0.29012462
000060 19 92 8d be 20 63 97 3d 25 2e f7 3e 77 08 d1 3e
       -0.27650526 0.073919535 0.48277393 0.4082677
000070 5f 65 ad 3d 4e 16 35 3e 50 b3 96 3e a6 fd a4 bc
       0.084666006 0.1768429 0.2943368 -0.02014048
000080 88 76 cf be 47 9c 2f be 48 9e 97 3e 43 75 d6 be
       -0.4052012 -0.17149459 0.29612947 -0.4188634
000090 d0 49 cc 3c a9 d4 a6 3d 01 1d ab 3e 9f a6 75 be
       0.02493754 0.081460305 0.33420566 -0.23989342
0000a0 37 3f 30 bb dd 3e b6 3e d3 fd ca 3e d4 8c e9 3e
       -0.0026893148 0.35594836 0.39646778 0.45615256
0000b0 fd ad d0 be 05 c9 ee 3d bd 04 91 3d 6c a6 06 be
       -0.40757743 0.11659435 0.07080982 -0.13149422
0000c0 b2 89 38 be 0a 2b bf bd 00 6d ae be 8f 0a a8 be
       -0.18021277 -0.09334381 -0.34067535 -0.32820556
0000d0 4e 8f 89 3b d8 85 45 be 0a 10 3b 3c 91 45 c7 be
       0.0041979915 -0.19289339 0.011417398 -0.38920262
0000e0 11 e1 84 3e 9c 3b ad bb 24 d1 e4 3e 92 cd ed be
       0.25952962 -0.005286647 0.44690812 -0.464459
0000f0 8b 97 50 be 87 22 ae be 6d d4 cf bd eb e7 bd be
       -0.20370309 -0.34010717 -0.10147939 -0.37091002
000100 c7 c3 c1 bd 5e 6d b0 bb 1f 3b b1 3e 00 2d 23 3e
       -0.0946117 -0.0053841313 0.34615418 0.15935135
000110 37 fa 8c 3e c1 8c a2 be 24 e0 49 be 8b 23 12 3e
       0.2753465 -0.31748012 -0.19714409 0.14271371
000120 ac 9b 54 be 5a 75 0b 3d 80 00 05 bf d1 0b 60 3e
       -0.20762509 0.034047462 -0.5195389 0.21879508
000130 91 7e a6 be e7 06 c5 3d cb f9 1a be 38 7a c4 bd
       -0.32518438 0.09620457 -0.15134351 -0.09593624
000140 87 07 92 be 1f 68 81 be 58 a6 7d bc 64 41 a2 be
       -0.28521368 -0.2527475 -0.015481554 -0.31690514
000150 56 b6 43 3e 62 d1 b4 3e 9d 52 fd be ff 92 be be
       0.19112524 0.35315996 -0.4947709 -0.37221524
000160 3c 12 bd 3e 8e 85 68 be 48 13 b5 be b9 9e 05 bf
       0.36927974 -0.22707197 -0.35366273 -0.52195317
000170 71 05 73 3e d2 6d d5 be 7b 63 bf 3e 62 6b b4 3d
       0.23732544 -0.4168535 0.37380585 0.08809544
000180 6e b9 aa bd 22 10 36 3c d5 5a aa be d2 ef 04 3e
       -0.08336149 0.011112245 -0.33272424 0.12982109
000190 57 aa 68 3e b2 28 0e 3e ad 59 d2 3e e2 ea 43 bc
       0.2272123 0.13882712 0.41084042 -0.011957856
0001a0 01 b0 3e be 8a 82 8a 3c 68 da 09 3f 53 5e ef 3e
       -0.18621828 0.016907949 0.53848886 0.4675165
0001b0 e3 c1 f2 3d 6b 68 70 bd 96 d8 54 be be d1 78 be
       0.11853387 -0.05869333 -0.20785746 -0.2429876
0001c0 d9 8a 93 3d e2 f6 97 3d da 06 bd bc 58 cc 67 be
       0.072042175 0.07420136 -0.023074556 -0.22636545
0001d0 67 e8 46 bd 51 a7 ba 3e 93 a9 6b be 88 cf d4 be
       -0.04856148 0.36455777 -0.23013906 -0.41564584
0001e0 fd 5d 33 bd 2c 52 08 be 59 2a 42 3e d1 fa 66 be
       -0.043790806 -0.13312596 0.18961467 -0.22556616
0001f0 47 d5 f4 3e c1 4c 0b be d7 c3 6d bd 5c 88 f3 3e
       0.47818968 -0.13603498 -0.058048096 0.4756497
000200 71 d2 a8 be 3e 83 1e be 67 f1 a7 3d ac 68 b9 3b
       -0.32973054 -0.15479752 0.08200341 0.00565823
000210 40 a7 ff be 7f 87 a0 3d 1a c0 51 be 27 c3 d9 3c
       -0.4993229 0.07838344 -0.20483437 0.026582314
000220 34 91 c9 3e 65 9e ca 3e 73 f8 a3 be 66 d8 2b 3e
       0.39368594 0.3957397 -0.3202549 0.16781768
000230 23 1b b2 be 5b 93 cb 3e d1 9a 28 bc 58 ad bf 3e
       -0.3478633 0.3976086 -0.010290817 0.37436938
000240 a6 8a 68 3e 94 12 e1 3e 15 cd 3f 3d 7a 97 3f be
       0.2270914 0.43959486 0.04682644 -0.18710127
000250 13 46 b7 be 5d 18 6b bd 9f b8 54 be 96 c8 52 3d
       -0.3579565 -0.05739628 -0.20773552 0.051460825
000260 63 b4 b6 3e c6 1f 2b 3e 11 dd dd be 75 e7 9b 3e
       0.356845 0.1671134 -0.43332723 0.30450025
000270 6b 50 82 be 24 5e 0f 3f 04 1a 9f 3d 8e 6e 63 be
       -0.2545198 0.5600302 0.07768634 -0.22210142
000280 bb b1 a2 be 24 1d 93 be e2 4a 8a be 59 96 c2 be
       -0.31776223 -0.2873317 -0.27010256 -0.3800533
000290 24 95 28 3e 86 53 0e be 7b 90 a9 be 51 54 fd 3e
       0.16463143 -0.13899049 -0.33118042 0.4947839
0002a0 c0 9f d1 be 5c 7d e9 3e 7f 08 00 3c da 67 2e bd
       -0.40942192 0.45603454 0.007814526 -0.04257951
0002b0 82 d4 83 3e a5 c9 8d be 4a 95 d4 3e 8c 47 cc 3e
       0.25748068 -0.27692905 0.4152015 0.39898336
0002c0 5a 9c 06 bf 8a ab 88 3e 82 47 26 bd 51 4a 70 bd
       -0.52582324 0.26693374 -0.04059554 -0.058664624
0002d0 8e 74 5b bd 37 b3 94 be 6f 1d 50 3c bc ba cf be
       -0.053577952 -0.2904298 0.01270233 -0.40572155
0002e0 67 47 b7 be d6 2a 67 be 1e 13 c2 be b3 12 c7 be
       -0.35796663 -0.22574934 -0.3790521 -0.38881454
0002f0 12 93 07 3f 2e 8e 0c be 4a 7c ba 3e 63 90 1c 3d
       0.52958786 -0.13726112 0.3642295 0.038223635
000300 b4 b5 02 bf 91 90 9b be 6b 91 d5 be db aa 83 3d
       -0.51058507 -0.30383733 -0.41712508 0.064290725
000310 80 74 5a 3e d8 fa ce bd c6 86 95 be 26 4f 8e be
       0.21333504 -0.101064384 -0.29204386 -0.2779476
000320 79 33 32 3e 04 d9 fc be 2b e7 9f be 7e 18 be be
       0.17402448 -0.4938432 -0.31231055 -0.3712806
000330 e8 2c 46 be fb 7b 44 3e 20 90 cc 3e f4 88 da bd
       -0.19353068 0.1918792 0.3995371 -0.10670653
000340 c1 66 98 3d 36 34 23 3e f1 50 42 3c fa e3 e5 bd
       0.07441474 0.15937886 0.011860118 -0.11225124
000350 25 d1 ad be 42 9e 6d 3e c6 d3 85 be c6 ea 64 be
       -0.33948627 0.23204902 -0.26138133 -0.22355184
000360 dc 89 a1 3e 06 60 2d be fb f0 c4 bd 17 a6 b5 3e
       0.3155049 -0.16931161 -0.09616276 0.3547828
000370 f4 f3 cd be e3 68 c3 3e 5a 8c c1 be 1b 3f 96 bc
       -0.40225184 0.3816596 -0.37802392 -0.018340638
000380 20 6b d7 be cc 09 96 be 0c 30 4d be 57 32 5e bd
       -0.42073917 -0.2930435 -0.2003786 -0.054247227
000390 01 53 86 3e 68 f0 dc bd 10 8b 1c bd 52 8c b7 3e
       0.26235202 -0.10788041 -0.038218558 0.35849243
0003a0 d2 05 8e bd 36 6c f2 3e 85 6e 66 be 2c 49 ca 3e
       -0.06934704 0.47348183 -0.22503097 0.3950895
0003b0 74 40 bd 3e 83 f4 ba 3e 4f 94 8a bd 9b 07 9a be
       0.36963236 0.36514673 -0.06766569 -0.30083928
0003c0 a6 74 53 3d 15 6b 9b be 0f c2 bc 3c b3 99 8d be
       0.051624916 -0.30355135 0.023041753 -0.27656326
0003d0 fc 9b bf 3e cf ed a1 3e 5a f7 dc be 39 67 c9 3c
       0.37423694 0.31626746 -0.43157464 0.024585353
0003e0 28 57 74 3d db 83 ed bd f6 65 ea 3e 71 55 a0 bd
       0.05965343 -0.11597415 0.45780915 -0.07828797
0003f0 1b 45 b7 be 80 fd ba be 5b 81 46 be d9 10 a9 bd
       -0.3579491 -0.3652153 -0.19385283 -0.082551666

actor.0.bias f4 [64]
000000 56 df a0 be bd c1 d0 3c 04 93 94 be 9b e1 96 be
       -0.31420392 0.025483007 -0.29018414 -0.29468998
000010 9e b8 96 be e9 66 87 bd fa a0 ea 3e 8d 97 10 bb
       -0.29437727 -0.066114254 0.4582594 -0.0022062988
000020 88 01 d1 be 24 4f cb 3c 57 0f ba 3d 07 72 c7 be
       -0.4082148 0.02481801 0.09084957 -0.38954183
000030 af d9 8c 3e 12 a0 54 be 55 d1 90 bd 78 7f d3 be
       0.2750983 -0.20764187 -0.07071177 -0.41308188
000040 fb 87 4e 3e b6 44 8b be 5f c6 7a 3e 02 d7 1d 3d
       0.2016906 -0.2720086 0.24489735 0.038535126
000050 17 f4 bd 3b 81 63 58 be 37 b4 87 bc 44 2f 7b bd
       0.00579692 -0.21131708 -0.016565425 -0.061324373
000060 f4 5c 52 3e d8 73 00 bf 4a 3e 41 3c 81 ba 8d 3e
       0.20543271 -0.50176764 0.011794636 0.27681354
000070 63 a1 a8 bb 21 d4 ab bd 92 74 d1 3e e8 7c aa be
       -0.005146192 -0.0839007 0.4090925 -0.3329842
000080 e2 29 af be 03 90 45 3e ba e0 16 bd 22 0c 6f 3b
       -0.34211642 0.19293217 -0.03683541 0.0036475738
000090 c0 3b b4 be f8 f2 a9 be 1c 45 7b bd 3a 86 bf 3e
       -0.35201836 -0.33193183 -0.061345205 0.37407094
0000a0 92 2e 5f bd 0a 3f db be d4 f5 54 3e a9 3a 4d 3e
       -0.054487772 -0.42821532 0.20796901 0.20041908
0000b0 86 33 a8 be b4 f3 c0 3e 2d a5 81 3c c5 de bf 3e
       -0.3285181 0.3768593 0.015825832 0.37474647
0000c0 b0 82 a1 3e 3b 92 d5 be 06 3f 19 3e f5 78 ac 3c
       0.3154502 -0.41713127 0.14965448 0.02105377
0000d0 d8 cf d0 be 0b 36 99 bd 51 8d a2 be d4 d0 eb be
       -0.40783572 -0.07481011 -0.3174844 -0.4605776
0000e0 02 de da be 66 63 6d 3d 27 5b c3 3e 27 07 04 3e
       -0.42747504 0.05795612 0.3815548 0.12893353
0000f0 ba 80 9f be 50 66 23 3e c7 6e a4 be 9d 54 38 3e
       -0.31152898 0.15956998 -0.32115766 0.18001027

actor.2.weight f4 [64, 64]
000000 b8 53 03 be a2 01 2f 3d 78 b6 db bd 2c 69 9f 3d
       -0.12824905 0.042726167 -0.107281625 0.07783732
000010 e7 55 93 bd 5c 6f d4 bd 1f 79 a2 bd 04 17 b3 3d
       -0.07194119 -0.103728026 -0.07933258 0.08744624
000020 fd bb a5 3c 0a 2d 38 bd a8 7a 5f bc 43 c1 17 bd
       0.020231241 -0.044964828 -0.013640083 -0.037049543
000030 6c 22 f9 bc 69 ed 8b bd bf 0e b5 bd 0d 33 8e bd
       -0.030411921 -0.06832392 -0.08840703 -0.06943331
000040 6e f9 2e bd d5 67 ec bc 46 6b e3 3c 70 2f cc 3d
       -0.042718343 -0.028858105 0.027761113 0.099699855
000050 fc 5b a6 3c 3f 2e 2d 3c 8a 08 c7 3d 4c 33 c9 bd
       0.020307533 0.010570108 0.097184256 -0.09824237
000060 2d 62 dc 3d e3 2c c9 ba 3d 42 94 bd fa 50 84 3d
       0.10760913 -0.001534846 -0.072391964 0.064607576
000070 0e 8c 08 be 02 ab 0a be a6 6e a9 3d 72 e8 85 3d
       -0.13334677 -0.13541797 0.08273058 0.06538476
000080 a2 65 fa 3d 2f 29 ee 3d 9f 1c ed bc 5d e7 8c 3d
       0.12226416 0.11628949 -0.028944312 0.068800665
000090 13 64 98 3b 36 ec dd 3d 22 37 ad bd 8b c8 90 bd
       0.0046506017 0.10836069 -0.084577814 -0.070695005
0000a0 30 63 f1 3b f1 0a 01 be fb 32 9a 3d 6b bb 54 3d
       0.0073665604 -0.1260183 0.07529255 0.05193655
0000b0 5e 0d 68 bd 40 13 cb bd 35 56 90 bd 65 6c e5 bd
       -0.056653373 -0.09915781 -0.07047693 -0.11202315
0000c0 9d d8 b0 3c 57 3d ec 3b 66 ee 8c bd 9c 09 8b bd
       0.021587664 0.0072094607 -0.068814084 -0.06788942
0000d0 24 5a ba bd 37 ad c2 3c a0 b5 99 3c 2a af 8d 3d
       -0.09099224 0.023764236 0.018763363 0.069181755
0000e0 a9 9e a2 bd e4 b6 da 3d 8f c4 6c 3d d1 ba ad bc
       -0.07940418 0.10679415 0.05780464 -0.021207245
0000f0 f1 de 3f 3d ac dc b3 3d cb 45 e6 bd 39 cd 97 bd
       0.046843473 0.08782324 -0.11243781 -0.0741219
000100 e4 35 dc bd c3 12 e3 bd 4f 7a e8 bd df c7 f6 bd
       -0.10752466 -0.11087563 -0.113514535 -0.12049841
000110 e6 cf bb 3d 03 39 fe 3c 4f 5a 06 bd cd 43 51 bd
       0.09170513 0.031033045 -0.03280097 -0.05109005
000120 26 37 21 3d 56 69 28 bd 50 14 e0 bd 71 3c 0d 3d
       0.039359234 -0.04111608 -0.10941374 0.03448147
000130 4a 08 d3 bd 7f a0 b0 3d 0c e7 7e bd 99 37 0d be
       -0.103043154 0.08624362 -0.062232062 -0.1379074
000140 3a da b4 3d 51 b2 e5 bd b8 d4 ba bb 25 18 32 bb
       0.08830686 -0.11215652 -0.0057016276 -0.0027175036
000150 10 e1 c7 bd 4e 94 e6 3d 56 43 80 ba 8e 18 03 be
       -0.09759724 0.112587556 -0.0009785693 -0.12802336
000160 66 bd 84 3c cb d9 92 bd 59 28 1b 3d 2e 87 09 bd
       0.016203593 -0.07170447 0.037880275 -0.033576183
000170 0e e6 56 3c 5e 00 1e be 05 ff 43 bd 01 4e ad bd
       0.013116373 -0.15429828 -0.047850627 -0.08462144
000180 df c9 a6 3d 1a 86 ab 3d 86 ee ab 3d d8 67 2d 3d
       0.081439726 0.08375187 0.08395104 0.04233536
000190 24 ec 5b 3d 26 59 f9 bd df 82 89 bd e7 fe bf 3d
       0.053691998 -0.12175207 -0.06714415 0.09374791
0001a0 5a 6b 1e 3c e5 9e c4 3d 8e 2a ce 3d 48 e8 b4 3d
       0.009669149 0.09600619 0.100667104 0.08833367
0001b0 03 38 d9 3d 52 fc 1b 3e 21 a8 18 3d 7b 5e aa 3d
       0.106063865 0.15232971 0.037269715 0.08318802
0001c0 81 51 bd bd 57 b4 a2 3d aa b4 2a 3d 43 12 6a 3d
       -0.09244061 0.07944553 0.0416762 0.057146322
0001d0 ad a7 84 bd 9d 65 bb 3c 0f f7 b0 bd 72 2a cd bc
       -0.06477294 0.022875601 -0.08640873 -0.025044654
0001e0 c8 da c5 bd 0f 9f 03 3c 3b 04 13 be 45 3d aa 3d
       -0.0966087 0.008033528 -0.14357083 0.083124675
0001f0 45 e6 17 3d 79 c6 de bd 00 de bd 3d 6d 52 43 bb
       0.037084837 -0.108776994 0.09270859 -0.0029803768
000200 8b b7 c3 3d fe 86 ed 3c af ac 07 be e3 16 a7 3d
       0.095564924 0.028995033 -0.13249467 0.08158662
000210 97 ab c3 3d cc 99 83 bd 57 ac 04 3e a5 7b e6 bd
       0.095542125 -0.06425819 0.12956367 -0.11254052
000220 33 d5 4f 3d 3e 5c 9b bc 95 33 a5 bd 46 6d 68 b9
       0.050740432 -0.018964883 -0.08066479 -0.00022165952
000230 78 3d 0a be d6 7f 2d bd 5e 1e ca bd 74 01 b9 bd
       -0.13500011 -0.042358242 -0.09869073 -0.0903348
000240 31 89 4d 3d 73 b5 1b 3d bc 81 ba 3d 9d 6e a8 3d
       0.050179664 0.03801484 0.09106776 0.08224223
000250 50 04 9b 3d a0 c4 35 3e 58 61 a7 bd a8 33 93 3d
       0.07569182 0.17750788 -0.08172864 0.07187587
000260 60 ea a9 3d f7 b5 b2 3d 7c 00 c8 3c 80 3b 90 bb
       0.082966566 0.08726113 0.024414293 -0.004401624
000270 0f da df bd b9 d8 03 be 01 9d f6 3d e7 08 1f 3d
       -0.10930263 -0.12875642 0.12041665 0.03882685
000280 e0 3e 81 3d 1a b1 bc 3d a8 95 d3 3d 5e 4b 38 bd
       0.063108206 0.09213467 0.10331279 -0.04499375
000290 15 f9 2f 3d cd 15 a1 3d e9 cb 83 3d e3 a3 63 3d
       0.042962153 0.07865486 0.06435377 0.055576216
0002a0 ce 93 a1 bd b5 f9 c1 bd ee 9a d1 3d c6 df 78 bd
       -0.0788952 -0.09471456 0.102346286 -0.060760282
0002b0 74 bc de bd 0d 21 a1 3d dc c7 cb 3d 01 b2 3f bd
       -0.10875788 0.07867632 0.099502295 -0.046800617
0002c0 1f c9 09 3e cd 0e 8f bc 61 07 32 3c b2 16 d2 3d
       0.13455628 -0.017463112 0.010866017 0.10258235
0002d0 54 30 45 3d 34 a4 7d bd c0 12 a2 bd 0a 46 2f 3b
       0.048141792 -0.061924174 -0.079137325 0.0026744627
0002e0 2f 47 60 bd 61 7e 8e bd d6 fe 80 3d 11 2c 23 3d
       -0.054755386 -0.069576986 0.06298606 0.039836947
0002f0 59 b6 12 bd be ee ef 3d 4b fd 8f bb b2 72 a1 3d
       -0.03581843 0.11715458 -0.0043942085 0.078832045
000300 6d d8 0c be 62 0d b1 3d 49 52 0c 3e 8a 21 c0 3d
       -0.13754435 0.08645131 0.13703264 0.09381397
000310 76 bc 12 be 73 cd f6 bc b2 ad 17 3d c4 c2 b7 bc
       -0.14329705 -0.030127263 0.037030883 -0.022431739
000320 e6 1b b1 bd 0c 00 a5 3c 9d 82 0d be 7a f2 d3 bd
       -0.08647899 0.020141624 -0.13819356 -0.10348983
000330 e8 45 ea bc 1b 7e 8d 3d 81 6e 18 bc 7b 76 dc 3c
       -0.028597787 0.06908818 -0.00930369 0.026911965
000340 01 ef e0 bd 02 bd 0f be d3 3c 1b bd eb 1f ac 3d
       -0.109830864 -0.14036945 -0.037899803 0.08404525
000350 ac 2e 5e bd b2 3f 78 3d 9d c7 7c 3d 0d 04 22 3d
       -0.05424373 0.06060762 0.061713804 0.039554644
000360 6b 6a 92 3d 10 80 18 3d 3f 05 d8 3c c5 98 92 3d
       0.07149204 0.037231505 0.026369689 0.07158045
000370 c5 4b 0c 3e 72 1f 1e 3d 59 b8 73 3d 00 46 58 bd
       0.13700779 0.038604207 0.05950198 -0.052801132
000380 9d aa 98 bc 57 37 be 3d 5c 0d c9 3d 73 1c fd bd
       -0.018636042 0.09287899 0.09817001 -0.12358942
000390 de d3 d2 bd ec 7c 13 be 39 0d e2 bd d3 8f 7b 3d
       -0.10294317 -0.14403123 -0.11037678 0.06141646
0003a0 90 01 24 be f9 21 8a 3d 58 e3 a0 3b d6 2c c0 3c
       -0.16016221 0.06744761 0.004909914 0.02345888
0003b0 75 b8 8a 3d 38 ac 5c 3c 9d 22 00 3e 36 b1 3f 3d
       0.06773464 0.0134687945 0.12513204 0.04679986
0003c0 12 93 dd bc b3 fc e4 bb d8 1b 78 bd 52 3a 5a 3c
       -0.027047668 -0.006988132 -0.06057343 0.013319569
0003d0 99 b3 b2 3d 0e ed 6e 3d e9 4f ff 3d f7 8e ab 3c
       0.08725662 0.05833154 0.124664135 0.020942194
0003e0 14 f3 1c 3d a2 bb f1 3d b2 0e 41 bd b9 4e 7d bd
       0.038317755 0.11803366 -0.047133155 -0.061842654
0003f0 01 9e 95 bd 9b e8 3f 3d 98 9f b6 bc c2 16 dc 3d
       -0.073055275 0.04685269 -0.022292897 0.10746528

actor.2.bias f4 [64]
000000 f9 da 0c be f6 24 84 3d 4f 3e 53 bd 03 40 be bd
       -0.13755406 0.06452362 -0.051573094 -0.09289553
000010 fb e8 8b bc ee 40 8b 3d 03 e1 a0 bd 05 b4 46 bd
       -0.017078867 0.06799494 -0.078554176 -0.048511524
000020 53 9c 29 3c 8c 57 c6 3c 82 97 b8 3d 47 ed e6 3b
       0.010352212 0.024211667 0.09013273 0.0070473286
000030 3b af 91 bd f8 70 93 3d 9f b5 e1 bd 2b 88 fb bd
       -0.07113501 0.071992815 -0.110209696 -0.12281831
000040 dc 1c 06 3c b1 ea c3 bd 30 67 ba bd d7 a3 8d 3d
       0.008185592 -0.09566248 -0.09101713 0.069160156
000050 ee 14 ea bd 34 d7 dc bc ff f4 a8 3d ba 2c 50 bd
       -0.11429773 -0.026958086 0.08249854 -0.050823905
000060 76 33 5a bd 9d cc e5 bd ab fa 02 be 73 2f fe bd
       -0.053271733 -0.112206675 -0.12790935 -0.12411394
000070 8f 2a d0 3c 69 08 05 3e 7d 78 df bd 57 1f d1 3c
       0.025410919 0.1299149 -0.10911653 0.02552764
000080 cb 80 09 bc 49 2d 76 bd 46 71 0e 3d 1c 8c ca 3d
       -0.008392523 -0.06010178 0.034775995 0.09890005
000090 09 e7 a8 bd e6 93 e5 3d f6 0e 7b 3d 3e 83 cf 3d
       -0.082471915 0.1120985 0.061293565 0.10132454
0000a0 ad b9 9a 3d d6 1b 13 bd f9 ca a6 3d e3 8b 38 3c
       0.07554946 -0.03591522 0.08144183 0.01126382
0000b0 1a 68 4d 3d c5 6f f0 bc b3 b3 2a bd 54 5d a5 3d
       0.050148107 -0.02935017 -0.04167528 0.080744416
0000c0 3e d9 f2 bd cc 27 e6 bc 33 81 ec 3c f1 6b cf bc
       -0.11857842 -0.028095149 0.0288702 -0.025320025
0000d0 f6 92 87 3b 24 61 93 3d 54 28 65 bd be 5e df bd
       0.004137392 0.071962625 -0.055946663 -0.109067425
0000e0 df de dc 3d 68 27 18 3d f0 96 42 3d 89 2e 8a bd
       0.10784697 0.037146956 0.047507226 -0.06747157
0000f0 83 ed bb 3d e0 be a9 bd cd d5 73 bd 38 db 47 3d
       0.09176161 -0.0828836 -0.05953007 0.048793048

actor.4.weight f4 [1, 64]
000000 42 14 d5 3d 9b 94 61 3d 4b 36 d6 3d 03 af 79 bd
       0.104042545 0.05507336 0.10459574 -0.06095792
000010 a6 98 26 bd bd 69 e2 bc bc aa df 3d 80 02 82 bd
       -0.04067292 -0.02763831 0.10921237 -0.06348133
000020 c8 22 b7 bd cb 07 c6 bc 6d 43 d8 3d 01 c0 ea b9
       -0.08942181 -0.024173638 0.105597354 -0.00044775012
000030 1b 59 c9 3d 3b 2c eb bc 5c 3a 46 bc f7 d7 2a bd
       0.09831449 -0.028707614 -0.012098875 -0.041709866
000040 02 f9 ee bc 03 f8 43 bd 51 56 d0 bc ea b5 07 bd
       -0.02917147 -0.047843944 -0.025431784 -0.03313247
000050 32 31 cb bc 74 1d df 3d 87 33 13 be 54 2e 66 3d
       -0.024803732 0.108942896 -0.14375125 0.056196526
000060 67 b0 06 3e bb ec 0a 3e b8 c4 97 3d 0a a0 eb 3d
       0.1315323 0.13566868 0.07410568 0.115051344
000070 27 b7 7d 3d 35 45 38 3d a6 2b 8b bd 38 09 18 ba
       0.061942246 0.044987876 -0.06795435 -0.00057997135
000080 86 eb c7 bd cb a1 0f be 41 e7 a9 3d 2a 73 c8 3d
       -0.097617194 -0.14026563 0.08296061 0.09787591
000090 23 75 8d 3d c4 06 04 3e e1 e7 4e 3d c7 ae 84 3d
       0.06907108 0.12893206 0.050514106 0.06478649
0000a0 5f e1 59 3d 8a 62 88 bd e6 97 7f bd 7f d0 ba 3d
       0.053193446 -0.0665942 -0.06240072 0.09121799
0000b0 39 c5 f7 bd 6a 07 cb bd 4a 68 9c 3d 68 9d 81 bd
       -0.12098164 -0.099135235 0.07637079 -0.06328851
0000c0 d0 dc 18 bd 6a 40 54 bd 18 70 e7 3d e7 2d f0 bd
       -0.03731996 -0.051819243 0.11300677 -0.11727505
0000d0 4d 32 00 3e 87 1c ae bd 69 51 89 bd ae f6 9c bd
       0.12519188 -0.08501535 -0.06704981 -0.07664238
0000e0 b1 06 2b be 59 45 bf 3b cf 75 73 3d e3 75 74 bd
       -0.16701771 0.0058371243 0.059438523 -0.059682738
0000f0 ce b9 80 3d de d8 f7 bd 1d 22 cb 3d c9 32 bd 3c
       0.062854394 -0.12101911 0.09918616 0.023095505

critic.0.weight f4 [64, 5]
000000 0e 6c 93 be f5 ad 98 3d 16 76 39 bf d2 bd 0a 3d
       -0.28793377 0.07455055 -0.7244581 0.033872433
000010 86 36 60 be f2 e3 77 3d 24 95 08 3f 6f 6a e8 bc
       -0.21895799 0.06052012 0.5335257 -0.028371064
000020 ac 3b 09 3e ed 64 bc be ad 2e f0 be cf 34 01 3f
       0.1340167 -0.3679575 -0.4691061 0.50471205
000030 85 ca 0a bf f8 3d a3 be ce ed d2 3a ec 54 d0 bc
       -0.5421527 -0.31883216 0.00160926 -0.025431119
000040 09 f9 c1 3e 8f 00 82 3f af b1 98 bd c8 b5 9c 3e
       0.3788531 1.015642 -0.074557655 0.30607438
000050 b7 1f f2 be 14 ea b4 bd 4b bd ff bd 4b 72 ec 3b
       -0.47289822 -0.08833709 -0.12487277 0.007215773
000060 1f b1 bb bd 9f 56 38 3e 56 4c ae 3e f8 f9 f6 be
       -0.091646425 0.18001793 0.34042615 -0.48237586
000070 cc 65 97 3e de 7f 29 3e fd 05 9f be 10 d4 14 3e
       0.29569852 0.16552684 -0.31059256 0.1453402
000080 92 7f f0 be 70 3b c2 bd 4b c6 04 be 6e 9d a0 bd
       -0.46972328 -0.09483993 -0.12966268 -0.07842527
000090 77 41 08 bf b1 8e 53 be 6a d2 dc 3d ec fb b3 3e
       -0.5322489 -0.20659901 0.10782321 0.3515314
0000a0 a7 0b c0 3c 53 ab 9d be 62 da 02 3f 7b 51 04 be
       0.023443056 -0.30794773 0.51114476 -0.12921707
0000b0 6a d2 83 3e 44 3b 31 3e 2f a9 38 3e 52 4b 01 bf
       0.2574647 0.17307764 0.18033288 -0.50505555
0000c0 bd 6b 7b bd bf e4 11 be 4d 2a 5c 3e 58 f1 26 3e
       -0.061382044 -0.14247416 0.21500511 0.16303003
0000d0 2d f1 d6 be 4a cb f4 be a1 17 ab be 8c ad b0 be
       -0.41980878 -0.47811347 -0.33416465 -0.34507406
0000e0 f8 47 6d 3d b8 a8 97 be 37 fc 9a 3e 3c ac f0 3d
       0.057929963 -0.2962091 0.3027055 0.11751601
0000f0 3c 46 5c be c8 85 af be a3 dd a3 be 12 a0 a5 be
       -0.21511167 -0.34281754 -0.32005033 -0.32348686
000100 98 e4 c6 3e a1 57 00 be 21 60 f2 3e a5 d1 94 3e
       0.38846278 -0.12533428 0.47338966 0.29066196
000110 66 02 27 bf 14 8c 5d be 0f a2 a2 be bd 86 40 3e
       -0.65238035 -0.21635467 -0.31764266 0.18801399
000120 e8 0f 1b bf 53 59 5f be 83 47 08 be ca ef ee be
       -0.60571146 -0.21811418 -0.1330853 -0.4666732
000130 b1 02 29 3e 53 3f c5 be 38 29 71 be 68 f4 3a 3e
       0.16504933 -0.38524875 -0.2355088 0.18257296
000140 a7 22 73 3e b9 d6 d8 be f8 c4 72 3d 49 24 c6 3e
       0.23743688 -0.4235132 0.059269875 0.38699558
000150 6a 22 90 3e 77 62 12 3e dc 21 e1 3d 48 2a ce bc
       0.28151256 0.14295374 0.10992786 -0.025166646
000160 6b 85 96 3d 4e 88 54 3d 91 cc 00 bf 68 fd 81 3e
       0.07349666 0.051887803 -0.50312144 0.25388646
000170 d2 f5 a1 3e e9 e4 b6 be c6 88 9c 3e 43 ae 5d 3e
       0.3163286 -0.3572152 0.305731 0.21648507
000180 52 4a 98 3e 01 f7 88 3c 65 b1 ec be 51 85 ab be
       0.29744202 0.016719343 -0.4622909 -0.3350015
000190 d4 9c ac 3d 22 2a a4 be 71 2f 72 be 0b 63 90 3e
       0.0842835 -0.32063395 -0.2365091 0.28200564
0001a0 81 0c 95 bd d5 dc 57 be ab 0f 8e be 77 1c 07 bf
       -0.072777756 -0.21080334 -0.2774633 -0.5277781
0001b0 ae 9d 18 be 5c 31 6e be 5b 16 92 be 99 ab 8f 3d
       -0.149039 -0.23261017 -0.2853268 0.070151515
0001c0 d0 0d c0 3c c2 04 8c be 75 d4 67 3e 37 1f a9 bc
       0.023444086 -0.2734738 0.2263964 -0.020644767
0001d0 29 af dd be 87 ef 62 3e fd f5 ca 3e 04 82 02 be
       -0.432977 0.22161685 0.396408 -0.1274491
0001e0 3a 77 25 3d e4 f0 f3 3e f3 93 b9 bd da a5 8e bd
       0.040396906 0.47644722 -0.09061422 -0.069652274
0001f0 4a 50 b0 3e d6 53 27 bd b6 c9 bf 3c 05 be c5 3d
       0.34436256 -0.040851437 0.023411613 0.09655384
000200 8c f2 73 3f 11 1f e7 3d b2 84 e1 3e f7 5d f1 be
       0.9529197 0.11285222 0.4404655 -0.47142002
000210 36 80 53 3e e0 66 72 be 76 dd 8a 3e 0c c7 37 be
       0.20654377 -0.23672056 0.27122086 -0.17947024
000220 aa 94 08 3f e8 38 53 bc 9a 4e dc be fa 3e a8 3e
       0.53351843 -0.0128919855 -0.43028718 0.32860547
000230 ff cf be 3e ff c1 ea 3e d1 81 bd 3e d1 8a 83 3e
       0.37268063 0.45851132 0.37013105 0.25691846
000240 87 ca b3 bb c3 8e ad bd 5f 76 a0 be 35 3b 17 3f
       -0.0054867896 -0.08474495 -0.3134031 0.5907472
000250 16 d5 22 bd 0f 1a d7 bd d2 95 6e 3e c9 e0 b7 bd
       -0.039753996 -0.10503017 0.2329934 -0.08978421
000260 95 fb cc bd 5f c7 35 3e bf 64 ba bc b2 26 76 be
       -0.10008923 0.17751835 -0.022753118 -0.24038199
000270 e2 34 91 3e c5 44 f2 3d d0 0b 4e bf ed 2a 36 be
       0.2836066 0.11829523 -0.80486774 -0.17789812
000280 ff 60 93 3e 53 d8 7a bd a0 9c 2a bd e5 25 28 be
       0.2878494 -0.06124146 -0.041653275 -0.16420706
000290 0b 0b fc bc bc f7 ee bd db e7 a2 be a4 71 11 bd
       -0.030766984 -0.11668345 -0.31817517 -0.035508767
0002a0 87 95 3e 3e ba 1a f0 3c 97 b6 91 3d c3 6c eb be
       0.18611728 0.02930962 0.071149044 -0.45981416
0002b0 78 67 5b 3e a0 66 da be b4 d4 8c 3e b7 95 aa 3d
       0.21426189 -0.42656422 0.2750603 0.08329337
0002c0 b8 0f 68 be fd 82 19 3f 5f 2a be be 5d b3 65 be
       -0.22662246 0.599655 -0.37141702 -0.22431703
0002d0 d4 9c db be 19 89 45 3e 1b 59 62 3e 93 a7 8d be
       -0.42893088 0.1929058 0.22104304 -0.2766691
0002e0 9a 79 e2 bc 16 61 07 3f da 03 a3 3e bf 10 3a be
       -0.027645875 0.52882516 0.31838876 -0.1817045
0002f0 e5 b9 b8 3e d4 18 c3 bd 0c ec 93 bd f2 2e c0 3e
       0.36079326 -0.0952622 -0.07222757 0.37535816
000300 f9 95 52 bd 54 b0 b3 be 9a c6 41 bd b9 1f a6 3e
       -0.051412556 -0.35095465 -0.04730854 0.32446077
000310 a1 ec 90 3e 9f 97 a1 bd 8d 82 ab 3e ac 5f 61 3e
       0.28305534 -0.078902476 0.3349804 0.22009152
000320 9f 41 df 3c 99 c5 49 3e f8 da 41 3f 4f b7 57 3e
       0.02725297 0.19704284 0.75724745 0.2106602
000330 4d 8a 7c 3e ea 53 d1 be fa 15 b6 3e be 48 49 bf
       0.24662133 -0.40884334 0.35563642 -0.7862662
000340 87 58 f1 bb d7 34 63 be 9a 20 1d bc da 20 6f be
       -0.0073652896 -0.22188126 -0.009590292 -0.23352376
000350 a6 a7 29 3f d4 f4 57 3d a8 2c e5 bd 9e 5d e0 3d
       0.66271436 0.05272372 -0.11190158 0.10955356
000360 e9 e5 8d be ac 69 4b 3f 5b 5a 92 bd bb 9b 55 3e
       -0.2771447 0.7945812 -0.0714614 0.20860188
000370 5c 43 ca 3e 14 99 ff be e3 33 fe 3d 92 70 b5 bd
       0.39504516 -0.49921477 0.1241224 -0.08859362
000380 c6 b4 6d 3e a7 4a 83 bb 6b ef b7 be 21 f4 f5 be
       0.23213491 -0.004006702 -0.3592485 -0.48037818
000390 4b 17 ec bd 91 28 66 3e ae 6a 84 bd 11 50 39 3e
       -0.1152788 0.22476412 -0.0646566 0.18096949
0003a0 ec b7 cb be a3 00 90 bd 0b 13 94 3e d6 4e 53 bc
       -0.3978876 -0.070313714 0.2892078 -0.012897214
0003b0 52 9e 48 3e 72 a6 22 3d 5c dc 06 be 9e 1f 14 be
       0.19591644 0.039709516 -0.13169998 -0.14465186
0003c0 23 6d 8b bc cb 59 08 bf 7c b0 0f 3f 6c 7a ff bd
       -0.017019814 -0.53262013 0.5612867 -0.12474522
0003d0 c8 8e 99 3e 32 7c a8 3e b5 2d bb bd 76 c3 fa be
       0.29991746 0.32907254 -0.09139577 -0.4897725
0003e0 dc 1b d9 be fa 91 c4 3d c3 6b 80 be 06 34 c3 be
       -0.42404068 0.09598155 -0.25082216 -0.38125628
0003f0 1a e5 c1 be 9c c0 b9 3e d7 21 a8 3e eb a3 9f 3e
       -0.37870103 0.36279762 0.32838318 0.31179747

critic.0.bias f4 [64]
000000 24 ba 04 bf 1b c6 b1 be 9b 95 0e 3d f3 3b a6 3e
       -0.5184653 -0.34721455 0.034810644 0.32467613
000010 0d fe 66 bd 28 ca 82 bd 56 5e f5 bd 47 e7 a9 3e
       -0.056394625 -0.063862145 -0.11980884 0.33184263
000020 6c de e9 bd 8e 19 d6 3e a2 83 f4 bd 88 20 4e 3e
       -0.11419377 0.41816372 -0.119391695 0.20129597
000030 30 ac 9c bd 0e ee 49 be 27 01 23 be 13 9e 92 3d
       -0.0765003 -0.19719717 -0.15918408 0.071590565
000040 43 82 44 3e a3 6d 61 3b 78 bf ae be d3 54 d9 3d
       0.19190316 0.0034397624 -0.34130454 0.10611882
000050 88 02 c3 3e 50 78 8c bd 45 00 34 bd ed 9f c1 bd
       0.3808787 -0.06858885 -0.04394557 -0.094543315
000060 34 27 87 be 7d c7 8b 3d 38 53 a8 be 29 4d c7 be
       -0.26397097 0.06825159 -0.3287599 -0.38926056
000070 1c f7 68 be 44 b7 73 3e 1e cd 5d 3e f8 29 61 3e
       -0.22750515 0.23800379 0.21660277 0.21988666
000080 0b 3e 6d be 15 1a b7 be 09 24 71 be 14 76 cc 3e
       -0.23168199 -0.35762087 -0.23548903 0.39933836
000090 e3 ca d7 bc 4b 9f e4 be 48 6b ce 3e 98 dd 70 be
       -0.026341861 -0.4465278 0.40316224 -0.23522031
0000a0 96 c5 a8 3e f3 98 b6 3d e0 c2 97 be b2 fe 2e be
       0.32963246 0.089158915 -0.29640865 -0.17089346
0000b0 2e 94 89 be 49 a3 9b 3e 23 fc 60 be fe e1 3e be
       -0.26870865 0.30398014 -0.21971183 -0.18640897
0000c0 36 e6 6f be 01 07 58 be 2a 30 cb 3e 9a 7f 41 be
       -0.23427662 -0.21096422 0.39685184 -0.18896332
0000d0 91 b0 60 be 70 13 af 3e 95 4f 92 3d 8e d9 e4 be
       -0.21942355 0.34194517 0.07144085 -0.4469723
0000e0 97 70 98 3e f1 07 d7 be 86 eb a0 3e 8b 1a bc 3e
       0.297734 -0.41998246 0.3142969 0.36739
0000f0 64 de 04 3e c7 45 aa be f9 a2 11 3e 62 2d c4 3e
       0.1297546 -0.3325636 0.14222325 0.38315874

critic.2.weight f4 [64, 64]
000000 aa 76 b6 3c c7 33 79 3d da 59 5a 3e f7 c0 3d be
       0.02227338 0.060840394 0.21323338 -0.18530641
000010 da f8 96 bd fa 66 f4 3c 6e 95 16 bd 99 8d 04 3d
       -0.073716834 0.02983426 -0.0367636 0.0323616
000020 47 50 3e bd 40 cd ab 3d 6f 1d d3 bd 2d ab 84 3d
       -0.046463277 0.08388758 -0.103083484 0.06477962
000030 31 ad 98 bd 0e 02 e3 bc a5 57 15 bd 90 6c ca 3c
       -0.07454909 -0.02771094 -0.036460537 0.02470997
000040 d7 5b 0c bd 4f c2 8d bc 3e b4 08 bd 29 b2 a9 3d
       -0.034267273 -0.017304568 -0.033375017 0.082859345
000050 76 83 13 3c 3a 59 a5 3c 5a b6 01 3d 28 39 7b 3d
       0.009003511 0.020184148 0.031668045 0.061333805
000060 8d 47 76 bd c0 f2 04 3a 9d ca 3a 3d cc 0c 5a 3d
       -0.06012683 0.0005071573 0.045603383 0.05323486
000070 26 a5 80 3b 90 25 f3 3d fa b9 da 3d 92 49 90 3d
       0.003925937 0.11872399 0.106800035 0.070452824
000080 c6 c9 90 bb ae 59 29 bd b3 34 75 bb 72 58 a1 bc
       -0.0044185845 -0.04134529 -0.0037415444 -0.019695494
000090 08 38 ba 3d 4a 82 4f 3e 43 37 c4 3d b4 a0 14 bd
       0.09092718 0.20264545 0.09580853 -0.03628607
0000a0 f3 1b 02 be fe 8d 18 bd 3c a0 48 bd 78 61 0d 3e
       -0.12705974 -0.03724479 -0.048980936 0.13806713
0000b0 2f 20 97 bd f9 e4 0f 3e 11 dd 22 be 62 95 bf 3d
       -0.073791854 0.1405219 -0.15904643 0.093546644
0000c0 0d 4c f1 3d 13 38 be bd cf cc f5 3c f2 48 99 3d
       0.11782084 -0.09288039 0.030004887 0.07484616
0000d0 56 77 91 bd d5 3d 56 bd aa 7a c2 bc 55 06 7f be
       -0.0710284 -0.05230506 -0.023740131 -0.24904759
0000e0 5e c0 0c 3e 4f f6 e2 bd 85 1a af bd 1a b3 95 bd
       0.13745257 -0.11082136 -0.0854998 -0.073095515
0000f0 02 3a 48 3e ef a7 3c be cc fe 9a bd a3 ed cd bd
       0.19553378 -0.18423437 -0.0756813 -0.10055091
000100 d4 1a 44 be 14 68 3e 3d 5c d2 cd bd 41 a7 db 3d
       -0.19150859 0.046485975 -0.100498885 0.107252605
000110 4a b8 26 3d 42 91 f0 3d 6d 38 74 bc c9 73 57 bd
       0.040703095 0.11746456 -0.014906031 -0.052600656
000120 72 1b b8 bd 11 eb af 3d 7f 1b d9 bd 2e 35 8c bd
       -0.0898961 0.08589757 -0.106009476 -0.06846081
000130 6d 1a 02 bc 3b db a7 3d 74 8b 18 be 36 fb 53 3d
       -0.007940871 0.08196112 -0.14896947 0.051753245
000140 90 d2 c0 3d 12 cc aa 3d 59 b1 62 bd 61 54 88 bd
       0.094151616 0.083397046 -0.055344913 -0.06656719
000150 bf 1c ca bd e9 88 2b 3d 7f 24 12 bd 12 80 c9 3b
       -0.09868764 0.041878615 -0.035679337 0.0061493004
000160 fa 7a 89 3d 09 9d fc bd fe a5 2f be 41 b8 b8 3d
       0.06712909 -0.123346396 -0.17153165 0.09019519
000170 fe 79 01 be 37 be 53 be ea 41 4c 3d 96 16 0e 3e
       -0.12644193 -0.2067803 0.049867548 0.13875803
000180 f5 ba 94 bc 42 09 c2 3d 3e cd 26 be 37 88 27 be
       -0.018155554 0.09474422 -0.16289231 -0.16360556
000190 1c bc 27 bd 57 b6 d6 bd 0c af f9 bd fa 6b 52 3d
       -0.04095088 -0.10483997 -0.12191591 0.051372506
0001a0 cf db c5 3c 2b 16 2f 3d 73 fb d1 bc f5 26 84 bd
       0.024152664 0.04274575 -0.025632596 -0.06452743
0001b0 89 44 e1 bb 30 c6 08 be d2 8c 30 3e 2d af ee 3d
       -0.006874625 -0.13356853 0.17241219 0.11654506
0001c0 f0 1a 55 be e2 77 7c 3c 12 cf 34 bd fe b1 88 3d
       -0.20811057 0.015409442 -0.04414279 0.06674574
0001d0 b2 ce 0f 3e e5 dc 21 3e 9a eb a9 bd 93 5f 3d 3d
       0.14043692 0.15806921 -0.082968906 0.046233725
0001e0 91 f2 91 bd 07 e1 11 3e 51 39 ba 3d 9a 48 05 be
       -0.07126344 0.14245997 0.090929635 -0.13015977
0001f0 8a 3c a0 bc 29 9d bc 3d 07 65 65 3d 27 27 8c bd
       -0.019560117 0.092096634 0.05600455 -0.06843405
000200 c3 bc 83 bd 8a b1 c3 bc 0b 3c 38 3e 52 18 c2 bc
       -0.06432488 -0.023888368 0.17991655 -0.023693237
000210 0f 53 30 be d6 02 a6 3c 68 c4 99 3b 5c 70 58 3e
       -0.17219184 0.020265024 0.004692603 0.21136612
000220 2e 23 54 3d 00 4e b0 3d e3 82 a2 bd 09 a4 89 3d
       0.051791362 0.08608627 -0.07935121 0.0672074
000230 d1 98 09 3e 3c 94 1e be 15 34 ad 3d 93 49 af 3b
       0.13437201 -0.15486234 0.084571995 0.005349347
000240 a8 b0 05 3e 71 e1 69 ba e6 0c b3 bc 51 88 27 bd
       0.1305567 -0.0008921838 -0.021856736 -0.040901486
000250 56 7f 9f 3d bc 72 9e 3b 6c 2d 8f 3a ef c1 a5 bd
       0.07787959 0.0048354547 0.0010923571 -0.080936305
000260 1d cc e5 3b ae 02 c1 bc 18 36 13 3e 0e 20 1f bd
       0.0070128576 -0.023560848 0.14376104 -0.03884893
000270 0b 24 80 3d 32 7e fc 3d 1f 4c 0e 3d 66 80 dd bd
       0.06256875 0.12328757 0.034740563 -0.10815506
000280 c3 28 3c be 7c 39 48 be bf 1d f5 3d b5 a5 13 3e
       -0.18374924 -0.19553179 0.11968564 0.14418681
000290 8c c3 45 bd 5b 93 29 3e 56 8e 31 3e 08 f5 f4 bd
       -0.04828219 0.16560118 0.17339453 -0.119607985
0002a0 f8 69 95 3c ac f9 4a bd 02 f8 06 be 29 d0 e6 3d
       0.018239006 -0.049554512 -0.13180545 0.11270172
0002b0 f9 f6 0b 3e 58 15 46 3e 6a 68 b0 bd a3 d4 9f bd
       0.13668431 0.1934408 -0.086136654 -0.07804229
0002c0 93 e6 5f 3e f7 09 9f bd df 0c 11 3e ff 3c 8a 3d
       0.21865301 -0.077655725 0.14165066 0.06749915
0002d0 3b bf d0 bc ed 30 7d bd e8 79 d4 3c f3 75 56 bd
       -0.02548181 -0.061814237 0.025937036 -0.05235858
0002e0 52 1a 79 bd b4 f9 0e be 56 b7 62 be ec 38 4e bd
       -0.060816117 -0.13962442 -0.2214025 -0.050347254
0002f0 f3 b8 17 3e 9d c0 85 3c 2a 71 07 bd 86 98 cd bc
       0.14816646 0.016327197 -0.033066906 -0.025097143
000300 21 10 46 3d 2c 67 38 bd 9c c7 1c be 3e bf 44 3e
       0.048355225 -0.045020267 -0.1531052 0.19213578
000310 dc c9 8c bd 5e fa 10 bd 3b 4c 90 3d a0 11 ff 3c
       -0.06874439 -0.03539502 0.0704579 0.031136334
000320 1c 37 85 3d 83 67 99 3d 38 08 1e 3c 29 b9 97 bd
       0.06504652 0.074904464 0.009645514 -0.07408363
000330 0f 40 d1 bd 93 9a df bd 25 64 26 bd 2e fe 88 bc
       -0.10217296 -0.109181546 -0.04062285 -0.016722765
000340 c7 5f ab bd 2d dc d6 bd 1e 52 e5 bd 4a 67 94 3d
       -0.083678775 -0.10491214 -0.11197303 0.07246263
000350 86 8e a2 bb 72 98 90 3d 0a 1e da 3d a2 7f 95 bd
       -0.004960838 0.07060327 0.10650261 -0.07299735
000360 9d 95 04 3e 00 f9 da bd c6 a0 9f bd 66 54 67 3d
       0.12947698 -0.10692024 -0.07794337 0.056476973
000370 0f b0 ab bb b8 be 96 bd 88 2e 2d bd 4d 00 42 bd
       -0.0052394937 -0.073605955 -0.042280704 -0.047363568
000380 b2 58 bc 3d 33 bd 31 3e e1 ba 17 be 37 8f b0 3c
       0.09196605 0.1735733 -0.14817382 0.021552665
000390 e2 da b7 bd 8a cf 44 be 8b 77 0b be 88 52 12 bc
       -0.089772955 -0.19219795 -0.13619821 -0.00893081
0003a0 d6 d7 21 bd 2a e5 11 3d 15 17 a7 bb 8a 9d 1b be
       -0.039512478 0.03561894 -0.005099187 -0.15196815
0003b0 05 ee f4 3c f6 11 18 3d ef 85 a7 3d 85 2c ab bd
       0.029898653 0.037126504 0.08179843 -0.08358101
0003c0 0d 38 94 bd 85 ab 6f bc 62 7d fd bc c6 bb ba 3d
       -0.07237253 -0.014628296 -0.030943576 0.09117846
0003d0 59 ac 23 3e f0 73 e2 3d d5 61 48 be 47 e7 1f 3d
       0.15983714 0.110572696 -0.1956857 0.039038923
0003e0 57 11 b1 3d 68 b2 ac ba 66 c6 8e 3e 39 09 5c bd
       0.086458854 -0.0013175728 0.2788574 -0.053719733
0003f0 04 b5 e2 ba 6c 73 0e 3e 8f 47 f5 bb 24 5b 48 3e
       -0.0017296379 0.13911217 -0.007485337 0.19566017

critic.2.bias f4 [64]
000000 96 95 a8 3d b8 ee 10 be 5f 55 15 3e e9 2e 66 bb
       0.08231656 -0.14153564 0.14583348 -0.0035123175
000010 9f 22 8b 3d e0 46 b2 bc 30 be 3b be 35 e8 0e bc
       0.06793713 -0.021762311 -0.1833427 -0.008722355
000020 17 63 85 3d 87 44 05 be 47 39 50 3d 8b a3 d7 bd
       0.065130405 -0.13014422 0.050835874 -0.1052924
000030 57 e4 29 be 99 61 38 3d e9 63 a6 bd 6a 0b e1 3c
       -0.16591011 0.04501495 -0.08124525 0.027471263
000040 d0 ba 9c be a9 5b e0 3d 2a 45 21 3d 0f 3a 54 bd
       -0.30611277 0.10954983 0.0393726 -0.05181318
000050 a4 a6 16 3e df ae fb bd d9 1c 67 38 ad c5 c5 bc
       0.14712006 -0.122892134 5.510156e-05 -0.02414211
000060 74 f0 b0 bd 5d 30 b8 bd 2f 7f 2c bd c3 66 09 be
       -0.08639613 -0.089935996 -0.04211348 -0.13418107
000070 d1 29 40 3d 04 4a 0a be 07 62 a3 bc 5a b7 37 3e
       0.04691488 -0.13504797 -0.019944204 0.17941037
000080 db 2c 62 3d f0 2c 0c 3e 82 3c 1a 3d c1 eb e9 3d
       0.05521856 0.13689017 0.03765536 0.114219196
000090 2b d7 53 bd 2f 22 28 bc 72 ea 3f bc 96 7a 03 bd
       -0.051718872 -0.010262056 -0.011713611 -0.03209933
0000a0 b4 f4 03 3e 47 89 08 be 94 01 b7 3d 08 7d dd 3c
       0.12886316 -0.13333617 0.08935848 0.027037159
0000b0 13 1e 1c be f2 49 f3 3d 97 7f 58 3e b8 d0 c2 bd
       -0.15245847 0.11879338 0.21142422 -0.09512466
0000c0 17 18 2f be 23 75 aa bd a9 7f 2a 3e 14 7b 2f bd
       -0.17099033 -0.08323123 0.16650261 -0.042841986
0000d0 ec a5 68 bb 55 35 fa bb e4 21 33 be 96 1d 23 3e
       -0.0035499288 -0.007635752 -0.17493397 0.15929255
0000e0 e8 21 bd 3d 84 8b 22 3e 20 e9 58 3d d1 b5 0f be
       0.09234983 0.15873533 0.0529567 -0.14034201
0000f0 7c 9b 22 be b6 82 d8 3d dd b6 65 bd 0f e0 dd 3c
       -0.15879625 0.10571806 -0.056082595 0.027084379

critic.4.weight f4 [1, 64]
000000 d0 bf 08 be 61 26 33 3e f4 f6 12 be bf 2f 83 3d
       -0.1335442 0.17495109 -0.14352018 0.06405591
000010 36 13 bb 3d d0 6b 04 be e7 b7 a4 3d c1 ae 08 3e
       0.091345236 -0.12931752 0.08042889 0.13347913
000020 cd 62 6f bd 73 cc ad bd 2d 70 3b bd 28 35 38 3e
       -0.058443833 -0.08486261 -0.045761276 0.17989028
000030 5f 6e 49 3e 44 2a bf 3d 15 e4 05 3e f7 53 35 bd
       0.1967101 0.093342334 0.13075288 -0.04426953
000040 dc 74 5c be e8 7a 12 3c 2d e1 1e 3d 0e 09 10 be
       -0.21528953 0.008940436 0.038788963 -0.14065954
000050 f6 05 50 3e b8 75 56 3e bb d6 9f bc dd 2e 8b 3d
       0.20314774 0.20943344 -0.019511571 0.06796048
000060 84 8d d4 bd 71 03 ca bd 77 f2 7f bd 3d e8 1a 3e
       -0.103785545 -0.09863938 -0.062487092 0.15127654
000070 a7 e0 9f bd 8e ab 9e 3d 7e bb cb bd 24 b8 3a be
       -0.07806521 0.07747565 -0.09947871 -0.18234307
000080 99 5e 8c 3d a1 02 53 3e 10 b6 0a be 24 09 1a 3e
       0.068539806 0.20606472 -0.13546014 0.1504255
000090 3d 28 03 3e 11 93 8e bd 75 ea 1f 3e 1b 71 8e 3d
       0.12808318 -0.069616444 0.15616782 0.06955167
0000a0 83 d7 6e 3e 34 dd 72 3d 70 d4 44 3e 30 69 8f 3d
       0.23324399 0.059292987 0.19221663 0.07002485
0000b0 d2 c2 ce 3d 75 8b 95 3d 3f 07 27 be 6f b3 0e 3e
       0.10095753 0.0730199 -0.16311358 0.13935636
0000c0 d4 60 00 3b 25 8f a5 3d 34 5d 3d 3e b5 fa 44 bd
       0.0019588964 0.08083943 0.18492585 -0.048090655
0000d0 bf dc 83 bd c1 69 e3 3d 12 28 5b 3e 6d b8 0c be
       -0.06438588 0.11104155 0.21402004 -0.13742228
0000e0 35 2b 25 3d b2 70 eb bd 89 70 a5 bd ba 6c e2 bd
       0.04032441 -0.11496104 -0.08078105 -0.11055894
0000f0 04 52 8f 3d 2e c3 2a be 8e d8 8e bd 83 ea 2e 3e
       0.06998065 -0.16676018 -0.06974898 0.17081647
