controller/PPO_CartPole-dm_0_100000.pth (torch, 41263 bytes, 10 tensors)

actor.0.weight f4 [64, 5]
00000000: 7f44 ff3d 4d99 aebe b095 c2be b78a d23d
00000010: 6dd9 c4bc 7162 ab3d e54b 673d c54a b1bc
00000020: 4d10 033d de37 ffbc c2ac 063d dc89 183f
00000030: 4c12 4a3e 0b55 003e 74e2 6a3e a793 d9be
00000040: 90f3 88be 04de 0a3f ab8d c33d aa5f 80bd
00000050: ff69 2b3e 54ff 12bf e86c f2be 3068 513e
00000060: 6b90 a0be ce61 7c3c 4bcd 123f 3777 e93e
00000070: 1fdb 0f3e 0e10 213e d3ce ba3e b260 9a3d
00000080: 9774 f0be 14d6 aebd d5ea 873e b8e5 d8be
00000090: f661 a7bb 9af1 c43d a237 973e 42d6 85be
000000a0: 4195 e23b 67af af3e 4659 a53e 1678 e93e
000000b0: 2d7c b3be 74f8 143e 4b9d 8c3d c8ef 4fbe
000000c0: 3db4 1bbe 8d24 4dbd 0ab1 97be a254 e3be
000000d0: fd46 0cbd 4ec2 73be 4b8e 5a3d 9477 c4be
000000e0: b132 603e 7ebb 4fbc 842d da3e a9ef debe
000000f0: ddb6 70be ca02 afbe 87d3 5bbe 8e3c d4be
00000100: bb02 96bd f82c 803d af96 b63e 5937 c83d
00000110: 0046 8f3e cc44 8bbe 3750 4bbe 4b4d 1a3e
00000120: c0ba fabd 2de7 b53d 1161 febe d110 553e
00000130: 299b acbe ec29 cb3d f871 3bbe 5a48 c5bd
00000140: ca4f 91be 5abf 86be 1124 87bc 4592 8abe
00000150: f308 5c3e 17cc ba3e 14b8 fdbe 7a95 b4be
00000160: ac9b 773e 9a2c 9abe 73e9 c9be 1406 1ebf
00000170: df66 a83e 4599 aebe 812d c63e 6a5d e93d
00000180: 9ef4 5cbe 8774 f23c 7284 f1be fe9c d23d
00000190: be49 533e 8da4 173e fa25 d43e fc16 63bc
000001a0: 1c65 3fbe 8eae dc3c cd3f 273f 056f 033f
000001b0: ae13 443e 7300 83bd d7be 86be 8501 3cbe
000001c0: 1c46 cf3d f1b1 05bc 441a 33bc b153 77be
000001d0: 4649 0f3c d2d8 c33e fc34 5cbe 7a9b ebbe
000001e0: 20cc 37bd c864 15be f58c 473e e8d7 73be
000001f0: e38b ef3e 8a18 21be 8b05 a73b 60c2 063f
00000200: aa6b b1be e166 2abe 6b99 523e fb44 253d
00000210: 77b8 17bf b22c 153e 0b1e 06be 7ac1 cb3c
00000220: b2e7 c23e 6023 e83e d982 96be c38c 2e3e
00000230: 1922 d8be 6997 0e3f c922 523d 3602 d23e
00000240: b562 4e3e b04e d13e f2a7 203d 96a7 66be
00000250: f0f5 afbe 2501 07bd c8e4 6bbe 1e14 ad3d
00000260: 77c7 af3e 9f9b 3d3e bdbb f0be 2a01 763e
00000270: c3e1 83be ac9c 143f e199 913c adfc 63be
00000280: f0d5 9ebe 2921 86be cd2a 71be 05eb b0be
00000290: d841 753e c0ae 2cbe 6a6e f6be fca8 193f
000002a0: 7c3c d1be 6c6d c83e 96c3 d9bc 9f38 5cbd
000002b0: 1341 903e e9f1 bdbe 558d 9f3e ceec c13e
000002c0: 8b00 14bf 5c49 833e 89b2 85bd 2107 0abd
000002d0: ffdc c0bd 8e02 9abe d747 4bbd 5111 cfbe
000002e0: 4b7e bbbe a505 57be 2d47 e6be 0f1c cabe
000002f0: 2602 063f 9f89 15be 08ee b93e aafc 643d
00000300: 7a4a 01bf 369e 8ebe 6d17 f3be 2d2a 023e
00000310: 113f 5b3e d286 c1bd 5c7b 8cbe 61dd 87be
00000320: af38 7b3e fa5d 21bf f6a5 ccbe 7305 e2be
00000330: 7ead 32be b166 373e 662e c83e a7ba b0bd
00000340: 34c1 ef3d 50cb 253e 85af 9fbc ae40 08be
00000350: b2d5 a0be fc4f 3f3e 99d0 9abe e883 49be
00000360: 5c35 9f3e e752 11be 42f1 a0bd 28ab d23e
00000370: 5966 d0be 7d79 ab3e 3158 e2be 1aec e4bd
00000380: 1dbf dfbe 3dd8 b6be 154a 12be 14f3 f9bc
00000390: b31c 743e 0ef3 9ebd c382 dabd 4859 e73e
000003a0: fd6a aabd 7040 253f e392 14be 5c3b f13e
000003b0: a6c5 d03e c110 a03e badf ab39 f538 8cbe
000003c0: 675e 4a3c bc6e a1be 2e61 a73d 2bd2 87be
000003d0: c9c1 ab3e 3823 9d3e 62f8 ebbe ab8b 0d3d
000003e0: 5655 6f3d 7407 d2bd 7cfc fc3e b3c7 80be
000003f0: 8c8a bebe e45d d4be 1550 14be 20b3 d0bd
0.124642365 -0.34101334 -0.38004827 0.10280364 -0.024029458 0.083683856 0.056468863 -0.021642098
0.031997968 -0.03115457 0.0328796 0.59585357 0.19733542 0.12532441 0.22937948 -0.42495462
-0.26748323 0.5424502 0.095485054 -0.062682465 0.16739653 -0.5742085 -0.47348714 0.204499
-0.31360182 0.015404178 0.573445 0.45598766 0.14048432 0.1572878 0.3648592 0.075379744
-0.4696395 -0.08536926 0.2654635 -0.42362761 -0.0051081134 0.09616394 0.29534632 -0.26140028
0.006914765 0.3431351 0.32294673 0.4559943 -0.35055676 0.14547902 0.06865939 -0.20306313
-0.15205474 -0.050083686 -0.29627258 -0.44400507 -0.034247387 -0.2380459 0.053358357 -0.3837248
0.21894337 -0.012678979 0.4261285 -0.4354222 -0.23507257 -0.34181815 -0.2146741 -0.4145245
-0.073247395 0.06258577 0.35661837 0.09776182 0.27983093 -0.27200925 -0.19854818 0.15068547
-0.12242651 0.08881984 -0.4968343 0.20807196 -0.33712128 0.09920105 -0.18305194 -0.096329406
-0.28381187 -0.26317865 -0.01649669 -0.2706472 0.21487789 0.36483833 -0.49554503 -0.35270292
0.24180478 -0.30112153 -0.3943592 -0.61728024 0.32890984 -0.3410131 0.38706592 0.113947704
-0.21577689 0.02959658 -0.4717136 0.1028385 0.20633599 0.14808865 0.41435224 -0.01386046
-0.18690914 0.026938703 0.6533173 0.5134128 0.19148132 -0.0639657 -0.26317474 -0.18359955
0.10120794 -0.0081601 -0.010931555 -0.2415302 0.008745497 0.38251358 -0.21504587 -0.46017057
-0.044872403 -0.14589226 0.19487365 -0.2381283 0.46786413 -0.15732017 0.0050970963 0.5264034
-0.34652454 -0.16640808 0.20566337 0.040348988 -0.59265846 0.14567831 -0.13097398 0.02487253
0.38067394 0.4533949 -0.29396704 0.17045884 -0.42213514 0.55699784 0.051302705 0.41017312
0.20154841 0.40880346 0.039222665 -0.22524866 -0.34367323 -0.032960076 -0.23036492 0.08451103
0.34331867 0.18516396 -0.47018233 0.24023882 -0.2575818 0.5805156 0.01777357 -0.22264357
-0.31022596 -0.26197174 -0.23551483 -0.34554306 0.23950899 -0.16863537 -0.48131114 0.60023475
-0.40866458 0.39145982 -0.02658252 -0.053764936 0.28174648 -0.37098625 0.31162515 0.3787598
-0.5781333 0.25641906 -0.065281935 -0.033698205 -0.09417152 -0.30080074 -0.04962906 -0.404429
-0.3661979 -0.20998247 -0.44976178 -0.39474532 0.5234703 -0.1460328 0.36314416 0.05590502
-0.5050427 -0.2785508 -0.4747881 0.12711401 0.21410777 -0.09449543 -0.27437866 -0.26536086
0.24533342 -0.6303402 -0.39970368 -0.44144782 -0.17448995 0.17910267 0.390979 -0.08629351
0.117067724 0.16190839 -0.019492874 -0.13305923 -0.31413037 0.18682855 -0.30237272 -0.19679224
0.31095397 -0.14191781 -0.07858516 0.41146207 -0.40703085 0.33491126 -0.4420791 -0.11177845
-0.43700495 -0.35711852 -0.14286073 -0.030511416 0.23839073 -0.07761203 -0.10669472 0.45185304
-0.08321188 0.6455145 -0.14509158 0.471156 0.40775794 0.31262782 0.0003278235 -0.27387205
0.012351609 -0.31529796 0.081728324 -0.26527533 0.33546284 0.30690932 -0.4608794 0.034557026
0.058430992 -0.10255328 0.4941138 -0.25152358 -0.37215078 -0.41477883 -0.14483674 -0.101904154

actor.0.bias f4 [64]
00000000: a289 81be 9389 443c 1c5a 9ebe 2509 acbe
00000010: eac1 87be 821a f0bc 2338 0b3f c02b b1bb
00000020: 292b e0be 4b81 503c 5322 8b3d 2187 e3be
00000030: 2a84 833e 47db 67be 4ffe db3b e867 d5be
00000040: 02c0 413e bbda 7dbe 7459 763e daed 7e3d
00000050: 53cf 06bd d37e 32be b6e2 5dbd e83e b93b
00000060: 7c22 4d3e 5531 08bf 6691 923d e699 8d3e
00000070: 0a65 a2bc ac80 dcbd f156 dd3e 6bfd b6be
00000080: 14fe bcbe 30f1 4a3e ee54 f8bc d299 19bd
00000090: e01e bfbe 4dfa 9bbe 83ef c0bd 195b bb3e
000000a0: e8a5 8ebd 0386 e7be cf88 543e 1e01 5a3e
000000b0: af6b bebe 88a1 b13e 14c1 0dbc ce25 b73e
000000c0: 0889 b83e 0045 e9be 5321 eb3d 4925 933c
000000d0: 9e6e c8be bb78 d2bd 6b8d c2be 6b9b f0be
000000e0: c2d2 e9be 486d 503d 93e4 ad3e 4b82 de3d
000000f0: 0b0b a5be 9788 383e 8552 a3be 8449 663e
-0.25300318 0.011995691 -0.30928123 -0.33600727 -0.26515132 -0.029309515 0.5438253 -0.0054068267
-0.4378293 0.012726138 0.06793656 -0.44439033 0.2568677 -0.22642241 0.0067136656 -0.41680837
0.18920901 -0.2479047 0.24057561 0.06223855 -0.032912564 -0.17431192 -0.054171287 0.005653251
0.20032686 -0.53200275 0.07156639 0.27656478 -0.01982357 -0.1076673 0.43230394 -0.35740218
-0.36912596 0.19818568 -0.030313935 -0.03750021 -0.37328243 -0.30464402 -0.09420683 0.3659294
-0.06965238 -0.4521943 0.20755313 0.21289489 -0.3719153 0.3469355 -0.00865199 0.3577103
0.36042047 -0.45560455 0.114809655 0.017962115 -0.39146894 -0.10276934 -0.37998518 -0.46993575
-0.45668608 0.05088547 0.3396345 0.10864695 -0.32234988 0.18020855 -0.31898895 0.22488981

actor.2.weight f4 [64, 64]
00000000: b959 0cbe 88d2 db3c e4ab e7bd 4370 df3d
00000010: dad4 86bd d974 eebd b907 9abd 9115 c93d
00000020: 527d e03c d730 4fbd 126a 4abc 007f ecbc
00000030: 50ff a2bc 9d0b 8abd f393 b1bd b370 86bd
00000040: 5115 14bd 8720 fdbc 82c8 2d3d b743 a53d
00000050: 5224 9a3c 83b6 1d3d 4db3 ed3d a2ce bfbd
00000060: 650b d93d 08ab 70bc 5639 b3bd 45b5 823d
00000070: 6c4f 21be 2470 07be 9a3c c33d 7b7d 803d
00000080: 59f1 023e 829a 013e d44e 03bd f70d 853d
00000090: 6dae 17bb ad2c fa3d 9f3d c0bd 0f22 85bd
000000a0: e733 2f3d a5e5 08be 71eb 983d 5fcc 703d
000000b0: a64e 8abd bc40 c4bd d843 43bd 1944 f0bd
000000c0: 2611 ac3c 749b 653b 0f29 8ebd cd0d 8cbd
000000d0: 3309 d3bd d298 803c f21e 353c c709 bf3d
000000e0: dea2 b1bd b720 d73d a897 773d 2771 86bc
000000f0: 49e1 3d3d 4067 be3d 611e e7bd e51f 92bd
00000100: 9d96 f3bd 15c4 e6bd bc74 02be 5da3 92bd
00000110: 379f cc3d 6b54 323c 3692 c2bc 3ab8 16bd
00000120: 20d9 4d3d 33ae 20bd 1d5c 01be f291 3e3d
00000130: 88ed b8bd 6c67 bd3d 9fa0 5cbd fde1 0ebe
00000140: 8d03 a93d 4428 e4bd 5afe 0d3b c9ec 11bd
00000150: 2cd7 bdbd 103d 2f3e 55fa 0c3d f5f8 f6bd
00000160: dfa1 f93b 09f8 d4bd 632d f63c 9584 01bd
00000170: bf0f febc 80b2 11be a9b2 02bd 8b99 a8bd
00000180: b1d0 a03d a75e b53d f2e4 9c3d 69ce 103d
00000190: 0031 5b3d 0cbb dcbd d974 82bd 4dc9 dc3d
000001a0: 8105 803d c6e7 b23d a3f7 d93d aa50 b33d
000001b0: 5734 d23d 7f51 263e 1bad 983d f7ca b03d
000001c0: 9e8e cabd 43d7 8e3d f979 8a3d d960 783d
000001d0: a6db a3bd d2da c23c eed8 cbbd af0e b8bb
000001e0: 3d71 cdbd 9905 153b 7d6d 10be 4698 a33d
000001f0: 7b02 303d a65c ddbd adf1 973d bd86 5ebb
00000200: bb59 af3d 5947 b33c 35cf 0cbe 6449 e43d
00000210: 6cd4 c93d 697a 9abd a0f3 133e 4707 dabd
00000220: 28c6 653d be55 adbc b3c1 b9bd e8fa b83b
00000230: b9df 05be dc15 31bd 3523 cbbd d478 c2bd
00000240: efd5 543d 9929 103d cd35 db3d a3ea 703d
00000250: 4527 9a3d 51d8 613e 7275 6fbd 350e 953d
00000260: 1d04 a83d 18c6 443d 9d92 383c ea7f 383b
00000270: dbb1 17be 9682 dcbd b12c 053e 0652 193d
00000280: 8b4a 8b3d b980 d73d 8cb6 d23d fdd9 2abd
00000290: 39d9 0a3d a847 b03d c478 723d 3515 813d
000002a0: 7e5a 10bd e9d9 c2bd 123e cd3d 6188 61bd
000002b0: 5711 f8bd 4f93 9c3d c9cd 043e c665 50bd
000002c0: bb97 0a3e 32cf dabc 0c60 053d 1e46 c93d
000002d0: 4ee3 213d ea41 90bd 34b8 aebd 302e 883c
000002e0: c7f1 86bd 425f 8cbd a508 7c3d 751c ef3c
000002f0: b70c 14bd 7e72 ff3d a114 19bc d54c b13d
00000300: 2720 32be 380f dd3d 8efb 093e 30db e53d
00000310: e87a 15be 5981 293a c8ba 4ab9 e461 d3bb
00000320: a142 93bd e6b1 a0bc 5612 30be 6a21 c2bd
00000330: b8bb 79bd 398f b23d 797f 973b ac28 96bc
00000340: fc09 07be 165f 0dbe c0b0 7abd e656 853d
00000350: 36bf b3bc 23b5 ca3d a4c4 953d 5a2d 733d
00000360: 65b1 783d 39c4 7d3d b0aa c43c 5424 993d
00000370: f39c 4e3e 922e 2cbd bb33 8c3d d985 c6bc
00000380: 161e 5bbd 4048 a43d 82ac bd3d 7021 1dbe
00000390: 57dd abbd f575 12be f515 b1bd be2c 9e3d
000003a0: 6246 84be 0967 5c3d ce61 7d3c f785 9cbb
000003b0: b122 c73d 8744 663d 49e9 073e da0e a53d
000003c0: ea67 2cbd b4ce e8bc 4f70 d9bd cad0 b83c
000003d0: 0f6d 983d d04e 9a3d df48 df3d b79a 823c
000003e0: 49b6 723d 7aab b63d dda5 09bd 6580 35bd
000003f0: f0e5 40bd f91c b53c 6b83 90bd 7d43 ac3d
-0.13706101 0.026833788 -0.113120824 0.10910084 -0.06583567 -0.11643381 -0.07521004 0.098185666
0.027403507 -0.050583687 -0.012354391 -0.028869152 -0.019897133 -0.06740496 -0.08670797 -0.065644644
-0.03615314 -0.0308993 0.042427547 0.08069556 0.018816147 0.038504135 0.116064645 -0.09365584
0.105978765 -0.0146892145 -0.0875117 0.06382231 -0.15752953 -0.13226372 0.09533043 0.062739335
0.1278738 0.12656596 -0.0320576 0.06496804 -0.0023144737 0.122155525 -0.09386753 -0.06500637
0.042774107 -0.13368852 0.07466782 0.058788653 -0.06753282 -0.095826596 -0.047672123 -0.117317386
0.02100427 0.0035035284 -0.06941425 -0.0683857 -0.10304489 0.01569787 0.011054741 0.09328037
-0.086736426 0.10504287 0.060447365 -0.016411377 0.046357427 0.09297037 -0.11285091 -0.0713499
-0.118939616 -0.112678684 -0.12739843 -0.07160065 0.09991305 0.010884385 -0.02375136 -0.036796786
0.050255895 -0.03922863 -0.12632795 0.046525903 -0.090296805 0.09248242 -0.053864118 -0.13953395
0.082526304 -0.111404926 0.0021666498 -0.035626207 -0.092695564 0.17113137 0.034418423 -0.120592035
0.0076181735 -0.103988715 0.030050939 -0.03162058 -0.031013368 -0.14228249 -0.031908665 -0.08232411
0.07852305 0.08855944 0.07660855 0.035353098 0.053513527 -0.10777864 -0.06369943 0.107805826
0.0625105 0.087356135 0.10642936 0.0875562 0.10263889 0.16242026 0.07454892 0.086324625
-0.09890483 0.06974652 0.06761546 0.060639236 -0.08000879 0.023785982 -0.099534854 -0.005616985
-0.10031364 0.0022738932 -0.14104266 0.07988028 0.042971116 -0.10808687 0.07419143 -0.0033954822
0.085620366 0.021884607 -0.13750918 0.11146811 0.098549694 -0.07542879 0.14448404 -0.10645919
0.05609718 -0.02115905 -0.09070148 0.0056451447 -0.13073625 -0.043233737 -0.099188246 -0.094957024
0.051961835 0.03519592 0.10703621 0.058817517 0.07527021 0.22055174 -0.058461614 0.072781004
0.082039095 0.04804048 0.011265424 0.0028152415 -0.1481394 -0.10767095 0.1300533 0.03743174
0.06801327 0.10522599 0.10288724 -0.041711796 0.033898566 0.08607417 0.059197202 0.06302873
-0.03524255 -0.09514219 0.100216046 -0.0550617 -0.12112682 0.076452844 0.12969126 -0.05087831
0.13534443 -0.026710127 0.0325623 0.09827827 0.039523415 -0.07043822 -0.08531228 0.016623586
-0.06589084 -0.068541065 0.06153168 0.029188374 -0.03614494 0.124730095 -0.009343297 0.08657233
-0.17395078 0.10793918 0.13474867 0.11223447 -0.14597666 0.00064661127 -0.00019333803 -0.0064508785
-0.07190443 -0.019616079 -0.17194495 -0.094790295 -0.06097004 0.08718724 0.00462335 -0.01832994
-0.13187402 -0.13805804 -0.06120372 0.06510715 -0.021941762 0.0989783 0.07312897 0.059369422
0.06071605 0.06195471 0.024007171 0.07477632 0.20177059 -0.0420366 0.06845804 -0.024233745
-0.05349549 0.08021593 0.09261419 -0.15344787 -0.083918266 -0.1430281 -0.08646766 0.07723378
-0.25834948 0.0538092 0.015465213 -0.004776712 0.09723414 0.056217697 0.13272585 0.08059473
-0.042091288 -0.028418876 -0.10617124 0.022560496 0.07442676 0.075345635 0.10902571 0.015942914
0.059255872 0.08919425 -0.033605445 -0.0443119 -0.047094285 0.022108542 -0.07056316 0.0841131

actor.2.bias f4 [64]
00000000: 4fde 14be 8597 813d d64a 54bd 95ba 86bd
00000010: 2d9d 53bb 1d5d 8d3d 3352 afbd e426 3dbd
00000020: 60fb 873c 8b88 043d 5222 d83d 2212 163d
00000030: 3b6c aebd 2a88 8f3d 9216 e0bd 69ac e1bd
00000040: 26e8 363c ed67 b4bd 756b b6bd 9c29 9c3d
00000050: 7271 f4bd 8370 15bd 4e11 bb3d 36e9 5dbd
00000060: 9446 66bd 39a7 ecbd 3dbe 09be ada3 01be
00000070: 3de9 8d3c d158 0f3e 401e dbbd 6030 e73c
00000080: 2a24 23bc dcff 50bd fca2 703c 9718 9f3d
00000090: 6a5b b4bd 0782 ea3d 9183 623d 9b73 c33d
000000a0: 6760 9d3d 0e52 1abd dbce bc3d fd14 5b3c
000000b0: 6cf7 503d ee1b 3ebc 434c 2fbd ec6b cd3d
000000c0: d000 cbbd b5ab acbc 0964 eb3c 000f 1fbd
000000d0: 5698 82b9 ad88 9d3d 02c4 40bd cbf5 c6bd
000000e0: e944 e43d f1cf 353d 4c7f 403d 1416 7ebd
000000f0: 3359 d23d 285d d3bd 3513 85bd fb5c 8e3d
-0.14537929 0.06327728 -0.05182918 -0.065785564 -0.003228973 0.069025256 -0.085606 -0.046179667
0.016599357 0.03235678 0.10553421 0.036638387 -0.08516737 0.07008393 -0.10941805 -0.11019213
0.011163747 -0.08808885 -0.089072146 0.07625124 -0.119357005 -0.036484253 0.0913416 -0.054177485
-0.056219652 -0.11555333 -0.13451476 -0.12660094 0.01732313 0.13998725 -0.10699129 0.02822131
-0.009957353 -0.051025257 0.014687296 0.07768362 -0.08806498 0.11450582 0.055301253 0.09543534
0.07684403 -0.03767591 0.09219142 0.013371703 0.05101721 -0.011603339 -0.04279734 0.1003035
-0.09912264 -0.02107797 0.028734224 -0.038832664 -0.0002490903 0.076920845 -0.047061928 -0.0971485
0.11145956 0.04438776 0.0469964 -0.062032774 0.1027092 -0.103205025 -0.06497804 0.06951328

actor.4.weight f4 [1, 64]
00000000: c9bd 013e 13cc 9e3d 2578 263e 3f7a 93bd
00000010: ab86 5bbd 2cf1 b7bc 6f05 ff3d 3dd6 77bd
00000020: 7dd4 b5bd 11bd 12bd 0237 fb3d 7218 41bd
00000030: ca86 ec3d 9d12 2abc afba aebc 075c 5ebd
00000040: abe2 8abd 9670 76bd e289 5abd ace0 15bd
00000050: 0dd9 4bbc a78a f63d 724b 3ebe e25c 663d
00000060: 983e 323e 2eaf 763e 4334 cc3d 5038 1a3e
00000070: 7677 783d abf5 4d3d 9884 a1bd 0b59 bfbc
00000080: 4a04 e4bd d63e 30be be8f bd3d a71d cc3d
00000090: 36de c33d 6746 1a3e 05b8 7a3d b24b 733d
000000a0: 32bd b93d b20e ccbd 91eb cfbd f593 003e
000000b0: d46f 1bbe c2d4 cabd f3bd 043e 3d47 bebd
000000c0: 0041 31bd 8fd8 78bd c299 373e 4724 4abe
000000d0: 60ac 483e 1872 21be 3806 abbd 32b1 b4bd
000000e0: 0cab 31be df5f 9d3b f7c3 df3d 1cb5 a1bd
000000f0: 08c4 9c3d 7614 f8bd ee4c d53d 86fd 923d
0.12670054 0.07753768 0.16256769 -0.07201051 -0.053595226 -0.022453867 0.12452208 -0.060507048
-0.088784195 -0.03582484 0.12266351 -0.047142453 0.115491465 -0.010380414 -0.021329252 -0.054286983
-0.06781515 -0.060165964 -0.05335415 -0.036591217 -0.012441886 0.120381646 -0.18583468 0.056240924
0.1740669 0.24090263 0.09970906 0.15060544 0.0606608 0.050283115 -0.078866184 -0.023357889
-0.111336306 -0.1721147 0.09255932 0.09966593 0.09563868 0.15065919 0.06121065 0.05939836
0.09069289 -0.099637404 -0.101523526 0.12556441 -0.15179378 -0.099038616 0.12963085 -0.092909314
-0.04327488 -0.0607534 0.17929748 -0.19740401 0.19597006 -0.1576618 -0.083507955 -0.0882286
-0.17350405 0.0048026885 0.10926049 -0.07895872 0.076545775 -0.121132776 0.10415064 0.07177262

critic.0.weight f4 [64, 5]
00000000: 53d2 9ebe 1017 f83e 33be 13bf 84a0 1a3d
00000010: 588f 4bbe d2f8 86bd 9c67 253f 3238 4bbe
00000020: db62 a93c 722c acbe eaff 1bbf 9c87 0b3f
00000030: f26b 04bf 002a bcbe 5008 213d d05c 18bd
00000040: 9a2f b03e 8927 a03f 3608 593d 355a b63e
00000050: 1948 1bbf 809b 00be e857 42be 616c 03bd
00000060: c8ee a6bc 205f 593e 750c 123f 7e57 c5be
00000070: a81d be3e b688 123a fc81 b0be fd17 893e
00000080: fb57 0fbf 06d8 4d3a 941d fbbd ebcb 173d
00000090: fdb6 1dbf b239 35bd 726f 4b3d b852 a13e
000000a0: 7a66 9ebc 5167 b8be 0ca8 493f 70f1 333d
000000b0: 96c1 703e 7500 5a3e 15cb 893d 640c 08bf
000000c0: 65fb 35bd 8ce4 f6bd 6995 403e 2a91 bd3e
000000d0: 426f 4abf e1df abbe 5a2e 9dbe 9672 18bf
000000e0: 7a13 93bd e248 81bd 406d 723e a34b d43d
000000f0: 013e 5cbe 9446 afbe e695 35bf 2588 b7be
00000100: 4cc0 613e 7fef 08be 9280 0f3f 1f73 2f3e
00000110: 5d48 1dbf 6c40 3abe 018f a0be 9a95 b33e
00000120: 1403 26bf 95b5 d0bc 8fde 07be 2b06 00bf
00000130: 8050 023e 4c94 b2be d0c9 0ebe e644 443e
00000140: f9ef de3e bc41 13bf 8716 e83e 4528 b93e
00000150: a02e 943e 909e 643e 092c 563e d6df 483e
00000160: 1c5c 5fbc e08b d93c aa5e 12bf 4b6d 093e
00000170: a1ae b13e 1d5c 7bbe abcd 833e f063 413e
00000180: 4bce d23e 375e 563d 322b dabe a110 7abe
00000190: cee4 973d a70b 12bf d28e adbd 6204 ac3d
000001a0: 3a3e 32be 9e61 51be 118d 90be 36d5 53bf
000001b0: dfb8 f0bd 32ac 5cbe dc16 97be 0975 7c3d
000001c0: ad88 c83d c11b 98be 2307 513e 3b14 31be
000001d0: 8544 d7be 142c 193e 5dac d73e 3792 3ebd
000001e0: 6c65 f9bc 463a b03e bd75 c83c ee48 933c
000001f0: b44a c23e 179d 9cbc 6c6b 57bd f3ba a53e
00000200: 17c3 813f 5796 a2bd 1423 ee3e 67e4 08bf
00000210: 91bb 4b3e 7096 5abc c505 973e bc38 92be
00000220: a7a2 043f 3683 a03d f158 ccbe a38b b73e
00000230: e6c0 093f 750a da3e 0129 dc3e a5de 2c3e
00000240: aad9 0cbd 3130 1abe 5712 eabe cb60 e83e
00000250: 6d34 34bd 1566 bdbc aede 703e 6157 dabd
00000260: b18a b3bb b36d 863e a3ec fdbc c4d9 9ebe
00000270: db2a 5b3e 4dad 65bd ac17 3cbf c39b b5bd
00000280: b628 bc3e 9202 293d 1d23 ed3d c124 14be
00000290: f49f cb3d 1126 01be da11 babd 50dc 183c
000002a0: b576 eebb ac1a 833c 5009 483d 00ae f9be
000002b0: 7193 453e a5a4 d5be fd96 553e 2291 da3d
000002c0: 7ed5 84be 7bc3 2e3f 7df8 14bf 9da6 29be
000002d0: 542e 0abf 9156 f33d d748 c53d 1f0c 92be
000002e0: 32de 40bd a8e8 3b3f 6101 683e 3996 88be
000002f0: ccca 7e3e a51d 61bd a9b6 16bd ceb2 973e
00000300: b86b febd dae0 26be 582e 6fbc ab89 bb3e
00000310: 1d23 b13e a9e9 bc3c 288e 9e3e ae7e 4f3e
00000320: db92 0fbe 944d 3b3e 98d5 513f 4d5d 613e
00000330: ad49 603e 756c 71be 03a6 513e 4593 99bf
00000340: c2fc b3bd 90dd 53be 4e59 f6bb 288c 64be
00000350: 5f3b 653f f970 203d b3f0 18be 113a d13b
00000360: 7d88 78be baf0 953f 0afd 923d 11d3 6a3e
00000370: 569c d53e f338 02bf 0f04 9b3d dca5 bd3d
00000380: 8a18 843e 19ef ff3c 25df 22bf d441 06bf
00000390: 2710 b8bd 7597 033e 006d b1bd 4b8b 083e
000003a0: 7e87 13bf fc5a 84bd 6c1b 733e df80 a83d
000003b0: f193 c33e 1b2c bfbd c409 ffbd 94e4 f8bd
000003c0: 668f 94bd 813c 19bf 24a1 533f 59bd e53c
000003d0: 0312 8c3e 94d1 cd3e 064b 36be 9c8d 23bf
000003e0: 4984 a5be 6e06 003e 11b8 70be b2d4 e6be
000003f0: 54f5 bcbe d096 a33e 0baf 903e 5ebb a83e
-0.3101984 0.48455095 -0.57712096 0.037750736 -0.198789 -0.065904275 0.6461122 -0.19845656
0.02067702 -0.3362766 -0.6093737 0.545038 -0.5172721 -0.36750793 0.039314568 -0.037197888
0.34411317 1.2512065 0.052986346 0.35615698 -0.6065689 -0.12559319 -0.18978846 -0.03208578
-0.020377532 0.21227694 0.5705026 -0.38543314 0.37132 0.00055898295 -0.3447417 0.26776114
-0.5599362 0.00078523194 -0.12261501 0.037059706 -0.6160734 -0.044244476 0.04966683 0.31508422
-0.019335974 -0.36016324 0.78772044 0.043931425 0.23511347 0.21289237 0.06728188 -0.53143907
-0.0444292 -0.120553106 0.18806995 0.37024814 -0.79076016 -0.33569244 -0.30699426 -0.59549844
-0.07181449 -0.063127294 0.23674488 0.10365989 -0.21508028 -0.34233534 -0.7093185 -0.35846058
0.22046012 -0.1337261 0.5605556 0.17133759 -0.6143854 -0.18188637 -0.31359103 0.35075074
-0.64848447 -0.02547721 -0.13268493 -0.5000941 0.12726021 -0.34878767 -0.13944173 0.19166908
0.4354246 -0.5752218 0.45329687 0.36163536 0.28941822 0.22326112 0.20915236 0.19616637
-0.0136328 0.026555955 -0.57175696 0.13420598 0.34703544 -0.24546857 0.2574285 0.1888578
0.41173014 0.052335944 -0.4261108 -0.24420406 0.07416688 -0.5704903 -0.084745064 0.083992735
-0.1740655 -0.20447394 -0.28232625 -0.8274721 -0.11754011 -0.21550062 -0.29509628 0.06163505
0.09791694 -0.29708675 0.20412879 -0.17292874 -0.42044464 0.1495822 0.4212369 -0.04652616
-0.03044387 0.3441946 0.024470204 0.017979112 0.3794762 -0.019117875 -0.05259268 0.32369193
1.0137662 -0.07938831 0.46511137 -0.53473514 0.1989577 -0.013341531 0.2949659 -0.2855891
0.5181069 0.078375265 -0.39911607 0.35848722 0.53809965 0.42586103 0.43000033 0.16881807
-0.034387268 -0.15057446 -0.45717117 0.45386347 -0.04399531 -0.023119966 0.23522446 -0.106611975
-0.00547918 0.2625557 -0.030996626 -0.31025517 0.21403067 -0.056073476 -0.7347362 -0.088676
0.3674981 0.041262217 0.11578963 -0.14467146 0.09942618 -0.12612177 -0.09085436 0.00932987
-0.0072773346 0.01600393 0.048837006 -0.48765564 0.19294526 -0.41727176 0.20858379 0.10672213
-0.25944132 0.6826703 -0.58191663 -0.16567464 -0.5397694 0.118817456 0.09633034 -0.28524873
-0.047086902 0.7340188 0.22656776 -0.2667711 0.24882048 -0.05495991 -0.036795292 0.29628605
-0.124228895 -0.16296712 -0.014598452 0.3662847 0.34597102 0.023060637 0.30967832 0.20263168
-0.14020865 0.18291312 0.81966543 0.22008248 0.21903105 -0.2357653 0.20473485 -1.1998068
-0.08788444 -0.20689988 -0.00751797 -0.2231909 0.8954372 0.03917024 -0.1493557 0.006385096
-0.24270816 1.1714089 0.071771696 0.22932078 0.41720837 -0.5086815 0.075691335 0.09260151
0.25799972 0.03124194 -0.6362174 -0.52444196 -0.08987456 0.12850745 -0.08663368 0.13334386
-0.5762862 -0.064626664 0.2374093 0.08227705 0.38198808 -0.09334584 -0.124530345 -0.12152973
-0.072539136 -0.59857947 0.82667756 0.02804439 0.27357492 0.40198958 -0.17802057 -0.63887954
-0.32327488 0.12502453 -0.23507716 -0.4508415 -0.3690592 0.31950998 0.28258547 0.3295545

critic.0.bias f4 [64]
00000000: 327b 1fbf a416 06bf 676f 41be 40ac 873e
00000010: 9782 c7bd 9300 933c 0896 3bbe f844 dc3e
00000020: 6baa 0fbe 4f57 ed3e 4667 09be 5bf3 503e
00000030: 69ee b3bd 0be5 63be 573b 54be 8d35 b03d
00000040: 8c69 c63e 1fdd 02bd cf47 cfbe f06f 043e
00000050: 92db 123f afc4 cbbd e195 e2bd 9e1c 94be
00000060: 119f b8be 6c0e e23d aa8c 9abe 3719 09bf
00000070: ebe1 72be 8053 8a3e d32e 8c3e e8ce 8b3e
00000080: 5ccc 79be 3a08 f5be c480 77be 9d24 bc3e
00000090: 8c37 2abe 4a19 ddbe 0af9 df3e 6bde 37be
000000a0: 5bcf bd3e 93fe 8e3d 6a24 47be 6a49 14be
000000b0: 7a1c 79be af8b c23e d9a7 8fbe 66ed e1be
000000c0: f3ff 4dbe 426a 34be 6301 d63e b83f 82be
000000d0: 0cf4 23be 12b9 0d3f 94af e13d ff6f 05bf
000000e0: a5b0 af3e 5789 11bf 97b0 b73e 7543 db3e
000000f0: eaec 093e f57a b6be eebb 713e 94db bc3e
-0.62297356 -0.52378297 -0.18890153 0.26498604 -0.09741705 0.01794461 -0.18318951 0.4302137
-0.14029853 0.46355674 -0.13418302 0.20405333 -0.087857075 -0.22255342 -0.20725761 0.08603964
0.387524 -0.03194916 -0.40484473 0.12933326 0.5736629 -0.09949624 -0.110637434 -0.28928083
-0.36058858 0.11037907 -0.30185443 -0.535541 -0.23718993 0.2701683 0.27379474 0.27306294
-0.24394363 -0.4785784 -0.24170214 0.36746684 -0.16622752 -0.43183357 0.4374469 -0.1795594
0.37072262 0.0698215 -0.19447485 -0.1448113 -0.24327269 0.37997195 -0.28057745 -0.44126433
-0.20117168 -0.17618659 0.41797933 -0.2543924 -0.16011065 0.5536052 0.11019817 -0.5212402
0.34314457 -0.5685019 0.35876915 0.42824903 0.13469282 -0.35640684 0.23606846 0.36886275

critic.2.weight f4 [64, 64]
00000000: 7b49 963d 112d 273d 0172 423e 5c20 5dbe
00000010: 220a b7bd ed73 5f3d abd0 62bc c812 4f3d
00000020: 851b 2cbd 62be 883d f504 eebd 3633 ac3c
00000030: 82c5 b3bd 36fc 97bd 6e86 adbc 12de 303d
00000040: 3cd2 f13b 5bd8 1dbd 8ee6 99bd 5e7c 453d
00000050: 72df 30bd af8d a73c c118 cc3c 2a97 843d
00000060: 5547 8ebd 737c 71bd 47b6 4d3d 5cb1 a53b
00000070: 8603 39bd 0e28 2e3e 7eb1 f73d 49e2 763d
00000080: 6d99 d53b 965d a8bd d777 b9bc 12e2 b8bd
00000090: cf97 133d f9c7 6e3e 8dcc 993d 6044 c43c
000000a0: 0a48 04be 33e8 e6bb 9ea1 f0bd 32ba 053e
000000b0: 08c2 5fbd ca65 0f3e 6463 11be ca21 ca3d
000000c0: 4f68 0c3e 85d0 fdbd a3b1 2c3d 6c4f 863d
000000d0: 45be abbd 7143 8cbd 9447 ecbd cb49 c0be
000000e0: b172 0b3e 5f49 fcbd bb44 cbbd 7179 f6bd
000000f0: 2273 2c3e 4b0c 55be d8ab cbbd 8fc4 c2bd
00000100: a92c 75be 8e1f a23d 085c c4bd bb3a cb3d
00000110: b1fe 173d 7307 0d3e aa85 17bd b3bd 83bd
00000120: d2bf f8bd 6ff2 f23d 82cb ccbd b844 303d
00000130: 5af1 e8bc ebf4 e23c e201 25be 68dd 033d
00000140: 34f2 823d 5051 023e a311 93bd 6c53 6abd
00000150: ae2b fabc 011e 8e3d 0f0a 90bd f75b 153d
00000160: ef8c 1b3d a8bd 083d 6c47 3cbe ea62 8a3d
00000170: dd09 dfbd 0e44 74be 48a6 733d 2132 df3d
00000180: d52f 83bd 37ec 1a3e aaac 3dbe b589 35be
00000190: fd18 17bd 2dc4 00be 082b 0fbe 56ac 613c
000001a0: 2286 ef3c 8d86 5a3d d419 16bd 9318 bfbd
000001b0: 62a0 9abc 32d8 acbd 27e4 163e e1bc 4f3d
000001c0: 5a7e 7fbe 2054 2b3d 86aa 4abc 570c f23c
000001d0: 2e3a e03d a74a 3c3e 6ced d0bd ac7b e33d
000001e0: 5ab4 27bd 7fef 293e 0c99 1a3e bbef acbd
000001f0: f9a0 0c3d 17fd b23d f50a 823d 9bed ebbd
00000200: 9620 48be 8c83 02be d1c5 ac3d 1bfd dcbc
00000210: 2320 5cbe 495b 0e3a 0a51 a7bd b154 9c3e
00000220: adb3 b33d 6775 db3d 7a66 f0bd 787b 353d
00000230: eae1 0d3e 06c3 52be 4f32 82bc 8d45 5fbc
00000240: dbbe 913e b9ae f6bb 9201 94bd 18b4 2fbd
00000250: 2910 fb3d 8b6c 74bd ce9d f2bc 34ef 08be
00000260: 4ef6 1a3d 05dc bfbd b8a3 703e 2dd5 a3bd
00000270: b3a1 783d d7ab 2e3e 230d c83d d347 c3bd
00000280: 4a82 2abe c2a7 7bbe 9c97 083e f538 5a3e
00000290: 5a39 1ebe 35f9 523e 455b 2b3e 7dae 82bd
000002a0: 762e 873d 4927 aebd fdbd 1fbe 5d55 fe3d
000002b0: 974c 753e dfab 9c3e c29a 87bd 2e3c 46be
000002c0: 8d2d 7b3e ce93 9fbc 1060 1b3e bb17 e03d
000002d0: f527 353d b617 06bd 2486 af3d 5cd0 b7bd
000002e0: 3e49 f8bc 4197 1cbe 49b3 4ebe 68c6 8cbd
000002f0: b3d6 203e e308 353d 1df4 11bd 7e13 b83b
00000300: 559a 20bd b8bb 0abd d2d2 7cbe 09ea 4f3e
00000310: 2905 ddbd 6b7b 80bd d545 913b 71c9 c53c
00000320: 7a01 a33d cb03 a93d b400 4c3c 415a 25bd
00000330: 44ac ccbd a00c 11be 02e5 cbbd 8e46 9cbd
00000340: d950 dbbd d7e9 9fbc 564e d3bd 12d3 d63d
00000350: f7f1 833d 8e20 9b3d 0be1 b53d 4c59 70bd
00000360: 6533 f93d 4a58 523d bd53 6ebd 5440 893d
00000370: c71c 743d fb4f 75bd c650 7ebb d9ac c4bd
00000380: 69e8 073e 897f 673e dbfa f5bd 4490 c33d
00000390: 7ecf dfbd 478f 5abe 41dc 2dbe 32fe 83bd
000003a0: dea1 07bd 636d b3bc 837a 583d fb9e e2bd
000003b0: deb8 183d 08f1 ba3d f28a 4a3d 86dc 18be
000003c0: 43f3 8abd 0ff7 843d ff74 f9bc 1b44 b13d
000003d0: 2b17 653e 62f5 293e 2b5e 17be 34bd 293e
000003e0: 4c4d ef3d 4d32 163c d7dc 843e fa9e bbbd
000003f0: 6172 a53d ff3c 0e3e b20c a63c bad6 1d3e
0.07338234 0.040814463 0.18988802 -0.21594375 -0.089374796 0.054553915 -0.013843696 0.05055502
-0.042018432 0.06676938 -0.11622039 0.021020513 -0.08777906 -0.07421152 -0.021182265 0.043180533
0.007379798 -0.03853641 -0.07514678 0.04821431 -0.043181844 0.020453302 0.024914147 0.06474145
-0.06947199 -0.058956575 0.05022266 0.0050565433 -0.045169376 0.17007467 0.12094401 0.060274396
0.006518534 -0.08220975 -0.022640152 -0.090274945 0.036033448 0.23318471 0.07509718 0.023958385
-0.12918106 -0.0070467233 -0.11749576 0.13059309 -0.054628402 0.14003673 -0.14198071 0.09869726
0.13711666 -0.123932876 0.042161595 0.06558117 -0.083859004 -0.06848801 -0.1153709 -0.375563
0.1361797 -0.12318682 -0.09925219 -0.12034882 0.16840795 -0.2080547 -0.09944886 -0.09510147
-0.23942818 0.07916175 -0.09587866 0.09923311 0.037108127 0.13772373 -0.036992706 -0.06432667
-0.12145962 0.11862647 -0.099997535 0.043034285 -0.028435398 0.027704677 -0.16114 0.03219357
0.06393853 0.12726331 -0.07181098 -0.057208464 -0.030538406 0.069393165 -0.070331685 0.036464658
0.0379762 0.033383995 -0.1838662 0.067571476 -0.10890553 -0.23854086 0.05948475 0.10898233
-0.064056076 0.15129171 -0.18522897 -0.17728312 -0.036889065 -0.12574835 -0.13981259 0.013773998
0.029238764 0.053350974 -0.036645725 -0.09330859 -0.018875305 -0.084396735 0.1473547 0.05071724
-0.24950543 0.041828275 -0.0123697575 0.0295469 0.10948597 0.18387853 -0.10201535 0.11107573
-0.04094348 0.16595267 0.15097445 -0.084441625 0.034333203 0.08739679 0.06349746 -0.11519929
-0.1954368 -0.12745494 0.08436168 -0.026976159 -0.21496634 0.00054304727 -0.08169754 0.30533364
0.08774505 0.10715752 -0.11738296 0.044307202 0.1385571 -0.20582208 -0.01589313 -0.013627422
0.28465924 -0.007528153 -0.07226862 -0.04289636 0.12258942 -0.059673827 -0.029616263 -0.13372499
0.03783255 -0.09368137 0.23499954 -0.079996444 0.060701083 0.17057739 0.09768131 -0.09535184
-0.16651264 -0.24575713 0.13339084 0.2131079 -0.15451565 0.20602877 0.16734035 -0.06380937
0.066006586 -0.08503587 -0.15599819 0.124186255 0.23954998 0.30599877 -0.066213146 -0.19358894
0.24529095 -0.019479658 0.15173364 0.10942026 0.04422756 -0.032737456 0.08570507 -0.08975288
-0.030308362 -0.15292074 -0.2018558 -0.068737805 0.15706901 0.04419793 -0.035633195 0.005617558
-0.039209682 -0.03387043 -0.24689797 0.20304121 -0.10792 -0.0627354 0.0044333735 0.024143906
0.07959266 0.082526766 0.0124513395 -0.040369276 -0.099937946 -0.14164972 -0.09955789 -0.07630645
-0.1070878 -0.019520683 -0.10317676 0.10489477 0.064426355 0.07574569 0.08880814 -0.05867891
0.12168006 0.05135373 -0.058185328 0.06701723 0.059597757 -0.05989073 -0.003880547 -0.096032806
0.13272251 0.22607245 -0.120107375 0.09549001 -0.10928248 -0.21343718 -0.16978551 -0.06444968
-0.033113353 -0.021902746 0.05285121 -0.11065479 0.037285678 0.09128004 0.049448915 -0.14927873
-0.0678468 0.06492435 -0.030451296 0.08655568 0.22372119 0.16597512 -0.14782016 0.16576082
0.11684665 0.009167266 0.25949737 -0.09161182 0.08078457 0.13890456 0.020269725 0.15413943

critic.2.bias f4 [64]
00000000: 9c86 663e 83f5 6abe 8662 363e 152c ccbd
00000010: 11d3 123e a7db a53c 5a08 2dbe 2a6a 98bc
00000020: 17a1 343e 297c b4bd 5e2f ce3d d39e 01be
00000030: 0eb2 62be f015 babb aad5 35be eb9e 69bc
00000040: 523c a3be ccc4 d53d e978 7f3a 3d21 073c
00000050: 7870 1b3e b28b 70be 934a 073c 48a2 2cbd
00000060: 98fc c1bd aacc b1bd 553f 53bc a5dd 66be
00000070: 39d5 cb3d 1c3d c2be 6fc9 893b 4ef2 963e
00000080: d163 e53c 81cc 133e 1f2b d33c 1a5d db3d
00000090: 95bd 84bb 6b78 3c3d 9de4 2bbd c9d4 92be
000000a0: 3262 523d cf57 5ebe ffa9 003e 475d 06bc
000000b0: 6c5b 7abe 11a5 a83d fe0c af3e 01d5 d5bd
000000c0: bd71 2bbe e788 05be ba09 093e ce98 953b
000000d0: 40ad 073e 4566 89bd 4a23 77be 0d0b 7e3e
000000e0: a4cd 933d aab1 963e c905 92bd 92f0 00be
000000f0: a636 ffbe b44d 353e 6073 6c3b 0595 21bd
0.22512287 -0.22945218 0.17811021 -0.099693455 0.14338328 0.02024634 -0.16897717 -0.01860531
0.17639576 -0.08812744 0.10067628 -0.12658243 -0.22138235 -0.0056788847 -0.17757288 -0.01425908
-0.31881958 0.10437927 0.0009745495 0.008247671 0.15179622 -0.2349079 0.008257526 -0.04214695
-0.094720066 -0.08681615 -0.0128935175 -0.22545488 0.09952778 -0.37937248 0.004204921 0.2948174
0.028001698 0.14433481 0.025777398 0.10711117 -0.0040509203 0.046013277 -0.04196607 -0.28677967
0.051363178 -0.21713184 0.12564848 -0.00820095 -0.24448937 0.08234609 0.341896 -0.10441018
-0.16742606 -0.13040505 0.13382617 0.004565335 0.13249683 -0.067089595 -0.24134555 0.24808903
0.07216957 0.29432422 -0.0713001 -0.1259177 -0.4984638 0.17705423 0.003607951 -0.039448757

critic.4.weight f4 [1, 64]
00000000: 67e1 17be 518b 453e 13bc 4cbe 363c 623d
00000010: 91ce 233e 583a 34be 5156 533e ca28 4b3e
00000020: 3ced d7bd 10f8 a8bd 0bf1 b7bd 6afc 543e
00000030: ef2a 673e 01de c13d 388d 063e dfe8 e7bd
00000040: 36c3 b9be b237 1dbd c19f 3e3d 9ba0 36be
00000050: 9e77 873e 7c15 8c3e a180 093c dc34 d83d
00000060: 6292 0bbe f243 febd 0dd7 6dbd afe1 3f3e
00000070: 10c1 34bd 495e 483e 8258 f3bd ec31 9abe
00000080: 200b 923d c5b4 8d3e 6c75 4dbe 8ece 873e
00000090: f0b3 423e 81de adbd 503f 273e 3acc 503e
000000a0: e351 b53e 2fa5 ed3d 9a0d a43e 67d0 0a3d
000000b0: 3c9b 1f3e 62f4 d93d db5c 4fbe 01c2 503e
000000c0: 50eb 3fbc c291 c23c b4ed 683e 2c58 93bd
000000d0: 4032 aebd 9b45 093e 48c0 813e e6af 2fbe
000000e0: 8eed a63c d7a0 1abe 6bcc 11be db51 04be
000000f0: e84c 343e 700f 34be f261 92bd 9de3 f53d
-0.14832078 0.19291426 -0.1999362 0.055233203 0.15996768 -0.17600381 0.20638396 0.19839779
-0.10543296 -0.08250439 -0.08981522 0.20799413 0.22574972 0.09466172 0.13139808 -0.113237135
-0.36281747 -0.038383193 0.046539072 -0.17834704 0.26458448 0.2736014 0.008392484 0.10556957
-0.1363006 -0.12415303 -0.058066417 0.18738435 -0.04412943 0.19567217 -0.11882116 -0.30116212
0.07131028 0.2767698 -0.20064324 0.26524776 0.19013953 -0.08489705 0.16332746 0.20390406
0.35414037 0.11603772 0.32041627 0.033890154 0.15586561 0.106423154 -0.20250265 0.20386507
-0.011713818 0.023751143 0.22746927 -0.07194552 -0.08505678 0.13405459 0.2534201 -0.17156944
0.020376947 -0.15100418 -0.14238136 -0.1292185 0.17607462 -0.17584014 -0.07147588 0.120063044
