controller/PPO_CartPole-dm_0_60000.pth (torch, 41249 bytes, 10 tensors)

actor.0.weight f4 [64, 5]
000000 c1 2c fc 3d fb 53 ca be 00 4c cd be f8 e2 0f 3e
       0.12313224 -0.39517197 -0.40097046 0.14051425
000010 4f 83 3b bd 62 c3 c9 3d 2b 6b 52 3d b7 a7 8c bc
       -0.045779523 0.098517194 0.051371735 -0.017169816
000020 97 08 27 3d 91 3f 18 bd 80 e1 c4 3d 32 6f 19 3f
       0.040779676 -0.037169997 0.09613323 0.59935296
000030 19 9a 31 3e 39 b8 fb 3d 0e e9 77 3e f0 fc ce be
       0.1734394 0.12290997 0.24209997 -0.4042735
000040 69 4e a7 be 8f 28 01 3f 2a c8 0a 3e fe fc 2d bd
       -0.3267701 0.5045251 0.13552919 -0.0424776
000050 2b 31 fe 3d db fa 13 bf ba c2 c9 be 7f 36 8c 3e
       0.12411722 -0.5780465 -0.39406377 0.27385327
000060 a0 bc a7 be cf b7 b9 3d 6c 6d 06 3f ca f1 d2 3e
       -0.32761097 0.09068262 0.52510715 0.41200095
000070 1b 80 0b 3e 40 83 35 3e 88 e0 99 3e 8f 7d b6 3c
       0.13623087 0.17725849 0.30054116 0.022276668
000080 2d 48 e6 be b7 1a ff bd 57 44 99 3e f3 87 cc be
       -0.4497694 -0.12456267 0.29934952 -0.3994747
000090 6b 23 b4 3b 24 1f 99 3d a0 08 a0 3e be e3 86 be
       0.005497386 0.07476643 0.3125658 -0.26345628
0000a0 76 be 50 3c 6a 16 b7 3e 08 06 d2 3e 53 9e df 3e
       0.012740722 0.35759288 0.41020226 0.4367548
0000b0 01 76 d6 be 9e f2 0e 3e 18 af 6b 3d 74 07 2a be
       -0.41886905 0.13959739 0.05754003 -0.16604406
0000c0 6e 51 36 be 9d 8f 90 bd ec 71 b1 be 0d f1 ca be
       -0.178045 -0.07058642 -0.34657228 -0.39637032
0000d0 4c a1 38 bd b0 fd 29 be a3 1d 62 3d 63 72 be be
       -0.0450757 -0.1660068 0.055204045 -0.37196645
0000e0 bb 74 81 3e f7 8d 58 bc 75 8f dd 3e 9f 5b ee be
       0.2528437 -0.013217441 0.43273512 -0.46554276
0000f0 98 ab 83 be 37 0c ae be 35 39 f1 bd d9 d5 c3 be
       -0.25716853 -0.33993694 -0.117784895 -0.3824909
000100 52 4f b2 bd 3a 35 e3 3c c4 f9 b5 3e 19 3a 36 3e
       -0.087065354 0.027735341 0.3554212 0.177956
000110 ac c0 8b 3e a2 62 a4 be 92 c4 44 be c8 6c b5 3d
       0.27295434 -0.321065 -0.1921561 0.08858639
000120 ad 82 59 be 8d 3a 5a 3d 04 6b 0f bf b5 3b 40 3e
       -0.21241255 0.053278495 -0.5602267 0.18772776
000130 e0 2d ab be 81 ea bb 3d 42 a6 36 be 25 b8 c4 bd
       -0.33433437 0.091755874 -0.1783686 -0.09605435
000140 52 a9 93 be de cc 7d be 51 d4 8c bc 8c 0c 9d be
       -0.2884012 -0.24785182 -0.017191084 -0.30673635
000150 d3 0b 59 3e 81 5c a5 3e 6b 49 fa be 58 4d ae be
       0.21195917 0.32297137 -0.48884138 -0.34043384
000160 4d 60 ab 3e a1 ec 93 be 43 99 bb be f0 c1 15 bf
       0.3347191 -0.2889147 -0.36640367 -0.5849905
000170 97 cb 75 3e ca e0 d1 be 91 0e c8 3e 17 ae d3 3d
       0.24003445 -0.40991813 0.39073613 0.103359394
000180 61 c6 2d be 79 89 dc b8 cb 81 b4 be a6 95 f2 3d
       -0.16970207 -0.00010516024 -0.35255274 0.118449494
000190 9f dd 52 3e 3b 53 1d 3e d1 8a e5 3e ef 6f 78 bd
       0.20592354 0.15363781 0.4483247 -0.060653623
0001a0 8e 8a 4a be 9a 87 9d 3d 37 af 1a 3f 3a 54 e2 3e
       -0.19779417 0.076918796 0.60423607 0.44204885
0001b0 42 0f 25 3e e2 cb a6 bd 98 1a 75 be 7a b5 77 be
       0.16119102 -0.08144356 -0.23935926 -0.24190322
0001c0 8b 82 9d 3d 42 e2 1e 3d 44 0d 05 3c 50 db 87 be
       0.07690915 0.038789995 0.008120839 -0.2653451
0001d0 f2 09 85 bd b7 7f 92 3e ae 5f 70 be e3 10 ea be
       -0.064960375 0.28613064 -0.23473999 -0.4571601
0001e0 ab a4 26 bd 61 fe fc bd 13 f6 51 3e dd 55 6f be
       -0.040684383 -0.123532064 0.20504026 -0.23372598
0001f0 af 2b f4 3e 8e b2 0b be 9c 10 88 bd 71 1b fd 3e
       0.47689578 -0.13642332 -0.06643793 0.49435
000200 86 b4 b4 be 60 03 27 be 70 a5 1e 3e 7b 71 8a 3c
       -0.35293978 -0.16309881 0.15492797 0.016899815
000210 93 bc 0f bf ae 6f 1f 3e d2 44 17 be fa b3 32 3d
       -0.56147116 0.15569946 -0.14772347 0.04362867
000220 3e 3c bd 3e f0 8d cd 3e a4 03 9c be ce b2 42 3e
       0.36960024 0.40147352 -0.30471528 0.19013521
000230 0b 5f b8 be c7 e2 f5 3e 10 43 bc 3c 93 79 c7 3e
       -0.36010012 0.4802458 0.022981197 0.3895994
000240 e1 51 47 3e 0f ae cc 3e a6 ed 11 3d 37 4e 41 be
       0.19464828 0.39976546 0.03562703 -0.18877493
000250 ed 2c b8 be 2a 6d 50 bd 6f 0d 7d be c1 a3 21 3d
       -0.35971776 -0.050885357 -0.24712156 0.03946281
000260 41 c7 9f 3e cf 59 1e 3e c7 ac f1 be 3d 59 83 3e
       0.31206706 0.15463947 -0.4720213 0.2565402
000270 7f fb 62 be 23 5f 17 3f 07 74 20 3b e9 ab 7d be
       -0.2216625 0.5912954 0.002448322 -0.2477261
000280 94 74 8a be bc c2 87 be 53 ed 77 be a4 80 c1 be
       -0.27042067 -0.26515758 -0.24211626 -0.37793458
000290 42 b3 6a 3e 3c 22 19 be 98 02 e7 be ce ff 09 3f
       0.22919944 -0.14954466 -0.45119166 0.5390595
0002a0 59 73 de be 4e ac c3 3e d3 0a bc 3a 71 1c 87 bd
       -0.43447378 0.38217396 0.0014346488 -0.06597222
0002b0 fa 1f 72 3e c2 21 92 be cd 65 c0 3e ad b1 b5 3e
       0.2364501 -0.2854138 0.37577668 0.35487118
0002c0 84 de 0e bf 9e 78 72 3e a9 2a 25 bd 26 34 68 bd
       -0.5580828 0.23678824 -0.040323887 -0.056690358
0002d0 98 57 49 bd 24 19 95 be 08 46 91 3c ef 69 ce be
       -0.0491558 -0.29120743 0.017733589 -0.40315196
0002e0 f1 4f b2 be d7 4c 5c be e5 f5 d0 be d5 47 d2 be
       -0.34826615 -0.21513687 -0.40812603 -0.41070428
0002f0 5d 17 07 3f 3b 13 1b be 08 04 cc 3e f7 16 39 3d
       0.52770025 -0.15144055 0.39846826 0.045187917
000300 de 59 ed be 8d 02 9e be c1 b3 db be e7 cf e1 3d
       -0.46357626 -0.3086132 -0.4291058 0.11025982
000310 21 0b 58 3e 78 8c 83 bd ba b3 89 be 13 12 83 be
       0.21097995 -0.06423277 -0.26894933 -0.25599727
000320 de f9 2b 3e c5 8b 11 bf fd c4 aa be 9c 42 c9 be
       0.16794536 -0.56853896 -0.33353415 -0.3930863
000330 47 a1 46 be 7e a9 70 3e 33 ee d7 3e 66 b8 9d bd
       -0.1939746 0.23502156 0.4217392 -0.07701187
000340 f3 41 ea 3d 67 8e 14 3e 6f 29 93 bc 8d 44 06 be
       0.1143836 0.14507447 -0.017964093 -0.13112088
000350 94 2d af be c5 fa 55 3e cd 2e 93 be b8 19 57 be
       -0.3421446 0.20896442 -0.28746644 -0.21005905
000360 f7 cd 9b 3e 9f c4 31 be 10 d7 b0 bd ef 45 c0 3e
       0.30430576 -0.17360161 -0.0863477 0.37553355
000370 53 16 c3 be b8 dd c4 3e 38 df c0 be df e3 01 bd
       -0.3810297 0.38450408 -0.37670302 -0.031711455
000380 0b 4f e0 be ad 2c c0 be c4 70 48 be 3f 81 42 bd
       -0.43810305 -0.37534085 -0.19574267 -0.04748654
000390 bd 1c 72 3e dd c3 a4 bd 81 25 8e bd 59 09 cd 3e
       0.23643775 -0.080451705 -0.06940747 0.40046194
0003a0 37 50 55 bd 7c 92 f3 3e ff 13 48 be 56 6f d4 3e
       -0.052078452 0.47572696 -0.19538878 0.41491193
0003b0 e9 a7 bd 3e 1b 75 c1 3e 60 1a 4d bd 8e bf 96 be
       0.37042168 0.37784657 -0.05007398 -0.2944302
0003c0 29 db 1c 3d 5a 3e a7 be 15 03 5b 3c 92 91 85 be
       0.038294945 -0.32664758 0.013367434 -0.26087624
0003d0 3b 46 bc 3e 70 9f 8c 3e 33 88 fa be 2a 2b 90 bc
       0.36772332 0.2746539 -0.48932037 -0.017598707
0003e0 4c fd bd 3d a7 74 de bd cc c9 f8 3e 5a 02 10 be
       0.09276828 -0.108620934 0.4859146 -0.14063397
0003f0 64 85 be be 8c d5 b5 be 28 6b 36 be 1f 0f c4 bd
       -0.37211144 -0.35514486 -0.17814314 -0.095731966

actor.0.bias f4 [64]
000000 25 50 8e be c4 bf 62 3c 4b cd 91 be 0e da 9e be
       -0.2779552 0.013839666 -0.2847694 -0.31025738
000010 9c 5c 97 be c4 b9 63 bd 6d de f5 3e de 56 ba 3b
       -0.29562843 -0.05559708 0.4802126 0.005686625
000020 01 54 c6 be 3b a9 2a 3d 16 70 aa 3d ef 45 c9 be
       -0.38735965 0.041665297 0.0832216 -0.39311168
000030 ff a8 91 3e 83 1b 3f be 9e da 6d bd 54 68 d7 be
       0.28449246 -0.18662839 -0.058069818 -0.42071784
000040 68 84 2e 3e 6e a5 83 be 6c 79 32 3e 62 b2 a7 3d
       0.17042696 -0.2571215 0.17429131 0.08188321
000050 50 6c 83 ba aa b5 5f be 8e de 0b bd 84 a4 2d bd
       -0.0010026786 -0.21846643 -0.03414779 -0.042393222
000060 57 22 51 3e 9e be f9 be bb 9b 5e 3d 55 5d 8e 3e
       0.20423256 -0.48778242 0.054347735 0.27805582
000070 25 af 49 bc 4c dc 8f bd 9c 32 c7 3e 06 4c a3 be
       -0.012309824 -0.0702444 0.389058 -0.3189394
000080 26 9a c6 be 4b d1 1d 3e 1f bc 24 bd ef b3 37 bc
       -0.3878948 0.1541187 -0.04021847 -0.011212333
000090 2f b0 b7 be 7c 0b a6 be 63 11 5f bd d9 fb bc 3e
       -0.35876605 -0.32430637 -0.05445994 0.36910895
0000a0 f7 ba 59 bd 3d f8 e0 be 3b 58 39 3e 48 b4 48 3e
       -0.05315682 -0.4393939 0.18100064 0.19600022
0000b0 dc 38 a7 be 25 76 c1 3e d0 21 28 bd bf bc bf 3e
       -0.32660568 0.3778545 -0.04104787 0.3744869
0000c0 6e 4e a1 3e 90 8d e0 be 91 87 12 3e bd d4 36 3a
       0.3150515 -0.43858004 0.14309527 0.00069744495
0000d0 b5 b9 cd be b7 5b 5e bd 52 46 a4 be db 5b f8 be
       -0.40180746 -0.054286685 -0.320849 -0.4850758
0000e0 51 a6 e3 be e5 31 90 3d 09 c4 d3 3e 6a 2c f1 3d
       -0.44462827 0.070407666 0.413605 0.117760494
0000f0 27 90 91 be 12 24 28 3e 4b 32 a7 be 7b 83 3c 3e
       -0.28430292 0.1642001 -0.32655558 0.18409531

actor.2.weight f4 [64, 64]
000000 c2 7a 10 be 2f 3e 1a 3d 45 7c dc bd 5e c9 a7 3d
       -0.14109328 0.03765696 -0.1076589 0.081927046
000010 c0 d8 89 bd 10 d9 d8 bd cf 9d 9c bd 51 99 b1 3d
       -0.06730795 -0.105882764 -0.07647287 0.08671821
000020 88 41 a0 3c ba bc 53 bd e2 ea a1 bc 5d d5 10 bd
       0.019562498 -0.051693656 -0.019765321 -0.03535973
000030 19 68 a0 bc 30 08 92 bd 40 7b ad bd f8 ee 6e bd
       -0.019580888 -0.07130468 -0.08470774 -0.058333367
000040 28 ec 27 bd 6d da fe bc d1 0c 17 3d 94 14 d2 3d
       -0.0409967 -0.031110013 0.036877457 0.10257831
000050 df f2 5f 3c d5 42 04 3d 63 68 d0 3d 14 fb c5 bd
       0.013668745 0.0322903 0.1017616 -0.0966703
000060 5c dc d8 3d 10 46 2b bc 55 c2 ad bd c2 16 8c 3d
       0.10588905 -0.010453716 -0.084843315 0.06840278
000070 b9 1a 0d be 33 ce 00 be 3b a9 a7 3d d8 8f 81 3d
       -0.13779725 -0.12578659 0.08186575 0.06326264
000080 08 a2 0d 3e 91 9b f9 3d 63 68 df bc 77 20 9c 3d
       0.13831341 0.12187875 -0.027271455 0.0762338
000090 90 70 e5 3b fa 2e e0 3d ff e4 b5 bd 33 0a 91 bd
       0.007001944 0.1094646 -0.08881568 -0.070820235
0000a0 a9 13 92 3c c1 7b 02 be 70 eb 8c 3d 11 c9 61 3d
       0.01783164 -0.12742521 0.06880844 0.055123392
0000b0 30 2b 6f bd bd 8c cb bd da 37 a0 bd ec 7d f8 bd
       -0.058390796 -0.09938953 -0.07823153 -0.12133393
0000c0 74 72 b6 3c 60 26 fb 3b bb cf 94 bd 6d 6d 91 bd
       0.022271372 0.0076644868 -0.07266184 -0.071009494
0000d0 9d 85 bc bd bc 31 a0 3c 8c f8 90 3c 13 e9 af 3d
       -0.09205172 0.019554965 0.017696641 0.08589377
0000e0 a5 d2 a4 bd 17 33 d2 3d a3 22 5c 3d cc b9 8e bc
       -0.0804799 0.10263651 0.05374397 -0.01742258
0000f0 44 af 30 3d 2c 43 b4 3d 1f 0b cd bd b0 2a 98 bd
       0.043135896 0.088018745 -0.10011887 -0.07430017
000100 6d f0 06 be 04 bc d2 bd c7 bb f3 bd 6d 4d f3 bd
       -0.13177653 -0.102897674 -0.1190105 -0.11880002
000110 30 c7 c3 3d d8 5d cf 3c c5 10 ef bc 6f a6 38 bd
       0.095594764 0.025313303 -0.029182801 -0.0450806
000120 ff ce 26 3d 55 11 37 bd 24 55 09 be e2 fc 20 3d
       0.04072475 -0.044694263 -0.13411385 0.039303668
000130 b0 57 b5 bd 64 3c b1 3d 9a cf 66 bd 2f a8 09 be
       -0.08854616 0.08654097 -0.056350328 -0.13443063
000140 e6 5e a7 3d b0 45 ed bd 07 a6 69 b9 5b ca 6f bc
       0.08172397 -0.115855575 -0.00022282462 -0.014635648
000150 7d a1 d5 bd 46 77 21 3e 46 6c ce 3a f0 e3 00 be
       -0.10431192 0.15768155 0.0015748821 -0.12586951
000160 c9 2e 4e 3c 0a 9a be bd b0 8d e9 3c 32 43 c9 bc
       0.012584397 -0.09306724 0.028509945 -0.024568174
000170 69 b6 c9 3b 29 b6 15 be ad cd 39 bd 4a e1 b4 bd
       0.006155778 -0.1462027 -0.045362163 -0.08832033
000180 71 23 b1 3d ad 57 b2 3d 4d 1f a9 3d e5 e4 46 3d
       0.08649338 0.08708129 0.08257923 0.048558135
000190 b2 b3 68 3d a0 1e fc bd 86 e7 8b bd 2f 9b c2 3d
       0.056811996 -0.12310529 -0.06831269 0.09502255
0001a0 03 da c7 3c 8a 4a b5 3d ea 3d c9 3d 24 f0 b8 3d
       0.024395948 0.08852108 0.09826262 0.09030178
0001b0 ea 65 da 3d 28 4d 2f 3e 08 5f 2f 3d 1c 67 9d 3d
       0.1066397 0.17119277 0.04281524 0.07685682
0001c0 eb 50 c0 bd e5 31 95 3d 93 3c 30 3d f7 3e 68 3d
       -0.09390434 0.07284907 0.043026518 0.056700673
0001d0 f6 f0 88 bd 55 e9 b0 3c 66 b9 b7 bd 4a 38 8e bc
       -0.06686585 0.021595636 -0.08970909 -0.017360825
0001e0 45 85 cb bd 49 99 4d 3a dc 0b 1b be 7b 14 a7 3d
       -0.099375285 0.00078429707 -0.15141243 0.08158203
0001f0 b2 0e 12 3d 76 44 e0 bd 48 f2 99 3d ab 39 76 bb
       0.035658546 -0.10950558 0.075169146 -0.0037570994
000200 13 c4 9d 3d 04 16 11 3d 75 52 0c be 5c 58 98 3d
       0.07703414 0.035421386 -0.1370333 0.07438728
000210 1f 85 cd 3d e4 2c 8f bd df 38 0a 3e b8 10 df bd
       0.100351565 -0.06990984 0.13498257 -0.10891861
000220 8b 41 53 3d 17 0f 9f bc 52 b7 ca bd 96 62 52 3b
       0.05157618 -0.019416375 -0.09898247 0.0032102219
000230 00 2c ee bd 2f 13 31 bd d8 8e c2 bd 01 5b b0 bd
       -0.11629486 -0.043231186 -0.094999015 -0.086111076
000240 f0 7a 35 3d 3d af 16 3d e6 d3 c6 3d c8 c3 99 3d
       0.044306695 0.036788214 0.09708385 0.075080454
000250 67 90 8c 3d 7c 75 58 3e ff d5 a8 bd 39 6c 93 3d
       0.0686348 0.21138567 -0.082439415 0.07198376
000260 3b 46 a4 3d 46 b5 86 3d a0 5a 82 3c ae 7b 39 3b
       0.08021208 0.06577544 0.015912354 0.0028302479
000270 fa 74 f1 bd 14 41 df bd fa 56 f9 3d 2a e4 12 3d
       -0.1178989 -0.109010845 0.121747926 0.035862125
000280 df 21 90 3d 7d 0a c5 3d e1 54 d2 3d 34 34 0c bd
       0.070377104 0.09621141 0.102700956 -0.034229472
000290 fe 53 37 3d d4 5a a0 3d 72 cf 7d 3d 62 38 64 3d
       0.044757836 0.07829824 0.061965413 0.055717833
0002a0 07 5c 81 bd 3b 74 ce bd 54 5e cb 3d 0f 1c 72 bd
       -0.06316381 -0.10080763 0.09930101 -0.05910879
0002b0 20 d3 e3 bd b6 2a ba 3d 3c 3e cf 3d 92 c2 5a bd
       -0.11124253 0.09090178 0.10119292 -0.053408213
0002c0 76 84 09 3e a7 ee b1 bc 9d 2b 78 3c 0e b6 cf 3d
       0.13429436 -0.021720244 0.015147117 0.10142146
0002d0 88 9c 42 3d d7 6d 83 bd cc 26 a5 bd fe 2f 52 3b
       0.04751256 -0.06417435 -0.080640405 0.0032072063
0002e0 f3 7c 6e bd ee 9f 95 bd 8f 3d 6b 3d b2 f9 1b 3d
       -0.05822463 -0.07305895 0.057431754 0.038079925
0002f0 49 1a 1b bd 83 45 f1 3d c0 cc 54 bc 69 4e a4 3d
       -0.037866864 0.117808364 -0.012988269 0.08022768
000300 30 87 10 be 2e e2 c8 3d d3 6d 10 3e cc 00 cd 3d
       -0.1411407 0.09808765 0.14104395 0.100099176
000310 a8 87 1e be 66 f0 23 bc f6 4f fb 3c 8e 57 dc bc
       -0.15481436 -0.010006046 0.030677777 -0.026897218
000320 ee 56 b3 bd 72 e4 b3 3c 1a 33 21 be 78 b8 e9 bd
       -0.08756815 0.021959517 -0.1574215 -0.11412138
000330 89 66 6b bd ce 0e 8e 3d 41 5b a0 bc 6c 3d 5b 3c
       -0.057470832 0.069364175 -0.019574763 0.013381343
000340 6f 4a ef bd df d9 10 be 85 3c 30 bd b2 5e a3 3d
       -0.11684119 -0.14145611 -0.043026466 0.07977046
000350 f2 58 f1 bc 04 b7 9d 3d d9 76 47 3d 51 fd 1c 3d
       -0.029461358 0.07700923 0.048697326 0.03832752
000360 1e c1 a1 3d 92 0e 4d 3d 83 59 d9 3c 0a 8a a3 3d
       0.07898162 0.050062723 0.02653194 0.07985313
000370 89 15 0f 3e 69 4d f4 3c 66 b8 65 3d e3 e9 17 bd
       0.13973059 0.029822068 0.05608406 -0.037088286
000380 41 b9 2e bd 62 87 bf 3d 23 7d ce 3d c9 f2 06 be
       -0.04265714 0.09351994 0.10082462 -0.13178553
000390 35 e3 da bd 9d a4 1a be f5 2d d1 bd e9 a0 8c 3d
       -0.106878676 -0.15101857 -0.10213844 0.06866629
0003a0 9b 70 42 be 63 43 94 3d 3f b0 f9 3b 5e 0e 88 3c
       -0.18988268 0.072394155 0.007619887 0.016608413
0003b0 a0 15 84 3d 3c db 16 3c a4 2b 05 3e ad 01 8a 3d
       0.06449437 0.009207543 0.13004929 0.06738601
0003c0 54 3c b5 bc db e2 18 bc fd 74 82 bd 8f 32 1f 3c
       -0.022123493 -0.00933143 -0.0636997 0.009716644
0003d0 5c 8d af 3d 53 67 70 3d 55 5a fb 3d 29 20 a4 3c
       0.08571884 0.058692288 0.12273089 0.020034866
0003e0 77 09 21 3d 84 a7 cf 3d a3 b3 38 bd 70 1b 68 bd
       0.039315667 0.10139373 -0.04509319 -0.05666679
0003f0 33 78 88 bd 24 40 3c 3d 50 b0 d3 bc d3 68 e0 3d
       -0.06663551 0.045959607 -0.025840908 0.10957494

actor.2.bias f4 [64]
000000 5b c6 18 be cb 82 8f 3d a6 a8 37 bd 4a 86 b7 bd
       -0.14919417 0.07007369 -0.04483857 -0.089611605
000010 8e d2 94 bc e6 2d 82 3d 64 fc a7 bd a3 b9 4e bd
       -0.018166807 0.06356411 -0.082024366 -0.050470006
000020 29 80 70 3c b4 38 c8 3c 49 5b d4 3d 89 82 79 3c
       0.014678993 0.0244411 0.10368974 0.015228876
000030 ec 34 8f bd 88 60 8e 3d e4 d9 dc bd ef 05 f4 bd
       -0.06992516 0.069520056 -0.10783747 -0.11915194
000040 17 6e a2 3b fb 15 cd bd ae 81 bf bd bf 96 86 3d
       0.0049569714 -0.10013958 -0.09350906 0.06571721
000050 41 34 ec bd 9b c6 d6 bc b2 af ac 3d 43 50 3e bd
       -0.11533404 -0.02621775 0.08431949 -0.046463262
000060 20 be 3f bd 82 5f df bd 29 d4 05 be 91 f5 f1 bd
       -0.046812177 -0.109068885 -0.13069214 -0.11814416
000070 37 ae a5 3c d1 90 14 3e a0 51 e3 bd 27 ab ac 3c
       0.020224674 0.14508368 -0.11099553 0.021077706
000080 90 c2 14 bc f1 51 81 bd 7a 4c 18 3d 03 f3 bf 3d
       -0.00907959 -0.06314457 0.03718231 0.09372523
000090 a9 5b b0 bd e6 f4 f9 3d f7 0e 67 3d a5 d4 d5 3d
       -0.08611233 0.12204914 0.056410756 0.10440949
0000a0 cc 03 bb 3d 9d da 0f bd 39 9c a7 3d 41 30 67 3c
       0.091315836 -0.035120595 0.08184094 0.014110626
0000b0 30 73 53 3d 1b e3 34 bc cb f7 1a bd 75 6e ad 3d
       0.051623523 -0.011040474 -0.03783397 0.08468334
0000c0 f5 0c f5 bd c5 02 c1 bc 47 57 03 3d 53 04 22 bd
       -0.11965362 -0.02356089 0.032065656 -0.039554905
0000d0 60 9c 06 3c 33 39 8c 3d 17 5f 67 bd bb 15 d7 bd
       0.008215994 0.068468474 -0.05648717 -0.10502192
0000e0 d4 f2 e5 3d 84 43 23 3d 05 9d 56 3d 85 cc 8a bd
       0.112279564 0.03985931 0.05239584 -0.0677729
0000f0 f6 cc bb 3d 2e 6b be bd 83 83 79 bd dd 4b 81 3d
       0.091699526 -0.09297787 -0.060916435 0.06313298

actor.4.weight f4 [1, 64]
000000 3e 0a e8 3d e3 5b 9e 3d e2 1c e0 3d 62 97 86 bd
       0.113300785 0.0773237 0.10943009 -0.06571843
000010 94 f8 2f bd 14 f1 18 bd 45 29 e1 3d a3 e6 85 bd
       -0.042961672 -0.037339285 0.109942 -0.06538131
000020 d2 9f ba bd 48 5b f1 bc e3 db f0 3d 06 44 c5 3b
       -0.091125146 -0.029462472 0.1176069 0.006020072
000030 ac 89 d6 3d 1a f6 9c bc cc 17 9a bc 9c b0 3a bd
       0.104754776 -0.01916032 -0.018810175 -0.045578584
000040 e2 b8 3a bd 05 60 80 bd e0 2e 3a bd 18 a9 0f bd
       -0.045586474 -0.06268314 -0.04545486 -0.03507337
000050 90 8e a9 bc 16 a5 f2 3d fc 4f 29 be ec b2 6f 3d
       -0.020697862 0.11847894 -0.16534418 0.058520243
000060 cb 15 15 3e fa c7 44 3e 6e 8a aa 3d 31 4d fe 3d
       0.14559095 0.1921691 0.083271846 0.12417067
000070 d8 58 81 3d 08 8e 43 3d 08 27 8d bd 65 a9 57 bb
       0.06315774 0.047742873 -0.0689221 -0.0032907363
000080 a6 22 db bd e8 9c 1d be b8 2e a9 3d 5b d0 cf 3d
       -0.10699968 -0.15391886 0.08260864 0.101471625
000090 d9 3f a3 3d 12 33 11 3e e3 bd 5c 3d 10 b7 7e 3d
       0.07971162 0.14179638 0.053892028 0.0621863
0000a0 82 af a1 3d b7 9d a6 bd 8f 93 9c bd 8b dd cc 3d
       0.078948036 -0.081355505 -0.07645332 0.100031935
0000b0 88 90 02 be e5 79 d1 bd ec b7 c5 3d 1c 06 a8 bd
       -0.12750447 -0.10228328 0.09654221 -0.0820429
0000c0 9e 29 31 bd c3 17 6e bd f9 fe 1a 3e 9d 7e 24 be
       -0.04325258 -0.05812813 0.15136327 -0.16063924
0000d0 32 83 28 3e e0 ee d3 bd 7a 2b b1 bd 19 62 a4 bd
       0.16456297 -0.10348296 -0.086508706 -0.08026523
0000e0 8e b7 39 be 23 2a 37 3c ca 61 b1 3d b3 9e 9a bd
       -0.18136427 0.01117948 0.0866123 -0.07549801
0000f0 11 9a 92 3d 38 78 00 be fb bc e5 3d 23 39 28 3d
       0.07158292 -0.1254586 0.11217686 0.041070115

critic.0.weight f4 [64, 5]
000000 f0 88 70 be 75 12 a2 3e e8 8d 27 bf 69 fe cb 3c
       -0.23489738 0.31654707 -0.65450907 0.024901586
000010 58 fd 61 be 7c 4c aa 3c 0f 3b e9 3e 05 b2 5e bd
       -0.22069299 0.020788424 0.4555287 -0.05436899
000020 87 1f b6 3d 2b a7 ee be 9f f2 15 bf 42 04 07 3f
       0.08892732 -0.46611914 -0.58573335 0.5274087
000030 d5 db 12 bf 4f 1b 96 be 80 09 92 3d 25 5d b6 bc
       -0.5736669 -0.2931771 0.07130718 -0.022261212
000040 88 71 bc 3e fa 69 8e 3f 57 9a 75 bc 3c 4b b0 3e
       0.36805367 1.1126091 -0.014990411 0.344324
000050 e7 3a ff be fe 97 94 bd 3e bf 23 be 4c 23 82 3d
       -0.49849626 -0.07255553 -0.15990922 0.063543886
000060 6f 53 6d bd bd 30 ed 3d 59 2d cb 3e da e8 f7 be
       -0.057940897 0.11581562 0.39683035 -0.4841984
000070 5b 6d bc 3e 6e b1 5d 3d 15 aa 8f be 13 82 4b 3e
       0.36802182 0.05412429 -0.2805945 0.19873838
000080 4e dc e8 be c9 d2 92 bd 46 99 05 be 51 5f 96 bd
       -0.4548058 -0.0716911 -0.1304675 -0.07342399
000090 43 27 03 bf 5a d6 3f be 1f b4 da 3d b4 e4 c9 3e
       -0.51231784 -0.18734112 0.106788866 0.394323
0000a0 ce 6c a1 3c 57 50 8c be 35 38 2e 3f d0 52 7f bd
       0.019705202 -0.27405044 0.68054515 -0.062334836
0000b0 19 af 60 3e 64 ba 3e 3e d2 6a e3 3d 44 56 14 bf
       0.21941794 0.1862579 0.11104359 -0.5794413
0000c0 7d d4 8c bd 71 5c 10 be 31 70 5e 3e f9 3b 6c 3e
       -0.068764664 -0.14097764 0.21722485 0.23069753
0000d0 c2 f2 10 bf d8 69 ee be c4 49 98 be 88 1f b7 be
       -0.5662042 -0.46565127 -0.2974378 -0.35766244
0000e0 b9 99 ea 3c 1e 6b b6 be fd 6a 82 3e 09 ff 78 3d
       0.028637754 -0.356286 0.2547225 0.060790095
0000f0 33 78 75 be f6 c3 a0 be 59 9c 94 be 2d 59 ad be
       -0.23971634 -0.31399506 -0.29025534 -0.33857098
000100 e9 c5 a9 3e 89 e4 01 be 58 d3 f6 3e 3f 08 ac 3e
       0.33158806 -0.12684835 0.48208117 0.3360004
000110 62 95 2a bf a2 ae 4c be 53 ab 88 be 2b f2 82 3e
       -0.6663419 -0.19988492 -0.2669321 0.25575384
000120 eb 9d 13 bf 5b a7 4d be 3d f5 05 be 87 8f f5 be
       -0.5766284 -0.20083372 -0.13081832 -0.47961065
000130 c5 52 02 3e 2c f6 b6 be 3c 8c 28 be e1 a0 55 3e
       0.12726887 -0.3573469 -0.16459745 0.20862152
000140 46 3a 74 3e b7 db db be a7 37 da 3d 37 12 d1 3e
       0.23850355 -0.42941067 0.10655146 0.4083421
000150 fa 2a 9e 3e 52 ff 28 3e fa ef e9 3d 40 20 c4 3d
       0.30892164 0.16503647 0.11422725 0.09576464
000160 60 10 8b 3d e6 bd f1 3c 5a c8 fb be f0 57 66 3e
       0.06790233 0.029509496 -0.49176294 0.22494483
000170 56 6d c7 3e 09 aa b6 be 18 44 9b 3e 87 cc 5f 3e
       0.38950604 -0.35676602 0.3032539 0.21855365
000180 29 1d a3 3e 78 03 8d 3d e0 24 f9 be 22 38 99 be
       0.31858185 0.06885427 -0.48660946 -0.29925638
000190 e0 f4 d5 3d 9b 60 ce be 61 d2 9f be 16 56 f8 3d
       0.10447097 -0.4030808 -0.31215194 0.121257946
0001a0 59 97 de bd c4 28 47 be b0 70 9b be 28 fd 1b bf
       -0.10868711 -0.19449145 -0.3035941 -0.6093316
0001b0 68 f2 f1 bd db ac 68 be 50 75 8d be 65 cd 96 3d
       -0.118138134 -0.22722189 -0.27628565 0.07363395
0001c0 c1 14 b8 3d 8b 6c 8f be f7 fb 7e 3e a4 b2 d8 bd
       0.089883335 -0.280125 0.24900804 -0.10580948
0001d0 ff 9a d3 be 55 fd 82 3c 7e 5b 02 3f 57 2b 48 bd
       -0.4132919 0.015989939 0.50920856 -0.048869457
0001e0 28 4e bb 3b 24 b3 e8 3e 9b 69 8c 3d ad 6a ad bd
       0.005716104 0.45449173 0.0685608 -0.084676124
0001f0 36 11 bc 3e 11 1a 9c bd 74 e9 95 bd 8d 24 cd 3d
       0.3673188 -0.07622159 -0.07319918 0.10016737
000200 04 48 84 3f ee bf 94 3d aa 70 e3 3e 59 0c df be
       1.0334477 0.0726317 0.44421893 -0.43564108
000210 6a c2 60 3e aa 89 46 be ef 6f 9d 3e ba 8c 45 be
       0.21949163 -0.19388452 0.3074946 -0.19291964
000220 77 cc 00 3f 28 e0 6c 3d c8 47 cf be 67 89 be 3e
       0.5031199 0.05783096 -0.40484452 0.37214205
000230 35 d0 ea 3e e0 ab c7 3e fa c0 c6 3e 1d 2b 53 3e
       0.45861974 0.38998318 0.38819104 0.20621915
000240 00 ac 20 bd 56 66 85 bd f7 20 a9 be 14 d9 03 3f
       -0.039226532 -0.0651366 -0.33032963 0.5150311
000250 23 42 e3 bd 2d 89 a7 bc 2b 6f 78 3e 91 48 ec bd
       -0.11096599 -0.020451153 0.24261157 -0.115372784
000260 60 78 a9 bd d5 73 6b 3e 83 ee 5b bd 42 d1 65 be
       -0.08274913 0.22993405 -0.05369426 -0.22443107
000270 7b 7b a9 3e e0 1d 39 3e 79 e6 53 bf ca 5c 26 be
       0.3310202 0.18077803 -0.8277355 -0.16246334
000280 1e b9 a5 3e 06 a5 7e bc 44 3f 95 3d 65 7e 14 be
       0.32367796 -0.015542274 0.072874576 -0.1450134
000290 9a ae 60 3d 51 51 01 be fa ed 44 be 0f b8 e4 3b
       0.054854013 -0.12628676 -0.19231406 0.0069799493
0002a0 3a 58 26 3e 09 c8 91 bb fd c7 8d 3d a9 0f e3 be
       0.16244593 -0.004448895 0.0692291 -0.44347885
0002b0 22 da 4d 3e 25 59 d6 be b8 06 86 3e b4 8e db 3d
       0.20102742 -0.41864887 0.26177 0.10720578
0002c0 04 70 64 be c8 1d 30 3f 01 3a dc be 67 de 18 be
       -0.22308356 0.6879544 -0.43013003 -0.1492859
0002d0 b1 83 eb be 68 3e 3b 3e 13 92 1f 3e b1 49 65 be
       -0.4599891 0.18285525 0.15583067 -0.22391392
0002e0 10 39 8c bc e8 d5 12 3f 5b b6 95 3e 08 6e 63 be
       -0.017117053 0.57357645 0.2924069 -0.22209942
0002f0 22 a0 99 3e 38 ea bd bd 03 95 67 bd d5 9f a1 3e
       0.30004984 -0.09273189 -0.056538593 0.31567255
000300 5c d8 2f be f0 a1 6c be 22 fd ca bc b6 7f a9 3e
       -0.17172378 -0.23108649 -0.024778906 0.33105248
000310 5f e7 94 3e f9 83 57 bd 35 4c a8 3e 55 cf 63 3e
       0.29082772 -0.052616093 0.3287064 0.2224706
000320 34 82 b6 bc c8 e6 48 3e 2b 3c 46 3f 97 7c 82 3e
       -0.022278883 0.19619286 0.7743556 0.2548568
000330 8e 3f 36 3e e4 dc c1 be d4 f5 ff 3d 44 60 87 bf
       0.17797682 -0.3786384 0.1249806 -1.0576253
000340 42 98 4b bd d2 3d 58 be c0 5a 4b bc 2e 35 75 be
       -0.04970575 -0.21117333 -0.012411773 -0.23946068
000350 fc bd 49 3f 65 ce b2 3d 14 b1 d5 bd ef 67 c7 3d
       0.7880552 0.08730773 -0.104341656 0.09736621
000360 af b5 1e be 98 18 7e 3f 64 ea f6 bc 04 5b 39 3e
       -0.15498994 0.9925628 -0.030141063 0.18101126
000370 84 8f c2 3e e1 40 e4 be fe e5 13 3e a6 08 93 bd
       0.3800012 -0.4458075 0.14443204 -0.07179384
000380 bf 63 8c 3e 07 be d2 bb 8b 0e d4 be cb c9 01 bf
       0.2741985 -0.0064313444 -0.41417345 -0.50698537
000390 2c dc c0 bd 13 5e 4e 3e ff 7e c9 bd 0a 45 e3 3d
       -0.094169945 0.20153074 -0.09838676 0.110971525
0003a0 1e 07 b4 be e8 3c bc bd d7 05 93 3e 19 75 a2 3d
       -0.3516168 -0.091913044 0.28715393 0.07932491
0003b0 e5 c4 9c 3e 84 f9 27 bd a2 5b 27 be e6 e7 da bd
       0.3061897 -0.04100944 -0.16343549 -0.10688762
0003c0 c6 0d 0c bd 3a ab 06 bf f9 64 3e 3f 75 80 15 bd
       -0.034192823 -0.5260502 0.7437282 -0.03649946
0003d0 11 30 84 3e 61 e4 b3 3e 5d 0d b4 bd 4a 02 e1 be
       0.25817922 0.35135177 -0.08791611 -0.4394706
0003e0 95 90 d3 be 61 4f d8 3d af 4e 73 be 4d 96 d4 be
       -0.41321245 0.10562015 -0.23760484 -0.4152092
0003f0 8d b6 c0 be b0 2e b5 3e 9d 22 b9 3e f4 05 af 3e
       -0.37639275 0.35387182 0.3615922 0.3418423

critic.0.bias f4 [64]
000000 37 20 1c bf 0e 1f d1 be e2 7d ef bd 06 c2 ac 3e
       -0.60986656 -0.40844005 -0.11693932 0.33741778
000010 68 d4 ab bd 9a 5c 4d bd f1 53 18 be 12 af ad 3e
       -0.08390123 -0.05013714 -0.14875771 0.3392263
000020 3f 2c 16 be 44 4c dc 3e c4 13 6b bd 0c d9 84 3e
       -0.14665316 0.43026936 -0.057391897 0.25946844
000030 5d 16 b0 bd 1c 6b 54 be 47 2f 3f be f8 73 af 3d
       -0.085980155 -0.20743984 -0.18670379 0.08567041
000040 2f 0c 46 3e 40 2e 13 bd d2 9c a8 be 05 40 0a 3e
       0.19340585 -0.03593278 -0.32932144 0.13500984
000050 1e 55 dd 3e b2 38 d8 bd e2 ed 66 bd 77 ef b5 bd
       0.43229002 -0.10557689 -0.056379206 -0.08883565
000060 17 cc 97 be 25 dd 2f 3d 30 3e b4 be f0 80 d2 be
       -0.29647896 0.04293551 -0.35203695 -0.41113997
000070 e0 a9 68 be 54 2c 9c 3e 91 68 68 3e 36 a4 91 3e
       -0.22721052 0.3050257 0.22696139 0.28445596
000080 7f ad 8c be 75 16 d4 be cd bd 84 be 72 0e c0 3e
       -0.27476117 -0.41423383 -0.25926057 0.3751102
000090 8f 2c 81 bd ca ea f5 be 50 74 db 3e 4e 06 5a be
       -0.06307327 -0.48030692 0.42862177 -0.21291468
0000a0 c5 e5 e0 3e 43 7f 65 3d f1 3a 86 be 98 ea 24 be
       0.439253 0.05602957 -0.26216844 -0.16105115
0000b0 b9 64 95 be 62 61 a8 3e 47 88 87 be 5a b0 c6 be
       -0.29178408 0.32886797 -0.2647116 -0.3880642
0000c0 03 41 92 be ed 76 66 be 2a 06 b9 3e eb 23 3b be
       -0.28565225 -0.22506304 0.36137515 -0.1827542
0000d0 e3 4c 86 be 15 95 e7 3e 3e d5 0d 3e f5 c1 fe be
       -0.26230535 0.45230928 0.13850877 -0.49757352
0000e0 3e 72 9f 3e e3 2b f2 be a8 e1 a3 3e e4 d1 cd 3e
       0.31141847 -0.47299108 0.320081 0.40199196
0000f0 e8 5b 12 3e 44 9f b5 be 0d f3 3f 3e c2 c0 c6 3e
       0.14292872 -0.35473073 0.1874506 0.38818938

critic.2.weight f4 [64, 64]
000000 8d 52 6d 3d fe 6d 65 3d e7 0b 8e 3e 89 ab 57 be
       0.057940055 0.0560131 0.27743456 -0.21061529
000010 9e 9e 7d bd 9c 3b 85 3d ee 8a b0 bc 03 f0 10 3d
       -0.061918847 0.0650551 -0.021550622 0.035385143
000020 ef e4 4b bd 11 c7 81 3d 3a 86 e8 bd b7 6a 2b 3d
       -0.049778875 0.06336797 -0.11353727 0.041849818
000030 c6 cf ab bd 24 ee 0f bd e9 2b 9d bc c4 e8 04 3d
       -0.08389239 -0.035139218 -0.019185977 0.032448545
000040 65 3d 0e bd 70 01 10 bd b6 d9 45 bd 96 5a 69 3d
       -0.03472652 -0.03515762 -0.04830333 0.056971155
000050 82 ac 42 bc 79 28 a7 3c 7d a6 f1 3c 71 1d 59 3d
       -0.011881949 0.020405041 0.029498333 0.053006593
000060 65 27 71 bd a3 e2 1c 3d 1d ab 30 3d ae 28 21 3d
       -0.05887546 0.038302075 0.043131936 0.039345436
000070 59 e0 69 bd 44 4d ff 3d 38 47 c7 3d a8 e8 02 3d
       -0.05709872 0.12465909 0.09730381 0.03196016
000080 e4 19 36 bd 9d 88 93 bd c0 94 6a bc bf a2 9d bd
       -0.044458285 -0.07203791 -0.014317691 -0.07697057
000090 aa 79 b6 3d d6 32 51 3e 1f 9f f9 3d e2 ba 12 bc
       0.08909924 0.20429549 0.12188553 -0.008955689
0000a0 06 2f 17 be 4e 6a 08 bd 4f 0c bb bd 05 b7 0d 3e
       -0.14764032 -0.033304505 -0.09133207 0.13839348
0000b0 6b dc 9e bd 7c aa 05 3e 20 a3 11 be 05 f9 fc 3d
       -0.07756885 0.13053316 -0.14222383 0.12352184
0000c0 ca 86 fd 3d 19 d4 f6 bd ee a1 04 3d 06 a6 ad 3d
       0.123792246 -0.12052173 0.03238099 0.08478932
0000d0 73 47 c5 bd be e8 ae bd 27 c7 70 bd 28 56 ad be
       -0.096327685 -0.08540486 -0.058783676 -0.33854795
0000e0 17 57 01 3e 2c 96 eb bd 84 9c d8 bd 36 cf 90 bd
       0.12630878 -0.115032524 -0.10576728 -0.07070772
0000f0 48 9b 45 3e db 17 40 be ce 87 d5 bd 9d da b0 bd
       0.19297516 -0.187591 -0.10426293 -0.08635447
000100 fd 7b 6e be 6e 5f 39 3d 73 25 db bd 33 9b fe 3d
       -0.23289485 0.045257024 -0.10700502 0.12431946
000110 7e b0 0a 3d 9b e7 00 3e 94 3b 13 bd cc 2c 2f bd
       0.033859722 0.1258835 -0.03594549 -0.04276733
000120 fb 46 ac bd 16 71 c0 3d 32 21 dc bd 4e 0e 0f 3c
       -0.08411976 0.093965694 -0.10748519 0.008731438
000130 93 68 6a 3b b5 a7 69 3d 90 71 2a be 74 b0 82 3d
       0.0035767897 0.057044704 -0.16644883 0.06381312
000140 f1 4f da 3d a7 d9 ea 3d 9c 03 3b bd 9a c5 6c bd
       0.10659779 0.11467295 -0.04565774 -0.057805635
000150 dd 5f c0 bd 7f 42 1e 3d d5 53 03 bd be e6 a7 b9
       -0.093932845 0.038637634 -0.03206237 -0.00032024638
000160 6e 84 83 3d e2 66 e8 bd 03 cc 22 be 36 d5 c2 3d
       0.06421743 -0.11347748 -0.15898137 0.09513323
000170 fb 0e df bd 46 50 6f be a5 62 21 3d 38 6b 1b 3e
       -0.10891529 -0.23370466 0.039400715 0.1517762
000180 a4 7c fa bb 10 82 13 3e 4f 77 17 be 93 d9 19 be
       -0.007644253 0.14405084 -0.14791606 -0.15024404
000190 fd ff f6 bc da f9 f4 bd 1d 61 18 be 00 13 2f 3d
       -0.030151362 -0.11961718 -0.14880796 0.04274273
0001a0 b0 79 4f 3d 5b 85 15 3d 72 3c 38 bd a4 ac 7a bd
       0.05065316 0.03650413 -0.04497952 -0.0611998
0001b0 e5 8d 2d 3c ad 9a b5 bd 0a 71 2a 3e 1f 10 62 3d
       0.010592912 -0.08867393 0.16644683 0.055191156
0001c0 cb 7b 57 be 62 85 8d 3d 47 08 c9 bc 8c 83 7a 3d
       -0.21043317 0.069102064 -0.02454008 0.06116061
0001d0 8b 10 08 3e 39 cc 34 3e 37 3a f2 bd 27 6d cc 3d
       0.1328756 0.1765603 -0.1182751 0.09981757
0001e0 26 1e 8d bd d1 1e 12 3e 91 bb d9 3d 07 2e bd bd
       -0.06890516 0.14269568 0.106314786 -0.09237295
0001f0 8f 4f 87 3c e3 46 c1 3d b2 52 62 3d 22 b7 86 bd
       0.016517429 0.09437349 0.055254646 -0.065778986
000200 94 f0 d3 bd 23 87 63 bd ae e0 2e 3e 45 e4 20 bc
       -0.10348621 -0.0555488 0.17077896 -0.009820049
000210 d2 35 4e be b7 97 40 3c f1 4b b3 bc 7b 8f 74 3e
       -0.20137718 0.011754922 -0.021886798 0.23882858
000220 d3 98 82 3d e2 a1 b6 3d d4 3a d6 bd a3 45 2a 3d
       0.06376805 0.089175954 -0.10460439 0.041570317
000230 68 8b 03 3e f3 90 2a be 9a 37 77 3d d7 08 3a 3b
       0.12846148 -0.16656856 0.06035576 0.0028386617
000240 48 2f 1e 3e da 1d c0 3c c3 22 d3 bc 22 b1 70 bd
       0.15447724 0.023451734 -0.025773412 -0.058762677
000250 7f 6d a0 3d 27 b8 e5 bc 04 c3 e4 3b 52 1c db bd
       0.07833385 -0.028041912 0.0069812555 -0.10698761
000260 16 33 d1 3c ad f0 42 bd 63 52 29 3e c6 5e f5 bc
       0.025537055 -0.047592808 0.16535334 -0.029952418
000270 43 cc a6 3d c7 bb fb 3d 90 07 2a 3d cd fd e2 bd
       0.081444286 0.12291675 0.04151112 -0.11083565
000280 cb e0 1f be a2 05 61 be 9f b6 02 3e af e7 18 3e
       -0.15613095 -0.21974805 0.12764977 0.1493213
000290 ee 7f 81 bd 98 80 26 3e 95 32 3f 3e 1e 48 cd bd
       -0.06323229 0.16259992 0.1867164 -0.10023521
0002a0 86 98 11 3d e3 23 98 bd 2b ed 15 be ea 82 fe 3d
       0.03554585 -0.0742872 -0.14641254 0.124273136
0002b0 a6 38 1f 3e 0f fd 56 3e a8 35 9a bd d6 3d a6 bd
       0.15548953 0.20994972 -0.07529765 -0.08117263
0002c0 a8 f1 69 3e 01 0c 4d bd a9 2d 1e 3e 6e a0 c3 3d
       0.22846091 -0.050060276 0.15447105 0.09552084
0002d0 71 8f 0e 3a 90 72 4f bd 27 9e 7c 3d 1a d0 5f bd
       0.00054382446 -0.050646365 0.061674263 -0.05464182
0002e0 fb ef 6d bd cf 92 20 be fb 02 74 be ac 0b 6c bd
       -0.05809019 -0.15681003 -0.23829262 -0.05762832
0002f0 fa a4 30 3e 6a a5 de 3c 21 c1 19 bd 6f 4f 97 3b
       0.17250434 0.027178485 -0.037537698 0.0046176235
000300 e0 06 4b b9 57 f4 3e bd c7 21 58 be 7a 2b 55 3e
       -0.0001936215 -0.04661974 -0.21106635 0.20817366
000310 88 85 9c bd 13 53 3a bd 0d e4 1e 3d d9 ba 25 3d
       -0.076426566 -0.045489382 0.038791705 0.040461395
000320 e9 e9 b2 3d fc 0c 86 3d 30 44 e8 3b d4 b7 f1 bc
       0.08736021 0.06545445 0.0070882067 -0.029506601
000330 e5 7b bd bd 53 28 06 be ae 31 94 bd b0 2f 16 bd
       -0.09252147 -0.1310132 -0.07236038 -0.036666572
000340 09 12 85 bd c1 6b 70 bd 6b d6 e1 bd f8 6d a8 3d
       -0.064975806 -0.058696512 -0.11027225 0.082241
000350 23 ef 40 bb ef e9 7f 3d 26 87 cf 3d e3 06 6f bd
       -0.0029439412 0.062478956 0.101331994 -0.058356177
000360 7d 01 03 3e a0 26 b1 bd ac b5 6a bd 66 07 66 3d
       0.12793536 -0.08649945 -0.057302162 0.0561594
000370 8a 0f 25 3d 9f 7e b4 bd 98 bd 32 bd 56 46 36 bd
       0.040298022 -0.088132136 -0.043637842 -0.04450067
000380 52 bd 11 3e 47 ee 82 3e 2a 14 fe bd 63 6d 72 3d
       0.14232376 0.25572416 -0.1240619 0.05918635
000390 ac 78 b3 bd 15 a3 4b be 45 ca 4f be 0e 63 8d bc
       -0.08763251 -0.1988643 -0.20292003 -0.017259147
0003a0 16 a0 81 bc 17 a9 b2 3b 3c 83 66 3c 49 3e f4 bd
       -0.015823405 0.005452286 0.014069375 -0.119259425
0003b0 d2 93 64 3d e3 84 9d 3d 9d e5 8e 3d 4a 38 14 be
       0.055805035 0.07691362 0.06977389 -0.14474598
0003c0 d9 00 64 bd 0c a4 1f 3d 9f 7c 96 bc 4c 03 ab 3d
       -0.05566487 0.038974807 -0.01836997 0.08350238
0003d0 76 f5 3f 3e 7d cc 0b 3e 4e 19 56 be 8b 13 1b 3e
       0.1874598 0.13652225 -0.2090809 0.15144174
0003e0 4e 86 d5 3d 9d bc 20 3b 2f 3d 83 3e e1 5a 5a bd
       0.10426007 0.0024526485 0.25632617 -0.053309325
0003f0 41 52 97 3c b9 67 0d 3e 6f 22 cc bb 55 c3 3b 3e
       0.018471839 0.13809098 -0.0062296907 0.18336232

critic.2.bias f4 [64]
000000 e0 b6 29 3e 8b 28 4e be ee ac 1f 3e 20 3f b2 bd
       0.16573668 -0.20132653 0.15593311 -0.087034464
000010 58 c8 dd 3c d6 ae 2d 3c 53 8b 8d be f2 e2 b9 bb
       0.02707307 0.010600766 -0.27645358 -0.005672806
000020 5c 19 08 3e f6 76 ed bd 73 6a 9a 3d b4 d9 07 be
       0.13290924 -0.115949556 0.07539835 -0.13266641
000030 43 4b 83 be 9e 54 b1 3c ba 4c 06 be 1a b6 2a 3d
       -0.25643358 0.021646794 -0.13115206 0.04167757
000040 48 29 ac be 02 bf df 3d ff 88 ce 3c a5 28 92 bc
       -0.33625245 0.10925104 0.02521181 -0.017841646
000050 68 6b dc 3d 06 7f 3d be 2c 38 1c 3c ee 95 17 bd
       0.107626736 -0.18505487 0.009534877 -0.03700822
000060 d7 a5 bb bd 40 cd ba bd e0 34 08 bd 31 28 4b be
       -0.09162491 -0.091211796 -0.03325355 -0.1983955
000070 97 0d be 3d 00 80 91 be 32 22 19 3d 51 80 8e 3e
       0.09279936 -0.2841797 0.037386127 0.27832273
000080 16 bb 2c 3d 47 ed cf 3d 75 5c fc ba de d4 b4 3d
       0.042170607 0.10152679 -0.0019253629 0.08829664
000090 2a 6a d8 bc e6 a4 28 3c 68 71 f9 bc 99 d0 4e be
       -0.02641781 0.010293221 -0.030449584 -0.20196761
0000a0 e1 d8 0d 3e f4 95 3b be 48 1d 03 3e f7 5a 34 bb
       0.13852264 -0.18318921 0.12804139 -0.002752004
0000b0 85 85 7f be 87 c2 d3 3d 1d a2 96 3e 5c 7d be bd
       -0.24953277 0.103398375 0.29420558 -0.09301254
0000c0 da c4 2d be a5 ab d6 bd 8d 58 da 3d 88 5b bc bb
       -0.16969624 -0.10481957 0.10661421 -0.005748216
0000d0 35 c5 92 3d 79 5b 19 bd 00 88 6c be 4f 14 64 3e
       0.071665205 -0.03744075 -0.23098755 0.22273372
0000e0 6c 04 a1 3d 4a 9f 90 3e e7 43 10 3d cd 3e 2c be
       0.078621715 0.28246528 0.035221007 -0.16820832
0000f0 60 d2 74 be 25 63 20 3e 54 e1 26 bd 53 ae 82 bc
       -0.23908377 0.1566282 -0.040742233 -0.015952265

critic.4.weight f4 [1, 64]
000000 7d fa 3a be 49 c1 4e 3e 17 83 22 be 10 95 af 3d
       -0.18259616 0.2019092 -0.1587032 0.08573353
000010 45 f6 f8 3d ee a7 26 be 89 65 fb 3d 4f a0 1c 3e
       0.12156347 -0.16274998 0.12275226 0.15295528
000020 f5 8c e8 bd 53 c0 c9 bd 6f e5 a8 bd 83 e1 37 3e
       -0.113550104 -0.09851136 -0.08246886 0.1795712
000030 f7 97 8a 3e 97 5c e2 3d f9 ec 25 3e 15 a9 c9 bd
       0.27069065 0.11052816 0.16203679 -0.09846703
000040 ef a2 96 be 77 64 66 bb c7 7c 5d 3d 97 13 38 be
       -0.29421183 -0.0035155097 0.054074075 -0.17976223
000050 3a 1c 6c 3e 28 6c 9a 3e bc 39 74 bc a7 50 9d 3d
       0.23057643 0.30160642 -0.014906343 0.07681399
000060 5c 69 f0 bd df 38 fd bd 3d 0e a6 bd 72 a9 44 3e
       -0.11738846 -0.12364363 -0.081081845 0.19205263
000070 3b 9e b8 bd d3 c6 14 3e c7 c1 d4 bd 76 df 88 be
       -0.09014555 0.1452897 -0.103885226 -0.26732987
000080 b5 a6 a9 3d 25 70 76 3e 0a c7 34 be 2c 81 3b 3e
       0.0828375 0.24066217 -0.17654052 0.18310994
000090 14 26 1b 3e 7d 22 c0 bd ac b9 33 3e dd fe 2e 3e
       0.15151244 -0.09381578 0.17551297 0.1708941
0000a0 b4 16 99 3e e8 ad e7 3d 69 54 7c 3e e3 c4 93 3d
       0.29900134 0.11312467 0.24641575 0.072152875
0000b0 b9 43 22 3e 27 64 aa 3d e5 66 40 be 50 37 27 3e
       0.15846147 0.08319884 -0.18789251 0.16329694
0000c0 5b 85 f8 bb c5 ae 9f 3d 14 70 4d 3e ba 31 8f bd
       -0.0075842566 0.077970065 0.20062286 -0.069919065
0000d0 15 0e f5 bd c5 66 10 3e 75 60 7b 3e 85 8e 3c be
       -0.119655766 0.14101703 0.24548514 -0.18413742
0000e0 8f 18 1c 3d ef f4 26 be 52 82 f1 bd c6 d5 2d be
       0.03810936 -0.16304372 -0.11792435 -0.1697608
0000f0 40 ac e2 3d 8e 17 53 be da 6c c2 bd 7c 4b 32 3e
       0.1106801 -0.20614454 -0.09493418 0.17411608
