controller/PPO_CartPole-dm_0_1800000.pth (torch, 41277 bytes, 10 tensors)

actor.0.weight f4 [64, 5]
0	0x3d68a11b	0.056794267
1	0xbda5c317	-0.08093851
2	0x3f4a59a1	0.7904301
3	0xbd4e974f	-0.050437268
4	0x3e31bf3c	0.17358106
5	0xbe53aa2b	-0.20670383
6	0xbe890aa3	-0.26765928
7	0xbfa2178a	-1.2663434
8	0xbdc9eb81	-0.09859372
9	0xbe1bead2	-0.15226296
10	0xbd993eef	-0.07482707
11	0xbe71469e	-0.23562095
12	0x3eb936ce	0.36174625
13	0x3ebf0de6	0.3731529
14	0x3a87545c	0.0010324824
15	0x3e3fe2e8	0.18738902
16	0x3e4b9092	0.19879368
17	0x3f222188	0.63332415
18	0xbef154b9	-0.4713495
19	0xbd076604	-0.033056274
20	0xbd8ade71	-0.067807086
21	0x3e93c6c7	0.28862593
22	0x3f79cfe4	0.9758284
23	0x3e422229	0.18958344
24	0x3e226bc5	0.15861423
25	0xbd1b120f	-0.03785902
26	0x3ea3491a	0.3189171
27	0x3e944755	0.28960672
28	0xbf0158fe	-0.50526416
29	0x3f0782db	0.52934045
30	0xbe702117	-0.23450123
31	0x3ef49a0b	0.47773775
32	0xbdda5f13	-0.10662665
33	0x3e0c97b5	0.13729747
34	0xbdf79b24	-0.120901376
35	0x3ebfff37	0.374994
36	0x3ee94b8b	0.45565447
37	0xbf2be4b3	-0.6714584
38	0xbdab8800	-0.08375549
39	0xbc959036	-0.018257242
40	0xbd72de6a	-0.05929414
41	0xbd071e08	-0.032987624
42	0xbf10ceeb	-0.5656573
43	0x3f016cb0	0.5055647
44	0x3e31e078	0.17370784
45	0xbf16ed79	-0.58956105
46	0xbeaa254e	-0.33231586
47	0x3f90b232	1.1304381
48	0x3e8de90a	0.27716857
49	0x3bb91214	0.005647907
50	0xbe764765	-0.24050672
51	0xbef96eb8	-0.48717284
52	0xbf39082e	-0.72278106
53	0x3efd6c29	0.49496582
54	0xbeb67830	-0.3563857
55	0xbe3a2054	-0.18176395
56	0x3da063f5	0.07831565
57	0xbf63f2bb	-0.8904225
58	0xbe4ddf21	-0.20104648
59	0xbdabdbe1	-0.08391548
60	0x3e139b40	0.14414692
61	0xbf2ad8e3	-0.6673719
62	0x3ed736fe	0.42034143
63	0x3e77a608	0.2418443
64	0x3dcf281e	0.101150736
65	0x3effe938	0.4998262
66	0xbe27988e	-0.16366789
67	0x3e3e35d5	0.18575223
68	0x3f0c6885	0.54846984
69	0xbd3e39ae	-0.046441726
70	0xbf0b879d	-0.54503804
71	0xbf0351a2	-0.51296437
72	0x3e257bdd	0.16160531
73	0xbe9c26ba	-0.30498296
74	0xbe3fb286	-0.18720445
75	0xbe458f09	-0.19292845
76	0xbeedffc5	-0.464842
77	0x3c9c6a15	0.019093553
78	0x3e282ca8	0.16423285
79	0xbec3a0a1	-0.38208488
80	0x3f0c4ae0	0.5480175
81	0x3e353afc	0.17698282
82	0x3ede6a50	0.43440485
83	0xbe249ca1	-0.16075374
84	0x3ab82fd1	0.0014052336
85	0xbefbdfad	-0.4919409
86	0x3e3046dd	0.17214532
87	0xbf87b2a0	-1.0601387
88	0xbea89e8e	-0.32933468
89	0xbee3df78	-0.4450643
90	0x3e56d4ee	0.20979664
91	0x3ef7150d	0.48258248
92	0xbe1d30be	-0.15350625
93	0xbe1901fc	-0.14942163
94	0xbdca246f	-0.098702304
95	0x3a81e4a3	0.0009910058
96	0xbed17d68	-0.4091599
97	0xbf94598f	-1.1589831
98	0xbd9bfb80	-0.07616329
99	0x3e2c94ee	0.16853687
100	0xbf0217cd	-0.5081757
101	0xbf0a1b3e	-0.5394782
102	0x3f13eb15	0.5778058
103	0x3e78036b	0.24220054
104	0x3d881572	0.06644715
105	0x3eb61573	0.3556324
106	0x3e2e4f3d	0.17022415
107	0xbf2eb10f	-0.6823892
108	0xbec99bf7	-0.39376804
109	0xbdbad8ee	-0.09123407
110	0xbecf859b	-0.4053162
111	0xbdacc781	-0.0843649
112	0xbec4d92c	-0.3844694
113	0x3e9a7a37	0.30171368
114	0x3e9689d7	0.29402038
115	0xbe931c85	-0.28732696
116	0xbeb2368c	-0.3480724
117	0x3e2464b8	0.16054046
118	0xbee29cd5	-0.44260278
119	0xbd8d5369	-0.06900675
120	0xbefdf2d8	-0.49599338
121	0xbecca1d9	-0.3996723
122	0xbf109839	-0.56482273
123	0xbf031409	-0.51202446
124	0xbe5f03c4	-0.2177878
125	0x3ee97ccf	0.45603034
126	0x3edd9a33	0.43281707
127	0xbf2ca0d1	-0.67432886
128	0xbd22e743	-0.03977133
129	0xbd27b135	-0.040940482
130	0xbf132c9d	-0.5748995
131	0xbe222c70	-0.15837264
132	0x3f37f69f	0.7186069
133	0x3ddce60f	0.10786068
134	0xbed9d02a	-0.4254163
135	0x3bf0bd1a	0.0073467614
136	0xbf175bd6	-0.59124506
137	0x3e15b3cd	0.1461937
138	0xbe67f31e	-0.22651336
139	0x3ebcd29d	0.36879435
140	0xbed62174	-0.41822398
141	0x3ebb9907	0.36640188
142	0x3f47651b	0.7788865
143	0xbddb8b71	-0.10719956
144	0x3c38c4fb	0.011277433
145	0x3df18bb5	0.11794225
146	0x3f023e6a	0.50876486
147	0xbf4fe42a	-0.81207526
148	0x3e63a778	0.22231853
149	0xbeb2c3d7	-0.3491504
150	0xbf0462cf	-0.5171327
151	0x3f0e315f	0.55544084
152	0x3f0c0135	0.5468934
153	0xbe302664	-0.17202145
154	0xbca0d799	-0.019634055
155	0xbdf12dad	-0.1177629
156	0x3e9d2c0f	0.30697677
157	0xbf3b3cf6	-0.73139894
158	0x3eded524	0.43521988
159	0xbe066ff2	-0.13128641
160	0xbd935719	-0.07194347
161	0x3eb3837c	0.35061252
162	0x3f1beeb2	0.60911095
163	0xbdf6aea3	-0.12045028
164	0x3ed65c2a	0.4186719
165	0x3c7bd012	0.015369432
166	0x3cf9bc01	0.030485155
167	0x3f3765a8	0.7163949
168	0x3f32feb7	0.69919914
169	0xbe7d0ef4	-0.24712735
170	0x3d404427	0.046939995
171	0xbee79a23	-0.45234784
172	0x3f7464cd	0.9546631
173	0x3e42426c	0.1897065
174	0x3d057f16	0.0325919
175	0x3dc1f10c	0.09469804
176	0x3e4c811a	0.19971123
177	0x3e3829a6	0.17984638
178	0x3e32ab99	0.17448272
179	0x3f62f449	0.88654
180	0x3ef885f8	0.4853971
181	0x3f044c14	0.51678586
182	0xbef43c2f	-0.47702166
183	0x3d88b4d7	0.066751175
184	0xbb1d4416	-0.0023996881
185	0x3e9477cc	0.28997648
186	0xbee52c80	-0.44760513
187	0xbe46a71c	-0.19399685
188	0xbed1bfb0	-0.40966558
189	0x3eaf4015	0.34228578
190	0xbf2b2af4	-0.66862416
191	0x3e765c87	0.24058734
192	0xbee19696	-0.440602
193	0xbeea3f60	-0.45751476
194	0xbf1eca03	-0.62026995
195	0x3e2b5adf	0.16733883
196	0xbe6c6171	-0.23084046
197	0xbf67399d	-0.90322286
198	0xbdb3e8c1	-0.08784629
199	0xbe950816	-0.29107732
200	0x3e7c82ed	0.24659319
201	0xbec640d2	-0.3872133
202	0x3de837e0	0.11338782
203	0x3c8ff7e5	0.01757426
204	0xbe11a938	-0.14224708
205	0xbebe9220	-0.3722086
206	0xbee3bad2	-0.4447847
207	0x3ea02fe3	0.31286535
208	0xbe13d43e	-0.14436433
209	0xbdfc838c	-0.12329778
210	0xbc8baee6	-0.017051172
211	0xbdf69fe4	-0.120422155
212	0xbf3b20f4	-0.7309716
213	0xbed05fa3	-0.40697965
214	0x3f7a65ae	0.978114
215	0xbcbbe25d	-0.022935087
216	0x3e111e1d	0.14171644
217	0xbe3d069a	-0.1845955
218	0x3e988500	0.2978897
219	0xbf3908b5	-0.7227891
220	0xbf35487d	-0.70813733
221	0x3ef7059d	0.4824647
222	0x3e885169	0.2662461
223	0xbebf5858	-0.37372088
224	0x3ecf9ddb	0.40550122
225	0xbe80be82	-0.25145346
226	0xbe1179e5	-0.14206655
227	0x3c96a783	0.018390423
228	0x3e584785	0.21121033
229	0xbf89091c	-1.0705905
230	0x3d9af038	0.07565349
231	0x3e3c058c	0.18361491
232	0x3f991cd9	1.1961929
233	0x3d5d242e	0.05398958
234	0x3f05444e	0.5205735
235	0x3e2ed1b1	0.17072178
236	0xbf00badf	-0.5028514
237	0xbe9d8d37	-0.307718
238	0x3ecb15f2	0.3966518
239	0x3cd4c80d	0.025974298
240	0x3e3a1526	0.1817213
241	0xbe051aab	-0.12998454
242	0xbbdc5af7	-0.006724711
243	0xbe7face3	-0.24968295
244	0xbdd162c6	-0.10223918
245	0x3f1ac458	0.60455847
246	0xbea4c66d	-0.32182637
247	0x3df6663f	0.12031221
248	0x3e886c6e	0.26645225
249	0x3da47a5c	0.08031151
250	0xbe355618	-0.17708623
251	0x3eb31534	0.34977114
252	0xbed399c3	-0.41328248
253	0xbc9c2f3d	-0.019065494
254	0x3ead2238	0.3381517
255	0xbe4f17f5	-0.20223983

actor.0.bias f4 [64]
0	0xbeed5fd9	-0.46362188
1	0xbe1ba286	-0.15198717
2	0xbdfa90c5	-0.12234644
3	0xbf14eb5b	-0.58171624
4	0xbf0a3959	-0.53993756
5	0x3f09983a	0.53747904
6	0x3df635c7	0.12021976
7	0x3dcc8cf5	0.09987823
8	0xbeb0cb09	-0.34529904
9	0x3dd3983e	0.10331772
10	0xbeaba772	-0.33526188
11	0x3e6d5787	0.2317792
12	0x3b24223b	0.0025044817
13	0xbe643bbe	-0.22288415
14	0x3e233081	0.15936472
15	0xbf0107ba	-0.50402415
16	0x3ea0a64a	0.31376868
17	0xbd056fa9	-0.03257719
18	0xbe4238ab	-0.1896693
19	0xbd2e83e1	-0.04260624
20	0x3e303e3c	0.1721124
21	0xbebcaa23	-0.36848554
22	0xbf1056a1	-0.56382185
23	0x3e9a6fa5	0.30163303
24	0x3ecca616	0.39970464
25	0x3e875d78	0.26438498
26	0xbe370b50	-0.17875409
27	0xbee24bf2	-0.44198567
28	0xbdc87e92	-0.09789766
29	0xbcb28aff	-0.021794794
30	0xbe9b2eb0	-0.30309057
31	0xbd93abb6	-0.07210486
32	0xbea87751	-0.3290353
33	0x3d3feebd	0.046858538
34	0xbe40cabe	-0.1882734
35	0x3f3d3e00	0.7392273
36	0x3e7da654	0.2477048
37	0x3dc34864	0.09535292
38	0x3f09d332	0.53837883
39	0xbec6c75c	-0.38823974
40	0xbec35ab7	-0.38155147
41	0xbd414c2b	-0.04719178
42	0xbe253fe1	-0.16137649
43	0xbc90b69f	-0.017665206
44	0xbe2f2c9b	-0.1710686
45	0xbe70557f	-0.23470114
46	0xbe84419b	-0.25831303
47	0xbe78ee02	-0.24309543
48	0xbf03e534	-0.5152161
49	0xbe21a336	-0.15784916
50	0xbdd9ab35	-0.10628358
51	0x3e8186a5	0.25298038
52	0x3e013250	0.12616849
53	0xbecbb367	-0.3978531
54	0xbd51869e	-0.05115377
55	0x3e94c0d8	0.29053378
56	0x3ec0c6e6	0.37651747
57	0x3e26e9af	0.1630008
58	0xbf1ea520	-0.6197071
59	0x3e1b7657	0.15181862
60	0x3e4bff9f	0.1992173
61	0x3cd2bb44	0.02572406
62	0x3e8e1f6f	0.27758357
63	0xbef4f147	-0.4784033

actor.2.weight f4 [64, 64]
0	0xbe0b13fa	-0.13581839
1	0xbe12abd0	-0.14323354
2	0x3e339496	0.1753715
3	0x3c3cfa3c	0.01153427
4	0xbda38b8d	-0.079856016
5	0x3e23f7e2	0.16012529
6	0x3cc6781f	0.0242272
7	0xbe190555	-0.1494344
8	0xbd3ce380	-0.0461154
9	0x3e380e3e	0.17974183
10	0xbe4c7a9a	-0.19968644
11	0x3e2a6b46	0.16642484
12	0x3ca47bf8	0.020078644
13	0xbb9d6bef	-0.0048041265
14	0x3e3bc2e5	0.18336065
15	0x3da56970	0.08076751
16	0x3b8dbf3a	0.0043257745
17	0xbce4c440	-0.02792561
18	0xbe01a1ef	-0.12659429
19	0x3b466993	0.003027533
20	0x3d7eb048	0.062179834
21	0x3d748a66	0.0597023
22	0x3e003e72	0.12523821
23	0x3d63f2ca	0.055651464
24	0x3d7d6e39	0.061872695
25	0x3c7236f7	0.014783612
26	0x3d0a1466	0.03371086
27	0x3e015dab	0.12633388
28	0x3e0d7f15	0.13818009
29	0xbe3cc652	-0.18435028
30	0x3df4d043	0.11953785
31	0xbe352b1e	-0.17692229
32	0xbb4850bb	-0.0030565697
33	0xbe265a89	-0.16245474
34	0x3d17981a	0.03701029
35	0xbb719828	-0.0036864374
36	0xbd13b2d9	-0.036059234
37	0xbdac953d	-0.084269024
38	0xbe553c91	-0.20823886
39	0xbdd2867d	-0.10279558
40	0xbd90fbf3	-0.070793055
41	0x3e0ebd48	0.13939393
42	0xbddcc0a7	-0.10778933
43	0x3cc3a9f2	0.023884747
44	0x3df60d5f	0.12014269
45	0x39eccc43	0.00045165615
46	0x3db0e8b9	0.08638138
47	0xbe13ad6c	-0.14421624
48	0x3d9c0002	0.07617189
49	0xbdbe1954	-0.09282175
50	0x3db003a6	0.08594446
51	0x3c57806c	0.013153177
52	0x3e421e15	0.18956788
53	0xbd97f12e	-0.07419048
54	0xbdb3fc8d	-0.087884046
55	0xbdde5335	-0.10855714
56	0xbd000d50	-0.031262696
57	0xbd05fbe5	-0.03271093
58	0x3e347254	0.17621738
59	0xbc9482a8	-0.018128708
60	0x3d699475	0.057026345
61	0xbe22a1eb	-0.1588208
62	0xbe0b9b51	-0.13633467
63	0xbd7f51d8	-0.06233391
64	0x3d728455	0.059208233
65	0xbdbbf565	-0.09177665
66	0x3d80cb8a	0.06288822
67	0xbe0cf8ad	-0.13766737
68	0xbdf2e992	-0.11860956
69	0x3d8a4102	0.067506805
70	0xbcfc4403	-0.03079415
71	0xbdd2b17b	-0.10287758
72	0x3dbeffbc	0.09326121
73	0x3c93c4bd	0.018038148
74	0x3d8a501a	0.067535594
75	0xbd70f623	-0.058828484
76	0xbc99a45c	-0.01875513
77	0x3d8a9455	0.06766573
78	0x3e001a3f	0.12510012
79	0xbd1bf676	-0.03807684
80	0x3e2ce111	0.16882731
81	0x3cb66e05	0.022269258
82	0x3d9dd33d	0.07706306
83	0x3d3517f8	0.04421231
84	0xbd65e8ad	-0.0561301
85	0xbd2e994d	-0.042626668
86	0xbde879ad	-0.11351333
87	0xbdba346c	-0.0909203
88	0xbd8f6f0f	-0.070036046
89	0xbde6ea91	-0.11275209
90	0x3d2faf3f	0.042891737
91	0xbd6b5bac	-0.057460472
92	0xbda484b5	-0.08033124
93	0x3d881d07	0.066461615
94	0x3dbf51b8	0.093417585
95	0x3dcc11d9	0.09964342
96	0xbd93ba1b	-0.07213231
97	0x3d13c685	0.036077995
98	0x3bdeb369	0.0067962897
99	0x3db45d07	0.08806806
100	0xbd5038ec	-0.050835535
101	0x3d6769be	0.056497328
102	0xbc92ac30	-0.017904371
103	0x3da203f7	0.079109125
104	0xb95f32c8	-0.00021285855
105	0x3d976861	0.073929556
106	0xbdc4f1d1	-0.09616435
107	0x3da4811b	0.080324374
108	0xbcf324c2	-0.029680613
109	0x39dc5de7	0.00042031633
110	0x3d33060e	0.043706946
111	0xbd1c3335	-0.038134772
112	0x3def6741	0.11689616
113	0xbd66e7a6	-0.05637326
114	0x3d8f259c	0.06989595
115	0x3e3384d2	0.17531136
116	0xbe3c66fd	-0.18398662
117	0xbc211777	-0.009832255
118	0xbdf456ac	-0.11930594
119	0x3d2df457	0.04246935
120	0xbd8c1e07	-0.06841665
121	0x3d902212	0.070377484
122	0xbdbd780c	-0.09251413
123	0xbddf6fe4	-0.10910013
124	0x3cee6289	0.02909972
125	0x3d915552	0.07096352
126	0x3c434405	0.011918073
127	0xbb1bd5d5	-0.0023778577
128	0x3dea3c43	0.11437275
129	0xbc3e9897	-0.01163306
130	0xbe365dd8	-0.17809236
131	0x3e97e1d0	0.2966447
132	0x3dfa10e2	0.122102514
133	0xbe5d25d9	-0.21596469
134	0x3dfcf645	0.1235166
135	0x3dc4525c	0.09586021
136	0xbe1cba86	-0.15305528
137	0xbe34343f	-0.17598055
138	0xbd033f5c	-0.032042846
139	0xbcc24ec3	-0.023719197
140	0xbe3ae3d6	-0.18250975
141	0x3e2d2383	0.16908078
142	0x3b5b60c6	0.003347443
143	0x3de80275	0.11328594
144	0xbdfc7531	-0.1232704
145	0x3e4562fd	0.19276042
146	0x3f01eee2	0.5075513
147	0xbe97b02b	-0.29626593
148	0xbe5e20a1	-0.21692134
149	0x3ea889f3	0.32917747
150	0xbddd6a94	-0.10811344
151	0x3d8c9da9	0.06866009
152	0x3d3e346f	0.046436723
153	0xbd3c638f	-0.045993384
154	0x3e8997ef	0.2687373
155	0x3e20eba7	0.15714894
156	0x3e13d5a0	0.1443696
157	0x3e06ac3c	0.1315164
158	0x3e69bb5f	0.22825383
159	0xbd8d2a57	-0.06892841
160	0xbd145f83	-0.0362239
161	0x3d8c84cf	0.06861269
162	0xbe1e94b9	-0.1548642
163	0xbea6e37c	-0.32595432
164	0x3e5e83d7	0.2172998
165	0xbe9d487d	-0.30719367
166	0x3e40429c	0.1877541
167	0x3dc41f80	0.09576321
168	0x3df055f6	0.11735146
169	0xbb9c6027	-0.0047722044
170	0xbead6d45	-0.3387243
171	0x3e3aba69	0.18235172
172	0x3dd516df	0.10404753
173	0x3ea6b368	0.3255875
174	0xbcd53cf0	-0.026030034
175	0x3e04643e	0.12928864
176	0x3ea53959	0.32270315
177	0xbe0058a8	-0.1253382
178	0xbe33812d	-0.17529745
179	0xbeabc4b0	-0.33548498
180	0x3e041ad1	0.12900855
181	0xbdf55736	-0.11979525
182	0xbee5de5d	-0.44896212
183	0x3e3caccd	0.18425293
184	0xbdde79de	-0.10863088
185	0xbba472a9	-0.0050185514
186	0x3eabf612	0.33586174
187	0xbbe88376	-0.0070957495
188	0x3e630435	0.22169574
189	0x3eb7a348	0.3586676
190	0x3c7ea9f7	0.015543452
191	0x3e66649c	0.22499317
192	0x3ce91161	0.02845067
193	0xbe344d5c	-0.17607635
194	0xbea5c296	-0.3237502
195	0x3e0e74bb	0.13911717
196	0xbe18e287	-0.14930163
197	0xba404b6f	-0.0007335459
198	0x3dab6bce	0.083701715
199	0x3ede86bb	0.43462166
200	0xbe2a83ad	-0.16651793
201	0xbed9fd0d	-0.42575875
202	0xbdd5ee08	-0.104457915
203	0x3e1d4f29	0.15362228
204	0xbeea7669	-0.45793465
205	0xbd95b91e	-0.07310699
206	0xbdf87333	-0.121313475
207	0xbdae1036	-0.08499186
208	0x3e0dfe53	0.13866548
209	0x3e3e4f47	0.1858493
210	0x3eb88cb3	0.36044845
211	0xbe11e3d2	-0.14247063
212	0xbf10a06d	-0.5649479
213	0x3dad7a93	0.08470645
214	0xbe1a653b	-0.15077679
215	0xbe332acc	-0.17496794
216	0xbde0cd4c	-0.10976657
217	0x3f13de9f	0.5776157
218	0xbdf0c4e7	-0.11756306
219	0xbe7ed0cb	-0.24884336
220	0x3d6c1638	0.057638377
221	0x3e6405ae	0.22267792
222	0xbd14412a	-0.036194958
223	0x3e529860	0.20565939
224	0xbe3ec290	-0.18628907
225	0xbcb22951	-0.021748217
226	0xbe89db72	-0.26925236
227	0x3e39608a	0.18103233
228	0x3e91d20b	0.28480563
229	0xbda4c91f	-0.08046173
230	0x3eb02e1b	0.34410176
231	0xbce5976f	-0.02802631
232	0xbe93689c	-0.28790748
233	0xbe12a176	-0.14319405
234	0xbe3a2b88	-0.18180668
235	0x3dd95559	0.10611982
236	0xbef126b2	-0.47099835
237	0x3df4abf3	0.11946859
238	0xbe97d840	-0.29657173
239	0xbea2072b	-0.31646094
240	0xbd324285	-0.04352047
241	0xbcdf65cc	-0.02727022
242	0xbe1a5cd6	-0.15074477
243	0x3df5eb6c	0.12007794
244	0x3e916456	0.28396863
245	0x3d569b5e	0.052394263
246	0xbd821e9e	-0.06353496
247	0x3ac1f41b	0.001479748
248	0x3db085f3	0.08619299
249	0xbd3b4ad8	-0.045725673
250	0xbd6359ed	-0.05550568
251	0x3e1e0281	0.15430643
252	0x3da917ca	0.082564905
253	0x3e6d52ed	0.23176165
254	0xbe4bff75	-0.19921668
255	0xbd38585a	-0.045006134

actor.2.bias f4 [64]
0	0xbbf4c178	-0.0074693523
1	0xbdbb30c8	-0.09140164
2	0xbeab3a89	-0.33443096
3	0x3e8cd2e7	0.27504656
4	0x3aa45b96	0.0012539502
5	0x3af0aefe	0.0018362699
6	0x3d9a0d7c	0.07522103
7	0x395f0efc	0.0002127252
8	0x3df9b95f	0.1219356
9	0xbe69249b	-0.2276787
10	0x3bb473fa	0.0055069895
11	0xbcb30a1b	-0.021855405
12	0x3c18c669	0.009324648
13	0x3d6af549	0.05736283
14	0xbd262aa4	-0.04056801
15	0x3d869c0c	0.06572732
16	0xbdecb6aa	-0.11558278
17	0xbdf82681	-0.12116719
18	0xbdc2c0d4	-0.09509435
19	0x3c9afa77	0.01891826
20	0xbdca4bec	-0.09877762
21	0x3c92a636	0.017901521
22	0xbdc6e1ec	-0.0971106
23	0x3d314dac	0.043286964
24	0x3d43cbb7	0.0478017
25	0x3da45cd9	0.08025522
26	0xbe19a56f	-0.15004514
27	0xbc277dfb	-0.010222907
28	0x3e36f549	0.17867006
29	0x3ca0d0ba	0.019630779
30	0xbd560b40	-0.052256823
31	0x3dc69b79	0.09697623
32	0xbb04e502	-0.00202781
33	0x3db8dda2	0.09026648
34	0xbcf127da	-0.029437948
35	0xbd82ba9b	-0.063832484
36	0xbdee10e2	-0.11624314
37	0x3da02ebc	0.07821414
38	0xbdbc67ed	-0.0919951
39	0x3d3c3208	0.04594615
40	0xbd16434b	-0.03668527
41	0xbd7a6693	-0.06113298
42	0xbd69c680	-0.05707407
43	0xbdb5af81	-0.08871365
44	0x3d4b4348	0.04962471
45	0x3e0702a1	0.13184597
46	0xbc69fb3a	-0.0142810885
47	0xbdbd6b5e	-0.09248994
48	0x3d88c533	0.06678238
49	0xbbc04ef4	-0.005868787
50	0xbd4dc687	-0.05023816
51	0x3dec9a8a	0.115529135
52	0xbc69bf4e	-0.014266802
53	0x3d138bc6	0.03602197
54	0x3d91b693	0.071149014
55	0xbd859a5f	-0.065235846
56	0xbca04c2d	-0.019567573
57	0xbd968188	-0.07348925
58	0xbef40ccf	-0.47666022
59	0x3d66baaa	0.05633036
60	0xb94938b0	-0.00019189971
61	0xbddfd3b5	-0.10929052
62	0x3d562ce6	0.052288912
63	0xbdafabe1	-0.08577705

actor.4.weight f4 [1, 64]
0	0x3e24ac75	0.16081412
1	0xbc65a3d6	-0.014016112
2	0x3e9a6a33	0.3015915
3	0xbe80ef36	-0.25182503
4	0x3e5bd646	0.21468458
5	0x3e35dd08	0.17760098
6	0x3dc4d41b	0.096107684
7	0x3e0e6cd6	0.13908705
8	0xbdfc8dea	-0.123317555
9	0x3e75aa2e	0.239907
10	0x3e0d061a	0.13771859
11	0x3e36fa04	0.17868811
12	0x3e30ced5	0.172664
13	0x3d80b5f5	0.062847055
14	0xbeb92523	-0.36161146
15	0xbe0d11a0	-0.13776255
16	0x3e558dda	0.20854893
17	0x3d344d0b	0.044018786
18	0x3e919b1c	0.28438652
19	0xbdf2e245	-0.11859564
20	0x3e888053	0.26660404
21	0x3e1a3cde	0.15062281
22	0x3db8c677	0.09022229
23	0xbeee701c	-0.46569908
24	0xbf01bc0d	-0.5067757
25	0xbe363ff7	-0.17797838
26	0x3de1b96e	0.11021696
27	0xbdbb719b	-0.09152528
28	0xbded8a0b	-0.11598595
29	0xbe47f792	-0.19528034
30	0x3df4c5ee	0.119518146
31	0xbe3dc571	-0.18532349
32	0x3d59d1df	0.053178664
33	0x3d3bac30	0.045818508
34	0x3ccbb485	0.024866352
35	0xbe940e84	-0.28917325
36	0xbe1be2f7	-0.15223299
37	0x3c03e242	0.00804955
38	0xbe480028	-0.1953131
39	0xbe14139b	-0.14460604
40	0xbe2c07a5	-0.16799791
41	0x3b63eaf4	0.0034777494
42	0xbe28e1b7	-0.16492353
43	0xbee98aeb	-0.45613798
44	0x3d86b37b	0.06577202
45	0xbe45dc51	-0.19322325
46	0x3d4210bd	0.047379244
47	0x3e3cf29e	0.18451926
48	0xbe0bc033	-0.13647537
49	0x3e0ed04c	0.13946646
50	0xbddd4da8	-0.108058274
51	0x3e58e989	0.21182837
52	0xbe4da8cf	-0.20083927
53	0x3e1cdec9	0.15319361
54	0xbe984798	-0.29742122
55	0xbdb51671	-0.08842171
56	0x3e33b187	0.1754819
57	0xbe39b06f	-0.1813371
58	0xbe47b879	-0.19503964
59	0xbe1c547c	-0.15266603
60	0x3e05cb02	0.13065723
61	0x3eb70fa1	0.3575411
62	0xbded7d74	-0.11596194
63	0x3e1e0228	0.1543051

critic.0.weight f4 [64, 5]
0	0x3e0f463a	0.13991633
1	0xbf95c036	-1.1699283
2	0x3fab99ea	1.3406346
3	0x3d47632e	0.04867857
4	0xbf8741ac	-1.0566916
5	0x3f0f12df	0.5588817
6	0x3e77ab8d	0.24186535
7	0xc00590b2	-2.0869565
8	0x3d4f1dbc	0.050565466
9	0x3fc2cfdd	1.5219685
10	0xbd72af4c	-0.059249207
11	0xbdc21136	-0.09475939
12	0xbe4ea5f7	-0.20180498
13	0x3fe7814e	1.8086336
14	0x3fd779f9	1.6834098
15	0xbe54b197	-0.2077087
16	0xbfc11323	-1.5083965
17	0xbfad6550	-1.3546543
18	0xbd9aafda	-0.07553072
19	0xbf01525c	-0.50516295
20	0xbe98f275	-0.2987248
21	0x3e136768	0.14394915
22	0x3f360147	0.710957
23	0xbfad1ebd	-1.3525006
24	0xc01ae9b1	-2.4205134
25	0xc0136bfa	-2.3034654
26	0xbf337a3b	-0.70108384
27	0xbe8cd128	-0.27503324
28	0x3f7ed340	0.9954109
29	0x3edc7a4a	0.4306205
30	0xbfc0c217	-1.5059232
31	0xbf1dc514	-0.6162884
32	0x401ed570	2.4817772
33	0xbf963f3f	-1.1738051
34	0xbf549852	-0.8304492
35	0xbf7df562	-0.9920255
36	0x3d7c013e	0.061524622
37	0xbfe4f1bb	-1.788627
38	0xbe7bcd9d	-0.24590154
39	0xbe1bd7e8	-0.1521908
40	0x3fcbd7f6	1.5925281
41	0x3f82c3d5	1.0216013
42	0x3f56eac6	0.83951986
43	0xbf78ea39	-0.97232395
44	0xbde0f4c0	-0.10984182
45	0xbfb420f9	-1.4072562
46	0x3e4652d7	0.19367538
47	0xc004f5c1	-2.0774996
48	0x3f8ee165	1.1162535
49	0x3fd79509	1.6842357
50	0x3f8ca619	1.0988189
51	0xbf3be9d1	-0.7340365
52	0x3fba7be0	1.4569054
53	0xbf644ebb	-0.89182633
54	0xbf2c86ee	-0.67393386
55	0xbd806edf	-0.06271147
56	0xbec44b6f	-0.383388
57	0x401b626a	2.4278817
58	0x3f5a7598	0.85335684
59	0x3f41c090	0.7568445
60	0x3fd47236	1.6597354
61	0x3f60fa2e	0.87881744
62	0xc02265ac	-2.5374556
63	0x3f6243a3	0.88384455
64	0x3c415bef	0.011801704
65	0x3f321a76	0.69571626
66	0x3ed8b64d	0.42326584
67	0xbfa00a7e	-1.2503202
68	0x3fef0649	1.8673793
69	0x40240bb2	2.5632138
70	0x3ec20e17	0.37901375
71	0xbf981456	-1.1881206
72	0x3f2a8d30	0.66621685
73	0xbd385de0	-0.0450114
74	0x3f640128	0.89064264
75	0xc011dbbe	-2.279037
76	0xbf1f57b1	-0.6224318
77	0x3f491793	0.78551596
78	0xbfdf2501	-1.7433168
79	0xbe8ecf42	-0.278925
80	0x3dfa911c	0.12234709
81	0x3ef0d88d	0.47040215
82	0x4003b082	2.0576482
83	0x3fe4defe	1.7880552
84	0x3e4a381b	0.19747965
85	0xc01a9aef	-2.4157064
86	0xbe7df651	-0.24800994
87	0xbe67321a	-0.22577706
88	0x3fdb1d76	1.7118366
89	0x3e94d3a0	0.29067707
90	0xbe9c3b4f	-0.30514
91	0xbf7f3228	-0.9968591
92	0xbf5595b3	-0.8343155
93	0xbfa763ad	-1.3077294
94	0xbf6205db	-0.88290185
95	0x3ea4482b	0.3208631
96	0xbeb47f62	-0.35253435
97	0x3f987520	1.1910744
98	0xbf95d066	-1.1704223
99	0xbe177fcd	-0.14794846
100	0xbe1aef17	-0.15130268
101	0x3ece46e1	0.4028845
102	0xc065ac65	-3.5886471
103	0x3fda482b	1.7053274
104	0x3fb6b5e0	1.4274254
105	0x3f4ea218	0.80716085
106	0xbecfc8e5	-0.40582958
107	0x4028ca44	2.6373453
108	0xbf7be9bd	-0.9840353
109	0xbe8db5f9	-0.27677897
110	0xbd148e52	-0.03626854
111	0x3e59957a	0.21248427
112	0x4077f22f	3.8741567
113	0xbfa800f0	-1.3125286
114	0xbff84773	-1.9396805
115	0x3f5220cf	0.8208131
116	0xbf6de72c	-0.92930865
117	0xbf19ac15	-0.600282
118	0x3e99fe2c	0.3007673
119	0xbe56f3c2	-0.20991424
120	0x3f989773	1.1921219
121	0xbf101483	-0.562813
122	0x400f2d75	2.2371495
123	0x3e9f284c	0.31085432
124	0x3dd17fb6	0.10229437
125	0x3e3b394a	0.18283573
126	0x3f400350	0.75005054
127	0x403955e9	2.8958685
128	0xbf8a1918	-1.0788908
129	0xbffcc2a4	-1.97469
130	0x3ff2a659	1.8957015
131	0x3f82faa0	1.0232735
132	0x3f74df3a	0.95653117
133	0xbeb7fe51	-0.35936216
134	0xbe9efad1	-0.31050733
135	0x3fe84374	1.8145585
136	0x3f7c1bf5	0.9848016
137	0x3f6a4745	0.91515
138	0xbf080434	-0.53131413
139	0x3e1aef03	0.15130238
140	0xbfa11b66	-1.2586486
141	0x3e623d5c	0.22093719
142	0x3eb1ff50	0.347651
143	0xbe39af58	-0.18133295
144	0xbd262bba	-0.040569045
145	0xbf606e86	-0.87668645
146	0x3f397c79	0.72455555
147	0xbf543007	-0.82885784
148	0x3f804842	1.0022051
149	0x3eb5fa88	0.35542703
150	0x3fd3902a	1.652837
151	0x3f655dc6	0.8959621
152	0xbf102311	-0.5630351
153	0xbf036958	-0.51332617
154	0xbe0b9ba9	-0.13633598
155	0x3edde2c0	0.4333706
156	0x3f5193d1	0.81866175
157	0x3f92ac7c	1.1458888
158	0x3facc3a0	1.34972
159	0x3ea4fa5c	0.3222226
160	0xbee139a5	-0.43989292
161	0xbebf5914	-0.3737265
162	0xc01ebc2d	-2.4802353
163	0x3fabea27	1.3430833
164	0x3e8a94fb	0.27066788
165	0xbf4cd89b	-0.80018014
166	0xbe7fbf7b	-0.24975388
167	0xbf716a08	-0.94302416
168	0x3e56a912	0.20962933
169	0x3e80f393	0.25185832
170	0xbf89e549	-1.0773097
171	0x3eed8388	0.46389413
172	0x3e5d2609	0.2159654
173	0xbf12c307	-0.5732884
174	0xbe3e288f	-0.1857016
175	0x3f0284f8	0.50984144
176	0x3f1fce09	0.6242376
177	0x400d15e6	2.2044616
178	0xbe7bae38	-0.24578178
179	0xbd990544	-0.074717075
180	0x3ec9858c	0.393597
181	0x3bf8288c	0.007573193
182	0xbfd3aed1	-1.6537725
183	0x3eeb6fe6	0.4598381
184	0x3fc10930	1.5080929
185	0x3fa81dfd	1.3134152
186	0xbf59404c	-0.84863734
187	0x3e671259	0.22565593
188	0xbdad6731	-0.08466948
189	0x3e54a96f	0.20767759
190	0xbffedfcb	-1.9912046
191	0x3f38bdc5	0.72164565
192	0xbf7e5a4f	-0.9935655
193	0xbebac94b	-0.364817
194	0xbef1e3c2	-0.47244078
195	0x3e57d26f	0.21076368
196	0x3dd8e91c	0.10591337
197	0x3d95ef6a	0.07321055
198	0xbfcac89f	-1.5842475
199	0xbfdb8ff0	-1.7153301
200	0xbe64668b	-0.22304742
201	0xbf95bba4	-1.1697888
202	0xbfb58d77	-1.4183797
203	0xbee8fc51	-0.45505002
204	0xbe8f8867	-0.28033754
205	0xbf654f53	-0.89574164
206	0xbe4978da	-0.19675007
207	0x402cbd3d	2.6990502
208	0x3d0728ae	0.03299778
209	0x3e9a7cc3	0.3017331
210	0xbef44ff6	-0.47717255
211	0x3eba26e5	0.363578
212	0x40119589	2.274752
213	0xbf08014d	-0.53126985
214	0x3e9431a3	0.2894412
215	0x3ea79458	0.32730365
216	0xbeba5ef9	-0.36400583
217	0x3eb2ee10	0.34947252
218	0xbfe0fe23	-1.7577556
219	0x3c2f5bc9	0.010703036
220	0x3ef97578	0.48722434
221	0xbeff0108	-0.49805474
222	0xc02acde3	-2.6688163
223	0xbe6a0251	-0.22852446
224	0xbec82e0a	-0.39097625
225	0x3e8ed3f7	0.2789609
226	0xbf8e5da7	-1.112233
227	0xbe42843e	-0.18995759
228	0xbf68c576	-0.909263
229	0x3db9f048	0.09079033
230	0xbfd4b781	-1.6618501
231	0xbede0ba0	-0.43368244
232	0x3f728aaa	0.94742835
233	0xbefcdba0	-0.4938631
234	0xbe98244c	-0.29715192
235	0xbfec4b3a	-1.8460457
236	0x3e0275ea	0.12740293
237	0xc0264ff2	-2.5986295
238	0xbfa692cd	-1.301355
239	0x3e8b8b9e	0.27254957
240	0xbf8919c5	-1.0710989
241	0x3e1b7a60	0.15183401
242	0xc054d3ac	-3.3254194
243	0x3f391dda	0.72311175
244	0x3f87b362	1.0601618
245	0xbf5423e2	-0.8286725
246	0xbe4fe584	-0.20302397
247	0xbffafac9	-1.9607784
248	0xbf7e70ad	-0.9939068
249	0xbf0e0b68	-0.55486155
250	0xbf88d512	-1.0690024
251	0x3efc8549	0.49320439
252	0xbfe460bf	-1.7842025
253	0xbeb88575	-0.3603932
254	0xbe1ea4d8	-0.1549257
255	0x3f3ea8eb	0.744765

critic.0.bias f4 [64]
0	0x3ee6c018	0.4506843
1	0xbeb8427c	-0.35988224
2	0x3f6709ec	0.90249515
3	0x3f9f82fc	1.2461848
4	0xbe1e8991	-0.15482165
5	0x3f233165	0.63747245
6	0x3f057141	0.52125937
7	0x3f4d4049	0.80176216
8	0xbf428bad	-0.7599438
9	0xbdddc629	-0.10828812
10	0xbccc4568	-0.02493544
11	0xbd6d6e05	-0.05796625
12	0x3e8dc3ee	0.27688545
13	0xbc9e40a7	-0.019317938
14	0x3f01662b	0.5054652
15	0x3e8f5143	0.27991685
16	0xbd5258bf	-0.051354166
17	0x3eb79c23	0.3586131
18	0x3f128ff5	0.5725091
19	0x3f52f8e8	0.8241105
20	0x3e4ade23	0.19811301
21	0xbcfb47fe	-0.030673977
22	0xbf2cb776	-0.6746744
23	0xbe84421c	-0.25831687
24	0xbee2cb4d	-0.4429573
25	0xbf48ed65	-0.78487235
26	0xbf4b7921	-0.79481703
27	0xbf217568	-0.6306977
28	0xbf4e2015	-0.80517703
29	0x3e402b89	0.18766607
30	0xbef48a0f	-0.4776158
31	0xbe36e296	-0.17859873
32	0x3ec2c393	0.38039836
33	0x3f33ece9	0.7028337
34	0xbf823f8f	-1.0175647
35	0xbfa869af	-1.3157252
36	0xbea96135	-0.33081976
37	0xbf3e1ea6	-0.74265516
38	0xbf369180	-0.71315765
39	0xbf164196	-0.58693826
40	0x3f677247	0.9040875
41	0xbeeb7fb1	-0.45995858
42	0xbf31eeaa	-0.695048
43	0xbee74d96	-0.4517638
44	0x3f411b15	0.7543195
45	0x3f11f298	0.57010794
46	0xbf158121	-0.5840016
47	0xbe94fa68	-0.29097295
48	0x3ec2fffc	0.38085926
49	0xbda31169	-0.07962305
50	0x3f2a1f9d	0.6645449
51	0x3dadd04a	0.084869936
52	0x3f0e59bd	0.5560568
53	0x3f3060e7	0.6889786
54	0x3d976e7a	0.073941186
55	0xbf33dff6	-0.7026361
56	0x3f8d3e37	1.1034611
57	0xbf490ca0	-0.7853489
58	0x3eaae25e	0.3337583
59	0x3e4ac99e	0.19803473
60	0x3d8b1c53	0.06792512
61	0x3e3e2b50	0.1857121
62	0xbf078722	-0.5294057
63	0xbf360188	-0.71096087

critic.2.weight f4 [64, 64]
0	0xbcfbe936	-0.030750852
1	0xbe8eeee2	-0.27916628
2	0xbf42d4ea	-0.7610613
3	0xbe9a7bfe	-0.30172724
4	0x3ed295a0	0.4112978
5	0xbecb66de	-0.3972692
6	0xbf056845	-0.5211223
7	0xbf422f12	-0.75853074
8	0x3e5e23c9	0.21693338
9	0xbd5650b8	-0.052323073
10	0x3f1450dd	0.5793589
11	0x3ecf7935	0.4052216
12	0xbed7e68a	-0.42168075
13	0xbea870e7	-0.32898638
14	0x3f33f30e	0.7029275
15	0xbea304c9	-0.31839588
16	0x3f017471	0.505683
17	0xbebf5dce	-0.37376255
18	0xbd9387cb	-0.07203635
19	0xbf51970a	-0.8187109
20	0xbf877402	-1.0582278
21	0x3f6045d2	0.8760654
22	0x3ee65efb	0.4499434
23	0x3ebbb039	0.36657885
24	0x3f365ac6	0.7123226
25	0x3f2762f9	0.65385395
26	0x3f2a558d	0.6653679
27	0x3f3a75e7	0.72836155
28	0x3ec1b686	0.37834567
29	0xbea383a9	-0.31936386
30	0xbdf9f36b	-0.122046314
31	0xbce2433e	-0.027619954
32	0xbd933ecd	-0.07189713
33	0xbf15844f	-0.5840501
34	0x3e25a093	0.16174535
35	0x3f32983a	0.6976353
36	0xbe1a946f	-0.15095685
37	0x3f48ad02	0.7838899
38	0xbeaa36f9	-0.33245066
39	0x3de95e85	0.11394981
40	0xbdfecc3c	-0.12441298
41	0x3f37194d	0.7152298
42	0x3e9a3923	0.30121717
43	0x3edfa153	0.43677768
44	0xbf05dd74	-0.52291036
45	0x3e91bc64	0.28464043
46	0x3e1cdcd1	0.1531861
47	0x3ee3ac50	0.44467402
48	0xbfb8f67c	-1.4450221
49	0x3ecdea79	0.4021795
50	0xbf0c7991	-0.54872996
51	0x3f0cfffb	0.55078095
52	0x3dd03ee8	0.101682484
53	0xbec75c3d	-0.3893756
54	0x3f0dfb4a	0.5546156
55	0x3f0fc19e	0.5615481
56	0xbe0e94dd	-0.13923974
57	0x3e7a56d5	0.24447186
58	0xbf8bcb7f	-1.0921477
59	0x3eda72ab	0.4266561
60	0x3f844878	1.0334616
61	0xbdf7adae	-0.12093674
62	0xbd9c0d5c	-0.076197356
63	0x3dff7d58	0.12475079
64	0x3ea3048a	0.318394
65	0x3f01f6bf	0.5076713
66	0x3df34072	0.11877526
67	0xbe43c796	-0.19119105
68	0x3c3de864	0.011591051
69	0xbf8bda07	-1.0925912
70	0xbfa126cc	-1.2589965
71	0xbf23da74	-0.6400521
72	0x3f256683	0.64609545
73	0xbf56ac38	-0.83856535
74	0x3f06f5be	0.5271872
75	0xbe992f76	-0.29919022
76	0x3f7afdf0	0.9804373
77	0x3f82db05	1.022309
78	0x3f16fb71	0.5897742
79	0xbf8eadef	-1.114683
80	0x3ee2935c	0.4425305
81	0xbfb3bdfb	-1.4042352
82	0xbec1c254	-0.37843573
83	0x3e1b7baa	0.15183893
84	0x3e855cc1	0.26047328
85	0x3d875a8d	0.06609068
86	0xbf0d26c7	-0.55137295
87	0xbdc9e3e0	-0.09857917
88	0x3f2002eb	0.6250445
89	0x3ddaead7	0.106893234
90	0x3f504978	0.81362104
91	0x3f81ddf9	1.0145866
92	0xbed7ef38	-0.42174697
93	0xbedbad07	-0.42905447
94	0x3ed7683e	0.42071718
95	0x3d8fd391	0.07022775
96	0xbe0df394	-0.13862449
97	0x3dfaaccf	0.12239992
98	0xbef7f373	-0.48427925
99	0x3f8f1127	1.117711
100	0x3f130a65	0.57437736
101	0x3f05a1ad	0.5219982
102	0xbf8a6cee	-1.0814493
103	0x3d032dfc	0.032026276
104	0xbefcd41f	-0.49380586
105	0x3e5473f9	0.20747365
106	0x3e4458e4	0.19174534
107	0xbe21a631	-0.15786053
108	0xbe3b20ea	-0.18274274
109	0xbdd61c6d	-0.104546405
110	0xbde903df	-0.113776915
111	0xbf57cd8a	-0.84298
112	0xbe9e136a	-0.30874187
113	0xbe237524	-0.15962654
114	0xbf167b78	-0.5878215
115	0x3e99734c	0.29970777
116	0xbf23a1bf	-0.6391868
117	0xbea48d55	-0.32139078
118	0x3c7eb88a	0.015546927
119	0x3dfc0787	0.12306123
120	0x3ea639ab	0.32465872
121	0xbe6ace33	-0.22930221
122	0xbda57bc9	-0.08080251
123	0x3e2b202b	0.1671149
124	0xbe0877fd	-0.13327022
125	0x3ee501ef	0.44728038
126	0x3f02bbad	0.5106762
127	0x3ed52ff8	0.4163816
128	0x3f1fe590	0.6245966
129	0x3efba359	0.49148062
130	0x3f4f5eb5	0.81003886
131	0xbe868918	-0.2627647
132	0xbf27932a	-0.6545893
133	0x3d9ab310	0.07553685
134	0xc02a776e	-2.6635394
135	0xbf54d40d	-0.83136064
136	0x3e97b717	0.29631874
137	0xbeace039	-0.33764818
138	0xbdb50a0e	-0.088398084
139	0x3eab3383	0.33437738
140	0x3ec5ceab	0.38634238
141	0x3f396a79	0.7242809
142	0x3faf2ef9	1.368621
143	0xc023234e	-2.5490298
144	0x3e5f48f2	0.2180517
145	0xbd7a4e2e	-0.061109714
146	0xbeaf66e6	-0.34258193
147	0x3e32c377	0.17457376
148	0x3ce3d728	0.027812555
149	0x3e400db1	0.18755223
150	0xbf607c7c	-0.8768995
151	0x3f194cf7	0.59883064
152	0x3f4ec3e9	0.80767685
153	0xbf17fac6	-0.59367025
154	0x3f36d4c4	0.71418405
155	0x3f43033f	0.7617683
156	0x3d961d56	0.07329814
157	0xbe3b87e5	-0.18313558
158	0x3ecc49dd	0.39900103
159	0x3e9f4086	0.31103915
160	0x3f0bfafe	0.5467986
161	0xbec354a6	-0.3815052
162	0xbee50450	-0.44729853
163	0x3dbafabe	0.091298565
164	0x3f0b4621	0.54403883
165	0x3f187399	0.5955139
166	0xbf853545	-1.0406882
167	0xbf1f2aa2	-0.6217443
168	0xbec6b6be	-0.38811296
169	0x3ecb890e	0.39753002
170	0x3cf0dab7	0.029401166
171	0xbe2a7007	-0.16644298
172	0xbd950032	-0.07275428
173	0xbe3cf9cd	-0.18454666
174	0xbe93a4fd	-0.28836814
175	0xbfa9d51c	-1.3268161
176	0x3d1b0293	0.03784425
177	0xbe5739d1	-0.21018149
178	0xbebe8131	-0.3720794
179	0x3eeabf09	0.45848873
180	0xbe601eb0	-0.21886706
181	0x3d58f75c	0.052970275
182	0x3f1dd167	0.6164765
183	0x3ddc34f0	0.107522845
184	0x3f307130	0.6892271
185	0xbe88c68b	-0.26713976
186	0x3f0f4fda	0.5598122
187	0x3eae4950	0.34040308
188	0xbe316466	-0.17323455
189	0x3e84cc7a	0.25937253
190	0xbe0d40f8	-0.13794315
191	0x3f5c6955	0.86098224
192	0xbf8eddea	-1.1161473
193	0x3f31c0ee	0.6943501
194	0xbf4619a1	-0.77382857
195	0x3f9b383a	1.2126534
196	0x3eff7bdf	0.49899194
197	0xbedfb87e	-0.43695444
198	0x3c6f778e	0.014615906
199	0x3f8fd92a	1.1238148
200	0xbdffe31b	-0.12494489
201	0xbe1c048e	-0.15236112
202	0xbdb01325	-0.085974015
203	0xbf9cba68	-1.2244387
204	0xbf1fe7a6	-0.6246284
205	0xbef642d8	-0.48097873
206	0xbf941f9a	-1.1572144
207	0x3e36837f	0.178236
208	0x3ecd7111	0.40125325
209	0xbf37fbd0	-0.7186861
210	0xbde69f8f	-0.11260902
211	0x3e3d5f27	0.18493329
212	0x3d495792	0.04915578
213	0xbf233e81	-0.6376725
214	0x3ebd887d	0.37018195
215	0xbeadf67e	-0.3397712
216	0xbfb31279	-1.3990012
217	0xbec0f307	-0.37685415
218	0x3a04dd90	0.0005068416
219	0xbe890885	-0.26764312
220	0xbef064fb	-0.46952042
221	0xbe34db46	-0.17661771
222	0xbe91822f	-0.28419635
223	0x3e1fdd33	0.15611725
224	0x3f46c773	0.77648085
225	0xbe369d2d	-0.17833395
226	0xbedd99d9	-0.4328144
227	0xbf2e2e98	-0.68039846
228	0x3ea2fe9d	0.3183488
229	0xbea80b84	-0.32821286
230	0xbe4afe76	-0.19823632
231	0x3e9dcc2d	0.30819836
232	0x3f1c4a60	0.6105099
233	0xbf99c686	-1.201371
234	0xbf471086	-0.7775959
235	0x3beffdfb	0.007323978
236	0x3fafdce2	1.3739283
237	0xbeda6b79	-0.4266012
238	0x3f3f8802	0.74816906
239	0x3e0d3a99	0.13791884
240	0x3dde1918	0.1084463
241	0x3f0244ae	0.50886047
242	0x3f9bd6ca	1.2174923
243	0xbef0f786	-0.47063845
244	0x3e1ee38e	0.15516493
245	0xbe8a9b06	-0.27071398
246	0xbf779436	-0.96710527
247	0xbdb9527a	-0.09048934
248	0xbf8596e6	-1.0436676
249	0xbcc3c93f	-0.023899673
250	0x3d8cd615	0.068767704
251	0x3ea1daac	0.31612146
252	0xbe60fde3	-0.2197185
253	0x3ead98ed	0.33905736
254	0xbe6ee4e3	-0.23329501
255	0x3e06de80	0.13170815

critic.2.bias f4 [64]
0	0xbf60edf3	-0.8786308
1	0x3eb94c51	0.36191037
2	0xbe76267a	-0.24038115
3	0x3e5719a8	0.21005881
4	0xbd782cfc	-0.060589775
5	0xbd3d3a3a	-0.046198107
6	0x3d47a247	0.048738744
7	0x3e7bc554	0.24586993
8	0x3dc4868d	0.09595976
9	0x3e4530c0	0.19256878
10	0x3e58c2fe	0.21168134
11	0xbe6caa81	-0.23111917
12	0x3eeb9868	0.46014714
13	0x3e1d3b37	0.1535462
14	0x3f110952	0.56654847
15	0xbeaa48f3	-0.3325878
16	0xbe6d775e	-0.23190066
17	0xbefe9271	-0.497211
18	0xbefae402	-0.4900208
19	0x3f20af9f	0.62767977
20	0xbeae5ecc	-0.340567
21	0x3ee67e32	0.45018154
22	0xbf0eca43	-0.55777377
23	0xbf34d924	-0.7064383
24	0x3e1b8449	0.15187182
25	0xbf7045ad	-0.93856317
26	0xbde5c65d	-0.112194754
27	0xbf1d42d8	-0.6143012
28	0x3f8dd3b5	1.1080233
29	0x3f66a72d	0.9009884
30	0x3eb6709d	0.35632792
31	0xbd9b135f	-0.07572054
32	0xbe3b8f48	-0.18316376
33	0xbdab4979	-0.08363623
34	0xbf4f6aae	-0.81022155
35	0x3ef42d49	0.476908
36	0xbd6eb8b4	-0.058281615
37	0x3e009b2b	0.12559192
38	0xbe75395b	-0.2394766
39	0x3df25d3e	0.11834191
40	0xbeba7684	-0.36418545
41	0x3d9aa418	0.0755083
42	0x3eb5d58f	0.35514495
43	0xbec48839	-0.3838518
44	0xbe02bbe5	-0.12766989
45	0xbf10053a	-0.56257975
46	0xbe27409b	-0.16333239
47	0x3eb8c3b6	0.36086816
48	0xbe90078c	-0.28130758
49	0xbd2b72a0	-0.04185736
50	0xbef6dcb7	-0.48215267
51	0xbe300201	-0.17188264
52	0x3d676b5b	0.056498867
53	0xbde51751	-0.11186088
54	0x3f745775	0.9544595
55	0xbf3b0be2	-0.73065007
56	0xbf0548be	-0.5206412
57	0xbf0f44a7	-0.5596413
58	0xbe189df0	-0.14903998
59	0x3f6c977b	0.9241864
60	0xbe5c12e7	-0.21491586
61	0xbe93bc36	-0.2885453
62	0x3d9dc381	0.07703305
63	0x3eb7d53e	0.35904878

critic.4.weight f4 [1, 64]
0	0xbd9c9145	-0.076448955
1	0xbdd9489b	-0.106095515
2	0x3e14ed58	0.14543664
3	0x3e83049a	0.25589448
4	0xbe945f1d	-0.28978816
5	0x3dd7700f	0.1051942
6	0xbdf96fd4	-0.12179533
7	0x3e13ae59	0.14421977
8	0xbda5d12a	-0.080965355
9	0xbea09d25	-0.31369892
10	0x3dd6dbeb	0.10491165
11	0x3e3056f5	0.17220671
12	0xbe5fadda	-0.21843663
13	0xbe8b177d	-0.27166358
14	0xbddefc00	-0.10887909
15	0xbe1590ce	-0.1460602
16	0xbd00f2f9	-0.031481717
17	0x3e44e927	0.19229566
18	0xbdcf420a	-0.10120018
19	0xbea0da8f	-0.31416747
20	0xbdef6d57	-0.11690777
21	0x3ce05ff4	0.027389504
22	0x3e6fb6b3	0.23409538
23	0xbd9585cb	-0.073009096
24	0xbe13cf5d	-0.14434572
25	0x3e393344	0.18085963
26	0x3d75d8e0	0.06002128
27	0x3e8460f0	0.25855207
28	0x3de0aa75	0.10970012
29	0xbd6228cf	-0.0552147
30	0xbdd9025a	-0.10596152
31	0x3e2341da	0.15943089
32	0xbe06bc1f	-0.131577
33	0xbe9a173d	-0.30095854
34	0x3e6f45bb	0.23366444
35	0x3e98ed84	0.2986871
36	0xbe99333e	-0.29921907
37	0x3e056eed	0.13030596
38	0x3d03fe5a	0.03222499
39	0xbe4177b0	-0.18893313
40	0xbe096a9f	-0.13419579
41	0x3e15b429	0.14619507
42	0x3db86301	0.090032585
43	0xbdd1620f	-0.10223781
44	0x3e4ad693	0.19808416
45	0xbde1ff28	-0.11034995
46	0x3ea71e5b	0.32640347
47	0x3e26b924	0.16281563
48	0x3e67c85a	0.22635022
49	0x3d878971	0.06618012
50	0x3de8549c	0.11344263
51	0xbe43cb49	-0.19120516
52	0x3d5d1645	0.053976316
53	0x3c88f916	0.016720336
54	0x3d924ba8	0.071433365
55	0xbe867e40	-0.26268196
56	0xbe283e57	-0.16430031
57	0x3f126bfb	0.57196015
58	0x3e577801	0.21041872
59	0x3e5a0033	0.21289138
60	0xbdb38563	-0.08765676
61	0xbdeccd32	-0.115625754
62	0xbc3e065a	-0.011598194
63	0x3d10b72a	0.03533093
