controller/PPO_CartPole-dm_0_120000.pth (torch, 41263 bytes, 10 tensors)

actor.0.weight f4 [64, 5]
0.11161905 -0.31657997 -0.3819822 0.097580835 -0.033614546 0.08038132 0.04658285 -0.020847563
0.023215497 -0.029999701 0.0043099197 0.5854673 0.21713872 0.11525555 0.22157237 -0.4037703
-0.3287161 0.5513506 0.058088 -0.06643632 0.15226974 -0.600013 -0.48589516 0.17903782
-0.3057089 -0.0028125506 0.5829442 0.47030795 0.115313455 0.16680197 0.36349797 0.11745915
-0.45124915 -0.08014036 0.26058155 -0.38298157 -0.032023497 0.094398886 0.26917338 -0.2766097
-0.017485248 0.34229702 0.2727754 0.44299352 -0.3727286 0.14751574 0.11085954 -0.20033534
-0.16389264 -0.053903107 -0.2895657 -0.43105423 -0.020321859 -0.21881402 0.06568088 -0.35986805
0.23763672 -0.007336031 0.43045652 -0.44525215 -0.23728476 -0.34550655 -0.23545635 -0.42853782
-0.06142055 0.03739321 0.35597932 0.04960274 0.27156305 -0.2999105 -0.22726168 0.14875235
-0.07527677 0.08625096 -0.4883247 0.22100684 -0.3774332 0.09625296 -0.21774544 -0.13245112
-0.26396528 -0.2567368 -0.00764097 -0.2609504 0.21183589 0.3722465 -0.50487185 -0.34022194
0.2346921 -0.30338055 -0.3321872 -0.6013143 0.37455052 -0.32731277 0.45842624 0.09391287
-0.21076095 0.020488124 -0.47570738 0.10049916 0.20643006 0.14205913 0.40408376 -0.0249862
-0.19426195 0.025234414 0.6230312 0.5222708 0.18649939 -0.08703507 -0.24289766 -0.22754431
0.11577701 -0.027715798 -0.011584254 -0.2960678 0.034923848 0.4642973 -0.22197838 -0.4828896
-0.010836585 -0.15878102 0.19501892 -0.21439949 0.49442366 -0.16764022 -0.041881382 0.5058311
-0.33221415 -0.14866354 0.18774575 0.0042878315 -0.62717104 0.17877549 -0.10627965 0.01925623
0.41051528 0.45674124 -0.26102284 0.1651746 -0.3770543 0.5384526 0.098030835 0.40579867
0.22988993 0.38645127 0.046796817 -0.25469393 -0.3488888 -0.025296435 -0.25427285 0.04405995
0.36174136 0.20174965 -0.48970672 0.26991904 -0.29492947 0.5734023 -0.00570819 -0.2081507
-0.2727964 -0.23972587 -0.2336659 -0.3612654 0.24524258 -0.13222736 -0.47783253 0.622549
-0.41566926 0.4332839 -0.009139187 -0.048379634 0.3273774 -0.39465308 0.34593666 0.422426
-0.5957615 0.23010942 -0.0615583 -0.07446807 -0.111874685 -0.32742068 -0.0987842 -0.39992407
-0.3466992 -0.15450996 -0.5054473 -0.3943912 0.5184189 -0.13021214 0.32335082 0.049654108
-0.50101906 -0.26945087 -0.5143496 0.1286339 0.13393609 -0.14120223 -0.25132713 -0.30903864
0.24758676 -0.617365 -0.425468 -0.43080115 -0.18637238 0.15714051 0.40225005 -0.09103861
0.09400765 0.16399576 -0.0049138465 -0.12689559 -0.30455652 0.14325361 -0.3017939 -0.1521525
0.29830164 -0.12846594 -0.038987145 0.43774867 -0.35410157 0.29779404 -0.51030844 -0.10378324
-0.4365767 -0.35192546 -0.13966316 -0.009418217 0.22294635 -0.0790721 -0.07638731 0.46379617
-0.05810445 0.64028764 -0.15157364 0.40845653 0.42327598 0.34493506 -0.0269471 -0.31256124
0.0113939755 -0.3245218 0.12527405 -0.2579942 0.36501002 0.37907207 -0.437628 0.06612364
0.055325214 -0.118697666 0.47212166 -0.26932856 -0.43630952 -0.3884541 -0.15861706 -0.10763263
00000000: 8798 e43d c516 a2be 2c93 c3be 76d8 c73d
00000010: 68af 09bd f69e a43d a9cd 3e3d 82c8 aabc
00000020: 6d2e be3c efc1 f5bc 3a3a 8d3b 2fe1 153f
00000030: 9d59 5e3e 1a0b ec3d dee3 623e fbba cebe
00000040: 7a4d a8be 5025 0d3f afed 6d3d c40f 88bd
00000050: 99ec 1b3e 749a 19bf 40c7 f8be b155 373e
00000060: e085 9cbe c552 38bb d53b 153f 34cc f03e
00000070: 7629 ec3d 23ce 2a3e 681c ba3e 6c8e f03d
00000080: 210a e7be a120 a4bd f26a 853e 2916 c4be
00000090: 122b 03bd 3454 c13d 18d1 893e c99f 8dbe
000000a0: 393d 8fbc 8e41 af3e 38a9 8b3e 0cd0 e23e
000000b0: 48d6 bebe 5e0e 173e 540a e33d b524 4dbe
000000c0: 79d3 27be 81c9 5cbd f541 94be 24b3 dcbe
000000d0: 077a a6bc c810 60be b283 863d a040 b8be
000000e0: 0a57 733e 1763 f0bb cc64 dc3e 17f8 e3be
000000f0: c7fa 72be 3ce6 b0be 781b 71be 4f69 dbbe
00000100: 1d94 7bbd 9f29 193d ec42 b63e 3e2c 4b3d
00000110: 500a 8b3e de8d 99be 49b7 68be 8952 183e
00000120: b52a 9abd 58a4 b03d b205 fabe 9e4f 623e
00000130: ed3e c1be 4620 c53d a9f8 5ebe 44a1 07be
00000140: 7526 87be 0173 83be 1a61 fabb 4a9b 85be
00000150: 82eb 583e 1897 be3e 483f 01bf 9231 aebe
00000160: 2053 703e b254 9bbe 7114 aabe bcef 19bf
00000170: 16c5 bf3e 8a95 a7be d8b6 ea3e 6455 c03d
00000180: b8d1 57be b6d6 a73c eb8f f3be 81d2 cd3d
00000190: 6762 533e f377 113e 11e4 ce3e dcaf ccbc
000001a0: 9bec 46be 67b8 ce3c f97e 1f3f 8ab3 053f
000001b0: b2f9 3e3e 713f b2bd 2aba 78be 6001 69be
000001c0: 7f1c ed3d 3e0c e3bc e2cb 3dbc 3396 97be
000001d0: 4f0c 0f3d 60b8 ed3e 4d4e 63be 4e3d f7be
000001e0: ef8b 31bc 7e97 22be 0ab3 473e 8a8b 5bbe
000001f0: 1925 fd3e e1a9 2bbe d08b 2bbd 267e 013f
00000200: f917 aabe 413b 18be 6c40 403e f080 8c3b
00000210: 488e 20bf ec10 373e 25a9 d9bd 3ebf 9d3c
00000220: 0f2f d23e fdd9 e93e c9a4 85be 8823 293e
00000230: 430d c1be 08d8 093f 64c4 c83d d8c4 cf3e
00000240: 4468 6b3e f1dc c53e 05ae 3f3d 3e67 82be
00000250: 8ea1 b2be 783a cfbc 0d30 82be 3578 343d
00000260: 2a36 b93e 7697 4e3e d7ba fabe d432 8a3e
00000270: ff00 97be 7eca 123f c50b bbbb 7525 55be
00000280: f8ab 8bbe b37a 75be 1d46 6fbe c7f7 b8be
00000290: df20 7b3e 9c66 07be 77a6 f4be 5f5f 1f3f
000002a0: 9ad2 d4be 63d7 dd3e 87bc 15bc b929 46bd
000002b0: 039e a73e f80f cabe 9c1e b13e 3848 d83e
000002c0: d383 18bf cea1 6b3e 8e24 7cbd b782 98bd
000002d0: 8e1e e5bd afa3 a7be 5f4f cabd d9c2 ccbe
000002e0: 8f82 b1be dc37 1ebe ff64 01bf a5ed c9be
000002f0: 1ab7 043f 5556 05be 3d8e a53e 1b62 4b3d
00000300: c942 00bf 77f5 89be 6aac 03bf 9bb8 033e
00000310: 8b26 093e 5197 10be f3ad 80be 503a 9ebe
00000320: 6287 7d3e a20b 1ebf f1d6 d9be f891 dcbe
00000330: 67d8 3ebe 71e9 203e b8f3 cd3e 7372 babd
00000340: 1587 c03d 81ee 273e 5504 a1bb ebf0 01be
00000350: d5ee 9bbe 13b1 123e bb84 9abe ddcd 1bbe
00000360: feba 983e 938c 03be fcb0 1fbd 9820 e03e
00000370: cd4c b5be 7678 983e 93a3 02bf 4f8c d4bd
00000380: fb86 dfbe 932f b4be dc03 0fbe de4e 1abc
00000390: 0c4c 643e 8ef0 a1bd f370 9cbd b176 ed3e
000003a0: effe 6dbd e4e9 233f 1f36 1bbe 3721 d13e
000003b0: a1b7 d83e 549b b03e 2ac0 dcbc 0708 a0be
000003c0: ccad 3a3c b927 a6be d747 003e d117 84be
000003d0: 98e2 ba3e bc15 c23e c710 e0be d56b 873d
000003e0: b19c 623d c317 f3bd eeb9 f13e 6fe5 89be
000003f0: f663 dfbe 75e3 c6be 836c 22be 7f6e dcbd

actor.0.bias f4 [64]
-0.25045452 0.009117287 -0.34526035 -0.32222503 -0.2952349 -0.053882718 0.5564072 0.0039866497
-0.42693633 0.023275223 0.051114526 -0.42462564 0.26340735 -0.22417192 0.016431678 -0.4065038
0.2129268 -0.2564009 0.26325786 0.058587648 -0.04656635 -0.1607027 -0.062286723 -0.010148064
0.25510618 -0.5501849 0.05884846 0.29191452 -0.07006186 -0.11407536 0.4227454 -0.37089717
-0.38291842 0.21833923 -0.060494307 -0.047557704 -0.39928392 -0.31656936 -0.16298912 0.34279388
-0.022270877 -0.47491905 0.21730655 0.2366654 -0.38985434 0.35626516 -0.012953067 0.3386873
0.35828272 -0.4450349 0.12744753 -0.000600197 -0.402441 -0.16483794 -0.37960348 -0.48251414
-0.47813275 0.04354112 0.4030386 0.12107622 -0.31973693 0.20541498 -0.32498777 0.23284179
00000000: 933b 80be ac60 153c f7c5 b0be aefa a4be
00000010: 0729 97be 20b4 5cbd b470 0e3f 71a2 823b
00000020: 6697 dabe aeab be3c 775d 513d 8868 d9be
00000030: 54dd 863e 538d 65be ba9b 863c 4421 d0be
00000040: 7c09 5a3e fb46 83be bcc9 863e 9af9 6f3d
00000050: 5bbc 3ebd 408f 24be 5d20 7fbd 1144 26bc
00000060: 479d 823e ebd8 0cbf 150b 713d d275 953e
00000070: 987c 8fbd 58a0 e9bd 1672 d83e 3ce6 bdbe
00000080: e20d c4be 5294 5f3e e1c8 77bd decb 42bd
00000090: f16e ccbe 6115 a2be 9fe6 26be ae82 af3e
000000a0: 6a71 b6bc 9728 f3be 9c85 5e3e 6a58 723e
000000b0: fd9a c7be 6368 b63e 1a39 54bc 6c68 ad3e
000000c0: d570 b73e 9ddb e3be 9b81 023e 8a56 1dba
000000d0: bf0c cebe 47cb 28be 635b c2be 180c f7be
000000e0: d1cd f4be 2c58 323d 135b ce3e cff6 f73d
000000f0: 8fb4 a3be 4e58 523e cc64 a6be 146e 6e3e

actor.2.weight f4 [64, 64]
-0.12713556 0.027607037 -0.12275291 0.09672188 -0.062471837 -0.12317847 -0.07393002 0.09431877
0.02788888 -0.04691949 -0.0040012877 -0.034063905 -0.008637585 -0.06460793 -0.086908355 -0.07264556
-0.05099263 -0.026584677 0.040130552 0.088869534 0.028085927 0.021551594 0.09840807 -0.085880145
0.109681316 -0.0076897796 -0.08512164 0.06900374 -0.15967643 -0.12851644 0.10033827 0.063450515
0.11332972 0.13394879 -0.02674563 0.06454719 -0.0035908462 0.11211237 -0.089656025 -0.055564538
0.043825604 -0.14389363 0.07709646 0.058762252 -0.070286766 -0.10425131 -0.05349183 -0.10276827
0.024226109 -0.0013805089 -0.06526454 -0.072724804 -0.10886407 0.01860832 0.0059241597 0.08051948
-0.088201806 0.106070876 0.048135985 -0.020073773 0.05225378 0.09807443 -0.1093604 -0.07144343
-0.1098288 -0.11756072 -0.13260506 -0.06806643 0.10034192 0.0074031036 -0.03055597 -0.035831604
0.05275799 -0.042771097 -0.107261345 0.04756093 -0.08193012 0.094026305 -0.0540219 -0.14644086
0.076138906 -0.112571254 0.004747436 -0.029051377 -0.08825863 0.15226218 0.03949676 -0.11409592
0.011461937 -0.09220656 0.027594926 -0.02752392 -0.02691476 -0.15013185 -0.028257888 -0.08243309
0.0733775 0.0969015 0.08218693 0.03245408 0.053148285 -0.11185955 -0.06418262 0.111363485
0.058344424 0.07980871 0.10583949 0.089214444 0.10341272 0.15833852 0.069025256 0.09086574
-0.097017884 0.06311089 0.063471556 0.057513233 -0.08324171 0.022076676 -0.10117239 -0.0041127405
-0.09993816 0.0022434061 -0.15307342 0.080504216 0.046892203 -0.105198525 0.07845022 -0.006428091
0.09481382 0.011381953 -0.143127 0.11346964 0.09632724 -0.07902388 0.14023131 -0.10779542
0.056424633 -0.030553881 -0.06467567 0.0041283765 -0.12539914 -0.044131953 -0.101161286 -0.1110874
0.04642089 0.030932147 0.11288966 0.06636623 0.07893917 0.19449723 -0.05250543 0.080908105
0.08911107 0.055905458 0.005323043 0.00926319 -0.1434455 -0.12032287 0.13366073 0.032671265
0.062579684 0.11925918 0.11330357 -0.05174603 0.03233978 0.08082617 0.0570673 0.0661031
-0.040338136 -0.10376032 0.09675287 -0.05138968 -0.12213943 0.0711784 0.1233675 -0.046533413
0.14079279 -0.041263063 0.026431233 0.09109717 0.036645178 -0.07492224 -0.086482875 0.020406736
-0.06701671 -0.065395355 0.04290462 0.025017112 -0.03363171 0.13026156 -0.004602541 0.08607236
-0.1856236 0.12335296 0.14358318 0.119208336 -0.14614905 0.008619459 -0.013978716 -0.0011841413
-0.06350101 -0.0020400153 -0.20239459 -0.08416519 -0.0760868 0.095222145 0.0135464175 0.01640081
-0.13689819 -0.13641153 -0.06828084 0.059874296 -0.013051004 0.14209968 0.06960923 0.059514057
0.05154476 0.07270299 0.023105843 0.074716784 0.197522 -0.023263944 0.06877665 -0.0056929444
-0.0449846 0.06975155 0.08793826 -0.13822047 -0.08384904 -0.14426415 -0.077749 0.075408384
-0.25153583 0.06399991 0.012545532 -0.013916476 0.10504445 0.04648675 0.13816893 0.078335054
-0.05459538 -0.0020510112 -0.09912524 0.026552998 0.07812621 0.08047765 0.10499026 0.017058415
0.06241058 0.067338355 -0.018141188 -0.030056074 -0.037918787 0.010507272 -0.057501458 0.078286275
00000000: d32f 02be 2728 e23c e165 fbbd 1f16 c63d
00000010: 78e2 7fbd fe44 fcbd 9f68 97bd 332a c13d
00000020: 3877 e43c a72e 40bd 3c1d 83bb 9886 0bbd
00000030: a884 0dbc 2a51 84bd 02fd b1bd 32c7 94bd
00000040: a6dd 50bd 1cc8 d9bc ef5f 243d 3b01 b63d
00000050: 7514 e63c f88c b03c 2c8a c93d eee1 afbd
00000060: 99a0 e03d 8cfa fbbb 4154 aebd d551 8d3d
00000070: 3882 23be d099 03be 277e cd3d 58f2 813d
00000080: 6a19 e83d df29 093e a719 dbbc 5131 843d
00000090: 6754 6bbb 2c9b e53d 949d b7bd a497 63bd
000000a0: 7a82 333d da58 13be c0e4 9d3d b0b0 703d
000000b0: 82f2 8fbd b681 d5bd 401a 5bbd 2c78 d2bd
000000c0: d575 c63c 31f2 b4ba 6aa9 85bd bef0 94bd
000000d0: 20f4 debd 7a70 983c 741f c23b 66e7 a43d
000000e0: 26a3 b4bd b03b d93d 3d2a 453d c171 a4bc
000000f0: 0f08 563d 3fdb c83d 58f8 dfbd ef50 92bd
00000100: eced e0bd adc3 f0bd 9fc9 07be 6a66 8bbd
00000110: 1180 cd3d bc95 f23b 8350 fabc 29c4 12bd
00000120: c318 583d bf30 2fbd d6ab dbbd 40cf 423d
00000130: fbca a7bd dd90 c03d 1146 5dbd 98f4 15be
00000140: b7ee 9b3d c28b e6bd 6190 9b3b 27fd edbc
00000150: f1c0 b4bd 9eea 1b3e 5bc7 213d 1fab e9bd
00000160: d9ca 3b3c cbd6 bcbd c10e e23c d879 e1bc
00000170: 587c dcbc 2abc 19be 167d e7bc aed2 a8bd
00000180: f146 963d 4b74 c63d 9f51 a83d 92ee 043d
00000190: 04b2 593d 9f16 e5bd 2d72 83bd 8a12 e43d
000001a0: 90fa 6e3d c072 a33d 60c2 d83d 10b6 b63d
000001b0: 0cca d33d 7e23 223e 1d5d 8d3d d117 ba3d
000001c0: 50b1 c6bd 4840 813d 60fd 813d ff92 6b3d
000001d0: a17a aabd 25da b43c 7833 cfbd 2bc4 86bb
000001e0: 61ac ccbd 1c06 133b 47bf 1cbe 65df a43d
000001f0: 0a12 403d 5372 d7bd 82aa a03d bca2 d2bb
00000200: c02d c23d 5f7b 3a3c e28f 12be c562 e83d
00000210: 3747 c53d 46d7 a1bd cc98 0f3e d8c3 dcbd
00000220: 841d 673d 224c fabc ad74 84bd 5547 873b
00000230: a268 00be b5c3 34bd a62d cfbd ca81 e3bd
00000240: d523 3e3d 6a65 fd3c b232 e73d 05eb 873d
00000250: dcaa a13d 482a 473e ef0f 57bd 26b3 a53d
00000260: dd7f b63d 1ffd 643d ec6c ae3b a3c4 173c
00000270: 61e3 12be d66b f6bd 5cde 083e 4ed2 053d
00000280: c729 803d 283e f43d b40b e83d a5f3 53bd
00000290: b876 043d 3188 a53d 67bf 693d 1061 873d
000002a0: 9a39 25bd 4a80 d4bd 5e26 c63d fc7d 52bd
000002b0: 3d24 fabd fbc5 913d 1aa8 fc3d d299 3ebd
000002c0: fc2b 103e 7503 29bd 5086 d83c 2791 ba3d
000002d0: 4119 163d d570 99bd ef1d b1bd 072c a73c
000002e0: 0f40 89bd 00ee 85bd c1bc 2f3d b0f0 cc3c
000002f0: 67c1 09bd 4963 053e ead0 96bb b546 b03d
00000300: 1d14 3ebe 7aa0 fc3d 7807 133e 8023 f43d
00000310: 19a8 15be a238 0d3c fc06 65bc 3035 9bba
00000320: d10c 82bd c7b1 05bb 8740 4fbe cd5e acbd
00000330: 65d3 9bbd d403 c33d cbf1 5d3c fe5a 863c
00000340: 0a2f 0cbe 77af 0bbe d3d6 8bbd c03e 753d
00000350: e1d3 55bc 9482 113e 498f 8e3d 03c5 733d
00000360: 9920 533d 4ee5 943d 7748 bd3c 1d05 993d
00000370: 3543 4a3e 0794 bebc c6da 8c3d e18b babb
00000380: c641 38bd e7d9 8e3d f918 b43d ab89 0dbe
00000390: 0cb9 abbd fbb9 13be de3a 9fbd b66f 9a3d
000003a0: 4ec9 80be 6312 833d c68b 4d3c ee01 64bc
000003b0: 8b21 d73d e468 3e3d 287c 0d3e 216e a03d
000003c0: 689f 5fbd 426a 06bb 2d02 cbbd ac85 d93c
000003d0: a200 a03d 77d1 a43d 2205 d73d 17be 8b3c
000003e0: 3da2 7f3d b1e8 893d d49c 94bc 2838 f6bc
000003f0: bb50 1bbd b126 2c3c a686 6bbd 8e54 a03d

actor.2.bias f4 [64]
-0.14298402 0.06057963 -0.05547816 -0.080305986 0.0041730455 0.07376913 -0.09197636 -0.053837728
0.01823347 0.03640948 0.108190045 0.045328483 -0.088023886 0.0718169 -0.10456862 -0.12603731
0.021873834 -0.08330965 -0.08003612 0.079785734 -0.11850986 -0.035505753 0.09042294 -0.058810025
-0.059769034 -0.1297429 -0.14487712 -0.13359174 0.018831301 0.13315345 -0.10311745 0.031558737
-0.008935385 -0.047288552 0.011820736 0.07160012 -0.09135008 0.1152525 0.05113275 0.09108905
0.07412856 -0.055751305 0.09601628 0.0067055174 0.05094448 -0.024370953 -0.04813513 0.11796382
-0.10257334 -0.024895545 0.025769701 -0.03852501 -0.005182522 0.08659633 -0.044347994 -0.09766721
0.11370796 0.043389343 0.040607963 -0.057558067 0.10201159 -0.111373685 -0.071854144 0.06594355
00000000: 676a 12be 5922 783d 113d 63bd 7777 a4bd
00000010: 0bbe 883b 4514 973d 1a5e bcbd f384 5cbd
00000020: 5c5e 953c 1b22 153d be92 dd3d 5caa 393d
00000030: de45 b4bd bd14 933d 1328 d6bd ed0f 01be
00000040: c130 b33c 409e aabd fae9 a3bd b466 a33d
00000050: 4cb5 f2bd 7b6e 11bd aa2f b93d c8e2 70bd
00000060: 60d0 74bd 53db 04be ab5a 14be 46cc 08be
00000070: 1a44 9a3c 6159 083e 3e2f d3bd bc43 013d
00000080: b965 12bc a4b1 41bd c3ab 413c 15a3 923d
00000090: c015 bbbd 8109 ec3d 9370 513d e58c ba3d
000000a0: b7d0 973d 7b5b 64bd 2fa4 c43d f5b9 db3b
000000b0: 29ab 503d 98a5 c7bc 5829 45bd 0497 f13d
000000c0: f911 d2bd bef1 cbbc fb1a d33c 67cc 1dbd
000000d0: 25d2 a9bb 6b59 b13d 3ea6 35bd bf05 c8bd
000000e0: b8df e83d 06b9 313d 8954 263d 02c2 6bbd
000000f0: 74eb d03d e317 e4bd 4428 93bd 690d 873d

actor.4.weight f4 [1, 64]
0.12716997 0.06779918 0.16343825 -0.07333958 -0.055544693 -0.0161452 0.11125594 -0.061632566
-0.08791987 -0.030426309 0.12615378 -0.05130908 0.11590249 -0.010008969 -0.019584443 -0.056847792
-0.064602785 -0.061740737 -0.03660249 -0.04363523 -0.014525839 0.121352166 -0.18466154 0.054104947
0.1782897 0.22319911 0.10783618 0.15023895 0.062756784 0.049014013 -0.08115375 -0.023758046
-0.10975736 -0.17456786 0.09550435 0.10154085 0.09160966 0.15106691 0.062065944 0.042191092
0.083679065 -0.10381004 -0.09690499 0.108007714 -0.15384117 -0.09859563 0.13426903 -0.08424846
-0.048167817 -0.057991836 0.16530202 -0.19006653 0.16591564 -0.13902295 -0.07495751 -0.08326256
-0.16344516 0.0038777536 0.0915255 -0.07502475 0.073066965 -0.121431775 0.09630799 0.06686546
00000000: d838 023e 4cda 8a3d 5b5c 273e 1033 96bd
00000010: d582 63bd f042 84bc 27da e33d 6e72 7cbd
00000020: 550f b4bd 9840 f9bc 752e 013e 7829 52bd
00000030: 495e ed3d a9fc 23bc 8e6f a0bc 3bd9 68bd
00000040: 774e 84bd dbe3 7cbd 7eec 15bd dbba 32bd
00000050: c9fd 6dbc 7c87 f83d ea17 3dbe 269d 5d3d
00000060: 9391 363e 4f8e 643e 37d9 dc3d 3dd8 193e
00000070: a186 803d ebc2 483d f033 a6bd 3ca0 c2bc
00000080: 77c8 e0bd ebc1 32be c997 c33d a6f4 cf3d
00000090: d89d bb3d 49b1 1a3e dc38 7e3d 91d0 2c3d
000000a0: ee5f ab3d 5c9a d4bd 2076 c6bd 2633 dd3d
000000b0: 8a88 1dbe 81ec c9bd d27d 093e 758a acbd
000000c0: 9e4b 45bd d988 6dbd ef44 293e cda0 42be
000000d0: cae5 293e 085c 0ebe 5383 99bd 9085 aabd
000000e0: 2b5e 27be e921 7e3b b971 bb3d 93a6 99bd
000000f0: 22a4 953d 39b1 f8bd 203d c53d c2f0 883d

critic.0.weight f4 [64, 5]
-0.34547916 0.5286287 -0.5334746 0.092292346 -0.24403846 0.05615461 0.6560634 -0.18068632
-0.06828834 -0.39319274 -0.63081044 0.43755835 -0.49727216 -0.46235576 0.026121132 0.026328048
0.31202888 1.2791979 0.038548294 0.38246632 -0.6143979 -0.16185598 -0.18829927 -0.14066163
0.034822907 0.23248978 0.53521705 -0.32976267 0.5963294 -0.020052146 -0.35579795 0.28095633
-0.51489323 0.00832457 -0.17421965 -0.03593327 -0.5926378 -0.04438842 0.15472177 0.34109408
-0.008445874 -0.32368785 0.7637287 0.009947625 0.26367134 0.20507386 0.05062287 -0.5476309
0.009245179 -0.09130879 0.17935805 0.37879157 -0.81211245 -0.22788624 -0.33922267 -0.6860218
-0.084120266 0.054631572 0.3383901 0.044942778 -0.25490597 -0.39272404 -0.5588875 -0.25864354
0.23437779 -0.1504604 0.64048034 0.18322484 -0.5693858 -0.16816399 -0.3204424 0.38097444
-0.6285426 -0.024745882 -0.17202903 -0.49286875 0.12287938 -0.3205924 -0.13575937 0.18640669
0.48056865 -0.46804956 0.44688684 0.35743877 0.34303322 0.23418723 0.20283589 0.162961
-0.021788284 0.029967207 -0.58619815 0.15688418 0.42142844 -0.23532656 0.25332814 0.19753662
0.47705293 0.047844037 -0.51524216 -0.22658737 0.029313434 -0.6429997 -0.07327938 0.08666462
-0.123271085 -0.23733394 -0.24853124 -0.8170748 -0.11033448 -0.27604213 -0.27232045 0.057122186
0.14700483 -0.28491452 0.19469151 -0.18027459 -0.5068654 0.16772786 0.42026815 -0.10467339
0.016995953 0.41887382 0.06211311 -0.039484963 0.3616784 0.039513703 -0.13175167 0.34347633
1.0655279 -0.04419898 0.46247268 -0.5378086 0.27477324 -0.045130327 0.32771945 -0.20755817
0.6142079 0.09799951 -0.47692153 0.42157698 0.54778767 0.4416826 0.36817524 0.15641235
-0.042813312 -0.132647 -0.4535053 0.44251806 -0.060338955 -0.015433331 0.26075822 -0.098460145
0.034239717 0.34334183 -0.013943929 -0.31460378 0.26195282 -0.017056983 -0.68545437 -0.105063654
0.37165543 0.099111035 0.05420788 -0.25299576 0.074525066 -0.14305392 -0.1002291 -0.024833938
-0.024394214 0.013652716 0.03194774 -0.51750207 0.2035301 -0.3855425 0.24242681 0.12574962
-0.28749925 0.633501 -0.6543359 -0.09871661 -0.5221345 0.06615415 0.034562416 -0.31555265
-0.027815051 0.7528321 0.190323 -0.3551677 0.21995544 -0.045675155 -0.028926237 0.32168776
-0.11569873 -0.104373336 0.0045011593 0.40584514 0.34666482 0.025703104 0.2901379 0.16633609
-0.13163021 0.1369686 0.85292923 0.22035132 0.22216189 -0.24302098 0.20310767 -1.2247254
-0.11411008 -0.2221472 0.028173877 -0.22799751 0.9278056 0.02747748 -0.17052639 0.05622293
-0.1785979 1.1928047 0.06921893 0.2570237 0.44404748 -0.5071512 0.15830916 0.13298519
0.25406227 0.028160468 -0.72001845 -0.42548975 -0.2688532 0.14006017 -0.06374173 0.15461309
-0.5296088 -0.082776524 0.2320021 0.056609247 0.46605605 -0.17580536 -0.057632662 -0.10922091
-0.074619785 -0.5768374 0.7917589 -0.05912048 0.3041775 0.3943427 -0.1270963 -0.61528873
-0.34948817 0.1308196 -0.25593105 -0.50089526 -0.35145983 0.34443328 0.3297078 0.354213
00000000: a5e2 b0be 3654 073f cb91 08bf c503 bd3d
00000010: 38e5 79be 6002 663d c5f3 273f d605 39be
00000020: c2da 8bbd 8f50 c9be cb7c 21bf a607 e03e
00000030: 759a febe e5b9 ecbe fcfb d53c ebad d73c
00000040: 40c2 9f3e c2bc a33f d1e4 1d3d a0d2 c33e
00000050: 2e49 1dbf 93bd 25be 86d1 40be 9a09 10be
00000060: 77a2 0e3d cd11 6e3e fc03 093f a7d6 a8be
00000070: 0ba9 183f 6644 a4bc 262b b6be 82d9 8f3e
00000080: 0bd0 03bf c763 083c a366 32be c42e 13bd
00000090: 1cb7 17bf a2d0 35bd 626f 1e3e e2a3 ae3e
000000a0: 9060 0abc 6aba a5be b983 433f 5dfb 223c
000000b0: eeff 863e e2fe 513e ed59 4f3d 8a31 0cbf
000000c0: 1779 173c 1a00 bbbd a3a9 373e f8f0 c13e
000000d0: 9ae6 4fbf 035b 69be 98ae adbe 209f 2fbf
000000e0: 3f47 acbd 5bc5 5f3d 7841 ad3e eb15 383d
000000f0: 0983 82be 2013 c9be 4013 0fbf ed6c 84be
00000100: bb00 703e 4b12 1abe 85f6 233f 4b9f 3b3e
00000110: 45c3 11bf 2e33 2cbe 0711 a4be 150f c33e
00000120: 2be8 20bf e0b7 cabc 6128 30be 4b59 fcbe
00000130: 2fa8 fb3d b024 a4be 8104 0bbe 65e1 3e3e
00000140: 180d f63e 31a4 efbe 5ace e43e 3702 b73e
00000150: 0da2 af3e c7ce 6f3e 36b4 4f3e 40df 263e
00000160: 587d b2bc ca7d f53c 1511 16bf 3fa6 203e
00000170: 78c5 d73e 72f9 70be 3ab4 813e 0a47 4a3e
00000180: 4840 f43e 1cf8 433d e9e6 03bf 8506 68be
00000190: ba22 f03c a19b 24bf 8013 96bd 387d b13d
000001a0: 8d75 fcbd ab07 73be f97e 7ebe d02b 51bf
000001b0: 0bf7 e1bd 6555 8dbe 966d 8bbe f4f8 693d
000001c0: 6f88 163e 51e0 91be 365d 473e e799 38be
000001d0: eec1 01bf dac0 2b3e 632d d73e 015f d6bd
000001e0: 193b 8b3c a176 d63e 516a 7e3d fcba 21bd
000001f0: e92d b93e 1fd9 213d e9e9 06be 21dc af3e
00000200: 3863 883f fd09 35bd 38c9 ec3e d3ad 09bf
00000210: 14af 8c3e 94da 38bd d8ca a73e 218a 54be
00000220: bb3c 1d3f f8b3 c83d 0f2f f4be f0d8 d73e
00000230: d03b 0c3f 3924 e23e 7781 bc3e 8f2a 203e
00000240: 035d 2fbd 9dd4 07be d931 e8be ba91 e23e
00000250: fb25 77bd 15dc 7cbc 1a82 853e 79a5 c9bd
00000260: f23e 0c3d 80ca af3e 1475 64bc bf13 a1be
00000270: ae1e 863e 16bb 8bbc f079 2fbf 9d2b d7bd
00000280: 9f49 be3e bafa ca3d 1509 5e3d a988 81be
00000290: 99a0 983d ba7c 12be ea44 cdbd 8b70 cbbc
000002a0: 60d6 c7bc a4af 5f3c a2db 023d 047b 04bf
000002b0: 326a 503e d465 c5be bc3e 783e 82c4 003e
000002c0: 1a33 93be 1f2d 223f 8f82 27bf ef2b cabd
000002d0: 9baa 05bf d47b 873d 5291 0d3d 1e90 a1be
000002e0: 64dc e3bc 9bb9 403f 08e4 423e 8ad8 b5be
000002f0: 003c 613e df15 3bbd b7f6 ecbc 42b4 a43e
00000300: 75f3 ecbd b0c1 d5bd 767e 933b efca cf3e
00000310: 0d7e b13e 518f d23c f48c 943e 0254 2a3e
00000320: 12ca 06be 7f41 0c3e 9259 5a3f c7a3 613e
00000330: 687e 633e 7eda 78be 75fb 4f3e cdc3 9cbf
00000340: 8cb2 e9bd 8e7a 63be e7cc e63c 2e78 69be
00000350: ab84 6d3f 7418 e13c 789e 2ebe 044a 663d
00000360: 5ee2 36be d3ad 983f a8c2 8d3d 9c98 833e
00000370: 315a e33e a9d4 01bf cc1b 223e 452d 083e
00000380: 7314 823e c8b0 e63c 2153 38bf cbd9 d9be
00000390: 20a7 89be ef6b 0f3e 068b 82bd e552 1e3e
000003a0: 7194 07bf bd86 a9bd f591 6d3e 19df 673d
000003b0: e69e ee3e 5206 34be 3a10 6cbd 36af dfbd
000003c0: 42d2 98bd 9eab 13bf b6b0 4a3f 5128 72bd
000003d0: 27bd 9b3e 49e7 c93e 8825 02be 9083 1dbf
000003e0: 1df0 b2be 93f5 053e 6509 83be ac3a 00bf
000003f0: 8bf2 b3be 8f59 b03e 76cf a83e 685b b53e

critic.0.bias f4 [64]
-0.6412852 -0.53072 -0.20452489 0.22741602 -0.14423488 -0.042446516 -0.21389258 0.45597282
-0.08474663 0.43812975 -0.23581646 0.15141162 -0.1286677 -0.20916697 -0.23519935 0.061147835
0.4835411 -0.043560024 -0.3386193 0.10990609 0.57694125 -0.111942016 -0.06875013 -0.3040478
-0.34323603 0.0801082 -0.28371283 -0.4547768 -0.21390486 0.2920492 0.25887436 0.33114028
-0.18697639 -0.51202357 -0.25674298 0.4020157 -0.20442721 -0.43762603 0.45368117 -0.14811833
0.34640682 -0.02039355 -0.18803221 -0.0188734 -0.21910799 0.38100255 -0.25329983 -0.460415
-0.15356004 -0.112017095 0.42481402 -0.17572176 -0.08164506 0.5236444 0.16316696 -0.5415
0.3543835 -0.5393887 0.36078027 0.38153148 0.15547413 -0.38209042 0.22869124 0.40661725
00000000: 442b 24bf 44dd 07bf f96e 51be bfdf 683e
00000010: 4fb2 13be 66dc 2dbd a806 5bbe 4575 e93e
00000020: a48f adbd 8b52 e03e df79 71be a60b 1b3e
00000030: 77c1 03be de2f 56be 19d8 70be 2776 7a3d
00000040: b392 f73e ff6b 32bd 825f adbe 7216 e13d
00000050: 6cb2 133f db41 e5bd decc 8cbd 27ac 9bbe
00000060: a2bc afbe c50f a43d cf42 91be 81d8 e8be
00000070: e009 5bbe 7987 953e 2e8b 843e 388b a93e
00000080: bd76 3fbe fa13 03bf d173 83be 00d5 cd3e
00000090: 5e55 51be 8510 e0be e648 e83e 55ac 17be
000000a0: 3c5c b13e 6010 a7bc 848b 40be 639c 9abc
000000b0: d85d 60be c412 c33e 84b0 81be 84bb ebbe
000000c0: d83e 1dbe 3869 e5bd 3981 d93e 68f0 33be
000000d0: 8635 a7bd 8f0d 063f 3d15 273e be9f 0abf
000000e0: c171 b53e 6115 0abf 31b8 b83e 1858 c33e
000000f0: 9c34 1f3e 5ba1 c3be 092e 6a3e 2330 d03e

critic.2.weight f4 [64, 64]
0.08316885 0.029517971 0.20829794 -0.21009955 -0.09814779 0.0035385045 -0.018480184 0.06523994
-0.05074209 0.07381439 -0.1236131 0.024118299 -0.073231965 -0.10092786 -0.024219299 0.07335479
0.021361914 -0.015429004 -0.064105146 0.031114472 -0.04770885 0.017131202 0.020435343 0.08165537
-0.06475242 -0.116759956 0.05335146 -0.011882678 -0.09518741 0.18166284 0.117910184 0.07335686
0.0060183876 -0.11172615 -0.0326064 -0.102138184 0.031566802 0.2074508 0.0906258 0.033864126
-0.11379737 -0.00016727873 -0.1398393 0.11729985 -0.050562486 0.14821531 -0.12842903 0.08589123
0.12801804 -0.09400602 0.07410201 0.04625175 -0.08047039 -0.06393274 -0.11624566 -0.41083485
0.12910065 -0.14468971 -0.09886294 -0.10813358 0.1746718 -0.19284679 -0.10895074 -0.07150477
-0.26619595 0.084129654 -0.12519558 0.11336465 0.027917106 0.18700194 -0.055159405 -0.0725229
-0.110150926 0.10704822 -0.10621095 0.046988297 -0.034602538 0.030080976 -0.18063305 0.014931168
0.07028729 0.15292141 -0.07681152 -0.048205562 -0.030844802 0.048405726 -0.06679625 0.007859568
0.043353423 0.07526939 -0.1768118 0.083339065 -0.049940158 -0.2402969 0.07310272 0.09050218
-0.04970582 0.16639656 -0.18279493 -0.18153836 -0.05919975 -0.10954064 -0.1528634 0.031930752
0.045857158 0.027141143 -0.029019544 -0.069127195 -0.007852279 -0.08405818 0.1485836 0.044330068
-0.24632813 0.030996135 -0.037338555 0.0536405 0.12424076 0.17538883 -0.09852554 0.1402833
-0.04114627 0.18179807 0.13119356 -0.09577897 0.034390237 0.08348396 0.049985662 -0.1309443
-0.19109444 -0.08862769 0.053687315 -0.012100954 -0.2463516 0.028830932 -0.1074599 0.2665318
0.085119955 0.11943173 -0.119665794 0.034815088 0.0973078 -0.24181283 -0.046861514 -0.030323846
0.317124 0.060102593 -0.09343621 -0.036928482 0.12908232 -0.11577502 -0.054633807 -0.09069065
0.0355174 -0.072302066 0.2290082 -0.09997074 0.11395491 0.16136329 0.12717174 -0.15758136
-0.15931705 -0.26355064 0.13396692 0.19284648 -0.19674478 0.24158598 0.15573591 -0.020180631
0.116599515 -0.15260154 -0.11722274 0.15755844 0.22779721 0.23113376 -0.07973956 -0.20748185
0.2304365 -0.06393687 0.12677631 0.09625896 0.060151275 -0.010351934 0.051641483 -0.087751485
-0.01249163 -0.11816341 -0.26557842 -0.05634922 0.10514788 0.051391125 -0.06095575 -0.049691442
-0.057362404 -0.03709548 -0.23676188 0.20912178 -0.063700534 -0.04079194 0.00548507 0.023858432
0.09084194 0.074530184 0.009427831 -0.01816725 -0.104110666 -0.10740904 -0.10046158 -0.08894214
-0.112593725 -0.07564718 -0.10236391 0.11496056 0.06963873 0.07190701 0.09827463 -0.06998062
0.12315797 0.103175044 -0.045573417 0.08293024 0.07154098 -0.054931805 -0.014944648 -0.09188317
0.12776004 0.2553561 -0.111687295 0.10306111 -0.07388685 -0.22636865 -0.17625134 -0.071157016
-0.033306602 -0.028424287 0.06873031 -0.09665804 0.048122518 0.0975017 0.04713823 -0.14722522
-0.058074947 0.039037596 -0.049304105 0.10557142 0.22998272 0.14947647 -0.13318695 0.1916467
0.116184734 0.019055787 0.26812658 -0.086638816 0.063554175 0.13572723 0.023904767 0.15556386
00000000: 6e54 aa3d accf f13c 0e4c 553e 5624 57be
00000010: b501 c9bd 41e6 673b c163 97bc 859c 853d
00000020: f0d6 4fbd 002c 973d dd28 fdbd bd93 c53c
00000030: a4fa 95bd 44b3 cebd 8d67 c6bc 093b 963d
00000040: 2eff ae3c efc9 7cbc 8f49 83bd c7e3 fe3c
00000050: 5b6a 43bd bc56 8c3c 0568 a73c ee3a a73d
00000060: eb9c 84bd d81f efbd 0f87 5a3d 90af 42bc
00000070: 9ef1 c2bd d305 3a3e e57a f13d 1f3c 963d
00000080: e535 c53b aed0 e4bd 4a8e 05bd d32d d1bd
00000090: 314c 013d fc6d 543e 059a b93d 1cb5 0a3d
000000a0: 980e e9bd 8b67 2fb9 0932 0fbe e73a f03d
000000b0: 9c1a 4fbd c1c5 173e e682 03be bee7 af3d
000000c0: 2917 033e 3a86 c0bd cbc2 973d 7a72 3d3d
000000d0: a9cd a4bd 2bef 82bd 3412 eebd f258 d2be
000000e0: f632 043e 8a29 14be a778 cabd 2375 ddbd
000000f0: 2add 323e a179 45be 9121 dfbd 1871 92bd
00000100: d64a 88be 2b4c ac3d 4533 00be ba2b e83d
00000110: 6ab2 e43c 707d 3f3e d4ee 61bd e386 94bd
00000120: cf96 e1bd 193c db3d 2085 d9bd cd76 403d
00000130: 64bb 0dbd 616c f63c dff7 38be dca1 743c
00000140: c8f2 8f3d 6e97 1c3e 5c4f 9dbd 3273 45bd
00000150: 3dae fcbc 1545 463d 79cc 88bd 6bc5 003c
00000160: 5c93 313d d726 9a3d 270e 35be acad aa3d
00000170: 0d8e 4cbd 6410 76be e1b6 953d 3559 b93d
00000180: 5498 4bbd dc63 2a3e 982e 3bbe 31e5 39be
00000190: 707b 72bd d856 e0bd 3988 1cbe d2c9 023d
000001a0: b7d4 3b3d 1a57 de3c 65ba edbc 8f92 8dbd
000001b0: d8a6 00bc b226 acbd 4d26 183e 7293 353d
000001c0: 713d 7cbe 9beb fd3c 50f0 18bd 24b6 5b3d
000001d0: f171 fe3d 2199 333e c2c7 c9bd 6da6 0f3e
000001e0: fe88 28bd 4629 3a3e 9b57 063e c427 c4bd
000001f0: c7dc 0c3d a3f9 aa3d c4bd 4c3d 4316 06be
00000200: 43ae 43be 6f82 b5bd 3be7 5b3d 1443 46bc
00000210: 9843 7cbe d92e ec3c f013 dcbd db76 883e
00000220: 5f53 ae3d 9f98 f43d 5713 f5bd 449a 0e3d
00000230: 5049 c73d c89d 77be dcf1 3fbd b769 f8bc
00000240: 145e a23e 232e 763d 7c5b bfbd 5242 17bd
00000250: 282e 043e 741b edbd b3c7 5fbd 05bc b9bd
00000260: b17a 113d 1b13 94bd 2081 6a3e 76bd ccbd
00000270: 3161 e93d 6b3c 253e 4f39 023e 025d 21be
00000280: 0224 23be 1cf0 86be a02e 093e 8c79 453e
00000290: 7777 49be 5162 773e 3c79 1f3e da51 a5bc
000002a0: bacb ee3d 9443 1cbe 7a12 f0bd 0057 213e
000002b0: ac43 693e 54ae 6c3e 7f4e a3bd 1f76 54be
000002c0: 8cf7 6b3e 55f1 82bd a6d1 013e 6b23 c53d
000002d0: 2f61 763d 289b 29bc 0586 533d 0db7 b3bd
000002e0: b2a9 4cbc a8ff f1bd e5f9 87be 71ce 66bd
000002f0: c657 d73d 807f 523d bdac 79bd 4189 4bbd
00000300: d7f4 6abd 6ef1 17bd b571 72be 0524 563e
00000310: 6d75 82bd 7315 27bd 1abc b33b c272 c33c
00000320: 570b ba3d 48a3 983d 3077 1a3c 7cd3 94bc
00000330: f937 d5bd 45f9 dbbd cdbe cdbd 4c27 b6bd
00000340: 8a97 e6bd e9ec 9abd 2ba4 d1bd 7170 eb3d
00000350: c09e 8e3d fc43 933d 3644 c93d 0052 8fbd
00000360: 3f3a fc3d 704d d33d 31ab 3abd 54d7 a93d
00000370: 1484 923d 2c00 61bd 66da 74bc 3e2d bcbd
00000380: 87d3 023e 09be 823e 4fbc e4bd b411 d33d
00000390: fd51 97bd 2fcd 67be 3b7b 34be c5ba 91bd
000003a0: 816c 08bd 0dda e8bc 7ac2 8c3d a7f4 c5bd
000003b0: 1e1c 453d f9ae c73d 0414 413d 35c2 16be
000003c0: ffdf 6dbd e3e5 1f3d 1af3 49bd d435 d83d
000003d0: 9780 6b3e 5c10 193e 2962 08be 083f 443e
000003e0: 43f2 ed3d e21a 9c3c e347 893e b16f b1bd
000003f0: b128 823d 14fc 0a3e eed3 c33c 224c 1f3e

critic.2.bias f4 [64]
0.26484028 -0.25516117 0.18458408 -0.13210407 0.08148366 0.054990925 -0.064208396 -0.037507985
0.19980662 -0.0624865 0.12344741 -0.18076308 -0.20912957 -0.0018890685 -0.21714143 0.04365271
-0.30810302 0.11774613 -0.03976181 0.013424811 0.16478394 -0.25304514 0.0042030835 -0.044569712
-0.08076878 -0.083905816 0.0076651475 -0.2599264 0.11845024 -0.42694023 0.04647361 0.34126374
-0.00549733 0.13636783 0.045121383 0.050670385 0.062513545 0.075253114 -0.07526928 -0.34224862
0.041021705 -0.24393481 0.13382004 -0.0037063134 -0.26752707 0.06469719 0.38998652 -0.13912879
-0.1706698 -0.14176014 0.11698721 0.023199676 0.15753193 -0.07038816 -0.17270459 0.24634783
0.06786133 0.35293832 -0.051762596 -0.08932229 -0.38966632 0.20934856 0.027381733 -0.061015856
00000000: 2599 873e 7ca4 82be 9c03 3d3e 4a46 07be
00000010: e8e0 a63d 2a3e 613d b17f 83bd f9a1 19bd
00000020: 1b9a 4c3e d8f1 7fbd ffd1 fc3d f519 39be
00000030: 1026 56be 9f9a f7ba 535a 5ebe 2fcd 323d
00000040: aebf 9dbe e224 f13d 48dd 22bd bdf3 5b3c
00000050: 1fbd 283e 228f 81be 05ba 893b bb8e 36bd
00000060: 1a6a a5bd d0d6 abbd eb2b fb3b 1315 85be
00000070: 0a96 f23d e997 dabe 1d5b 3e3d 1fba ae3e
00000080: f222 b4bb 02a4 0b3e 33d1 383d c08b 4f3d
00000090: 1a07 803d 4e1e 9a3d c826 9abd 363b afbe
000000a0: 6006 283d 0cca 79be 1f08 093e 9fe5 72bb
000000b0: 4ff9 88be f67f 843d 50ac c73e c777 0ebe
000000c0: 10c4 2ebe 9229 11be fe96 ef3d 3f0d be3c
000000d0: 0d50 213e ab27 90bd 79d9 30be 9b42 7c3e
000000e0: e2fa 8a3d 55b4 b43e 0405 54bd 9bee b6bd
000000f0: 5882 c7be 785f 563e a84f e03c c3eb 79bd

critic.4.weight f4 [1, 64]
-0.15933326 0.19386825 -0.1881379 0.06315408 0.18576092 -0.1841958 0.25690195 0.19660714
-0.11445618 -0.046503533 -0.08920605 0.20588975 0.24035195 0.09578582 0.13968635 -0.122725375
-0.30111912 -0.008327829 0.045552034 -0.21716444 0.24796648 0.28721818 -0.0031895586 0.0764697
-0.12224601 -0.12510231 -0.06981724 0.17645767 -0.04710338 0.19240265 -0.09248233 -0.30258194
0.066198885 0.22921003 -0.2091113 0.2626424 0.19852307 -0.09309415 0.14987698 0.22739968
0.3212796 0.10026106 0.33596653 0.030580185 0.14991495 0.09235365 -0.22980362 0.20854707
0.0035123872 0.040628336 0.2201619 -0.07996342 -0.06266446 0.13541183 0.26453704 -0.1733914
0.0065236106 -0.19440493 -0.16437124 -0.14206873 0.15873756 -0.20096183 -0.0579075 0.0981882
00000000: 4228 23be 6685 463e 39a7 40be ed56 813d
00000010: 1c38 3e3e d39d 3cbe a788 833e 6253 493e
00000020: 0068 eabd 7d7a 3ebd a9b1 b6bd c3d4 523e
00000030: d21e 763e 5b2b c43d f009 0f3e 7157 fbbd
00000040: 492c 9abe 7271 08bc c594 3a3d 5b60 5ebe
00000050: edea 7d3e 430e 933e ea07 51bb 259c 9c3d
00000060: 1e5c fabd d21a 00be 57fc 8ebd 52b1 343e
00000070: 79ef 40bd 3305 453e 6067 bdbd 05ec 9abe
00000080: 4893 873d 09b6 6a3e 4621 56be 1179 863e
00000090: a249 4b3e 25a8 bebd 5a79 193e 76db 683e
000000a0: c27e a43e ac55 cd3d ce03 ac3e 4c83 fa3c
000000b0: 4e83 193e e923 bd3d a451 6bbe 5d8d 553e
000000c0: 1430 663b e669 263d 1f72 613e ddc3 a3bd
000000d0: 3956 80bd 66a9 0a3e 6671 873e 848d 31be
000000e0: 03c4 d53b 1612 47be ef50 28be 777a 11be
000000f0: 198c 223e f0c8 4dbe 6a30 6dbd e516 c93d
