controller/PPO_CartPole-dm_0_2700000.pth (torch, 41277 bytes, 10 tensors)

actor.0.weight f4 [64, 5]
000000 d8 7b 3a 3d 35 4a a4 bd ec 66 46 3f 18 30 8b bd
       0.045528263 -0.08021966 0.77500796 -0.067962825
000010 7f 13 4c 3e a1 94 56 be a7 44 86 be 29 54 b0 bf
       0.19929312 -0.20955135 -0.26224253 -1.3775684
000020 70 c4 12 be f9 03 67 be 9b 3d 8b bd 33 5c 77 be
       -0.14332747 -0.22560109 -0.0679886 -0.24156265
000030 12 d4 c3 3e 61 c8 bd 3e 96 e7 9d bb de c0 04 3e
       0.38247734 0.3706694 -0.004818867 0.12964198
000040 35 30 41 3e d6 c8 14 3f e6 3c e4 be 47 5b 66 bc
       0.18866046 0.5811895 -0.44577712 -0.014059848
000050 a0 33 03 be f7 1e ac 3e 44 f4 7a 3f 6c 79 76 3e
       -0.12812662 0.33617374 0.9802897 0.24069756
000060 4f c5 4f 3e 1c ca 73 bd c6 b1 a6 3e bb a7 f6 3e
       0.20290111 -0.05951892 0.32557505 0.48174843
000070 01 b7 11 bf bf 11 dd 3e 41 01 55 be 31 dd ec 3e
       -0.56919867 0.43177602 -0.2080126 0.46262506
000080 3f 18 0b be b8 62 07 3e ee bf f8 bd ad cf df 3e
       -0.13583468 0.13221252 -0.12145983 0.43713132
000090 28 5d 06 3f ec d6 0a bf 90 a5 1c bd e1 3a af bc
       0.52485895 -0.54234195 -0.03824383 -0.02139038
0000a0 20 76 bb bc f6 14 02 bd a9 b0 1b bf e5 bb 30 3f
       -0.022883475 -0.03175827 -0.60816437 0.69036704
0000b0 67 16 3d 3e 83 ae 22 bf a4 a3 c1 be 35 26 82 3f
       0.18465577 -0.63547534 -0.3782016 1.016791
0000c0 cd 9f 90 3e ea ff 12 bd 5d d3 46 be d5 a5 fb be
       0.28246918 -0.03588859 -0.19416566 -0.49149957
0000d0 5f 49 6b bf 31 74 37 3f e2 a8 9f be 88 e1 07 be
       -0.9190883 0.7166167 -0.31183535 -0.13269627
0000e0 2b 2c 5e bb 51 5a 57 bf d6 54 68 be 53 90 09 be
       -0.0033900838 -0.84122187 -0.22688612 -0.13433962
0000f0 8c 07 ec 3d be 33 29 bf 62 c0 bc 3e 7d d9 1a 3e
       0.11524877 -0.6609458 0.36865526 0.15122028
000100 19 ad f5 3d 7c 9b 06 3f 37 c4 15 be 45 e7 92 3e
       0.119959064 0.52581 -0.14625631 0.2869207
000110 88 38 1e 3f d1 f7 9b bc 04 40 0e bf f5 ab 05 bf
       0.6180501 -0.019039067 -0.5556643 -0.5221551
000120 01 1f 18 3e e6 1e c3 be 26 f3 1b be 61 8c 4e be
       0.14855577 -0.3810951 -0.15229473 -0.20170738
000130 ea f8 f3 be b7 a0 e1 3d d4 bb 9e 3d 40 a3 cb be
       -0.47650844 0.11016982 0.07750669 -0.39772987
000140 ff 69 0f 3f 04 88 39 3e 61 6d 05 3f 61 f2 02 be
       0.5602111 0.18118292 0.52120024 -0.12787773
000150 55 ce b4 bc d8 46 fd be 8c f0 29 3e f5 4c 90 bf
       -0.022071043 -0.49468112 0.16595668 -1.1273485
000160 4e e6 b7 be 29 f1 fc be d0 64 5c 3e c1 17 f9 3e
       -0.35917896 -0.4940274 0.21522832 0.48650935
000170 fa ad 85 bd c6 5e de bd b6 a1 b1 bd 72 fe 7c 3c
       -0.06527324 -0.1085792 -0.08673422 0.015441524
000180 74 45 ce be 95 bd 9a bf 0b 09 84 bd ca 1b 55 3e
       -0.40287364 -1.2089106 -0.06447037 0.20811382
000190 8c 0b 0c bf dd 4e 1b bf ce 17 f7 3e 7d f3 31 3e
       -0.5470512 -0.6066721 0.4826035 0.1737804
0001a0 45 b5 40 3d ca 45 b3 3e 8b f7 8b 3e 47 a7 2c bf
       0.047047872 0.35014182 0.27337298 -0.67442745
0001b0 97 cd f1 be 93 33 89 bd bb 58 c2 be 87 86 a8 bd
       -0.47227165 -0.0669929 -0.3795832 -0.08228784
0001c0 a0 45 ca be 56 7f ac 3e a8 ca 97 3e 95 c4 95 be
       -0.39506245 0.336909 0.29646802 -0.29251543
0001d0 09 19 cd be 33 6e a4 bc 56 23 11 bf 69 13 97 bc
       -0.40058163 -0.020072078 -0.56694543 -0.018441873
0001e0 fa bf e7 be f0 e4 da be b8 20 16 bf 64 b6 1f bf
       -0.45263654 -0.4275279 -0.58643675 -0.6238768
0001f0 44 ba 41 be 02 88 04 3f 18 c5 fe 3e 1a 15 07 bf
       -0.18918711 0.5177003 0.49759746 -0.52766573
000200 00 0d 86 bd 74 7f 88 bd 08 7e 1b bf 41 f2 3e be
       -0.06545448 -0.06664935 -0.60739183 -0.186471
000210 87 d6 34 3f 98 4c 9b 3d 89 19 be be 9b 51 89 bd
       0.7063984 0.075829685 -0.37128857 -0.06705018
000220 da 59 17 bf 3f 49 c5 3d 79 f0 53 be 45 6b be 3e
       -0.5912148 0.09633111 -0.20697202 0.37191215
000230 9a 53 de be 20 a3 ba 3e ae f0 59 3f 79 b6 93 bd
       -0.43423158 0.3645258 0.85132873 -0.07212538
000240 d9 5a 1e 3d c6 13 e1 3d 94 13 01 3f 55 9a 62 bf
       0.038660858 0.109900996 0.504205 -0.8851674
000250 36 63 fe 3d a1 d9 cd be e2 50 06 bf fb 9e 0e 3f
       0.12421267 -0.402051 -0.5246717 0.55711335
000260 4e 43 12 3f 84 75 0b be a1 52 52 3c 79 b3 d5 bd
       0.5713395 -0.13619047 0.012837083 -0.10434622
000270 78 65 97 3e 4e fa 47 bf 83 6d c4 3e e0 ad 3a be
       0.29569602 -0.7811631 0.383648 -0.1823039
000280 87 d2 bc bd 7e a8 b6 3e d1 3a 38 3f b8 8a 05 be
       -0.092198424 0.35675424 0.71964747 -0.13041198
000290 9a 4c e0 3e 64 31 a9 3c ce 67 b8 3c 4e e7 54 3f
       0.43808442 0.020653434 0.022510435 0.8316544
0002a0 90 54 3c 3f 03 7b 64 be 87 a8 01 3d 8a 09 f7 be
       0.7356653 -0.2231255 0.03165486 -0.48249465
0002b0 f2 56 64 3f 1e 3c 32 3e 37 e5 52 3d 52 70 d9 3d
       0.8919517 0.17405745 0.051488128 0.106171265
0002c0 3b c9 58 3e 6c 13 d2 3d 1a 0d 4a 3e a3 37 39 3f
       0.21170513 0.10257611 0.1973156 0.7235052
0002d0 dc 26 08 3f ce ea 08 3f 19 00 b1 be 2e 1d 7d 3d
       0.53184295 0.53483284 -0.34570387 0.061795406
0002e0 e7 d9 b0 bc bf 71 88 3e dd de e1 be ae 41 92 be
       -0.021588279 0.2664928 -0.44115344 -0.28565735
0002f0 e5 fe b0 be e0 d2 b3 3e 6f 35 32 bf 2b 8c 6c 3e
       -0.3456947 0.35121822 -0.69612783 0.23100345
000300 4d 93 05 bf 24 af c5 be 83 a1 1b bf f9 51 39 3e
       -0.5217789 -0.38610184 -0.6079332 0.18097676
000310 cb fe 6e be dc 57 72 bf d2 3f 84 bd 90 62 a6 be
       -0.23339383 -0.9466531 -0.06457485 -0.32497072
000320 3e e0 69 3e e7 a9 c1 be 4d 50 4a 3e bb 8b 89 bc
       0.22839448 -0.37824938 0.19757195 -0.016790261
000330 9e c3 df bd 6e a6 c5 be e2 15 e6 be c2 6a 8a 3e
       -0.10925983 -0.38603538 -0.4493857 0.27034575
000340 d2 ab 59 be 2c a8 00 be 32 cd 97 bc bf 32 eb bd
       -0.2125695 -0.12564152 -0.018530462 -0.114842884
000350 79 bc 54 bf 98 82 c4 be 3c d8 64 3f 66 95 35 bc
       -0.83100086 -0.38380885 0.8939245 -0.011082983
000360 8b af cf 3d 0a 8b 85 be 4c 98 5a 3e 0f c0 16 bf
       0.10140904 -0.2608264 0.21347159 -0.5888681
000370 e3 6e 39 bf d7 c5 fe 3e ae 9f 98 3e 50 f6 aa be
       -0.72434825 0.49760315 0.29809326 -0.33391047
000380 96 39 c2 3e 4f bb 7c be 64 3b 3a be 02 c6 0b 3e
       0.3793456 -0.24680828 -0.18186718 0.13649753
000390 f7 4c d5 3d 8c df 77 bf cc 78 8f 3d c8 a0 3d 3e
       0.104150705 -0.9682548 0.07005462 0.18518364
0003a0 98 f4 a4 3f a3 1f 2e 3d 3e c2 0d 3f dd 7e 49 3e
       1.2887144 0.04251064 0.55374515 0.19677301
0003b0 c6 76 fe be 7d 0c 54 be d4 d8 f3 3e 50 ca 7a 3c
       -0.49699992 -0.20707889 0.47626364 0.015307024
0003c0 a1 3c 2a 3e ec 38 ee bd a2 76 5c 3d cf 71 85 be
       0.1662469 -0.11631951 0.053824075 -0.26063392
0003d0 dc 56 a5 bd 04 f2 17 3f ac 21 9d be 02 e3 7c 3d
       -0.08073208 0.5935366 -0.30689752 0.06173993
0003e0 74 94 ae 3e 52 50 d1 3d 60 af 26 be 31 a2 b6 3e
       0.34097636 0.10220398 -0.16277838 0.35670617
0003f0 3c f3 02 bf 2e 7b b4 3c 44 a7 a5 3e b3 5d 3b be
       -0.51152396 0.022031393 0.32354176 -0.18297462

actor.0.bias f4 [64]
000000 d8 fb ed be 63 44 15 be d3 e7 01 be 08 28 14 bf
       -0.46481204 -0.14576869 -0.1268609 -0.5787358
000010 fd 22 04 bf 63 5b 0a 3f e1 b7 d8 3d c4 cc fa 3d
       -0.5161589 0.54045695 0.10581947 0.12246087
000020 66 38 b1 be b1 af c6 3d 11 04 ab be bc 24 37 3e
       -0.3461334 0.09701479 -0.3340154 0.17885107
000030 b6 a9 b5 3b c6 2e 5e be d5 b2 1e 3e d7 b4 fe be
       0.0055439128 -0.2169753 0.15497907 -0.49747345
000040 92 1b a1 3e d6 36 1a bd 7f c8 44 be c7 72 23 bd
       0.31466347 -0.037649952 -0.19217108 -0.039904382
000050 29 e7 10 3e 48 a4 a9 be 74 6a 10 bf 8a a5 88 3e
       0.1415068 -0.3313315 -0.56412435 0.26688796
000060 96 4f c7 3e 88 18 92 3e 2b 8f 49 be 3b 7f e1 be
       0.38927907 0.2853434 -0.1968352 -0.44042382
000070 d7 c1 cf bd 21 06 a9 bc 82 e3 9d be b5 7f 88 bd
       -0.10144394 -0.020632805 -0.30837637 -0.06664983
000080 30 0d a6 be 45 ae 14 3d 1c e6 32 be f2 30 40 3f
       -0.32431936 0.03629901 -0.17470592 0.75074685
000090 3e a6 7b 3e a4 88 d3 3d aa 4f 08 3f b9 88 c5 be
       0.24575135 0.103287965 0.5324656 -0.38580874
0000a0 5d 14 c2 be 11 0c 49 bd 5c e5 20 be 68 49 1e bd
       -0.3790616 -0.049083773 -0.15712494 -0.038644224
0000b0 72 7c 24 be ec 5f 87 be d5 1e 83 be 37 85 78 be
       -0.16063097 -0.2644037 -0.2560946 -0.24269567
0000c0 57 e8 01 bf 90 7c 1a be 48 a5 d7 bd 56 48 88 3e
       -0.5074515 -0.1508658 -0.10529572 0.26617688
0000d0 7a 88 ea 3d dc c7 c7 be 0b 3f cb bc 8c 71 91 3e
       0.11451812 -0.39019668 -0.024810335 0.28406942
0000e0 45 8a bd 3e 38 b1 39 3e fb cc 20 bf f6 64 1b 3e
       0.37019554 0.1813401 -0.62812775 0.15175232
0000f0 5a ff 39 3e 72 7f ba 3c b1 cc 8a 3e 92 da f9 be
       0.18163815 0.022765849 0.27109292 -0.48799568

actor.2.weight f4 [64, 64]
000000 87 6a 11 be 8a f5 17 be 1d 58 21 3e ed 15 c1 3c
       -0.14200793 -0.1483976 0.15756269 0.023570025
000010 c8 1b b7 bd 00 b4 27 3e 3d 5b f9 3c 90 66 0a be
       -0.08940846 0.16377258 0.030439014 -0.13515687
000020 b1 3b 62 bd 5f 24 29 3e ba 4e 5c be 56 89 30 3e
       -0.055232707 0.1651778 -0.21514407 0.1723989
000030 83 32 3f 3c f7 90 28 bc c7 65 31 3e 9d 37 9e 3d
       0.011669758 -0.010288469 0.17323981 0.07725451
000040 fe 95 e9 3c 45 0e 36 bd 0d 4b cf bd 8e b5 20 bc
       0.028513905 -0.044447202 -0.10121737 -0.009808911
000050 92 12 2b 3d bd 80 97 3d 01 e4 e3 3d d1 05 37 3d
       0.041765757 0.07397602 0.11127473 0.04468328
000060 a8 a5 25 3d 04 1b ec 3c 66 ec e2 3c e1 b8 f0 3d
       0.040441185 0.028821476 0.027700614 0.11754013
000070 be e9 16 3e 0f 4b 32 be 53 c1 02 3e 7b 8b 35 be
       0.14737603 -0.17411445 0.1276906 -0.17728989
000080 52 9b 2e 3d 80 e6 1d be b4 99 ec 3c 43 f4 b2 ba
       0.042628594 -0.1541996 0.028881885 -0.0013653118
000090 07 1c b8 bc 79 a2 ac bd 50 82 50 be 50 dd cd bd
       -0.022474302 -0.08429427 -0.2036221 -0.10051978
0000a0 f6 3f 9d bd e0 45 07 3e a8 9b d3 bd 4c 15 cb 3b
       -0.07678215 0.13210249 -0.103324234 0.006197607
0000b0 d4 d5 f9 3d 0d f8 9e bb 02 48 ef 3d a7 1c 1e be
       0.121989876 -0.0048513473 0.11683656 -0.15440618
0000c0 4f 09 96 3d ca cc c1 bd 39 c1 ae 3d b5 20 83 3c
       0.07325994 -0.094628885 0.08532948 0.016006807
0000d0 12 8e 4d 3e 08 e8 36 bd 09 3f 79 bd e1 69 e3 bd
       0.20073727 -0.044654876 -0.06085113 -0.11104179
0000e0 3e d6 fa bc da f8 30 bc 5f 52 32 3e 57 5e 0b bd
       -0.030619737 -0.010801518 0.17414235 -0.034025516
0000f0 62 0b 77 3d 13 e6 48 be 5c e5 14 be d0 d5 83 bd
       0.06031359 -0.19619016 -0.14540619 -0.06437266
000100 57 54 90 3d 8f 5a d8 bd e5 76 7e 3d f4 c4 0c be
       0.070473365 -0.10564148 0.062125105 -0.13747007
000110 72 ed db bd 2f e3 90 3d b9 0f 1a bd a4 a8 db bd
       -0.107386485 0.07074582 -0.03761265 -0.10725525
000120 32 a9 d2 3d 8a d8 51 3c 75 d0 8b 3d 7b a1 92 bd
       0.10286178 0.012807975 0.068268694 -0.07159706
000130 97 59 75 bc f0 78 76 3d f6 fe f6 3d 6d 4e 31 bd
       -0.014974973 0.06017393 0.12060349 -0.043287683
000140 b5 14 26 3e b8 e3 88 3b ed ff 96 3d a2 a7 46 3d
       0.16218837 0.004177537 0.07373033 0.04849971
000150 4f 7d 5e bd 97 a0 4c bd a2 ba d3 bd 91 47 d8 bd
       -0.054318722 -0.049957838 -0.10338332 -0.10560525
000160 84 3a b4 bd d2 d4 ee bd 76 e1 1d 3d 0d 29 45 bd
       -0.088002235 -0.11661686 0.038545094 -0.048134852
000170 82 01 af bd 8b fd 63 3d d0 18 b6 3d 39 7b b9 3d
       -0.085452095 0.05566172 0.08891451 0.09056706
000180 e9 12 8d bd 88 37 17 3d c7 1b fa 3b 33 37 c1 3d
       -0.068883725 0.036918193 0.007632706 0.094343565
000190 83 bb 5e bd 79 70 82 3d 37 6b e9 bc 62 e3 8d 3d
       -0.054378044 0.06369109 -0.028493507 0.069281355
0001a0 7f 8f 34 bb 02 56 92 3d 90 e4 c0 bd a3 30 96 3d
       -0.002755135 0.07145311 -0.09418595 0.073334955
0001b0 16 58 e5 bc 7a 08 8f bb 08 3f 6a 3d 60 60 1c bd
       -0.027996104 -0.004365024 0.057189018 -0.038177848
0001c0 fb b4 f1 3d 07 48 56 bd 01 1f 9d 3d 5c 86 39 3e
       0.118020974 -0.052314784 0.07671929 0.1811766
0001d0 27 20 43 be 1f cd 41 bc ac c4 e1 bd 3a dd fc 3c
       -0.19055234 -0.01182869 -0.1102384 0.030867208
0001e0 53 90 7e bd 02 ab d9 3d ae 73 ca bd 3b b9 d2 bd
       -0.062149357 0.1062832 -0.098853454 -0.10289236
0001f0 13 65 b2 3c d9 c4 67 3d 14 73 8c ba 2f 3a f2 bb
       0.021776712 0.056584213 -0.0010715448 -0.00739219
000200 2d cf 07 3e df c2 71 ba b3 02 1e be 41 d9 9d 3e
       0.13262625 -0.00092224585 -0.15430717 0.30829814
000210 b2 6c 16 3e ad 87 6e be e0 19 df 3d 80 fd 96 3d
       0.14689901 -0.23293944 0.10893607 0.0737257
000220 6a 79 01 be 81 0f 05 be d0 15 4b bc 51 f7 39 bd
       -0.12643972 -0.12994196 -0.012395337 -0.045401875
000230 5f 87 28 be 10 91 41 3e 06 46 8f 3c 5a a0 07 3e
       -0.1645789 0.18902993 0.017489444 0.13244763
000240 4b 33 12 be e2 b2 29 3e 21 7f f7 3e 64 c3 92 be
       -0.14277379 0.16572145 0.4833918 -0.28664696
000250 d0 80 3e be bd 6f 97 3e ef e5 b8 bd 49 7b 85 3d
       -0.18603826 0.29577437 -0.09028231 0.065176554
000260 92 07 17 3d b6 c7 87 bd 83 b0 9b 3e 3b 94 30 3e
       0.036872454 -0.06629889 0.30408105 0.17244045
000270 cb f0 07 3e 0c 45 e9 3d 23 e6 5c 3e 76 27 99 bd
       0.13275449 0.11390123 0.21572165 -0.0747823
000280 12 70 7f 3b 79 fc c7 3d 1b 2c 09 be 3c 7e b0 be
       0.0038976711 0.09764952 -0.13395731 -0.3447131
000290 e9 22 4b 3e bc 05 99 be de 68 2e 3e 97 50 dd 3d
       0.19837536 -0.29887187 0.17032191 0.10806387
0002a0 00 fa 07 3e 6c eb 49 3c 54 0d b1 be 12 f2 2f 3e
       0.13278961 0.012324195 -0.3458048 0.17182186
0002b0 16 40 c3 3d 9b e8 b6 3e ee a7 c5 3c 96 13 16 3e
       0.09533708 0.3572434 0.024127927 0.14655909
0002c0 66 57 ac 3e 2e 56 e2 bd 22 b9 48 be 56 17 b5 be
       0.3366043 -0.11051594 -0.19601873 -0.35369366
0002d0 83 bd eb 3d 13 5a b8 bd 8d fb d2 be dd 4e 29 3e
       0.11510756 -0.09001555 -0.41207543 0.1653399
0002e0 06 9d 07 be ea b3 b0 bc ea b3 b5 3e f0 e6 17 ba
       -0.13243493 -0.021570165 0.35488826 -0.0005794605
0002f0 99 05 52 3e 55 b3 98 3e be 0b a2 3d 4c 7b 79 3e
       0.20509948 0.2982432 0.07912396 0.2436344
000300 68 d0 90 3d 0a 96 68 be e1 8f c5 be 76 23 80 3e
       0.07071 -0.22713485 -0.38586333 0.25027055
000310 a5 7d 08 be 2b 15 d5 3b 71 62 2b 3c 41 a5 d6 3e
       -0.1332918 0.0065027676 0.010460482 0.41922954
000320 0f 74 55 be 4d 47 ef be 59 c0 0b be 8c 2f bd 3d
       -0.20845054 -0.46734086 -0.13647594 0.092375845
000330 2c 2d c7 be 4f d5 15 be 5c 3d f7 bd ed 57 a2 bd
       -0.3890165 -0.14632152 -0.1207225 -0.07926927
000340 7a 6d b9 3e d1 87 2b 3e f5 4e eb 3e 8c 0b 15 be
       0.36216336 0.16751029 0.45958677 -0.14555186
000350 09 7c 1a bf 38 5d e7 3d 61 76 2e be 9f b7 01 be
       -0.6034551 0.11297077 -0.17037345 -0.12667702
000360 3c 0b df bd a6 56 09 3f b8 21 03 be 2c 90 58 be
       -0.10890815 0.5364784 -0.12805831 -0.21148747
000370 cf 02 08 3e b5 e1 42 3e ea 83 01 3d 2d b1 d5 3d
       0.13282321 0.19031413 0.031619944 0.10434184
000380 9d 9b 34 be d6 97 9d bd ba 09 1c be cc 89 3c 3e
       -0.17637487 -0.07694976 -0.15238085 0.1841194
000390 aa 4b 7d 3e 06 af 19 bd 59 56 ac 3e eb 6f 2f bc
       0.24735895 -0.03752043 0.33659628 -0.010707836
0003a0 4d 3e 80 be a6 3f 0f be 79 51 2f be 72 15 d9 3d
       -0.25047532 -0.13989124 -0.17120923 0.105997935
0003b0 5c ed 01 bf 59 aa ed 3d d3 ec 8f be 16 70 e5 be
       -0.50752807 0.11604757 -0.2811037 -0.44812077
0003c0 52 a7 fe 3d 66 15 b0 bb 55 d8 1b be 3c 4b f4 3d
       0.124342576 -0.0053736446 -0.15219243 0.11928412
0003d0 e7 72 b6 3e 2f 8b 8a 3d 4f 99 85 bd 1c 24 45 bc
       0.3563454 0.067648284 -0.06523382 -0.012032535
0003e0 cf 35 b8 3d 14 56 55 3c d9 42 64 bd 18 c2 6f 3d
       0.08994638 0.013021011 -0.055727813 0.05853471
0003f0 27 29 7b 3d a8 24 67 3e d0 be 78 be 45 56 28 bd
       0.061318543 0.22572577 -0.24291539 -0.041097898

actor.2.bias f4 [64]
000000 8e dc 35 b9 84 c6 c9 bd 2c 59 b3 be 3c 6d 80 3e
       -0.00017343668 -0.09852317 -0.3502897 0.2508334
000010 e4 84 86 ba b8 7d 80 3c 6c 45 9b 3d 3d 1f ad 3b
       -0.0010262993 0.015684947 0.075816005 0.005283265
000020 aa 33 f7 3d e6 32 44 be 03 44 80 3c de eb 96 bc
       0.12070401 -0.19160041 0.01565743 -0.018423017
000030 56 62 17 3c 3e 38 67 3d fe 35 30 bd 7a ff 9b 3d
       0.009239754 0.05645012 -0.04302024 0.07617088
000040 aa f5 e3 bd b1 7c f5 bd 25 11 06 be 15 92 66 3c
       -0.11130841 -0.119866736 -0.13092478 0.014072915
000050 9a aa c6 bd 65 13 a0 3c 00 35 be bd 5e 8a 34 3d
       -0.097005084 0.019540498 -0.09287453 0.04407727
000060 48 ee 47 3d 83 de a0 3d 15 5d 19 be 2c 85 4f bc
       0.048811227 0.07854941 -0.14976914 -0.012666028
000070 bb 30 33 3e 2e b4 b0 bb 28 3c 4f bd 7e ad c4 3d
       0.17499058 -0.005392573 -0.05059448 0.096034035
000080 fd 4a 5a bb 5e f6 b8 3d 34 0e d6 bc c2 29 84 bd
       -0.0033308857 0.09031366 -0.02612982 -0.06453277
000090 6c 22 d7 bd 83 97 99 3d c1 a0 bb bd 0b 8e 35 3d
       -0.10504612 0.07499602 -0.09161521 0.044324916
0000a0 37 09 67 bd bd 37 5a bd e2 5e 49 bd cb e0 bb bd
       -0.056405272 -0.053275812 -0.049162753 -0.09173735
0000b0 17 eb 45 3d 22 ad 07 3e 60 e6 7e bc 65 77 bc bd
       0.048319902 0.13249639 -0.015557855 -0.0920246
0000c0 26 a3 65 3d 05 e2 2a bb d8 7d 5b bd 7c 76 02 3e
       0.056063794 -0.002607466 -0.05358681 0.1274051
0000d0 88 48 82 bc 28 aa 5f 3d 72 26 95 3d 67 9f 83 bd
       -0.015903726 0.054605633 0.072827235 -0.06426888
0000e0 7b 4b 1c bc 05 36 9a bd b9 b9 f2 be c0 6b 5f 3d
       -0.00953948 -0.07529835 -0.4740732 0.054546118
0000f0 31 6c 15 bb a1 11 df bd 59 14 4f 3d 29 52 ab bd
       -0.0022800083 -0.10892034 0.050556514 -0.0836528

actor.4.weight f4 [1, 64]
000000 dc 07 13 3e 7f 23 3e 3a bb fc 98 3e 81 2d 81 be
       0.14358467 0.0007253214 0.29880318 -0.2523003
000010 fe 70 53 3e c5 9d 35 3e a5 51 83 3d a8 9d f7 3d
       0.20648572 0.17735966 0.06412057 0.120906174
000020 5f 30 ee bd f6 99 7e 3e 5a 52 0c 3e 19 72 31 3e
       -0.1163032 0.24863419 0.1370329 0.17328681
000030 24 0c 2b 3e 47 d5 77 3d 8f b3 aa be fa fb 0b be
       0.1670385 0.06050613 -0.33340117 -0.1367034
000040 3a bf 4d 3e 15 ba 73 bb 00 8a 87 3e 93 34 f2 bd
       0.20092478 -0.003718977 0.26472473 -0.11826434
000050 dd 5e 83 3e cb 39 11 3e a8 b5 79 3d dd fd f0 be
       0.25658312 0.14182203 0.060964257 -0.47068682
000060 0f a2 0c bf e0 26 27 be 62 18 c9 3d 28 cb 8e bc
       -0.5493478 -0.16323423 0.09819104 -0.017430857
000070 e9 3f ee bd e3 10 2d be d3 02 a0 3d 4f 0d 34 be
       -0.11633284 -0.16900973 0.07813039 -0.17583202
000080 84 34 40 3d 3b 15 21 3d 32 c2 76 3c 3c 1a 81 be
       0.046925083 0.039326888 0.015060948 -0.25215328
000090 2b 27 22 be b7 a2 d6 3a f5 d3 38 be e6 2c 0b be
       -0.15835254 0.0016375397 -0.18049605 -0.13591346
0000a0 23 9a 2f be 89 ef 17 3c 07 ca 27 be 6e ca 01 bf
       -0.17148642 0.009273418 -0.16385661 -0.5069951
0000b0 b7 5f 67 3d 7b d1 25 be 8c a5 58 3c 18 0f 2e 3e
       0.056487765 -0.16193192 0.013223063 0.16997945
0000c0 3e d1 0c be 42 1e 0d 3e 20 26 d6 bd 4d 15 63 3e
       -0.13751695 0.13781074 -0.104564905 0.22176094
0000d0 11 e9 04 be 81 e8 1e 3e cc 44 92 be 81 68 9e bd
       -0.12979533 0.1551838 -0.28568113 -0.07734776
0000e0 4e 10 34 3e b9 43 2c be a3 93 4b be b4 61 0c be
       0.17584345 -0.16822709 -0.19880538 -0.13709146
0000f0 5d f3 00 3e 89 a9 c0 3e 9f 02 c1 bd 30 93 16 3e
       0.12592836 0.37629345 -0.09424328 0.14704585

critic.0.weight f4 [64, 5]
000000 91 54 92 be f8 7c 76 bf 53 c2 cc 3f 8e fd 32 3e
       -0.28580144 -0.9628444 1.5996803 0.17479536
000010 6b 6c 01 c0 5a 3c 9f 3f e8 ad e9 3e 1c 15 5e c0
       -2.0222423 1.2440293 0.45640492 -3.4700384
000020 59 c3 5b 3f 4f 8c c8 3f 51 5d bb 3e dd b4 39 be
       0.8584495 1.5667819 0.36594632 -0.181354
000030 aa f1 82 3f ce ff 22 40 e0 10 02 40 13 b3 d0 be
       1.023 2.546863 2.03228 -0.40761623
000040 2d ca c1 bf 93 39 dc bf 22 3f fe be 04 08 fe be
       -1.5139824 -1.720507 -0.49657542 -0.4961549
000050 2c 0b e6 bd 94 b4 62 3e d1 fd 5f 40 91 2f 8c c0
       -0.112325996 0.22139198 3.4998667 -4.3808064
000060 58 7e 7f c0 95 3d 31 c0 4e 3a 88 bf 75 27 53 c0
       -3.9920864 -2.7693837 -1.0642793 -3.2992833
000070 9e e5 be 3f 21 1a dc 3f b5 4a 10 c0 99 fa 41 bf
       1.4913824 1.7195474 -2.2545598 -0.75773007
000080 4e 39 3f 40 66 65 e7 bf 3f 4f 9b bf f6 ed 32 bf
       2.9878726 -1.8077819 -1.2133559 -0.6989435
000090 c5 d4 8b bd c5 b4 d9 bf cb fc c8 be 3a fe a8 be
       -0.06827692 -1.7008291 -0.39255366 -0.3300646
0000a0 f3 f5 12 40 bc fa a7 3f 5c 4e 21 40 0d de 17 c0
       2.2962615 1.3123393 2.5204077 -2.372928
0000b0 6c 88 75 bf 9c c0 ea bf 19 a9 2a be 83 5d a5 c0
       -0.9591129 -1.834003 -0.16666068 -5.167665
0000c0 b3 99 33 40 df 83 60 40 b8 85 bf 3f d9 d2 35 be
       2.806256 3.5080488 1.4962683 -0.17756213
0000d0 e3 e3 54 40 2e 3d ed bf 74 35 fa bf b9 f5 e0 be
       3.326409 -1.8534296 -1.9547563 -0.43937472
0000e0 31 23 c8 be 92 0a 0b 40 4e 7f 5a 3f 64 46 8e 3f
       -0.3908935 2.1725202 0.853505 1.1115232
0000f0 7d 0b 29 40 ee b7 1d 3f 5e a3 c4 bf 52 29 25 3f
       2.6413262 0.6160878 -1.5362356 0.64516175
000100 de d7 58 3f fc 05 3e 3f 20 2d 95 3e 22 1d d4 bf
       0.8470439 0.7422788 0.2913599 -1.6571391
000110 94 d5 93 40 97 3b 7f 40 f8 3b 6c 3e c5 de 9e bf
       4.6198215 3.988012 0.23069751 -1.2411734
000120 97 19 91 3e a5 70 85 3e b1 4a 92 3f 3b de 46 c0
       0.28339836 0.26062503 1.1429044 -3.1073139
000130 08 df 25 bf e6 97 82 3f 40 fd 12 c0 69 6a 9b bf
       -0.64793444 1.0202606 -2.2967072 -1.2141849
000140 31 4f f8 3e 1b de 16 3f c8 fb 09 40 65 4c fd 3f
       0.48497918 0.58932656 2.1559925 1.9788939
000150 e4 db 69 3f ef 16 2f c0 87 41 31 bf c6 ff 43 c0
       0.9135115 -2.7357748 -0.6924061 -3.0624862
000160 98 2b 2c 40 9d ff c1 3f 28 33 1d bf 88 7f 58 bf
       2.6901608 1.5156132 -0.61406183 -0.845696
000170 19 c1 9f bf f3 3c 25 c0 bc 28 f1 bf 7c f6 04 3f
       -1.2480804 -2.581845 -1.8840556 0.51938605
000180 0e c8 09 bf ca 9b fc 3f b8 cf 45 c0 db f4 a9 be
       -0.53820884 1.9735043 -3.0908031 -0.33194622
000190 7a f2 8f 3e f7 ad a7 3d bb 22 78 c0 e5 59 70 40
       0.28114682 0.08187478 -3.8771198 3.7554867
0001a0 7c 78 57 40 77 56 f9 3f 54 2f 03 3e e6 6d 52 40
       3.3667288 1.9479512 0.12811023 3.2879577
0001b0 e3 01 b7 bf 89 3b fd bc ff 4c cb 3d a4 59 08 3f
       -1.4297451 -0.030912178 0.09926795 0.5326178
0001c0 c6 a6 ce 40 86 b1 81 c0 b4 86 83 c0 2c 2c 09 3f
       6.457858 -4.0529203 -4.1101933 0.53583026
0001d0 30 af 7a bf 05 d9 01 bf bc 6f 10 be 48 1f 6b bf
       -0.97923565 -0.5072177 -0.14105123 -0.91844606
0001e0 2a 92 34 3f 85 d7 d6 be 6c 06 1a 40 42 8f 84 3f
       0.7053553 -0.41961303 2.406642 1.0356219
0001f0 50 c9 ad be e2 9d c8 3e ec 0d 58 3f f8 56 cf 40
       -0.33942652 0.39182955 0.84396243 6.4793663
000200 2b 6d 5f c0 a9 83 83 c0 04 7c 24 40 97 5b b4 3f
       -3.491038 -4.109822 2.5700693 1.4090451
000210 2f aa 32 40 10 50 c6 bf b9 d7 b2 be 2f 5f 13 40
       2.7916372 -1.5493183 -0.34930208 2.3026845
000220 72 5f 9f 3f 82 aa 02 40 30 95 5d bf 5c 4e 43 3f
       1.2451003 2.041657 -0.8655577 0.7629144
000230 88 fd e2 bf bc dd ac 3e 32 18 55 be e0 ba d4 bd
       -1.7733622 0.3376292 -0.20810011 -0.10387206
000240 11 1d 2d 3d 85 a0 2c bf 5a 69 97 3e d1 dd ea be
       0.042264048 -0.67432433 0.29572564 -0.45872357
000250 c7 27 83 3f c5 85 de 3e 83 1e 0c 40 f3 5c 9a 3f
       1.0246514 0.43461433 2.1893623 1.2059616
000260 17 ef af 3e c3 48 b5 bb 17 c8 cf be 50 17 5f 3f
       0.343621 -0.0055323555 -0.40582344 0.8714495
000270 75 e4 10 3f 68 4f 92 3f 2b b1 cf 3f 9c 83 a1 3f
       0.565986 1.1430483 1.6225942 1.2618289
000280 56 d4 97 bf 7e 41 3b bf e4 a9 88 c0 58 44 2a 40
       -1.1861675 -0.7314681 -4.2707386 2.6604214
000290 74 85 61 3e a2 17 a9 bf 90 e8 47 bf 61 c3 1c c0
       0.22023565 -1.3210337 -0.7808924 -2.449425
0002a0 72 16 92 3f 6c b4 58 3f 3e 6d b0 bf c0 1b f8 3e
       1.14131 0.846503 -1.3783338 0.48458672
0002b0 3b 5f ee bd 07 42 26 bf 10 50 ff bd 37 d0 13 3f
       -0.116392575 -0.649445 -0.124664426 0.57739586
0002c0 6c 15 9b 3f 0e 84 42 40 cb c8 2c bf ba 60 61 be
       1.2115912 3.03931 -0.67493886 -0.22009555
0002d0 92 31 3c 3f 91 15 13 3e ac 7c 9d c0 82 22 c3 3f
       0.7351314 0.14363696 -4.9214687 1.5244906
0002e0 4a a4 3c 40 df dd fa 3e fb 90 11 bf 20 2a e5 be
       2.9475274 0.489974 -0.5686185 -0.447587
0002f0 93 84 a5 3f b1 2b f0 bc 08 04 45 c0 f4 62 aa 3e
       1.2931083 -0.029317709 -3.078371 0.3327862
000300 2f fa fc bf 69 a6 64 bf 8b b1 d2 be a7 3c a7 be
       -1.976385 -0.8931642 -0.4115108 -0.32663462
000310 4c 1b d6 3e a1 03 0a 40 12 69 54 c0 4f 44 39 c0
       0.418177 2.1564715 -3.318913 -2.8947942
000320 a3 60 9a be f1 ae 9d bf 66 b5 d2 bf 02 92 35 bf
       -0.30151853 -1.2319013 -1.6461608 -0.70925915
000330 82 8f 85 bf f4 4b 2c bf 96 47 52 be 0e 79 06 40
       -1.043442 -0.67303395 -0.2053512 2.1011386
000340 9d 3c d5 be 94 3b 46 3f 01 de 2a bf 8a 2c fe 3e
       -0.41647807 0.7743466 -0.66745 0.49643356
000350 73 ab 33 40 95 10 07 c0 50 12 4f bd 59 2a d1 3d
       2.8073394 -2.110387 -0.050554574 0.10213155
000360 00 90 dd 3d 58 36 72 3f 13 5d 31 c0 67 f9 56 bf
       0.108184814 0.9461417 -2.7713058 -0.8397431
000370 a6 77 37 3e d7 6a 18 bf fe ba 41 c0 c6 03 0d 3f
       0.17916736 -0.59538025 -3.027038 0.5508388
000380 6b dd 29 bf be 80 a5 3d 6d ab 57 bf c3 90 2a bf
       -0.6635348 0.08081196 -0.8424595 -0.6662714
000390 fb 70 bd bf b7 80 0d 3e ff 7b 2e c0 c0 b2 8f be
       -1.4800104 0.13818632 -2.7263181 -0.28066063
0003a0 e0 d9 44 bf 2a 73 37 be 53 40 9e be cf 86 24 c0
       -0.7689495 -0.17915025 -0.3090845 -2.570728
0003b0 d3 8e 8d bd be 5d 4e c0 00 37 d9 bf 68 0e 81 be
       -0.06912007 -3.2244716 -1.696991 -0.25206304
0003c0 4f e3 96 bf 1a e2 97 be ff 2d bf c0 d6 41 14 40
       -1.1788119 -0.2966469 -5.9743648 2.3165183
0003d0 d2 62 4a 40 79 9e af bf 21 39 9c be 84 9f 26 c0
       3.1622815 -1.3720237 -0.30512336 -2.603486
0003e0 38 be 32 bf 23 7b 8e bf 40 cb 42 bf 3c 80 ec 3d
       -0.698215 -1.1131328 -0.76091385 0.11547896
0003f0 d3 94 b9 bf 88 02 ee be e7 2d f8 bd 34 7f 14 3e
       -1.4498543 -0.46486306 -0.1211813 0.14501649

critic.0.bias f4 [64]
000000 c8 9d 28 3f e6 5a 23 be 40 c6 4d 3f 27 ea a1 3f
       0.65865755 -0.15952644 0.8038063 1.2649583
000010 c8 8c 8b bd 31 79 8a 3e a3 68 c3 3e 5b 18 60 3f
       -0.06813961 0.27045587 0.3816577 0.87537163
000020 b2 d7 f8 be 73 59 01 bf e1 c9 03 3f d7 e9 b3 bc
       -0.48602062 -0.50527114 0.5147992 -0.02196209
000030 6d 28 b2 3c d9 d6 18 be 41 1f d5 3e 49 b0 94 3e
       0.021747792 -0.14925708 0.41625407 0.29040745
000040 aa de d9 3d 71 95 bc bd 69 0a 3a 3f 4d 9e 25 3f
       0.10638173 -0.09208191 0.72672135 0.6469467
000050 3f 32 12 be 2f 82 e2 3e cc c1 b1 be be 88 c4 be
       -0.1427698 0.44239947 -0.34718168 -0.38385576
000060 af 79 d5 be 75 7a 2a bf f5 60 07 bf 65 bf ce be
       -0.416944 -0.66593105 -0.5288232 -0.40380397
000070 58 1a 39 bf dd 48 41 be d6 96 d8 be b1 9a da be
       -0.7230582 -0.18875451 -0.4230258 -0.42696145
000080 b6 e8 de 3c ec e0 63 3e e2 72 82 bf 38 c6 4d bf
       0.027210575 0.2225377 -1.019131 -0.8038058
000090 67 6d 59 be b9 53 8c bf de 9b 86 bf 3f 38 92 be
       -0.2123314 -1.096305 -1.0516317 -0.28558537
0000a0 2b 0d 62 3f 68 fc bf be 19 34 0d bf b1 6a 0b bd
       0.8830134 -0.37497258 -0.5515762 -0.034037296
0000b0 81 2b 24 3f e3 37 3f 3f 3f ba e4 be 7f 02 dd be
       0.6412888 0.7469465 -0.44673344 -0.43165967
0000c0 64 e5 80 bd a0 66 36 be 27 ff 17 3f 5b 8c c5 3d
       -0.06293753 -0.17812586 0.59373707 0.09645911
0000d0 d5 7f 47 3f 44 25 dc 3e 31 3a c3 bc fe 35 8f be
       0.7792943 0.4299718 -0.023831459 -0.2797088
0000e0 66 d9 6e 3f 84 2e 11 bf b7 61 66 3e 26 8d ec 3e
       0.93300474 -0.567116 0.22498213 0.46201438
0000f0 a4 a4 06 3f 32 3d 92 3e 7a 91 03 bf 1c 9d 2e bf
       0.5259497 0.28562313 -0.51393855 -0.6820848

critic.2.weight f4 [64, 64]
000000 72 fa d6 3c 95 01 41 bf e0 dd c4 be da 46 9a be
       0.026242469 -0.7539304 -0.38450527 -0.3013218
000010 e9 4b 62 3f 25 66 4f bf da a7 b3 3d 80 82 82 bd
       0.8839708 -0.81015235 0.087722495 -0.06372547
000020 ec 51 87 3f 25 2f 3c bf 9b ab 39 3f 8d a1 d2 bc
       1.0571876 -0.73509437 0.72527474 -0.025711799
000030 e0 fc 72 3c 46 a9 d1 be 41 a2 e5 3d 7f 95 82 3e
       0.014830798 -0.40949458 0.11212588 0.2550468
000040 bd 70 95 3f e9 b4 69 bf 84 7a c1 3d 14 74 6e bf
       1.167503 -0.9129167 0.09447196 -0.9314587
000050 0d b7 a3 bf 87 b2 b4 3f ad 7c ac 3f 77 dd 82 be
       -1.2790238 1.4116982 1.3475548 -0.2555959
000060 53 4f 67 bd f6 6b af 3f 20 d5 c2 3f 90 5a 6c 3f
       -0.056472134 1.3704822 1.522129 0.9232569
000070 38 f0 84 3e b1 18 4e be 3b 0e 24 3f b4 f3 a2 be
       0.25964522 -0.20126607 0.64084214 -0.31826556
000080 9f 17 80 bf fb e6 c4 bf 62 f5 34 bf 8a 49 68 3f
       -1.0007209 -1.538299 -0.70686924 0.9073721
000090 9f 65 69 bf e4 b4 df 3d a7 de d5 be 43 f8 57 3f
       -0.91170686 0.10923174 -0.41771433 0.8436319
0000a0 6c 8f dc be 13 ec 2f 3e d7 1c 6e 3f 2a ef ec bd
       -0.43078172 0.17179899 0.93012756 -0.115690544
0000b0 e1 d5 cd be ad 16 05 be cb 34 91 be 18 03 a9 3e
       -0.4020224 -0.12996931 -0.2836059 0.33010173
0000c0 db 5d 00 c0 0c 7c 64 3e 8a e1 04 3e 89 cd d6 bc
       -2.0057285 0.22312945 0.12976661 -0.026221054
0000d0 9b 3c 2c 3f 97 24 a9 be 14 df 15 bd ac 88 8e 3f
       0.67279977 -0.33035728 -0.036589697 1.1135459
0000e0 7c 77 0f be 1c e8 8b 3e 8a ef 05 bf 89 e4 7c 3f
       -0.14010423 0.27325523 -0.5231863 0.98786217
0000f0 e4 42 e9 3f a7 06 37 3e 40 ab 1a 3e c6 00 b2 be
       1.8223538 0.17873631 0.15104389 -0.34766215
000100 49 dc 65 be d9 05 1d 3e 13 a2 32 3f 44 8a 79 bf
       -0.22447313 0.15334262 0.69778556 -0.974766
000110 82 23 46 bc d7 29 af bf 27 f4 86 bf d1 b0 b7 be
       -0.012093427 -1.3684644 -1.0543259 -0.35877088
000120 ab 56 a4 3f dd 7d 8f bf 5b fe 0c 3e ce 60 5b bd
       1.2838949 -1.1210285 0.13768904 -0.053559117
000130 75 4e 97 3f 38 a4 be 3f ef 49 c7 3e 33 7a b2 bf
       1.1820818 1.4893866 0.38923594 -1.3943542
000140 b4 eb 3e 3f 24 4a 9c bf af 58 75 bf 50 8a 93 bd
       0.74578404 -1.2210126 -0.95838445 -0.072041154
000150 b3 79 23 3f 11 74 ba 3e 48 e6 d5 be 60 c6 25 bf
       0.63857573 0.36416677 -0.41777253 -0.6475582
000160 08 5a 0f 3e 4b d1 41 3f 5e 8b af 3f 3e 30 de 3f
       0.13999188 0.7570998 1.3714406 1.7358472
000170 ae 40 2b bf a7 76 0f 3e 0b b8 d6 3e a3 7f 30 3f
       -0.6689557 0.14010106 0.4193729 0.6894476
000180 31 d8 55 bf f1 b5 b4 bd b0 75 53 bf 27 2d 43 3f
       -0.83533007 -0.08823765 -0.8260145 0.7624077
000190 79 6a 07 3e 20 e4 9d 3e 11 46 90 bf 4c 37 e5 be
       0.1322421 0.30838108 -1.1271383 -0.4476875
0001a0 ef 01 9c bf cb ef a6 3d b8 57 b1 3e 9e a5 5f be
       -1.218809 0.08151206 0.34637237 -0.21840522
0001b0 a9 a5 1c bf d8 fe 92 be 8e 5c 02 bf 27 2a 6f bf
       -0.6119028 -0.28710055 -0.5092248 -0.93423694
0001c0 87 c7 61 be 6c f5 70 bf 5c 3f 77 be 45 62 62 be
       -0.2204877 -0.94124484 -0.24145263 -0.221078
0001d0 3b 7e 76 bf 6a 05 de 3d 7a 2f 88 be a1 ea 84 3c
       -0.9628636 0.108408764 -0.26598722 0.016225161
0001e0 a0 1b be 3e 9b 3c 93 3e c2 fa 20 3e 66 d7 ea 3d
       0.3713045 0.28757176 0.15720657 0.11466865
0001f0 36 4c a5 3e 0e 37 58 3e 7f b8 8f 3f 88 50 00 3f
       0.32284707 0.21114752 1.1228179 0.5012288
000200 17 36 26 3e 20 76 86 3f 29 50 9f 3f a0 79 9b bf
       0.16231571 1.0504799 1.2446338 -1.2146492
000210 4c 79 f2 be c4 71 33 be 36 f9 33 c0 cf 95 de be
       -0.47358167 -0.17523867 -2.8120856 -0.4347367
000220 b0 7b 79 3f af 94 eb be b1 80 76 bd 21 5d 27 bd
       0.9745436 -0.46011874 -0.060181323 -0.0408603
000230 54 2d e9 3f c4 33 90 3f e0 7a 82 3f 9e 04 39 c0
       1.8216958 1.1265798 1.0193748 -2.8909068
000240 1f ac 23 3f f7 19 44 be 92 db 60 bf 80 62 81 3f
       0.6393451 -0.1915053 -0.8783504 1.0108185
000250 70 5d 96 3e 33 b2 f8 3e f6 c4 54 bf 66 fe 2e 3e
       0.29368162 0.48573455 -0.8311304 0.17089233
000260 0b 8d c9 3e 30 6a a0 3b b1 26 a5 3f 98 3d bf 3f
       0.3936542 0.004895471 1.2902433 1.4940672
000270 1f 15 08 bf 66 e3 eb 3d e5 26 9d 3f fe 4a 4d 3f
       -0.5315723 0.11517982 1.2277495 0.80192554
000280 c5 79 93 be 90 7b 0f bf ce b0 76 bf a3 d7 85 be
       -0.2880384 -0.56047916 -0.9636353 -0.2614108
000290 95 76 e2 3e 57 20 25 3e f5 0e a9 bf cb be 7d bf
       0.44231096 0.16125618 -1.320769 -0.9911925
0002a0 f7 43 ca bf 99 c8 9d bd c3 62 78 3e fb ae ee be
       -1.5801991 -0.077042766 0.24256425 -0.46617875
0002b0 cf 16 8e bc fb 67 95 be fb a2 df bf 52 e2 bf bf
       -0.01734486 -0.29180893 -1.7471613 -1.4990942
0002c0 61 30 82 bd 7a ec f3 bf 80 ec 65 3c f9 83 fc 3c
       -0.06356884 -1.9056542 0.014033437 0.030824648
0002d0 a9 ac d8 be 0a 8f 86 3d 59 22 b4 3e 81 e4 a0 3e
       -0.4231923 0.06570251 0.35182455 0.31424335
0002e0 3a a4 0f 3f a2 eb 0a bf 41 84 7a 3f 1c 60 4b bf
       0.56109965 -0.542658 0.97858053 -0.79443526
0002f0 6c 47 7c 3b ab 5a 8a 3f dc 0a 54 3f 77 f8 72 3f
       0.003849472 1.080892 0.8282907 0.9491038
000300 28 38 a1 bf c8 3a 55 3f 03 26 84 bf 46 61 4b 3f
       -1.2595263 0.8329282 -1.03241 0.794453
000310 43 60 ec 3e 76 3f 16 bf d1 ec 84 bb 05 89 4b 3f
       0.46167192 -0.58690584 -0.004056551 0.7950595
000320 e5 76 38 3e 9a 5a 1b be 21 2b 77 bd 91 76 92 bf
       0.18014105 -0.1517128 -0.060343865 -1.1442434
000330 aa 7d 52 bf fe ed b4 be cc 75 90 bf a1 c0 cd 3d
       -0.82223 -0.35337824 -1.1285949 0.10046507
000340 b7 c3 f9 3e 43 2c 5c bf a5 09 67 be f1 f4 8c 3d
       0.4878213 -0.8600504 -0.22562273 0.06882656
000350 90 af 27 3e f2 50 02 bf e2 50 ec 3e 59 01 1d bf
       0.16375566 -0.5090476 0.4615546 -0.6133018
000360 a2 c4 c6 bf a8 b4 81 bd 12 64 0e 3e fa c0 91 bd
       -1.5528758 -0.063332856 0.13905361 -0.071168855
000370 71 2e 94 3d 52 0f 75 be 18 64 4b be 07 b5 7a 3e
       0.072354205 -0.23931625 -0.19862401 0.24483119
000380 1d dc ec 3e 87 25 a9 be 35 1d f0 3d 5e 4b fd be
       0.46261683 -0.33036444 0.11724321 -0.49471563
000390 5f 47 f1 3e af 5b ef be 9c 62 d9 3e 8b c8 e3 3e
       0.47124764 -0.46749637 0.42458045 0.4448894
0003a0 16 d5 b2 3e ee 2a 15 bf 51 0d bf be c1 eb 1e 3c
       0.34928197 -0.5826863 -0.37314847 0.009699763
0003b0 f8 95 1a 3f 5c 39 31 bd e6 ba 5e 3f 30 3e 32 3f
       0.60385084 -0.043267593 0.87003934 0.6962614
0003c0 7f d9 c7 bc e4 c5 bb 3e a3 0c a5 3f 2f b5 83 bf
       -0.024395702 0.36674416 1.2894481 -1.0289668
0003d0 ee 0c 71 be 11 fe b3 bd 58 04 01 bf b3 00 a0 3c
       -0.23540089 -0.08788694 -0.50397253 0.019531583
0003e0 cf d7 a4 bf 52 99 b8 be 75 85 98 be d7 bc ae 3d
       -1.287836 -0.36054474 -0.2978932 0.08532112
0003f0 20 5b b7 be a5 5a 49 3e ce a4 a3 bc e4 2e c6 3e
       -0.3581171 0.19663484 -0.019976046 0.3870765

critic.2.bias f4 [64]
000000 d4 a1 e3 bd ea 3d 12 3f ef e7 3c 3e 6b 6d 41 3e
       -0.11114851 0.57125723 0.1844785 0.18889396
000010 07 5e 85 3e ad ad 26 be b5 95 c0 be ce 3e a4 bd
       0.260483 -0.1627719 -0.37614217 -0.080197915
000020 b7 68 8a 3d 37 05 c3 3e c7 f9 b7 3e 30 cf 72 3e
       0.06758254 0.38089916 0.35932752 0.23711848
000030 00 b9 d5 3e 77 19 a5 be ea 4f 56 3f 2e 97 26 bf
       0.41742706 -0.3224599 0.8371569 -0.6507443
000040 35 7b 47 3d ba d0 fe be a8 a8 5e be a7 cb 66 3e
       0.048701484 -0.4976862 -0.21744025 0.22538625
000050 ed e9 25 be 01 72 b4 3e 32 fa 00 bf 08 9d 07 bf
       -0.16202517 0.35243228 -0.5038177 -0.52973986
000060 37 81 84 be 74 9d 23 bf 42 6e a8 3c 67 3c 01 bf
       -0.25879833 -0.6391213 0.020560388 -0.5048279
000070 9d b7 73 3f 4d 42 3f 3f 02 3f 47 3e cb d2 8a 3e
       0.95202047 0.7471054 0.1945763 0.27113947
000080 d8 90 d0 3c 52 12 35 be 4f dd 2d bf c8 4f ec 3e
       0.025459692 -0.1768277 -0.67915815 0.46154618
000090 4f e8 c5 be 95 4a 31 3f a8 e6 27 bd eb 16 59 3e
       -0.386538 0.6925443 -0.040991455 0.21200149
0000a0 9b 04 49 bf c6 8a 8f 3e bb 19 ec 3e 15 41 0d bf
       -0.7852265 0.28035563 0.4611338 -0.5517743
0000b0 5f 41 cb bc bb 77 11 bf 0c 28 93 3e 3c 45 19 3f
       -0.024811445 -0.5682332 0.2874149 0.5987127
0000c0 7e b8 2a be 79 20 d6 3e df 98 d0 be 14 54 2e bf
       -0.1667194 0.4182165 -0.4074163 -0.68097043
0000d0 6c ba 62 3e f2 19 9a be 96 4d 0c 3f 47 01 80 bf
       0.22141427 -0.3009792 0.54805887 -1.000039
0000e0 8a 61 6c bf ed 47 c7 be 7f 45 27 3e 2f a0 13 3f
       -0.9233633 -0.38922063 0.16335104 0.57666296
0000f0 e4 f4 a7 bd 05 08 80 be 07 7e df 3c 31 00 cc 3e
       -0.08201006 -0.25006118 0.027281774 0.39843896

critic.4.weight f4 [1, 64]
000000 e4 25 d2 3d eb c4 67 be b7 aa aa bc 31 b2 63 3e
       0.10261133 -0.22633712 -0.020833356 0.22235943
000010 4e b6 8b 3d 71 bb 82 3e 8b da 1c be d9 83 5e be
       0.06821881 0.2553363 -0.15317743 -0.21729983
000020 68 46 7d 3d 14 35 72 be af 5d de 3e 3a 8a 71 3e
       0.061834723 -0.2365306 0.4343085 0.23587885
000030 ae e4 c3 3d 16 67 4f be fb 2a b5 bd 74 f7 42 bd
       0.095651016 -0.20254168 -0.088460885 -0.04759927
000040 8a 11 2f 3f 5e 3c 60 3e 71 58 6e be 77 a8 44 be
       0.6838614 0.21898028 -0.23275925 -0.19204889
000050 1d bc 3d be 4e b0 91 3e 6b 6a 12 3f 53 52 cd bd
       -0.18528791 0.28454822 0.5719363 -0.10025468
000060 e9 e9 28 be 30 f7 56 3e fe 47 fd 3b 94 45 21 3f
       -0.1649548 0.20992732 0.0077295294 0.6299679
000070 fb 83 53 be 72 04 bf bb b9 4a ca bd d2 c4 9f 3d
       -0.20655815 -0.0058293873 -0.098775335 0.07801212
000080 1b 8f 38 be d8 46 b7 be f9 01 50 3e e6 58 4b 3e
       -0.1802334 -0.35796237 0.20313253 0.19858131
000090 5a 7d cb be 4d ad 0e 3e c5 4c de bb 48 55 63 3e
       -0.39744073 0.13933297 -0.006784054 0.22200501
0000a0 0c a5 cc bc 5d 3a 03 bf 4a 2f 51 3d 57 bd e6 bd
       -0.024981044 -0.5126093 0.05107049 -0.112665825
0000b0 5c d2 44 be 42 b2 1f be 8c 8a b2 3e e1 cf c3 3c
       -0.1922087 -0.15595344 0.34871328 0.023902835
0000c0 0d 2b 19 be 0c 7e 07 be 2f db f8 be 53 d0 ab bd
       -0.14957829 -0.13231677 -0.48604724 -0.08389344
0000d0 dd 1f 98 3d 8e 32 7f be 3d e4 54 3b 9e ca f7 bd
       0.074279524 -0.24921629 0.0032484673 -0.12099193
0000e0 46 20 3a 3d ec 83 20 3e fc 7e 7f 3e 73 5d 0c 3e
       0.045440935 0.15675324 0.24950784 0.13707523
0000f0 0e d4 3f be 26 d6 f6 bb b9 cf d5 3e dc ca e2 3c
       -0.18733236 -0.0075328527 0.41760042 0.027684622
