controller/PPO_CartPole-dm_0_600000.pth (torch, 41263 bytes, 10 tensors)

actor.0.weight f4 [64, 5]
0	0x3e598f70	0.21246123
1	0xbde71213	-0.11282744
2	0x3f1349d8	0.5753455
3	0xbd173ce0	-0.03692329
4	0x3caed29e	0.021340664
5	0xbe9a6f96	-0.30163258
6	0xbe90f626	-0.28312796
7	0xbf6e282f	-0.93030065
8	0xbd948354	-0.07251611
9	0xbe1b4c35	-0.1516579
10	0xbd168eb1	-0.036757175
11	0xbe813046	-0.25232142
12	0x3e9bc560	0.30424023
13	0x3e9fb120	0.31189823
14	0xbc7d28e2	-0.015451642
15	0x3e952e08	0.29136682
16	0x3e119049	0.14215197
17	0x3f2178c1	0.6307488
18	0xbed21a9a	-0.4103592
19	0x3d5c247a	0.053745724
20	0x3d4a7978	0.049432248
21	0x3e93f77b	0.2889975
22	0x3ec10f7d	0.3770713
23	0x3e7f3556	0.2492269
24	0x3e2243da	0.15846196
25	0xbcd015e3	-0.025401061
26	0x3e94ac33	0.29037628
27	0x3de31c82	0.11089422
28	0xbeb980a2	-0.36230952
29	0x3ee66cc8	0.45004869
30	0xbe91c444	-0.2847005
31	0x3f03e4b1	0.5152083
32	0x3daeaf7f	0.08529567
33	0x3dd043a6	0.10169153
34	0xbda27da6	-0.07934122
35	0x3e25b6e4	0.16183048
36	0x3f26687c	0.6500318
37	0xbec21341	-0.37905315
38	0xbe120fc6	-0.1426383
39	0xbdecf275	-0.115696825
40	0xbd75e528	-0.060032994
41	0x3dfc6db2	0.1232561
42	0xbf118e98	-0.56858206
43	0x3eb8c2da	0.3608616
44	0x3dceb1e2	0.10092522
45	0xbe4b4104	-0.1984902
46	0xbf2f0431	-0.6836577
47	0x3f148b86	0.58025396
48	0x3e4b7f87	0.19872867
49	0x3e007dd3	0.12547998
50	0xbe834cc6	-0.2564451
51	0xbef5cb31	-0.48006585
52	0xbf06f073	-0.52710646
53	0x3ea03c27	0.31295893
54	0xbea4b381	-0.321682
55	0xbeb366be	-0.35039324
56	0x3e31ae64	0.17351681
57	0xbeabe28f	-0.33571288
58	0xbd44b9ec	-0.04802887
59	0xbd97af66	-0.074065015
60	0x3e1c319e	0.15253302
61	0xbf309b90	-0.6898737
62	0x3e7329c8	0.23746407
63	0x3e99ffb1	0.3007789
64	0x3dc645f8	0.09681314
65	0x3ef5aa41	0.47981456
66	0xbe1ec11a	-0.1550335
67	0x3d4ee931	0.050515357
68	0x3f041688	0.5159688
69	0xbe14923e	-0.14508912
70	0xbeff9de7	-0.49925157
71	0xbf0f48c0	-0.5597038
72	0x3e88eea4	0.26744568
73	0xbe79af11	-0.24383189
74	0xbd945efc	-0.07244679
75	0xbe86364c	-0.262133
76	0xbed4e0cc	-0.41577756
77	0x3e104a24	0.14090782
78	0xbcfd2248	-0.030900136
79	0xbe878b04	-0.26473248
80	0x3ee0bd57	0.43894455
81	0x3e0b9cf9	0.13634099
82	0x3eb93084	0.36169827
83	0xbe081d5e	-0.13292453
84	0xbb7ddbe5	-0.0038735804
85	0xbf120ff6	-0.57055604
86	0x3e3aacca	0.18229976
87	0xbf3d8732	-0.74034417
88	0xbe9a1288	-0.30092263
89	0xbeb46990	-0.35236788
90	0x3e37fd9d	0.1796784
91	0x3f01a219	0.50637966
92	0xbdb75f92	-0.089537755
93	0xbdff05a3	-0.12452247
94	0xbdd78e8b	-0.10525235
95	0xbd9b2249	-0.07574899
96	0xbed7674e	-0.42071003
97	0xbf63b36a	-0.8894564
98	0x3d027735	0.031851966
99	0x3e5c09c3	0.21488099
100	0xbe830cb4	-0.2559563
101	0xbf47a798	-0.779901
102	0x3d8c1472	0.06839837
103	0x3ddd1729	0.10795433
104	0x3e144dfa	0.1448287
105	0x3e46c25e	0.19410083
106	0x3e3dedcf	0.18547748
107	0xbec4e4a4	-0.3845569
108	0xbe910d1e	-0.2833032
109	0xbdfe4aeb	-0.12416633
110	0xbed17aa0	-0.40913868
111	0xbdc61c11	-0.09673322
112	0xbec1ffbc	-0.37890422
113	0x3eb80ced	0.35947362
114	0x3eb1c0c1	0.34717372
115	0xbe4ce298	-0.20008314
116	0xbebf72e1	-0.37392333
117	0x3e852a9e	0.26009077
118	0xbefca124	-0.4934169
119	0xbd31bf72	-0.043395467
120	0xbef242fa	-0.47316724
121	0xbeb676ea	-0.356376
122	0xbe73a420	-0.23793077
123	0xbf17af5b	-0.59251946
124	0xbe19d1d3	-0.15021448
125	0x3e83030b	0.2558826
126	0x3f1077b6	0.56432664
127	0xbebd884b	-0.37018046
128	0xbdda330c	-0.10654268
129	0xbe2534b9	-0.16133393
130	0xbed7183f	-0.42010686
131	0xbe225971	-0.15854432
132	0x3f2c1871	0.67224795
133	0xbd8c95a2	-0.06864478
134	0xbe9923e1	-0.29910186
135	0xbdfdd2f7	-0.12393754
136	0xbf1cc1f1	-0.6123343
137	0x3e470e52	0.19439057
138	0xbcffd518	-0.03122954
139	0xbddae4fa	-0.10688205
140	0xbe99762a	-0.29972965
141	0x3eae278e	0.34014553
142	0x3f1d05c2	0.6133691
143	0xbdaecd9f	-0.08535313
144	0x3dd05e33	0.10174217
145	0x3b966cd0	0.004590608
146	0x3f143d98	0.57906485
147	0xbee480e9	-0.446296
148	0x3d55ea0b	0.052225154
149	0xbeb57095	-0.35437456
150	0xbebd7a75	-0.3700749
151	0x3f022102	0.50831616
152	0x3ef7b910	0.4838338
153	0xbdf47825	-0.11936978
154	0x3d9fd4d7	0.07804268
155	0xbe2614c7	-0.16218863
156	0x3ee45cbd	0.44602004
157	0xbecc1cd6	-0.3986575
158	0x3e22bddf	0.15892743
159	0xbe1a7d89	-0.1508695
160	0xbc95bc53	-0.018278277
161	0x3ea981ce	0.33106846
162	0x3eb7dd2a	0.35910922
163	0xbc83962a	-0.016062815
164	0x3ebdb483	0.37051782
165	0x3e50258f	0.20326827
166	0x3db7522f	0.08951222
167	0x3e405a71	0.187845
168	0x3ea5abbf	0.32357594
169	0xbe8e45ca	-0.2778762
170	0x3e3284a9	0.17433418
171	0xbf0ee16c	-0.55812716
172	0x3f0a08cc	0.5391967
173	0x3e0cd9eb	0.13755004
174	0x3dcad4d7	0.09903877
175	0x3d1e0784	0.038581386
176	0x3e260ba6	0.16215381
177	0x3e298550	0.16554761
178	0x3e25cf7f	0.16192435
179	0x3f369944	0.71327615
180	0x3ecf7093	0.40515575
181	0x3f2ea703	0.6822359
182	0xbea6d22e	-0.3258223
183	0x3dcd27cc	0.10017356
184	0xbdcbf324	-0.09958485
185	0x3e3c0e9c	0.18364948
186	0xbefdd0ad	-0.4957327
187	0xbd48504a	-0.048904695
188	0xbe8e0115	-0.277352
189	0x3e71e37a	0.23621932
190	0xbf27da50	-0.65567493
191	0x3ea2a140	0.3176365
192	0xbeca9379	-0.39565638
193	0xbec31851	-0.3810449
194	0xbec087e4	-0.37603676
195	0x3dfaeade	0.122518286
196	0xbe5aac2f	-0.21354745
197	0xbf357e89	-0.708962
198	0xbe020c49	-0.12699999
199	0xbe82dbd2	-0.25558335
200	0x3e4d4a36	0.2004784
201	0xbebd74c7	-0.37003157
202	0x3ddefd7d	0.10888193
203	0xbd2ed4fc	-0.042683586
204	0xbe06108a	-0.13092247
205	0xbea9d613	-0.33171138
206	0xbefb851f	-0.49125
207	0x3eacd695	0.33757463
208	0xbdcd6515	-0.100290455
209	0xbd4190fd	-0.047257412
210	0xbe473715	-0.19454606
211	0xbe09d874	-0.13461477
212	0xbe88d262	-0.2672301
213	0xbe9d2fe3	-0.30700597
214	0x3f2e3738	0.6805301
215	0x3dc0e19b	0.09418031
216	0x3eaa7c47	0.3329794
217	0xbe11b362	-0.14228585
218	0x3e1d2458	0.15345895
219	0xbf119a49	-0.56876045
220	0xbf39b466	-0.7254089
221	0x3f00894b	0.5020949
222	0x3ea88375	0.32912794
223	0xbeac23cd	-0.33621064
224	0x3ec22e93	0.37926158
225	0xbe117889	-0.14206137
226	0xbe0d563e	-0.1380243
227	0xbc7e2f5c	-0.015514221
228	0x3e895395	0.2682158
229	0xbf08ff01	-0.53514105
230	0x3d813329	0.06308586
231	0x3e21f33b	0.15815441
232	0x3f7010b5	0.9377549
233	0x3d7561fc	0.0599079
234	0x3f064dc2	0.524624
235	0x3e343cfa	0.17601386
236	0xbed20087	-0.41016027
237	0xbe7dcbac	-0.24784726
238	0x3ecd9954	0.40156043
239	0xbd9147c1	-0.07093764
240	0x3e1fd7ab	0.15609615
241	0xbe0fd724	-0.14046913
242	0x3c130b79	0.008974903
243	0xbe3c4798	-0.18386686
244	0xbe00ba44	-0.12571055
245	0x3f12ddb3	0.57369536
246	0xbe98f037	-0.2987077
247	0xbe15f4bc	-0.1464414
248	0x3e12242f	0.14271615
249	0x3d8c24e5	0.068429746
250	0xbe22274d	-0.15835305
251	0x3eb6ed3f	0.3572788
252	0xbeebd460	-0.46060467
253	0x3d332012	0.043731757
254	0x3e8b8000	0.27246094
255	0xbe510fa4	-0.20416123

actor.0.bias f4 [64]
0	0xbef5685c	-0.47931182
1	0xbe2ab88c	-0.16671962
2	0xbe18035c	-0.14845031
3	0xbf19181b	-0.5980241
4	0xbefa0234	-0.48829806
5	0x3eff3dae	0.49851745
6	0x3e389987	0.18027316
7	0x3e337818	0.17526281
8	0xbe7b3546	-0.24532041
9	0xbd6a1381	-0.057147507
10	0xbeb34392	-0.3501249
11	0x3e9bd045	0.30432335
12	0xbd2f8213	-0.042848658
13	0xbe4f5213	-0.20246153
14	0x3e01bfd5	0.12670834
15	0xbee70ce9	-0.45127037
16	0x3eb82eab	0.35973105
17	0xbd185c14	-0.037197188
18	0xbe1d92ed	-0.15388079
19	0xbd7972dd	-0.060900558
20	0x3d15783e	0.036491625
21	0xbeb8bd31	-0.36081842
22	0xbf1a5a6c	-0.6029422
23	0x3e932828	0.28741574
24	0x3ee0d1eb	0.43910155
25	0x3e852dfe	0.26011652
26	0xbe2611d6	-0.16217741
27	0xbeb7e3c1	-0.3591595
28	0xbdda4694	-0.10657993
29	0x3d9b415d	0.075808264
30	0xbea78559	-0.32718924
31	0x3ce7b7c3	0.028285867
32	0xbeb1a2d8	-0.34694552
33	0x3da973c0	0.08274031
34	0xbe6186da	-0.22024098
35	0x3f32ce8d	0.6984642
36	0x3e4d7e20	0.20067644
37	0x3d86e705	0.06587032
38	0x3f1475ee	0.57992446
39	0xbec0d891	-0.37665227
40	0xbeaeefdc	-0.34167373
41	0xbd9796f2	-0.074018374
42	0xbe2402b1	-0.16016652
43	0x3e3547ef	0.17703222
44	0xbe39e92e	-0.18155357
45	0xbe6eaf23	-0.23308997
46	0xbe90bf18	-0.28270793
47	0xbe57fbf6	-0.21092209
48	0xbefbca2f	-0.4917769
49	0xbe1bb86f	-0.15207075
50	0xbdef194c	-0.11674747
51	0x3e780973	0.24222355
52	0x3e07a55f	0.13246678
53	0xbec7a495	-0.38992754
54	0xbe811eac	-0.25218713
55	0x3e983dbe	0.29734606
56	0x3ebc9bd6	0.36837643
57	0x3d9f2a27	0.07771712
58	0xbf1323cf	-0.57476515
59	0x3e10b41d	0.14131208
60	0x3e6edefa	0.23327246
61	0x3d3c65b5	0.045995433
62	0x3e9b0028	0.30273557
63	0xbec0bbae	-0.37643188

actor.2.weight f4 [64, 64]
0	0xbdfc4cff	-0.12319373
1	0xbe41598e	-0.18881819
2	0x3e3be22e	0.18348
3	0x3d0cbc10	0.034359038
4	0xba435aa1	-0.00074521644
5	0x3e180b61	0.1484809
6	0x3d927ec4	0.07153085
7	0xbdf71ce7	-0.120660596
8	0xbd81a2bd	-0.06329868
9	0x3e2b4d06	0.16728601
10	0xbe3d4ee2	-0.18487123
11	0x3df585a3	0.1198838
12	0x3c9d2ccc	0.0191864
13	0xbb0090cd	-0.0019617558
14	0x3e20a304	0.15687186
15	0x3da22a2b	0.07918199
16	0x3c67b871	0.014143095
17	0xbce44dc4	-0.027869113
18	0xbda8489c	-0.08216974
19	0xbd9ec709	-0.07752807
20	0x3cebe65d	0.02879637
21	0xbc3af702	-0.01141143
22	0x3deaaf9d	0.11459277
23	0x3d121cbe	0.035671942
24	0x3d369834	0.044578746
25	0x3d456c88	0.048199207
26	0x3d51cd7d	0.05122136
27	0x3ddfb8e7	0.10923939
28	0x3e5e9157	0.2173513
29	0xbe0cd76d	-0.13754053
30	0x3e20236a	0.1563851
31	0xbdea9041	-0.114532955
32	0x3d5d9c46	0.054104112
33	0xbde853cd	-0.11344109
34	0x3d2752e6	0.040850542
35	0x3cdce2b4	0.02696357
36	0xbca26db0	-0.019827694
37	0xbe22c768	-0.1589638
38	0xbe5f6eee	-0.2181966
39	0xbe017e2c	-0.12645787
40	0xbd9e4232	-0.077274695
41	0x3e0aa6ab	0.13540141
42	0xbdec420c	-0.11536035
43	0x3dacc292	0.08435549
44	0x3e3ced47	0.18449889
45	0xbbecc362	-0.00722544
46	0x3e19b563	0.150106
47	0xbe1dc2f9	-0.15406407
48	0x3d8880a0	0.06665158
49	0xbd6e4398	-0.05816993
50	0x3d8ec8ac	0.06971869
51	0x3d2a2a38	0.04154417
52	0x3e812481	0.25223163
53	0xbdc08059	-0.093994804
54	0xbdbc08ce	-0.09181367
55	0xbdd06d64	-0.101771146
56	0xbd015521	-0.031575326
57	0xbdab3120	-0.08358979
58	0x3e12e337	0.14344488
59	0x3caf70e8	0.021416143
60	0x3d077c62	0.033077605
61	0xbe39c453	-0.18141298
62	0xbd678a5a	-0.056528427
63	0xbda491f0	-0.08035648
64	0x3d8784a7	0.06617098
65	0xbdd959e6	-0.1061285
66	0x3d722c00	0.059123993
67	0xbde314a6	-0.11087923
68	0xbdaeffd3	-0.08544888
69	0x3d801e54	0.06255785
70	0xbce19861	-0.02753848
71	0xbdc9bfd3	-0.09851041
72	0x3d7a8f69	0.061171923
73	0x3c4d922f	0.01254706
74	0x3d9eaaf4	0.077474505
75	0xbd5ed147	-0.0543988
76	0xbc80cd0a	-0.01572277
77	0x3db082ce	0.08618699
78	0x3dec8758	0.11549252
79	0xbd397fbe	-0.04528784
80	0x3e15da1e	0.14633986
81	0x3d088a69	0.033335123
82	0x3d667da4	0.056272164
83	0x3d22cf8e	0.03974872
84	0xbd1869c4	-0.03721024
85	0xbd487c37	-0.048946586
86	0xbdef4eac	-0.11684927
87	0xbd97479d	-0.07386706
88	0xbdab7170	-0.08371246
89	0xbdeb56ce	-0.11491166
90	0x3d20c201	0.039247517
91	0xbd2dba1d	-0.04241382
92	0x3c854258	0.016266987
93	0x3d83e744	0.06440595
94	0x3df162d7	0.1178643
95	0x3dc5d7b9	0.096602865
96	0xbd8e3273	-0.06943216
97	0x3d0e1816	0.03469094
98	0x3b90ffb5	0.004425014
99	0x3db0dad2	0.08635487
100	0xbd6247fb	-0.055244427
101	0x3d7f5a5d	0.062342037
102	0xbce3b933	-0.02779827
103	0x3d995285	0.074864425
104	0xbc8290ef	-0.01593825
105	0x3da8a982	0.08235456
106	0xbd47c41b	-0.048771005
107	0x3d93af94	0.07211223
108	0xbcd87f91	-0.026428016
109	0xbc9609a8	-0.018315151
110	0x3ce8589b	0.028362563
111	0xbd309a9d	-0.0431162
112	0x3de34513	0.11097159
113	0xbd7ef4a2	-0.06224502
114	0x3d5a5ccc	0.053311154
115	0x3e22b391	0.15888812
116	0xbdff97f8	-0.124801576
117	0xbc940885	-0.018070469
118	0xbdd24766	-0.102675244
119	0x3d3ec0e9	0.046570692
120	0xbd91186a	-0.07084735
121	0x3dcc525f	0.099766485
122	0xbdb21e6f	-0.08697211
123	0xbe0b5545	-0.13606746
124	0x3c7985c3	0.015229645
125	0x3d8d8ac9	0.06911237
126	0x3cba2522	0.022722784
127	0xbc0e4d75	-0.008685459
128	0xbd62d897	-0.055382337
129	0xbdf82a97	-0.12117498
130	0xbe1f38ea	-0.15549055
131	0xbd5e9bfa	-0.05434797
132	0x3e0e3a10	0.13889337
133	0xbe01d7bc	-0.12679952
134	0x3e8cc46e	0.27493614
135	0x3e42d4f0	0.19026542
136	0x3d3b3abe	0.045710318
137	0xbe65a083	-0.22424512
138	0xbddde52b	-0.10834726
139	0x3dac9d11	0.084283955
140	0xbe220839	-0.15823449
141	0x3e4b957f	0.19881247
142	0xbe6459d5	-0.22299893
143	0xbd5948c4	-0.05304791
144	0xbd07c849	-0.03314999
145	0x3dd55b23	0.104177736
146	0x3ee71904	0.45136273
147	0xbe943751	-0.28948453
148	0xbe7d5066	-0.24737701
149	0x3d84a32a	0.064764336
150	0x3c14c448	0.00908
151	0xbe1ae867	-0.15127717
152	0xbda82c03	-0.082115196
153	0x3d90c10a	0.07068069
154	0x3d7db34e	0.061938576
155	0xbbdaf14b	-0.0066815964
156	0x3dba4db3	0.09096851
157	0x3e9634f9	0.2933729
158	0x3df9e2a6	0.12201433
159	0x3e5027a1	0.20327617
160	0x3de26509	0.11054427
161	0x3e24c4c4	0.16090685
162	0xbe66110f	-0.22467445
163	0xbe1fb111	-0.15594889
164	0x3ec55cc4	0.38547337
165	0xbeeee388	-0.46657968
166	0x3de71ce5	0.11284808
167	0xbdb5e81a	-0.088821605
168	0xbd84d17f	-0.06485271
169	0xbe4e4116	-0.20142016
170	0xbeb2b495	-0.34903398
171	0x3e76322c	0.24042577
172	0x3e069c1c	0.13145489
173	0x3e217324	0.15766579
174	0x3dc66e63	0.09689023
175	0x3e1adf2a	0.15124193
176	0x3dae3c71	0.08507622
177	0xbdae2233	-0.08502617
178	0x3e17de39	0.14830865
179	0xbdc6f054	-0.09713808
180	0x3e33954d	0.17537422
181	0x3dbfe440	0.09369707
182	0xbe80d4ce	-0.25162357
183	0x3d6a2b3c	0.057170138
184	0x3d5194b7	0.051167216
185	0xbd85c21a	-0.065311626
186	0x3e2d9ba0	0.16953897
187	0x3e339966	0.17538986
188	0x3dc220d4	0.09478918
189	0x3e60943b	0.21931545
190	0xbb1e1b12	-0.0024125022
191	0x3d43b1ef	0.047777113
192	0x3e3ba462	0.18324426
193	0xbdbca42e	-0.09211002
194	0xbdc747ac	-0.09730467
195	0x3e24dbbd	0.16099449
196	0xbd0c02bd	-0.0341823
197	0xbd6e979c	-0.058250055
198	0x3dafab2f	0.085775726
199	0xbb5ddaa4	-0.0033852244
200	0xbe6b0926	-0.22952709
201	0x3cfa3d45	0.030546794
202	0xbc75a6f5	-0.014993419
203	0x3e13930a	0.1441156
204	0xbe38059d	-0.17970891
205	0xbe5fcadf	-0.21854733
206	0x3c2b667e	0.010461448
207	0xbd4f35a7	-0.050588276
208	0x3be160be	0.0068779876
209	0x3e4603a3	0.19337325
210	0x3dbdb0db	0.09262248
211	0xbe63f839	-0.22262658
212	0xbe2f483c	-0.17117399
213	0xbda2297a	-0.07918067
214	0xbdc0809c	-0.0939953
215	0xbc791d2c	-0.015204709
216	0xbc17ad57	-0.009257636
217	0x3e2e2391	0.17005755
218	0xbcd1b2a6	-0.025597882
219	0xbdf4bfce	-0.11950646
220	0x3e30c37c	0.17262071
221	0x3d59bef9	0.05316064
222	0x3e141e58	0.144647
223	0x3d8449ed	0.06459413
224	0xbdaa10b1	-0.08303965
225	0xb953603e	-0.00020158381
226	0xbc544d64	-0.0129579045
227	0x3e16b174	0.1471613
228	0xbdce6573	-0.10077944
229	0xbd9984f3	-0.07496061
230	0x3e8b94d7	0.27261993
231	0xbd66252e	-0.0561878
232	0xbe5784d9	-0.21046771
233	0x3c6435cb	0.013928841
234	0xbdbf3412	-0.093361035
235	0x3ca452e2	0.020059053
236	0xbe1a8cf5	-0.15092833
237	0x3e18e532	0.14931181
238	0xbe58fc26	-0.21189937
239	0xbe8628ab	-0.26202902
240	0x3cacac8c	0.02107837
241	0xbe81ec89	-0.25375775
242	0xbe3bf593	-0.18355398
243	0x3d700f5d	0.0586084
244	0x3edbd186	0.4293329
245	0x3bd4beb6	0.006492461
246	0xbdd85ceb	-0.10564598
247	0xbc1fe808	-0.00975991
248	0x3d47870b	0.04871277
249	0xbd32a02e	-0.04360979
250	0xbca4625c	-0.020066433
251	0x3ce2825a	0.027650047
252	0x3e5a39dc	0.21311134
253	0x3e396c22	0.18107656
254	0xbc379658	-0.011205278
255	0xbcd0186a	-0.025402267

actor.2.bias f4 [64]
0	0x3aa97b1f	0.001293037
1	0xbd933762	-0.07188298
2	0xbe36e457	-0.17860542
3	0x3e4ba251	0.19886138
4	0x3bcf91cc	0.006334519
5	0xbc7590fb	-0.014988179
6	0x3dc3c6dc	0.09559414
7	0x3c866d3e	0.016409513
8	0x3dc171ed	0.09445558
9	0xbe4e015f	-0.2011771
10	0x3c7655ff	0.0150351515
11	0xb98050c3	-0.00024474235
12	0x3d2826e2	0.041052707
13	0x3d95f11f	0.07321381
14	0xbd7d8c6e	-0.061901502
15	0x3d419335	0.04725953
16	0xbdafbb80	-0.08580685
17	0xbdc1854a	-0.09449251
18	0xbe0719d9	-0.13193454
19	0x3bf30b79	0.007417139
20	0xbda766b7	-0.08173888
21	0x3d07f6c9	0.033194337
22	0xbdaf8f20	-0.08572221
23	0x3dc017ae	0.093795165
24	0x3d8ed4e1	0.06974197
25	0x3d848142	0.064699665
26	0xbe05acab	-0.13054149
27	0xbca3a011	-0.019973787
28	0x3dfc516f	0.1232022
29	0x3d5b45f7	0.05353352
30	0xbd431cba	-0.047634818
31	0x3dd10d98	0.10207671
32	0x3bd90a48	0.00662354
33	0x3de32db7	0.11092704
34	0xbcad66ec	-0.021167241
35	0xbdae0150	-0.08496344
36	0xbd729121	-0.059220437
37	0x3d71bd44	0.05901839
38	0xbdbc43d5	-0.091926254
39	0x3ce887a2	0.028384987
40	0xbd571db9	-0.05251858
41	0xbd6bc330	-0.057559192
42	0xbd8e92a8	-0.06961566
43	0xbddde703	-0.108350776
44	0x3d7270e9	0.05918971
45	0x3de237ae	0.11045776
46	0x3bc51949	0.006014977
47	0xbda0d30a	-0.078527525
48	0x3de6dd62	0.11272694
49	0x3cbaf7d8	0.02282326
50	0xbda27651	-0.07932723
51	0x3d708781	0.058722977
52	0xbd0aac0f	-0.033855494
53	0x3cc0b871	0.023525449
54	0x3d83c312	0.06433691
55	0xbd9b3a2d	-0.075794555
56	0xbc2109cc	-0.009828996
57	0xbdbd1c76	-0.09233944
58	0xbe100b2e	-0.14066765
59	0x3c8a8a2a	0.016911585
60	0x3ce8609e	0.028366383
61	0xbe0b2eba	-0.13592044
62	0x3d0d3250	0.03447181
63	0xbd7227b2	-0.059119888

actor.4.weight f4 [1, 64]
0	0x3e2f7539	0.1713456
1	0xbccc8004	-0.024963386
2	0x3e707fee	0.23486301
3	0xbe4be616	-0.1991199
4	0x3e4d37db	0.20040838
5	0x3e2ec0bd	0.17065711
6	0x3e26d967	0.1629387
7	0x3e069a6c	0.13144845
8	0xbe06e084	-0.13171583
9	0x3e48f548	0.19624817
10	0x3e0d376e	0.13790676
11	0x3e2b4794	0.16726524
12	0x3e311aae	0.17295334
13	0x3dd87580	0.10569286
14	0xbeab5c4c	-0.33468854
15	0xbdfc91c2	-0.123324886
16	0x3e52c86c	0.20584267
17	0x3cac33ca	0.021020789
18	0x3e6ece64	0.2332092
19	0xbde26693	-0.11054721
20	0x3e8554fb	0.26041397
21	0x3e30514d	0.17218514
22	0x3dd83805	0.1055756
23	0xbe9df57c	-0.30851352
24	0xbe98430f	-0.29738662
25	0xbe4bb3ac	-0.19892758
26	0x3e1e8c94	0.15483314
27	0xbe2b5d44	-0.16734797
28	0xbdbb6b9b	-0.091513835
29	0xbde84a78	-0.11342329
30	0x3e027558	0.12740076
31	0xbe3db03b	-0.18524258
32	0x3d61074c	0.0549386
33	0x3dce94d9	0.10086984
34	0x3cc98225	0.02459819
35	0xbe92d386	-0.28677005
36	0xbe029a9d	-0.12754293
37	0xbcf43170	-0.02980873
38	0xbe66f067	-0.22552644
39	0xbe359b58	-0.1773504
40	0xbda97b3d	-0.08275459
41	0xbca0e323	-0.019639557
42	0xbe28274c	-0.1642124
43	0xbe5654db	-0.20930807
44	0x3d9d1b21	0.0767119
45	0xbe2d24d5	-0.16908582
46	0x3dc9ddde	0.09856771
47	0x3e24a82c	0.16079777
48	0xbded2dfd	-0.11581037
49	0x3e0a70e5	0.13519628
50	0xbe091952	-0.13388565
51	0x3e30634b	0.17225377
52	0xbe6e74b5	-0.23286708
53	0x3e02ae44	0.1276179
54	0xbe8fd7d2	-0.28094345
55	0xbdcd9e90	-0.10040009
56	0x3e2ae957	0.16690575
57	0xbe3ccafb	-0.18436806
58	0xbe1e56d0	-0.15462804
59	0xbe179978	-0.14804637
60	0x3e1ded81	0.15422632
61	0x3e791092	0.24322727
62	0xbdc54c71	-0.09633721
63	0x3e36cdce	0.17851946

critic.0.weight f4 [64, 5]
0	0x3f0419ba	0.51601756
1	0xbf63dce7	-0.89008945
2	0xbd60506f	-0.054764207
3	0x3eb1041d	0.3457345
4	0xbe5a5171	-0.2132013
5	0xbe2611e3	-0.1621776
6	0x3e1d8cb0	0.153857
7	0xbf36aa74	-0.7135384
8	0xbeba8b9a	-0.36434633
9	0x3f2c46a7	0.67295307
10	0xbee096ba	-0.43864995
11	0xbf6135db	-0.879728
12	0x3e9c31ce	0.30506748
13	0x3ea5e871	0.324039
14	0xbc84be85	-0.016204128
15	0xbeba9254	-0.36439764
16	0xbfa76bda	-1.3079789
17	0xbf7df585	-0.9920276
18	0xbe963903	-0.2934037
19	0xbed270e1	-0.41101745
20	0xbe8464ea	-0.2585824
21	0x3ee5a008	0.44848657
22	0xbfb19938	-1.3874884
23	0xbe88e6d1	-0.267386
24	0xbece34d3	-0.40274677
25	0xbf453a2e	-0.770419
26	0xbf55a3a5	-0.83452827
27	0xbde3c755	-0.11122004
28	0x3ec2becd	0.38036194
29	0xbceb6294	-0.02873353
30	0xbe615902	-0.2200661
31	0xbf418be0	-0.7560406
32	0x3f998071	1.1992322
33	0xbe783420	-0.24238634
34	0xbe33e1be	-0.17566583
35	0xbf48588b	-0.78260106
36	0x3e222a62	0.1583648
37	0xbeb85e72	-0.36009556
38	0xbe61ee8e	-0.22063658
39	0xbe3be4c6	-0.18348989
40	0xbe178e1d	-0.14800306
41	0x3f5af3a9	0.85528046
42	0xbe2968d1	-0.1654389
43	0x3c32e050	0.010917738
44	0xbe8a2c25	-0.26986805
45	0xbf473076	-0.7780832
46	0xbd2a2e2d	-0.041547943
47	0x3ee6289e	0.44952863
48	0x3e30cb9b	0.1726517
49	0xbda21b06	-0.079153106
50	0x3f6e3be5	0.9306014
51	0xbf3675da	-0.7127358
52	0xbdde90f5	-0.10867492
53	0xbf56c203	-0.8388979
54	0x3e5345d3	0.20632105
55	0x3e89c216	0.26905888
56	0xbee501de	-0.44727987
57	0x3fdf4ef0	1.7445965
58	0x3e911d32	0.28342587
59	0x3ecd3cda	0.4008549
60	0x3e073f15	0.13207658
61	0x3d6c404e	0.057678513
62	0xbfbff3ff	-1.4996337
63	0x3d5e999f	0.054345723
64	0xbe68d691	-0.227381
65	0x3eec1cf6	0.46115845
66	0x3cb0e3ee	0.02159306
67	0x3efa9452	0.48941284
68	0x3ec3a679	0.38212946
69	0x3e76f051	0.24115111
70	0x3ec08bfe	0.37606806
71	0xbf63296f	-0.887351
72	0xbf542a3f	-0.8287696
73	0xbe51b6cb	-0.20479886
74	0xbd89be44	-0.067257434
75	0xbf205760	-0.62633324
76	0xbf2441c3	-0.64162844
77	0x3f16bc8c	0.5888145
78	0xbe94a231	-0.29029992
79	0xbf1f69ff	-0.6227111
80	0x3ed57120	0.4168787
81	0x3f0b75f2	0.54476845
82	0x3f7e8a7d	0.99430066
83	0x3ec9afbe	0.39391893
84	0x3ec271d7	0.37977478
85	0xbf8ce3e1	-1.1007043
86	0xbf3d6c81	-0.7399369
87	0x3f6d0b3c	0.9259527
88	0x3f05bbc4	0.5223963
89	0x3c600c75	0.013674845
90	0xbe8f214c	-0.2795509
91	0xbf775459	-0.9661308
92	0xbea03707	-0.31291983
93	0xbeef5af7	-0.46749088
94	0xbe655ae3	-0.22397952
95	0x3f4daa7e	0.80338275
96	0xbd31e9aa	-0.04343573
97	0x3f0a9ada	0.54142535
98	0x3f1ca154	0.6118367
99	0xbe203859	-0.15646495
100	0xbf1ca8df	-0.61195177
101	0x3d17e234	0.03708096
102	0xbf49cc33	-0.7882721
103	0x3e4c51df	0.19953106
104	0x3d40e082	0.047089107
105	0x3e900ac4	0.28133214
106	0xbf1e03c4	-0.61724496
107	0x3f093fa8	0.53612757
108	0xbe81df80	-0.2536583
109	0xbc96b1c1	-0.018395307
110	0xbdf151a0	-0.11783147
111	0x3e7561eb	0.23963134
112	0x3fb4304f	1.4077243
113	0xbec7bb22	-0.39009959
114	0xbf0a5395	-0.54033786
115	0xbe967cb1	-0.29392007
116	0xbf519511	-0.8186808
117	0xbe439163	-0.1909843
118	0xbf037844	-0.51355386
119	0xbde76c4b	-0.11299952
120	0x3f4b3859	0.79382855
121	0xbf149930	-0.58046246
122	0x3f30b14b	0.6902053
123	0x3e1eb838	0.15499961
124	0x3e221559	0.15828456
125	0x3f01c000	0.50683594
126	0x3f5fb468	0.87384653
127	0x3f44902d	0.76782495
128	0x3cbc4fff	0.022987364
129	0x3da26fc7	0.07931476
130	0x3ec2381d	0.37933436
131	0x3f57977f	0.8421554
132	0xbe84bf86	-0.2592737
133	0x3ecde68e	0.40214962
134	0xbeb6bb96	-0.35689992
135	0x3eb519f7	0.35371372
136	0x3f5b00f7	0.8554835
137	0xbe819ce1	-0.25315002
138	0x3e846733	0.25859985
139	0xbe8b05d3	-0.2715288
140	0xbf4fbfbb	-0.8115193
141	0xbc94d388	-0.018167272
142	0xbe97b3db	-0.29629406
143	0xbeab8d43	-0.33506212
144	0xbc3acac8	-0.011400886
145	0xbf570a42	-0.8400003
146	0x3f09dba8	0.53850794
147	0xbf046e22	-0.5173055
148	0x3f31abcc	0.69402766
149	0xbe80d37d	-0.25161353
150	0xbe570ebb	-0.21001713
151	0x3f0c351f	0.54768556
152	0xbf847b98	-1.0350218
153	0xbe2a6e5d	-0.16643663
154	0xbe3ae13b	-0.18249981
155	0x3f014699	0.5049835
156	0x3f3630f5	0.7116845
157	0x3f291b36	0.66057146
158	0x3ee42bad	0.44564572
159	0x3e809ce4	0.25119698
160	0xbe8d7ce9	-0.2763436
161	0xbec5b9f1	-0.38618425
162	0xbf8a651f	-1.081211
163	0xbe710bfb	-0.23539726
164	0x3eb0130e	0.34389538
165	0xbcda96e1	-0.026683273
166	0x3e992125	0.299081
167	0xbf7f59e1	-0.9974652
168	0x3e688c1b	0.22709696
169	0x3e121a1b	0.14267771
170	0xbf541973	-0.8285133
171	0x3ede10b3	0.43372115
172	0xbd31780b	-0.043327373
173	0xbea435ce	-0.320723
174	0xbbc52adb	-0.0060170717
175	0x3f126771	0.5718909
176	0x3f6cad6a	0.9245211
177	0x3ee1070c	0.4395069
178	0xbe115ff0	-0.14196754
179	0x3ea2e492	0.3181501
180	0x3e19ae66	0.15007934
181	0xbd8c3bfc	-0.068473786
182	0xbee6d766	-0.4508621
183	0xbf22f449	-0.63654
184	0x3f31c830	0.69446087
185	0x3f810f4f	1.0082797
186	0xbf00a9de	-0.50259197
187	0xbf3c9ba9	-0.7367502
188	0xbe84e2ef	-0.25954387
189	0x3e531e88	0.20617115
190	0xbf85aab3	-1.0442718
191	0x3eccd7bd	0.40008345
192	0xbdd888a1	-0.10572935
193	0xbeaa229b	-0.33229527
194	0x3e167399	0.14692535
195	0x3e9bf8f7	0.30463383
196	0x3eddaa5b	0.43294033
197	0xbf299ccc	-0.6625488
198	0xbeffe1f8	-0.49977088
199	0xbe1a13bb	-0.15046589
200	0xbeca1b88	-0.3947413
201	0xbf7a0739	-0.9766727
202	0xbf2b49ea	-0.6690966
203	0xbec988a3	-0.39362058
204	0xbe9f7cdc	-0.31149948
205	0x3e962822	0.29327494
206	0x3df9e609	0.12202079
207	0x3fdeefe8	1.7416964
208	0x3ec76de0	0.38951015
209	0x3edae9b3	0.42756423
210	0x3ea578ec	0.3231882
211	0x3f013f3a	0.504871
212	0x3f9a6212	1.2061179
213	0x3e763b58	0.24046075
214	0x3ebb4152	0.36573273
215	0xbe4ccb64	-0.19999462
216	0xbeedd3f1	-0.4645076
217	0x3eb784fa	0.3584364
218	0xbf94d8c2	-1.1628649
219	0xbea1ef94	-0.31628096
220	0xbe95f4db	-0.29288372
221	0xbf122e40	-0.5710182
222	0xbfc2830c	-1.5196242
223	0xbe9df90c	-0.3085407
224	0xbedda0e0	-0.432868
225	0xbe7093b8	-0.2349385
226	0xbf5f819a	-0.8730713
227	0xbf145b22	-0.5795156
228	0xbea364bc	-0.31912792
229	0xbe95c4e3	-0.29251775
230	0xbe886b78	-0.26644492
231	0x3eddaaaa	0.4329427
232	0x3f9068ea	1.1282017
233	0xbddb58d1	-0.107103
234	0x3e8e2bb8	0.2776773
235	0xbf49ec84	-0.7887652
236	0xbe9f1ec1	-0.3107815
237	0xbec7d169	-0.39026955
238	0xbf5373c8	-0.82598543
239	0x3ea75c82	0.32687765
240	0xbf4890d7	-0.7834601
241	0xbc65ae55	-0.014018615
242	0xbf34f8d7	-0.706922
243	0x3ee84187	0.45362493
244	0xbda647d9	-0.081191726
245	0xbebfe57d	-0.37479773
246	0xbdf35e50	-0.11883223
247	0xbf30dfad	-0.690913
248	0xbf0e8c93	-0.5568325
249	0x3e918734	0.28423464
250	0xbf4f696f	-0.81020254
251	0x3ef24b0f	0.4732289
252	0xbef2321a	-0.4730385
253	0xbe9ee5de	-0.3103475
254	0xbcd48f97	-0.025947375
255	0x3e2e1b4d	0.17002602

critic.0.bias f4 [64]
0	0x3f0e9726	0.55699384
1	0xbed43982	-0.41450125
2	0xbd59e486	-0.053196453
3	0x3f93d67a	1.1549828
4	0x3e202926	0.15640697
5	0x3ebe5574	0.3717457
6	0x3e957969	0.2919419
7	0x3f3bf701	0.73423773
8	0xbf321848	-0.695683
9	0xbe9335ac	-0.28751886
10	0xbe60ec43	-0.21965127
11	0xbdb85ba6	-0.090018556
12	0xbed70361	-0.41994765
13	0xbe9e0f54	-0.3087107
14	0x3f184aaa	0.5948893
15	0x3e5c7b53	0.2153142
16	0x3cb4983a	0.022045244
17	0x3b9509ef	0.0045483033
18	0x3f046bca	0.51726973
19	0x3f3f66d4	0.7476628
20	0xbe33e0b7	-0.1756619
21	0xbe000176	-0.12500557
22	0xbf25701e	-0.646242
23	0xbd977a1c	-0.073963374
24	0xbe82c173	-0.25538215
25	0xbf00b072	-0.50269234
26	0xbf5d2694	-0.8638699
27	0xbf278466	-0.654364
28	0xbef05ff7	-0.46948215
29	0x3ca900d2	0.020630274
30	0xbf154e49	-0.5832258
31	0xbe8c9198	-0.2745483
32	0x3eab2844	0.33429158
33	0x3f618428	0.8809228
34	0xbf46d7ff	-0.77673334
35	0xbf4e60d0	-0.80616474
36	0xbed64b89	-0.41854504
37	0xbeb2c054	-0.3491236
38	0xbf6c8d59	-0.9240318
39	0xbe534337	-0.20631109
40	0x3f4d3a5b	0.8016717
41	0xbe48bb7f	-0.19602774
42	0xbed7790d	-0.42084542
43	0xbf1c24a8	-0.60993433
44	0x3f19f886	0.6014484
45	0x3f1d7009	0.6149908
46	0x3e72c7f3	0.23709087
47	0xbf0869a6	-0.53286207
48	0x3e86d88f	0.26337096
49	0xbe7c2f70	-0.24627471
50	0x3ee58014	0.44824278
51	0x3e106155	0.14099629
52	0x3f156e65	0.58371574
53	0x3f6a1750	0.9144182
54	0x3d932b49	0.0718599
55	0xbf1da319	-0.6157699
56	0x3f25818a	0.64650786
57	0xbf3c846c	-0.7363956
58	0xbd516c2a	-0.051128544
59	0x3ea65690	0.32487917
60	0x3c137d5c	0.009002056
61	0x3ec384e0	0.38187313
62	0xbea49c6d	-0.32150593
63	0xbf10b8b8	-0.5653186

critic.2.weight f4 [64, 64]
0	0xbeec3159	-0.461314
1	0x3d702322	0.058627255
2	0xbecd787c	-0.40130985
3	0xbe898c16	-0.2686469
4	0x3ed37809	0.41302517
5	0xbeab2402	-0.3342591
6	0xbf18135a	-0.5940453
7	0xbd5ffacd	-0.05468254
8	0x3e6454ac	0.22297925
9	0xbd30ee85	-0.04319622
10	0xbe01a310	-0.1265986
11	0xbea3ba41	-0.31978038
12	0xbe2aa35d	-0.1666388
13	0xbd7bf89e	-0.061516397
14	0xbe405ea1	-0.18786098
15	0xbeacedc7	-0.3377516
16	0x3ed2fbd7	0.41207764
17	0xbe6e535f	-0.23273991
18	0xbe652f30	-0.22381282
19	0xbe994718	-0.29937053
20	0xbdb910f2	-0.09036435
21	0x3c7e2a93	0.01551308
22	0xbe1b94a3	-0.15193419
23	0xbce0d5fc	-0.027445786
24	0xbcda51b9	-0.026650297
25	0x3ee5dece	0.4489655
26	0x3eebad17	0.46030495
27	0x3efb9f8e	0.49145168
28	0xbbae5561	-0.0053202366
29	0x3e972fc2	0.29528624
30	0x3e045255	0.12922032
31	0x3e2ac20a	0.16675583
32	0x3dc8593c	0.09782645
33	0xbdea5e35	-0.1144375
34	0xbd608ad6	-0.054819904
35	0x3e2dc053	0.16967897
36	0xbaa17860	-0.00123192
37	0x3e211257	0.15729652
38	0xbd18b90b	-0.037285846
39	0x3ec573f5	0.3856503
40	0xbdc5115a	-0.0962245
41	0xbb32dcda	-0.0027292282
42	0x3dc49342	0.095984
43	0x3e088d1f	0.13335083
44	0xbd474a78	-0.048655003
45	0xbe14c479	-0.14528073
46	0x3e160532	0.1465042
47	0x3e1d3c47	0.15355025
48	0xbe1d2290	-0.15345216
49	0x3dff1fa4	0.12457207
50	0x3db1d47a	0.08683105
51	0xbdfd473b	-0.12367102
52	0xbec72944	-0.3889867
53	0xbe0b3c92	-0.13597324
54	0xbd67d57d	-0.056600083
55	0x3d95466f	0.07288825
56	0xbebbe513	-0.36698207
57	0x3f11ec38	0.57001066
58	0x3d09acee	0.033612184
59	0xbebbec44	-0.36703694
60	0xbe761519	-0.24031486
61	0x3eda828b	0.4267772
62	0x3eda7559	0.42667654
63	0x3f2e8710	0.6817484
64	0xbe669f95	-0.22521813
65	0x3e6453b2	0.22297552
66	0xbeedde86	-0.46458834
67	0xbc0ee320	-0.008721143
68	0x3e654aec	0.22391862
69	0xbecaa4e2	-0.3957892
70	0xbd73b408	-0.059497863
71	0xbe3f6eef	-0.18694662
72	0x3dc1c552	0.09461464
73	0xbe582d6e	-0.2111108
74	0x3e9a42e2	0.30129153
75	0xbe937660	-0.2880125
76	0x3e6b84d3	0.22999887
77	0x3debafed	0.115081646
78	0xbe545dd1	-0.20738913
79	0xbe3923ec	-0.1808011
80	0xbc7830e1	-0.015148372
81	0xbefed82f	-0.4977431
82	0x3d1e888b	0.038704436
83	0xbe55bad1	-0.20872046
84	0xbdd623e4	-0.10456064
85	0xbe5a6814	-0.21328765
86	0xbdbb156a	-0.09134944
87	0xbd84dfd0	-0.06488001
88	0x3d562e7d	0.05229043
89	0x3e174e26	0.14775905
90	0xbe8ac185	-0.2710077
91	0xbd0fc4f1	-0.035099927
92	0x3dd26d94	0.102748066
93	0xbe4fbd86	-0.20287141
94	0x3d25c0af	0.04046696
95	0xbe03464c	-0.12819785
96	0x3dfc95fc	0.12333295
97	0x3e3c2790	0.18374467
98	0x3e8b9b26	0.27266806
99	0x3f24c64c	0.64365077
100	0x3e4fc150	0.20288587
101	0x3e686fe0	0.22698927
102	0xbc9b208e	-0.018936422
103	0x3f13c7bb	0.5772664
104	0xbd226324	-0.03964533
105	0xbe12b51b	-0.14326899
106	0x3e2ae205	0.16687782
107	0x3d778436	0.06042882
108	0xbd0a2e79	-0.033735726
109	0xbcc2c811	-0.02377704
110	0xbd80b5ad	-0.06284652
111	0xbcbcd47d	-0.023050541
112	0xbd41e4b1	-0.047337238
113	0x3e99f844	0.30072224
114	0xbe0b0997	-0.13577877
115	0xbe296f3d	-0.1654634
116	0xbe630d35	-0.22173007
117	0xbece200d	-0.40258828
118	0xbde1f042	-0.11032154
119	0xbdb9e7b4	-0.09077397
120	0xbde01c38	-0.10942882
121	0x3e6e61b2	0.23279455
122	0x3c57f499	0.013180875
123	0xbd976829	-0.07392914
124	0xbebe3bc6	-0.3715498
125	0x3d9ba108	0.07599074
126	0x3e64ec93	0.22355871
127	0x3d843ef3	0.06457319
128	0x3eae0aad	0.3399252
129	0x3e616a25	0.22013147
130	0x3ead40a5	0.33838382
131	0xbd97f62f	-0.07420003
132	0x3ea6ca5d	0.32576266
133	0x3ee21aa6	0.44160956
134	0xbf168b2b	-0.58806103
135	0xbc9f6e4f	-0.019461779
136	0x3e91c8e2	0.28473574
137	0x3e77f488	0.24214375
138	0xbf3e0f66	-0.74242246
139	0xbe9c9c0c	-0.30587804
140	0xbd084129	-0.033265267
141	0x3ca5bf1b	0.020232728
142	0x3e59eec1	0.21282484
143	0xbea7fd34	-0.32810366
144	0x3e748f8d	0.23882885
145	0x3ebce984	0.36896908
146	0xbe5fbac0	-0.21848583
147	0x3dc59dc8	0.09649235
148	0x3e7c5f00	0.24645615
149	0xbe7e8571	-0.24855591
150	0xbf0fdd11	-0.56196696
151	0x3dbebb74	0.093130976
152	0xbe954aba	-0.29158574
153	0xbe876605	-0.26445022
154	0x3e7284e3	0.23683505
155	0x3daf848a	0.08570202
156	0x3e74e6a0	0.23916101
157	0x3ef333b9	0.475004
158	0x3eb0f8a3	0.34564695
159	0x3e76c301	0.24097826
160	0x3d4ac8f0	0.049508035
161	0xbdf50637	-0.11964076
162	0xbbb1ed33	-0.0054298877
163	0xbee4428b	-0.44582018
164	0xbe3ed075	-0.18634208
165	0xbf084726	-0.53233564
166	0x3ea46d07	0.3211443
167	0xbf18de93	-0.5971462
168	0xbdd7847a	-0.10523315
169	0x3d2231cc	0.03959827
170	0xbd9a0b64	-0.07521704
171	0xbea5d0f5	-0.32385984
172	0x3de6aa4f	0.112629525
173	0xbe59c3c3	-0.21266083
174	0x3c89d611	0.016825708
175	0xbe0e74b4	-0.13911706
176	0x3f1f4479	0.62213856
177	0xbe80385a	-0.25042993
178	0x3e9c2a7e	0.3050117
179	0x3ea0b8e5	0.31391063
180	0xbd55d841	-0.05220819
181	0x3f5ac343	0.85454196
182	0x3e2f5939	0.1712388
183	0xbe6a93c9	-0.22907938
184	0xbdd6c359	-0.10486478
185	0xbe0657c8	-0.13119423
186	0x3e1c6973	0.152746
187	0xbe857841	-0.2606831
188	0xbed9eb4b	-0.42562327
189	0x3eb77a68	0.35835576
190	0xbc8f73ee	-0.017511334
191	0x3ee27002	0.4422608
192	0xbf021feb	-0.5082995
193	0x3e8a0806	0.26959246
194	0xbece014a	-0.40235358
195	0xbedb6870	-0.42853117
196	0xbe0c54a5	-0.13704164
197	0x3d67130a	0.05641464
198	0x3d940485	0.072274245
199	0x3ea3aca1	0.31967643
200	0xbe0f3632	-0.13985518
201	0x3e4daf3f	0.20086382
202	0xbdd4b5fc	-0.10386273
203	0x3db63a78	0.08897871
204	0xbf37d7ee	-0.7181386
205	0xbe0cc76c	-0.13747948
206	0xbf511d58	-0.816854
207	0x3e1db63b	0.15401547
208	0x3e940089	0.28906658
209	0xbe1cff4a	-0.1533176
210	0xbe8a5901	-0.2702103
211	0x3e9a8239	0.30177477
212	0xbd843443	-0.06455281
213	0xbe921e51	-0.28538755
214	0x3ee11345	0.43960014
215	0xbf03a17b	-0.51418275
216	0xbe79813b	-0.24365704
217	0x3e214ba1	0.15751506
218	0xbdaae7f8	-0.08345026
219	0xbea23e59	-0.31688192
220	0xbe8644f1	-0.26224473
221	0xbe999575	-0.2999684
222	0xbea11954	-0.31464636
223	0x3eabdee4	0.3356849
224	0x3e5084ba	0.20363131
225	0x3e0f90f2	0.14020136
226	0xbe2c5cd4	-0.16832286
227	0xbdd09296	-0.10184209
228	0x3e945466	0.2897064
229	0xbe8e996b	-0.27851424
230	0xbe47be7d	-0.1950626
231	0x3c53a4f3	0.012917745
232	0xbe9dbde6	-0.30808944
233	0x3e9ae5ec	0.3025354
234	0x3eb07281	0.3446236
235	0x3de3dc8b	0.111260496
236	0xbed05593	-0.40690288
237	0xbeb53225	-0.3538982
238	0x3f462923	0.7740652
239	0x3e38d4f5	0.18049987
240	0xbe270afc	-0.16312784
241	0x3ecc43f8	0.39895606
242	0x3eda4985	0.42634216
243	0xbeee5dba	-0.46555883
244	0x3dc735a4	0.09727028
245	0x3cb2c5d2	0.021822844
246	0xbf1ad572	-0.6048194
247	0xbe4a6289	-0.1976415
248	0xbe36296e	-0.17789242
249	0x3d121ad3	0.035670113
250	0xbec30254	-0.38087714
251	0x3cacbf7f	0.021087406
252	0xbcc97859	-0.024593519
253	0xbcfb2d5a	-0.030661274
254	0x3e05a52f	0.13051294
255	0xbd0da87f	-0.03458452

critic.2.bias f4 [64]
0	0xbebfbf2b	-0.37450537
1	0x3e2e5819	0.17025794
2	0xbd731ee8	-0.059355646
3	0x3d74780b	0.059684794
4	0xbda3882b	-0.07984956
5	0xbe5db868	-0.21652377
6	0x3e4dba8e	0.20090696
7	0x3dc7944f	0.097450845
8	0x3e27a0dd	0.16369958
9	0x3e5ac336	0.2136353
10	0xbec63773	-0.3871418
11	0xbecbbffe	-0.39794916
12	0x3e0b78aa	0.13620248
13	0x3cc4c9a0	0.024021924
14	0xbd3e0b41	-0.04639745
15	0xbdc0411f	-0.09387421
16	0x3e7faab4	0.24967462
17	0xbdf1f110	-0.11813557
18	0x3e85e9db	0.2615498
19	0x3f23cecb	0.63987416
20	0x3c1692b1	0.009190247
21	0xbdcc7587	-0.09983354
22	0xbeaaf228	-0.33387876
23	0xbea64dc2	-0.324812
24	0x3dcb9d7c	0.09942147
25	0xbf4ac54d	-0.7920731
26	0xbe94cdd8	-0.29063296
27	0x3d3a96c2	0.04555393
28	0x3ead60e6	0.3386299
29	0x3f224c99	0.6339813
30	0x3e16aca7	0.14714299
31	0xbe6cd527	-0.23128186
32	0xbce8e03b	-0.028427234
33	0xbe8ee387	-0.27907965
34	0xbecba70c	-0.39775884
35	0xbbbfcf0d	-0.00585354
36	0xbde31fa9	-0.11090023
37	0xbea8439b	-0.3286408
38	0xbe884dbc	-0.26621807
39	0xbda25687	-0.0792666
40	0x3de7544a	0.11295374
41	0x3e978557	0.29593918
42	0xbd880832	-0.06642188
43	0xbe0eb3e5	-0.13935812
44	0x3e49c5d9	0.19704379
45	0xbece4145	-0.40284172
46	0x3e459ddd	0.19298501
47	0x3dd3d008	0.10342413
48	0xbdc650ba	-0.09683366
49	0x3e42069e	0.18947837
50	0xbee85347	-0.45376036
51	0xbde0732a	-0.10959466
52	0x3e853a27	0.2602093
53	0xbd400c38	-0.046886653
54	0x3f018cd8	0.50605536
55	0xbe3da3b3	-0.18519478
56	0xbed6b993	-0.41938457
57	0xbe42b614	-0.1901477
58	0xbe166dab	-0.14690273
59	0x3ec2ade1	0.38023284
60	0xbd735b9c	-0.059413537
61	0xbbe699fd	-0.0070374
62	0x3e05566e	0.13021252
63	0x3de5d31a	0.11221905

critic.4.weight f4 [1, 64]
0	0x3e1d9f73	0.15392856
1	0xbd63312a	-0.05546681
2	0x3e1a6340	0.15076923
3	0x3e1e6a9f	0.1547036
4	0xbc2fd57a	-0.010732049
5	0x3e15ed79	0.1464137
6	0x3d3f4ad4	0.04670222
7	0xbd230e22	-0.0398084
8	0x3d33ad68	0.043866545
9	0xbd9e2c41	-0.077232845
10	0xbca64e47	-0.020300997
11	0x3d90825e	0.070561156
12	0xbaae454c	-0.0013295799
13	0xbdd8ea13	-0.10591521
14	0x3e345d19	0.17613639
15	0x3d945b59	0.07243986
16	0xbe48ca62	-0.19608453
17	0x3e98d9d5	0.29853693
18	0xbe0635c4	-0.13106447
19	0xbe8b9e45	-0.27269188
20	0xbd9ad214	-0.075596005
21	0xbe0a3b23	-0.13499121
22	0xbe55512a	-0.20831743
23	0x3e36e8c0	0.17862225
24	0x3d330dd9	0.043714378
25	0x3e8c5359	0.2740734
26	0x3c84a56d	0.016192162
27	0x3dc319ff	0.09526443
28	0xbec1fc8a	-0.37887985
29	0xbdf14066	-0.11779861
30	0x3db3ff44	0.087889224
31	0x3e228c4b	0.1587383
32	0xbe21c9b3	-0.15799598
33	0x3e02c756	0.12771353
34	0xbe9e21e8	-0.30885243
35	0x3e1b4fc2	0.15167144
36	0x3e013c52	0.12620667
37	0x3dfc423a	0.12317319
38	0x3e4a322e	0.19745705
39	0xbe1f04f4	-0.15529233
40	0x3d101593	0.035176825
41	0xbe28be04	-0.16478735
42	0x3d9cabcc	0.07649955
43	0xbe4c50b7	-0.19952665
44	0x3dc4a0fe	0.09601019
45	0x3e0c98ee	0.13730213
46	0x3dfbfe6d	0.12304387
47	0xbe3c5fd9	-0.18395938
48	0x3c0ecee3	0.008716318
49	0x3dcefb9f	0.10106587
50	0x3da82e27	0.08211928
51	0xbdd63d92	-0.10460962
52	0xbdb694f3	-0.089151286
53	0xbdeb90f7	-0.11502259
54	0xbe6b5a43	-0.22983651
55	0xbee4e822	-0.44708353
56	0x3d8950c1	0.06704856
57	0x3dc64fb0	0.09683168
58	0x3eeaeef2	0.45885426
59	0xbdf8c591	-0.12147058
60	0x3dee2e23	0.11629894
61	0xbe6315e5	-0.22176321
62	0xbbd2f9bb	-0.0064384616
63	0x3decd500	0.11564064
