controller/PPO_CartPole-dm_0_300000.pth (torch, 41263 bytes, 10 tensors)

actor.0.weight f4 [64, 5]
0	0x3e888525	0.2666408
1	0xbdb24c71	-0.08705986
2	0x3ebab8e2	0.3646918
3	0xbdeec413	-0.11658492
4	0x3dc88265	0.09790496
5	0xbe6b936c	-0.23005456
6	0xbe9adc58	-0.30246234
7	0xbf1a3bb8	-0.60247374
8	0xbd3a7b3f	-0.045527693
9	0xbe02c19e	-0.12769172
10	0xbbaf8b38	-0.0053571723
11	0xbe8dae3c	-0.27671993
12	0x3eb6db04	0.3571397
13	0x3e9542c9	0.29152516
14	0x3cd90d0e	0.026495483
15	0x3edeff6a	0.4355424
16	0x3df23582	0.11826612
17	0x3ef3cb81	0.476162
18	0xbee18b96	-0.44051808
19	0x3e0898cc	0.13339537
20	0xbd33c8e4	-0.043892756
21	0x3ea0c87f	0.31402966
22	0x3e9e368c	0.3090099
23	0x3e89ed65	0.2693893
24	0x3ddf87d5	0.1091458
25	0xbdd86f7a	-0.105681375
26	0x3e96db51	0.294642
27	0xbca19eb7	-0.019729001
28	0xbe82d8a3	-0.25555906
29	0x3eed9576	0.46403092
30	0xbe8eb13e	-0.278696
31	0x3f0ec064	0.55762315
32	0x3dcfe45d	0.10150979
33	0x3e1fc0c7	0.15600882
34	0xbda2767f	-0.079327576
35	0x3e2ebd39	0.1706437
36	0x3ef27fc2	0.47363096
37	0xbde4226d	-0.11139379
38	0xbe4ec50f	-0.2019236
39	0xbe428f0f	-0.18999885
40	0x3c5c94d4	0.013463218
41	0x3e3170fa	0.17328253
42	0xbf0dd802	-0.55407727
43	0x3ea4bb4a	0.3217414
44	0x3dba4f36	0.090971395
45	0xbe910b40	-0.28328896
46	0xbefa48dd	-0.48883715
47	0x3ebfce7b	0.3746222
48	0x3e9c4cbb	0.3052729
49	0x3e44d054	0.19220096
50	0xbe953103	-0.29138955
51	0xbef76a35	-0.48323217
52	0xbeef0c11	-0.46688893
53	0x3e9f576e	0.3112139
54	0xbe86832a	-0.26271945
55	0xbee00d1e	-0.43760008
56	0x3db1402a	0.086548164
57	0xbe8d92e0	-0.2765112
58	0xbda1aca4	-0.07894257
59	0xbdc8e58f	-0.0980941
60	0x3df5b2eb	0.119970165
61	0xbf25c6b5	-0.6475633
62	0x3d4ca3d5	0.04996093
63	0x3e90b08d	0.28259698
64	0x3dc8027d	0.097660996
65	0x3f01b3ea	0.5066515
66	0xbe12411f	-0.14282654
67	0x3d234cd7	0.039868202
68	0x3ef6dae8	0.48213887
69	0xbdeb2ffe	-0.11483763
70	0xbefe0039	-0.49609545
71	0xbf057373	-0.52129287
72	0x3e1acf27	0.15118085
73	0xbe532a09	-0.20621504
74	0xbd3f135b	-0.04664932
75	0xbe599b88	-0.21250737
76	0xbee32b6c	-0.44369066
77	0x3e424f08	0.1897546
78	0xbcb2b592	-0.021815095
79	0xbe6ca9f5	-0.23111708
80	0x3ebd4864	0.36969292
81	0x3e17f129	0.14838089
82	0x3e8fce21	0.2808695
83	0xbdeb4289	-0.114873
84	0xbb1eff78	-0.0024261158
85	0xbf169bb5	-0.5883134
86	0x3e74eb7d	0.23917957
87	0xbef997d2	-0.48748642
88	0xbe8842c3	-0.26613435
89	0xbeb98121	-0.3623133
90	0x3e5a6d2c	0.21330708
91	0x3efd9319	0.4952629
92	0xbbd208ad	-0.0064097256
93	0xbdc25de8	-0.094905674
94	0xbdb44e54	-0.088040024
95	0xbe1cf121	-0.15326358
96	0xbe82de6c	-0.2556032
97	0xbf5192ec	-0.8186481
98	0x3d1ab669	0.037771616
99	0x3e5d0499	0.21583785
100	0xbea2eab8	-0.318197
101	0xbf01ea29	-0.50747925
102	0xbdedbdec	-0.1160849
103	0x3e63db54	0.22251636
104	0x3e74761d	0.23873182
105	0x3e81d887	0.2536051
106	0x3e0d62ce	0.13807222
107	0xbe1baddf	-0.15203045
108	0xbe293f82	-0.16528133
109	0xbe047b5f	-0.12937687
110	0xbebedc38	-0.3727739
111	0xbd8075a8	-0.06272441
112	0xbed909cc	-0.42390287
113	0x3edf386d	0.43597737
114	0x3e9bbfc7	0.30419752
115	0xbe0f8d3f	-0.14018725
116	0xbea2db6e	-0.31808037
117	0x3daefe6f	0.08544623
118	0xbf160d27	-0.5861382
119	0x3d149d47	0.036282804
120	0xbee7514f	-0.4517922
121	0xbec302f8	-0.38088202
122	0xbeb4922b	-0.35267767
123	0xbf152b7d	-0.5826948
124	0xbe005abe	-0.12534615
125	0x3e9dafb9	0.30798128
126	0x3ed61c6d	0.41818562
127	0xbe8e38e5	-0.27777782
128	0xbe18399f	-0.1486573
129	0xbe703520	-0.23457766
130	0xbeb8f8ac	-0.36127222
131	0xbe1dc316	-0.1540645
132	0x3f1528a6	0.5826515
133	0xbe0ab5bd	-0.1354589
134	0xbea20c07	-0.316498
135	0xbdc1ea32	-0.09468497
136	0xbf024cf2	-0.5089866
137	0x3e0d8986	0.13821992
138	0xbd96a961	-0.07356525
139	0xbe184f68	-0.14874041
140	0xbe7d3b8a	-0.24729744
141	0x3ea90515	0.3301169
142	0x3edfec08	0.43734765
143	0xbd94fed6	-0.072751686
144	0x3da99b41	0.082815655
145	0x3e32a75b	0.17446654
146	0x3ed836ae	0.42229217
147	0xbe812314	-0.25222075
148	0xbe271ee6	-0.1632038
149	0xbebe5daa	-0.37180835
150	0xbed03bc6	-0.40670604
151	0x3f0eecfa	0.5583035
152	0x3e773eab	0.24145
153	0xbde747db	-0.11293002
154	0x3e14d1fd	0.14533229
155	0xbd9e776b	-0.07737621
156	0x3ef26752	0.47344452
157	0xbea5febe	-0.32420915
158	0x3e853a8f	0.2602124
159	0xbcbd8681	-0.023135426
160	0xbd643ad0	-0.05572015
161	0x3ec2acbc	0.3802241
162	0x3de848e7	0.1134203
163	0x3cdfe7db	0.027332237
164	0x3eb2b396	0.34902638
165	0x3e8d9d12	0.27658898
166	0x3d8c5245	0.06851629
167	0x3e820a0e	0.25398296
168	0x3e91b240	0.28456306
169	0xbe8100f0	-0.25196028
170	0x3e82649a	0.25467378
171	0xbed6e30a	-0.41970092
172	0x3e6ae0c8	0.2293731
173	0x3e0ac6df	0.13552426
174	0x3e0db9d1	0.13840415
175	0xbd8a9c64	-0.067681104
176	0x3df1e2eb	0.11810859
177	0x3ea5b418	0.32363963
178	0x3e299269	0.16559757
179	0x3f09bc31	0.5380278
180	0x3ec4f1e0	0.38465786
181	0x3f13b226	0.5769371
182	0xbe545c63	-0.20738368
183	0x3e02c695	0.12771066
184	0xbda8a122	-0.08233859
185	0x3e44ff2e	0.19237968
186	0xbef9a15b	-0.48755917
187	0xbe32fbd6	-0.1747888
188	0xbe8a318c	-0.26990926
189	0x3e62bfeb	0.22143523
190	0xbef7b7b2	-0.48382336
191	0x3ebdf96d	0.3710436
192	0xbee5322c	-0.4476484
193	0xbedad1a5	-0.4273807
194	0xbec76a81	-0.38948444
195	0x3e5c8264	0.21534115
196	0xbe7be441	-0.2459879
197	0xbf02c747	-0.51085323
198	0xbe03ac81	-0.12858774
199	0xbe173dae	-0.14769623
200	0x3e7d307b	0.24725525
201	0xbe9ed343	-0.31020555
202	0x3e1cc153	0.15308122
203	0xbcf02ad7	-0.029317303
204	0xbdceeafa	-0.10103412
205	0xbe995614	-0.29948485
206	0xbef1846b	-0.4717134
207	0x3e7ff8d0	0.24997258
208	0xbe049be9	-0.129501
209	0x3bb40065	0.005493211
210	0xbe43ec37	-0.19133078
211	0x3b4d5963	0.0031333796
212	0xbebe352c	-0.37149942
213	0xbe1d7511	-0.15376689
214	0x3f116c0f	0.5680551
215	0x3e1f8952	0.15579727
216	0x3e89b547	0.26896116
217	0xbd12ea3d	-0.03586792
218	0xbc860b35	-0.016362766
219	0xbee2738a	-0.44228774
220	0xbf2a91ef	-0.66628927
221	0x3f0aa8a6	0.5416359
222	0x3e48c8c8	0.19607842
223	0xbea3f8b7	-0.32025692
224	0x3ef44a93	0.47713146
225	0x3c63ea7d	0.013910887
226	0xbe71515d	-0.23566194
227	0xbb4d8235	-0.0031358127
228	0x3e4bf6fc	0.19918436
229	0xbef2cbd6	-0.4742114
230	0x3d882b30	0.06648862
231	0x3e23f2b1	0.16010548
232	0x3f33f3e8	0.70294046
233	0x3d12d517	0.03584775
234	0x3edb89a8	0.4287846
235	0x3e286980	0.16446495
236	0xbe9d1cab	-0.30685934
237	0xbe805049	-0.25061253
238	0x3eb51b3d	0.35372344
239	0xbdb5b014	-0.08871475
240	0x3e402d5a	0.187673
241	0xbe058a99	-0.13041152
242	0x3da9abdd	0.082847334
243	0xbe149768	-0.14510882
244	0xbdc66c39	-0.096886106
245	0x3f17955c	0.5921228
246	0xbe5cc479	-0.21559323
247	0xbe1580b2	-0.14599875
248	0x3e32f896	0.1747764
249	0x3ce6e8f4	0.028187253
250	0xbe195722	-0.14974645
251	0x3ecea525	0.4036037
252	0xbeea9cef	-0.45822856
253	0x3d771f20	0.060332417
254	0x3e680f68	0.22662127
255	0xbe9d8d2f	-0.30771777

actor.0.bias f4 [64]
0	0xbee28dc0	-0.44248772
1	0xbe7679b7	-0.24069868
2	0xbdde1a26	-0.10844831
3	0xbf150856	-0.58215845
4	0xbecf157d	-0.40446082
5	0x3f00f3b0	0.5037184
6	0x3e844971	0.2583728
7	0x3dabc285	0.08386711
8	0xbe87a5ee	-0.26493782
9	0x3d7f68ee	0.062355928
10	0xbeb5b36d	-0.35488454
11	0x3e899e90	0.26878786
12	0xbd71eca4	-0.05906357
13	0xbe83200a	-0.2561038
14	0x3e14f7ea	0.14547697
15	0xbef42cb9	-0.4769037
16	0x3eb0c69f	0.34526536
17	0xbd8288eb	-0.06373771
18	0xbe4a5774	-0.19759923
19	0x3e09608b	0.13415734
20	0x3e7e5906	0.24838647
21	0xbed18989	-0.40925243
22	0xbf0b09ca	-0.5431181
23	0x3e4e92c4	0.20173174
24	0x3eac7141	0.33680156
25	0x3e2e0598	0.16994321
26	0xbe49bbb9	-0.19700517
27	0xbeb4f2bc	-0.35341442
28	0xbd403cec	-0.0469331
29	0xbd487fec	-0.04895012
30	0xbe8575a8	-0.26066327
31	0x3e059e98	0.1304878
32	0xbe8e46ac	-0.27788293
33	0x3b5de8f0	0.0033860765
34	0xbe810a5b	-0.25203213
35	0x3f297c24	0.6620505
36	0x3e1a11d0	0.15045857
37	0x3cfc2881	0.030781033
38	0x3f049825	0.51794654
39	0xbed7c517	-0.42142555
40	0xbeb111e8	-0.34583974
41	0xbda732a1	-0.081639536
42	0xbd83dabb	-0.06438204
43	0x3e379f4d	0.17931862
44	0xbe277270	-0.16352248
45	0xbe8dba88	-0.27681375
46	0xbe95fcab	-0.29294333
47	0xbe637313	-0.22211866
48	0xbefe9815	-0.49725404
49	0xbe3adb9f	-0.18247841
50	0xbd2bf0fd	-0.04197787
51	0x3e827e92	0.2548719
52	0x3e3c51aa	0.18390527
53	0xbed55ec0	-0.4167385
54	0xbe6e0e13	-0.23247556
55	0x3e7b5eeb	0.24547927
56	0x3ed7198f	0.42011687
57	0x3d07e112	0.03317363
58	0xbf131606	-0.5745548
59	0x3e0b7606	0.13619241
60	0x3e2b397f	0.16721152
61	0x3d680265	0.05664291
62	0x3e812a98	0.2522781
63	0xbede6242	-0.4343434

actor.2.weight f4 [64, 64]
0	0xbdec4fd0	-0.115386605
1	0xbdb5d5d0	-0.08878672
2	0x3e3c2b72	0.18375948
3	0xbd4a2462	-0.049351104
4	0x3b6100ca	0.0034332746
5	0x3dfcd63d	0.1234555
6	0x3da7ba7f	0.08189868
7	0xbdd21a9e	-0.10258983
8	0xbb291a4b	-0.0025803025
9	0x3dff1008	0.124542296
10	0xbe16d1bc	-0.14728445
11	0x3e019fe2	0.12658647
12	0x3d4099d2	0.047021694
13	0x3c437110	0.011928812
14	0x3df3eaa0	0.119099855
15	0x3d85f1d3	0.06540265
16	0xbc09b2f6	-0.008404484
17	0x3d29a36a	0.04141561
18	0xbd934640	-0.071911335
19	0xbd1332e7	-0.035937216
20	0xbafdb97b	-0.0019357646
21	0xbcba54f4	-0.022745587
22	0x3dcad409	0.09903724
23	0x3ca2d5a7	0.019877268
24	0x3cf68c87	0.030096306
25	0x3dabf967	0.08397179
26	0x3cb6ec93	0.022329604
27	0x3ddbea2e	0.107380256
28	0x3d9237c7	0.07139545
29	0xbdd67d04	-0.104730636
30	0x3d92672e	0.07148586
31	0xbdcbc1fb	-0.09949108
32	0x3d50d508	0.050984412
33	0xbde7f8db	-0.11326762
34	0x3d411c34	0.047146037
35	0x3d685d19	0.05672941
36	0xbc0b9135	-0.008518507
37	0xbe241f36	-0.16027531
38	0xbe2f3d19	-0.1711315
39	0xbd90d88d	-0.07072554
40	0xbd4aed75	-0.049542863
41	0x3dd9ed43	0.10640957
42	0xbd5f3bd2	-0.05450041
43	0x3d81ecee	0.06344019
44	0x3e4212f4	0.18952543
45	0xbba5c37c	-0.005058704
46	0x3da2647e	0.079293236
47	0xbde7ae1c	-0.113125056
48	0x3daaa35d	0.0833194
49	0xbd1a45d6	-0.037664257
50	0x3dac47f3	0.08412161
51	0x3dabe990	0.08394158
52	0x3e4108ac	0.18850964
53	0xbd9928d1	-0.07478488
54	0xbddf7b58	-0.10912198
55	0xbd9aa07f	-0.075501435
56	0xbc1efd45	-0.009703939
57	0xbe081f96	-0.13293299
58	0x3dd48d1c	0.10378477
59	0x3bb0ab20	0.0053914934
60	0x3c8023ea	0.015642125
61	0xbe08c228	-0.13355315
62	0xbcc2b62a	-0.023768503
63	0xbd578115	-0.052613337
64	0x3d471e6f	0.048613008
65	0xbdf064f1	-0.11738003
66	0x3d799167	0.060929682
67	0xbd8db8a2	-0.069199815
68	0xbde8c580	-0.11365795
69	0x3d8e0eed	0.069364406
70	0xbc9f9d64	-0.01948423
71	0xbdad5f27	-0.084654145
72	0x3d6bcd08	0.05756858
73	0x3cb8257a	0.022478808
74	0x3da8dd28	0.08245307
75	0xbd863a51	-0.06554092
76	0xbb241896	-0.0025039068
77	0x3dd5f616	0.10447328
78	0x3dff1a78	0.124562204
79	0xbd2e8c0e	-0.042614035
80	0x3e01d47b	0.12678711
81	0x3c773884	0.015089158
82	0x3d85b9ab	0.06529554
83	0x3c590b38	0.013247304
84	0xbd450453	-0.048099827
85	0xbc203a15	-0.009779473
86	0xbddbaa22	-0.1072581
87	0xbd91ddbb	-0.0712237
88	0xbd3e4a04	-0.046457306
89	0xbdd56f89	-0.10421664
90	0x3cf4f3c7	0.029901398
91	0xbd17720d	-0.036974
92	0x3d19dcd1	0.037564103
93	0x3d8bc401	0.06824494
94	0x3ddb86e7	0.1071909
95	0x3de1b49c	0.11020777
96	0xbd9b8656	-0.07593982
97	0x3d8145aa	0.063121155
98	0xbc06b59f	-0.008222013
99	0x3da1be74	0.07897654
100	0xbd7bb4d0	-0.061451733
101	0x3d6ca002	0.057769783
102	0xbcfb5592	-0.030680452
103	0x3da0e5f9	0.07856364
104	0xbc6109c8	-0.013735242
105	0x3dc142e8	0.094365895
106	0xbd9cad78	-0.07650274
107	0x3db4bce6	0.08825092
108	0xbd04211f	-0.03225815
109	0xbcbc4f07	-0.022986902
110	0x3d497863	0.049187075
111	0xbd119fe1	-0.035552863
112	0x3df4fa50	0.11961806
113	0xbd6401cc	-0.055665776
114	0x3d62f590	0.055409968
115	0x3e04f7a5	0.12985094
116	0xbe01e261	-0.12684013
117	0xbcfc02c6	-0.030763041
118	0xbdbd5836	-0.092453405
119	0x3d016265	0.031587977
120	0xbd8cab4d	-0.068686105
121	0x3deadaa8	0.114674866
122	0xbd8f5fe6	-0.07000713
123	0xbdc6af16	-0.09701364
124	0x3bc303f3	0.0059513985
125	0x3d469992	0.0484863
126	0xbc10ba2a	-0.0088334475
127	0xbc8eb967	-0.017422391
128	0xbce69db4	-0.02815137
129	0xbdcbdc20	-0.09954095
130	0xbe254930	-0.161412
131	0xbd9dadfc	-0.076992005
132	0x3dc8624b	0.09784373
133	0xbd0d83eb	-0.034549635
134	0x3e8f5448	0.2799399
135	0x3dee078e	0.11622535
136	0x3c592fa3	0.013255986
137	0xbe215b40	-0.15757465
138	0xbe3ee7fb	-0.18643181
139	0x3da87677	0.082257204
140	0xbe09a049	-0.1344005
141	0x3d6f75dc	0.05846201
142	0xbe5c8fbf	-0.2153921
143	0xbd953e90	-0.072873235
144	0xbc8b5881	-0.017009975
145	0x3df4a4cd	0.11945496
146	0x3eb9f784	0.36321652
147	0xbe65213e	-0.22375962
148	0xbe3517d5	-0.17684872
149	0x3d04fe53	0.032469105
150	0xbd665a39	-0.056238387
151	0xbdc015ab	-0.09379133
152	0xbd0e7e81	-0.034788612
153	0xbc22d206	-0.009937769
154	0x3cc45c64	0.023969837
155	0xbd0aa9ea	-0.03385345
156	0x3e1713fa	0.14753714
157	0x3e25a3ad	0.16175719
158	0x3e3e9bf9	0.18614186
159	0x3e33c380	0.17555046
160	0x3e14b942	0.14523795
161	0x3c304594	0.010758776
162	0xbe1abd3d	-0.15111251
163	0xbdef6389	-0.11688907
164	0x3ea63c9d	0.3246812
165	0xbeb1372c	-0.34612405
166	0x3dcee5a5	0.10102395
167	0xbddffb9e	-0.10936664
168	0xbdd5a776	-0.10432331
169	0xbe37914c	-0.1792652
170	0xbe4c74de	-0.19966456
171	0x3e08638a	0.13319221
172	0x3e8dc852	0.27691895
173	0x3da0ec60	0.07857585
174	0x3d8f5d5a	0.07000227
175	0x3bf12f2e	0.0073603606
176	0x3d1c98ea	0.038231768
177	0xbdfd3374	-0.123633295
178	0x3e18f4f3	0.1493719
179	0xbd6f9d7d	-0.058499802
180	0x3e86d8e9	0.26337364
181	0x3d0541ff	0.032533642
182	0xbe218166	-0.15772018
183	0x3c910e04	0.017706878
184	0x3d978597	0.07398527
185	0x3d5695d7	0.052388992
186	0x3dfc0dd2	0.123073235
187	0x3dae8658	0.08521718
188	0x3d9ee3d0	0.077582955
189	0x3dfead7c	0.12435433
190	0xbd9800ea	-0.07422049
191	0x3bfc67b4	0.007702792
192	0x3e3732ea	0.17890516
193	0xbdd1ca93	-0.10243716
194	0xbda6aecd	-0.08138809
195	0x3e2eefee	0.17083713
196	0xbbf3bfd4	-0.007438639
197	0xbbfdc288	-0.007744137
198	0xbd909bad	-0.07060943
199	0xbd97dc89	-0.074151106
200	0xbe1cd644	-0.15316111
201	0x3d98c990	0.0746032
202	0xbd2fa2e9	-0.042879973
203	0x3da50db6	0.08059256
204	0xbdd5dc11	-0.10442365
205	0xbe4d6b1a	-0.20060387
206	0x3cb42e5a	0.021994758
207	0xbd619c97	-0.055080976
208	0xbd31e99d	-0.04343568
209	0x3e035d91	0.12828662
210	0x3c8117b5	0.015758375
211	0xbdf1a9cb	-0.117999636
212	0xbdac584e	-0.0841528
213	0xbd22f312	-0.03978259
214	0x3ce51ed1	0.027968796
215	0x38f1db4b	0.00011532622
216	0x3c74f718	0.01495149
217	0x3da9bcad	0.0828794
218	0xbd6f404a	-0.05841092
219	0xbda85fa0	-0.08221364
220	0x3dadb344	0.08481458
221	0xbd4c53f0	-0.049884737
222	0x3de289d5	0.110614456
223	0xbc98b072	-0.018638823
224	0xbc15a5ab	-0.009133737
225	0xbd925ddf	-0.07146811
226	0x3d5ed9ce	0.054406933
227	0x3e1f1b7b	0.15537827
228	0xbe1d6590	-0.15370774
229	0x3a3a8b13	0.00071160606
230	0x3e174927	0.14773999
231	0xbda89e31	-0.082332976
232	0xbe32fba9	-0.17478813
233	0x3d29ca3e	0.04145264
234	0xbd14fcd9	-0.036373947
235	0xbd7c0fbb	-0.06153844
236	0xbda829c7	-0.082110934
237	0x3dbe67d0	0.092971444
238	0xbde22096	-0.110413715
239	0xbe357d6b	-0.17723624
240	0x3d731188	0.05934289
241	0xbe2f09aa	-0.1709353
242	0xbe0e3c1a	-0.13890114
243	0x3d9afec8	0.07568127
244	0x3e5795d8	0.21053255
245	0x3d372195	0.04470976
246	0xbc389463	-0.011265847
247	0xbdc02d06	-0.093835875
248	0x3d93078b	0.07179173
249	0xbadaac56	-0.001668344
250	0xbcb48d09	-0.022039907
251	0xbbf188cb	-0.0073710433
252	0x3e0029e6	0.12515983
253	0x3db6172e	0.0889114
254	0xbdb12902	-0.086504
255	0xbd7e7c82	-0.06213046

actor.2.bias f4 [64]
0	0xbb26da6b	-0.0025459777
1	0xbdb59770	-0.08866775
2	0xbe02625a	-0.1273283
3	0x3e060137	0.13086401
4	0x3c570285	0.013123159
5	0xbcf135cd	-0.0294446
6	0x3dd1d2ea	0.10245307
7	0x3c9d8c9c	0.019232087
8	0x3dd564ea	0.104196385
9	0xbe57d0a9	-0.21075691
10	0x3c21300c	0.009838115
11	0x3b9d3f12	0.0047987783
12	0x3d81127c	0.06302354
13	0x3d988b23	0.07448413
14	0xbd709140	-0.05873227
15	0x3d4dddb2	0.050260253
16	0xbdb81743	-0.08988812
17	0xbdb8e5f5	-0.09028236
18	0xbd746a84	-0.059671894
19	0xbcc6a775	-0.024249772
20	0xbdad0508	-0.08448225
21	0x3d3390ae	0.04383915
22	0xbdc56518	-0.09638423
23	0x3d9f06e2	0.07764985
24	0x3ddb5fc3	0.107116245
25	0x3d851379	0.06497855
26	0xbe0ba29b	-0.13636248
27	0xbcddd8ac	-0.027080856
28	0x3dd8452f	0.10560071
29	0x3d32d6b6	0.043661796
30	0xbd481a94	-0.048853472
31	0x3dede8ce	0.116166696
32	0x3c7a2f9c	0.01527014
33	0x3de7c43c	0.113167256
34	0xbc506550	-0.012719467
35	0xbdb7097f	-0.08937358
36	0xbd20e9a3	-0.039285313
37	0x3d6844a7	0.056706097
38	0xbdbaf19b	-0.09128114
39	0x3d1a418a	0.03766016
40	0xbcf0ac57	-0.029379053
41	0xbd67e071	-0.05661053
42	0xbd3fcea8	-0.046827942
43	0xbd855d5a	-0.06511946
44	0x3d6f6c7b	0.058453064
45	0x3df17b06	0.11791043
46	0x3bb4bd46	0.005515727
47	0xbdb1b56d	-0.08677182
48	0x3e0a38fe	0.13498303
49	0x3ca4e500	0.020128727
50	0xbd97ccb3	-0.0741209
51	0x3de79817	0.11308306
52	0xbd092ffe	-0.033493035
53	0x3d05d107	0.032670047
54	0x3d951655	0.0727965
55	0xbd94b0b0	-0.07260263
56	0xbb8efe3a	-0.0043638023
57	0xbdaa7376	-0.08322804
58	0xbc4be224	-0.012444053
59	0x3bea26fe	0.0071457615
60	0x3d282dfe	0.041059487
61	0xbc82fc1c	-0.015989356
62	0x3ce44ba1	0.027868094
63	0xbd498700	-0.04920101

actor.4.weight f4 [1, 64]
0	0x3deb1bfc	0.11479947
1	0xbca7716a	-0.020439822
2	0x3e37ae02	0.17937472
3	0xbe025c26	-0.12730464
4	0x3e32d8c6	0.17465505
5	0x3ddc2650	0.10749495
6	0x3e00846e	0.12550518
7	0x3d9fbef7	0.078000955
8	0xbddd8b7c	-0.1081762
9	0x3e23b88a	0.15988365
10	0x3deaa5e8	0.11457425
11	0x3db8ce56	0.090237305
12	0x3e174eec	0.147762
13	0x3d69799c	0.05700074
14	0xbe18c12f	-0.14917444
15	0xbde2fee3	-0.11083772
16	0x3e366eb8	0.17815673
17	0x3d663ba6	0.05620923
18	0x3e1d6b3f	0.15372942
19	0xbdc0e42b	-0.094185196
20	0x3e5a9fb7	0.21349989
21	0x3e0bc401	0.13648988
22	0x3db5b5b2	0.08872546
23	0xbde3b910	-0.11119282
24	0xbe158377	-0.14600931
25	0xbe210e00	-0.15727997
26	0x3e0f3a0c	0.13986987
27	0xbd36fc72	-0.044674344
28	0xbd9a1371	-0.075232394
29	0xbd5aa54b	-0.053380292
30	0x3de10474	0.109871775
31	0xbe252f92	-0.16131428
32	0x3d0fa70b	0.035071414
33	0x3d8d586a	0.06901629
34	0x3bef4f70	0.007303171
35	0xbe2a788f	-0.16647552
36	0xbd8aec5b	-0.067833625
37	0xbc799aa8	-0.015234627
38	0xbe0fe9af	-0.14053987
39	0xbe0452db	-0.12922232
40	0xbd03b4d7	-0.032154884
41	0xbca92ad0	-0.020650297
42	0xbe228e36	-0.15874562
43	0xbe0504e2	-0.12990144
44	0x3d873eea	0.06603797
45	0xbdf9f1a6	-0.12204294
46	0x3d6dde32	0.05807323
47	0x3da51714	0.080610424
48	0xbd931e12	-0.0718347
49	0x3e1b81bc	0.15186208
50	0xbdb71779	-0.08940024
51	0x3dfd2629	0.12360794
52	0xbe0dd6c2	-0.13851455
53	0x3dd26caf	0.10274636
54	0xbe5f0d19	-0.2178234
55	0xbd5052e9	-0.05086032
56	0x3ddab7ac	0.10679564
57	0xbdf52ab7	-0.11971038
58	0xbd9ab238	-0.07553524
59	0xbde2f37d	-0.11081598
60	0x3de8ae01	0.113613136
61	0x3dd0cabc	0.101949185
62	0xbda7c096	-0.0819103
63	0x3e18e100	0.1492958

critic.0.weight f4 [64, 5]
0	0x3e973b42	0.29537398
1	0xbf338d9f	-0.7013797
2	0xbd8d00b9	-0.068849035
3	0x3ed68d99	0.41904905
4	0xbe8001f5	-0.25001493
5	0xbe3f3cf7	-0.186756
6	0x3e121101	0.14264299
7	0xbef7cfc1	-0.4840069
8	0xbec4e4c3	-0.3845578
9	0x3e96cb32	0.294519
10	0xbeeab49e	-0.45840925
11	0xbf25a8f2	-0.64710915
12	0x3ed0ea14	0.40803587
13	0x3da69ef8	0.0813579
14	0xbd9542a4	-0.07288101
15	0xbe89f0f6	-0.2694165
16	0xbfa8879f	-1.3166388
17	0xbf7dc3fc	-0.99127173
18	0xbe814189	-0.25245312
19	0xbea70e6b	-0.32628188
20	0xbe623d7e	-0.2209377
21	0x3ec68074	0.38769877
22	0xbfa37bf0	-1.2772198
23	0xbcdbbfaf	-0.0268248
24	0xbeb064ee	-0.34452003
25	0xbf5da371	-0.86577517
26	0xbec7cf62	-0.39025408
27	0xb9b9afab	-0.00035416833
28	0xbd874bf7	-0.06606286
29	0xbd7f5023	-0.062332284
30	0xbea59b92	-0.32345253
31	0xbe1137cd	-0.14181443
32	0x3f8c5309	1.096284
33	0xbea532be	-0.32265276
34	0xbde87c61	-0.113518484
35	0xbf25c7cf	-0.6475801
36	0x3dedf864	0.116196424
37	0xbe752091	-0.23938204
38	0xbe9ffa3e	-0.31245607
39	0xbe4d2c76	-0.20036492
40	0xbe87b56e	-0.26505607
41	0x3f1d9ed5	0.61570483
42	0xbed8dee9	-0.42357567
43	0xbd8347b0	-0.06410158
44	0xbe8f2e01	-0.27964786
45	0xbf469760	-0.7757473
46	0x3e7483d7	0.23878418
47	0x3effd7b9	0.4996927
48	0xbcfb7bd1	-0.030698689
49	0x3d7cad46	0.061688684
50	0x3f454ff8	0.7707515
51	0xbef0aff6	-0.47009248
52	0x3e15a1ce	0.14612505
53	0xbdf671ad	-0.12033401
54	0x3d3a1763	0.04543246
55	0x3e55dacf	0.2088425
56	0xbec54586	-0.38529605
57	0x3fc3436d	1.5254952
58	0x3e1480e0	0.14502287
59	0x3ec5df9e	0.3864717
60	0x3ddf3453	0.10898652
61	0xbdf31213	-0.11868682
62	0xbfa12a20	-1.259098
63	0x3beb26a7	0.0071762386
64	0xbe83b3c0	-0.25723076
65	0x3edc80cb	0.4306701
66	0xbe455ccd	-0.19273682
67	0x3ed1d680	0.40983963
68	0x3e8a3cd6	0.2699954
69	0x3e590cbe	0.21196267
70	0x3eea06f8	0.45708442
71	0xbf40b646	-0.7527813
72	0xbf51a4fc	-0.8189237
73	0xbd777158	-0.060410827
74	0xbe59b236	-0.21259388
75	0xbee47173	-0.44617805
76	0xbe9fffcc	-0.31249845
77	0x3f01a36d	0.5063999
78	0xbea905f2	-0.33012348
79	0xbe72b4a8	-0.23701727
80	0x3e835286	0.25648898
81	0x3f12f6cd	0.5740784
82	0x3f385686	0.72007024
83	0x3e5c1140	0.21490955
84	0x3eb3bcf7	0.35105106
85	0xbf813d3c	-1.0096812
86	0xbf036755	-0.5132955
87	0x3f80bdc6	1.0057914
88	0x3e397f32	0.18114927
89	0x3d626883	0.05527545
90	0xbe2a1a4a	-0.16611591
91	0xbf4cbe7c	-0.79978156
92	0xbeb5a498	-0.35477138
93	0xbeb4b1c2	-0.35291868
94	0xbe2d2961	-0.16910316
95	0x3f1ea2f4	0.61967397
96	0xbdda9d42	-0.10674526
97	0x3ef93bb1	0.48678353
98	0x3f30504e	0.68872535
99	0xbd7cbcb1	-0.061703388
100	0xbeea9674	-0.45817912
101	0xbd8ff39e	-0.07028888
102	0xbe828f0c	-0.2549976
103	0xbda1d651	-0.07902206
104	0x3d88aac3	0.06673195
105	0x3ead5e50	0.33861017
106	0xbf113d01	-0.5673371
107	0x3e6a7913	0.22897749
108	0x3d42bf77	0.047545876
109	0xbc2969df	-0.010340183
110	0x3e3e3a5b	0.18576948
111	0x3f046ad7	0.51725525
112	0x3f4e1e69	0.8051515
113	0xbf31b6f1	-0.6941977
114	0xbec19823	-0.37811384
115	0xbe4a38ca	-0.19748226
116	0xbf40eb72	-0.7535926
117	0xbec83c07	-0.39108297
118	0xbead35d9	-0.33830145
119	0xbb8b751a	-0.004255903
120	0x3f2f4e90	0.6847925
121	0xbf0b29a0	-0.5436039
122	0x3f1ff248	0.62479067
123	0x3e19c329	0.15015854
124	0x3e665a7c	0.22495455
125	0x3f0429a5	0.51626045
126	0x3eeb133f	0.4591312
127	0x3edb7ca1	0.42868522
128	0x3e87e7e8	0.26544118
129	0x3e7b3042	0.24530128
130	0x3e83ed61	0.25767043
131	0x3f1c0e25	0.6095908
132	0xbe45d4f6	-0.1931952
133	0x3ee89bf3	0.4543148
134	0xbec1d3e0	-0.3785696
135	0x3ee3997c	0.44453037
136	0x3f24d286	0.64383733
137	0xbead37b4	-0.3383156
138	0x3e662f92	0.22479084
139	0xbe5d7da8	-0.21629965
140	0xbf08f4f8	-0.5349879
141	0x3d8fc5fd	0.07020185
142	0xbea19f6c	-0.31566942
143	0xbeebcb33	-0.46053466
144	0xbbe8a5f6	-0.007099862
145	0xbf4832f8	-0.7820277
146	0x3eb0499b	0.34431157
147	0xbed34d58	-0.41269946
148	0x3ece9713	0.40349635
149	0xbe23a4d3	-0.15980844
150	0xbeaf442f	-0.34231707
151	0x3ebdb371	0.37050965
152	0xbf602d1c	-0.8756883
153	0xbdb0fe3a	-0.0864224
154	0xbe926566	-0.28592986
155	0x3e89906e	0.26868004
156	0x3f2f6b2a	0.68522894
157	0x3f1bdfde	0.6088847
158	0x3e60c5d3	0.21950464
159	0x3e808ea2	0.2510882
160	0xbe43bd8a	-0.19115272
161	0xbebf9b23	-0.37423047
162	0xbf386a33	-0.7203705
163	0x3c8a751b	0.016901543
164	0x3ea2fb33	0.31832275
165	0x3d59048a	0.052982844
166	0x3e859729	0.2609189
167	0xbf836aeb	-1.0267004
168	0x3ea62a82	0.32454306
169	0xbd89a5c9	-0.06721074
170	0xbf1e237e	-0.61772907
171	0x3eed318a	0.46326858
172	0x3d463801	0.048393253
173	0xbef6953f	-0.4816074
174	0xbbd489d9	-0.0064861593
175	0x3f1476bc	0.57993674
176	0x3f4d1398	0.8010802
177	0x3eff152e	0.49820846
178	0xbd8bb9b7	-0.06822532
179	0x3eac8419	0.33694533
180	0x3e2c704c	0.16839713
181	0x3d7c299f	0.06156313
182	0xbeb35bb7	-0.3503091
183	0xbf286249	-0.6577497
184	0x3ed72cd4	0.4202639
185	0x3f8fd239	1.123603
186	0xbea564f3	-0.3230358
187	0xbf00526a	-0.50125754
188	0x39c9186a	0.00038355897
189	0x3d8dcf44	0.069242984
190	0xbf6408b0	-0.89075756
191	0x3f067912	0.5252849
192	0xbd14c23f	-0.03631806
193	0xbecb0f4a	-0.39660102
194	0x3d0dc0a4	0.034607545
195	0x3f3f9279	0.74832875
196	0x3da874ea	0.082254246
197	0xbf2b9f18	-0.6703963
198	0xbe0489e1	-0.12943222
199	0xbceb5504	-0.028727062
200	0xbe5602a3	-0.20899443
201	0xbf5540cd	-0.83302003
202	0xbf3e4707	-0.7432713
203	0xbe88c90c	-0.26715887
204	0xbe57b366	-0.21064529
205	0x3e8cd333	0.27504882
206	0x3e46e1be	0.19422051
207	0x3fa42e5f	1.2826651
208	0x3e61d044	0.22052103
209	0x3eb32f2a	0.3499692
210	0x3ea52cb4	0.32260668
211	0x3f02f597	0.5115599
212	0x3f7c8db1	0.98653704
213	0x3dc0fd38	0.09423298
214	0x3e9321f8	0.28736854
215	0xbe65f6c0	-0.22457409
216	0xbee6a747	-0.45049497
217	0x3f1234a3	0.5711157
218	0xbf91d53b	-1.1393198
219	0xbe338e3b	-0.17534725
220	0xbe603f82	-0.21899226
221	0xbf1de86a	-0.6168276
222	0xbf950621	-1.1642495
223	0xbe60de07	-0.21959697
224	0xbea475a9	-0.32121018
225	0xbd44f053	-0.048080754
226	0xbf4eb665	-0.8074706
227	0xbf20a135	-0.6274598
228	0xbdcff6f4	-0.101545244
229	0xbe5b5e68	-0.21422732
230	0xbe40146e	-0.18757793
231	0x3edc3518	0.43009257
232	0x3f734dee	0.95040786
233	0xbe34e3d0	-0.17665029
234	0x3e65553b	0.22395794
235	0xbedb4fb9	-0.4283426
236	0xbdc2ed52	-0.095179215
237	0xbee6d478	-0.45083976
238	0xbf3fb974	-0.74892354
239	0x3e811187	0.25208685
240	0xbf6627aa	-0.8990427
241	0xbd01fbf0	-0.031734407
242	0xbecedb8d	-0.4040188
243	0x3e427626	0.18990383
244	0x3d5a4258	0.053285927
245	0xbea24c83	-0.31699
246	0x3d966403	0.073432945
247	0xbefb0252	-0.49025208
248	0xbe922077	-0.28540394
249	0x3ec83fa6	0.3911106
250	0xbf054871	-0.5206366
251	0x3eb10d79	0.3458059
252	0xbf12c903	-0.5733797
253	0xbf02a0d3	-0.5102665
254	0x3c69b5c0	0.014264524
255	0x3d1fa3ed	0.03897469

critic.0.bias f4 [64]
0	0x3edef577	0.4354665
1	0xbee4dd88	-0.44700265
2	0xbe19dc11	-0.15025355
3	0x3f3da5d6	0.7408117
4	0x3dfff45c	0.1249778
5	0x3f064408	0.5244756
6	0x3f10cabb	0.5655934
7	0x3f172ead	0.59055597
8	0xbea2c139	-0.31788042
9	0xbe78677d	-0.24258228
10	0x3d128bf4	0.035778
11	0xbd86b9ae	-0.06578384
12	0xbee01baa	-0.43771106
13	0xbed6d425	-0.41958728
14	0x3f0994ec	0.5374286
15	0x3ee46667	0.44609377
16	0x3d8c42c1	0.0684867
17	0xbd431d1d	-0.047635186
18	0x3eda7fc8	0.42675614
19	0x3f42991f	0.76014894
20	0xbeec343b	-0.461336
21	0xbe25319a	-0.16132203
22	0xbddf8e64	-0.10915831
23	0xbe885fba	-0.26635534
24	0xbdf63a7c	-0.12022874
25	0xbe9f1cc3	-0.3107663
26	0xbf562319	-0.83647305
27	0xbf078e94	-0.5295193
28	0xbf014528	-0.5049615
29	0xbea671f4	-0.32508814
30	0xbedc853a	-0.43070394
31	0xbe1cdb29	-0.15317978
32	0x3e2a70fb	0.16644661
33	0x3f35a4da	0.7095467
34	0xbf354ca5	-0.70820075
35	0xbf4ae146	-0.7924999
36	0xbe944182	-0.28956228
37	0xbe8cf3c2	-0.27529722
38	0xbf4fb9b9	-0.81142765
39	0xbd81c7ed	-0.06336961
40	0x3eedd83a	0.4645403
41	0xbde1689d	-0.110062815
42	0xbe7a2bda	-0.2443079
43	0xbef2d7e0	-0.47430325
44	0x3eb0cabf	0.34529683
45	0x3edff795	0.43743578
46	0x3e3c3ec0	0.18383312
47	0xbecc16b9	-0.39861086
48	0x3dd65a3e	0.10466431
49	0x3d165886	0.036705516
50	0x3eb98aaa	0.36238605
51	0xbc7bf43f	-0.015378057
52	0x3f186e8e	0.59543693
53	0x3f0dc607	0.5538029
54	0x3d2d64e0	0.04233253
55	0xbee18e25	-0.4405376
56	0x3ef1ba4b	0.47212443
57	0xbf292ebb	-0.6608693
58	0xbdb48b44	-0.08815625
59	0x3ecbe685	0.3982431
60	0x3eefaf28	0.4681332
61	0x3e8498ae	0.25897735
62	0xbea10f28	-0.31456876
63	0xbf26aa90	-0.6510401

critic.2.weight f4 [64, 64]
0	0xbe46a22c	-0.19397801
1	0xbc728392	-0.014801877
2	0xbe00b87c	-0.12570375
3	0x3cb75794	0.022380628
4	0x3e82c250	0.25538874
5	0xbe4ea35d	-0.20179506
6	0xbed5736d	-0.41689625
7	0xbcd44e49	-0.025916236
8	0x3da62681	0.08112813
9	0x3c0ce036	0.008598378
10	0xbc480160	-0.012207359
11	0xbe58e0de	-0.2117953
12	0xbce594b5	-0.02802501
13	0xbd84eae6	-0.06490116
14	0x3d453b19	0.048152063
15	0xbe7d2a8c	-0.24723262
16	0x3e8fdf90	0.28100252
17	0xbdc39653	-0.095501564
18	0xbd2a75d7	-0.041616287
19	0xbe003dcc	-0.12523574
20	0xbb1ec8b5	-0.0024228517
21	0x3e00dffe	0.12585446
22	0xbe207288	-0.1566869
23	0x3dfa47da	0.12220736
24	0x3c9ef5f7	0.019404395
25	0x3e765b71	0.2405832
26	0x3e9fa85b	0.31183133
27	0x3e67bfd6	0.22631773
28	0xbdcbc6a8	-0.0995
29	0x3e0eb997	0.13937984
30	0x3dff01d6	0.12451522
31	0x3da3c497	0.07996481
32	0x3e313a4f	0.17307399
33	0xbd9b6616	-0.07587831
34	0xbe1cd0b4	-0.15313989
35	0xbd2d5d5b	-0.04232536
36	0xbc0e9ea1	-0.008704812
37	0x3e5da02d	0.21643133
38	0xbe564cc3	-0.2092772
39	0x3e607c76	0.21922478
40	0x3de8b13b	0.11361929
41	0xbdc12ac4	-0.09431985
42	0x3cd0dc52	0.025495682
43	0x3e05fa65	0.13083799
44	0x3dad4085	0.08459572
45	0x3d2f91c9	0.04286364
46	0x3d5a7b5c	0.0533403
47	0x3aa73372	0.0012756421
48	0xbe53fb9d	-0.20701452
49	0x3ce4f898	0.02795057
50	0xbd2dfea1	-0.04247916
51	0xbd4b2da5	-0.049604077
52	0xbdec167f	-0.11527728
53	0xbdcbabf5	-0.099449076
54	0x3e0ba156	0.13635764
55	0x3dcbcf38	0.09951633
56	0xbe1cc759	-0.1531042
57	0x3de2398a	0.11046131
58	0x3d884cc7	0.06655269
59	0xbda76384	-0.08173278
60	0xbe7aedd7	-0.24504791
61	0x3e8769f3	0.2644802
62	0x3e7cc35f	0.24683903
63	0x3ea4ece0	0.3221197
64	0x3dd3bfa8	0.1033929
65	0x3dcaa0fc	0.098939866
66	0xbe39f1a6	-0.18158588
67	0x3e0fa779	0.1402873
68	0x3d2083e6	0.03918829
69	0xbe83e927	-0.2576382
70	0xbcff2333	-0.031144714
71	0xbeab48b8	-0.33453918
72	0xbd8fb411	-0.07016767
73	0xbe540e7f	-0.20708655
74	0x3eac5b88	0.33663583
75	0xbd96bbcc	-0.07360038
76	0x3ea588cd	0.32330933
77	0x3e671d3a	0.22569743
78	0x3dd00ec5	0.10159067
79	0xbe03938c	-0.12849253
80	0xbe35fc61	-0.17772056
81	0xbe3bc39c	-0.18336338
82	0x3d4ced35	0.050030906
83	0xbe83ce1e	-0.25743192
84	0x3de2958c	0.1106368
85	0xbb76ce59	-0.0037659614
86	0xbd4dcdc8	-0.050245076
87	0x3dbb6356	0.09149806
88	0x3e62edfc	0.22161096
89	0x3d980b0d	0.07423983
90	0xbe4f8dbb	-0.2026891
91	0x3caf47dc	0.02139657
92	0x3e075482	0.13215831
93	0xbe2e9fce	-0.17053148
94	0xbd645539	-0.055745337
95	0xbe6299d6	-0.22128996
96	0x3daf0e11	0.08547605
97	0x3dae9315	0.085241474
98	0x3e4951a2	0.19660047
99	0x3ecace8e	0.39610714
100	0xbb67abf5	-0.0035350297
101	0x3e8e1a20	0.27754307
102	0xbcbc9e53	-0.023024714
103	0x3e953e6d	0.2914919
104	0x3c6b2071	0.014350996
105	0xbe148d96	-0.14507136
106	0x3c6d84d7	0.0144970035
107	0x3e09bb3c	0.1345033
108	0x3d961c77	0.07329648
109	0x3e4ca06c	0.19983071
110	0xbe84eb89	-0.2596095
111	0x3c89256d	0.016741479
112	0xbcaf83ce	-0.021425154
113	0x3dbc040c	0.091804594
114	0xbe9b30b3	-0.30310592
115	0x3df36da7	0.11886149
116	0xbe5bdf96	-0.2147201
117	0xbe9f7b55	-0.31148782
118	0x3d9687a3	0.073500894
119	0x3dae316d	0.08505521
120	0x3df84037	0.12121623
121	0xbd56f8ab	-0.052483242
122	0x3bb21f95	0.005435894
123	0xbd9ab9ae	-0.07554947
124	0xbe664166	-0.22485885
125	0x3d915883	0.070969604
126	0x3dcb18ad	0.09916816
127	0x3cbedc31	0.023298355
128	0x3d9cfaf1	0.07665051
129	0x3e186342	0.14881614
130	0x3e8c5fc3	0.2741681
131	0xbde0630e	-0.10956393
132	0x3e8c981a	0.27459794
133	0x3e8bb78a	0.27288467
134	0xbe3adca7	-0.18248235
135	0x3d428e75	0.04749914
136	0x3dc011c6	0.0937839
137	0x3ed6cc46	0.41952723
138	0xbed27e1e	-0.41111845
139	0xbe5927f9	-0.21206655
140	0xbda87518	-0.08225459
141	0xbd82092a	-0.06349404
142	0xbc95a376	-0.01826642
143	0x3d1802e4	0.03711213
144	0xbbd8ca35	-0.006615902
145	0x3e4d168d	0.20028134
146	0xbc4d66dc	-0.012536731
147	0xbdd3cc8a	-0.10341747
148	0x3e1180fe	0.14209363
149	0xbd7d968c	-0.06191115
150	0xbe1ce6fa	-0.15322486
151	0x3e6f8d9a	0.2339386
152	0xbeb0888a	-0.3447917
153	0xbdfadcf4	-0.12249175
154	0x3e01433f	0.12623309
155	0xbde239db	-0.11046191
156	0x3ecc96cb	0.39958796
157	0x3dff2a2e	0.12459217
158	0x3e8e7925	0.278268
159	0x38fc30b6	0.000120253695
160	0x3cdddab5	0.027081827
161	0xbe87f193	-0.26551494
162	0x3e72957a	0.23689833
163	0xbe9aca37	-0.30232403
164	0xbe0d129b	-0.13776629
165	0xbf048108	-0.51759386
166	0x3ee8e1ca	0.45484763
167	0xbeae95d9	-0.340987
168	0x3c504ef4	0.012714136
169	0xbc0c088c	-0.00854696
170	0xbdcbee99	-0.09957618
171	0x3e5457ad	0.2073657
172	0x3e13a6ca	0.14419094
173	0xbdf8f214	-0.12155548
174	0x3d694119	0.056946848
175	0x3cf93c94	0.030424394
176	0x3ec10f22	0.37706858
177	0xbd7be778	-0.061500043
178	0x3e8499cd	0.2589859
179	0x3df95317	0.12174051
180	0xbc0cd45e	-0.008595554
181	0x3f03eb61	0.51531035
182	0x3e801171	0.25013307
183	0xbdbd6676	-0.092480585
184	0xbe50b5ee	-0.203819
185	0xbc19e803	-0.009393695
186	0x3e31b745	0.17355068
187	0xbe673016	-0.22576937
188	0xbe7ca9fe	-0.24674222
189	0x3ddd29d7	0.10798996
190	0xbd202c4e	-0.039104752
191	0x3eb8dc0e	0.36105388
192	0xbe01f202	-0.12689975
193	0x3d9bd71f	0.076093905
194	0xbee6726d	-0.45009175
195	0xbe54a740	-0.20766926
196	0xbdc45576	-0.09586613
197	0xbdde1380	-0.10843563
198	0xbe94f1e2	-0.29090792
199	0xbd4ed47b	-0.050495606
200	0xbdf144c5	-0.11780695
201	0xbd84fcaa	-0.06493504
202	0x3e023541	0.12715627
203	0x3ca39c4e	0.019971993
204	0xbe55950b	-0.20857637
205	0x3d1c6db8	0.038190573
206	0xbe59bbe9	-0.21263088
207	0xbdd831c2	-0.105563655
208	0x3e3ba6b8	0.18325317
209	0xbe8e8a2f	-0.278398
210	0xbe505d90	-0.20348191
211	0x3ed10fd4	0.40832388
212	0xbbaf0568	-0.0053412206
213	0xbd7ab3f9	-0.06120679
214	0x3e1b4bca	0.1516563
215	0xbe5b25df	-0.21401165
216	0x3dc9e2b4	0.09857693
217	0x3e5eafcf	0.21746753
218	0x3deef844	0.11668447
219	0xbdd845ec	-0.105602115
220	0xbebdfc09	-0.3710635
221	0xbea9e581	-0.3318291
222	0xbe5b1b1b	-0.21397059
223	0x3e5fd568	0.21858752
224	0xbba1eaad	-0.0049413056
225	0x3dbb5437	0.09146922
226	0xbecd9196	-0.40150136
227	0xbd3bd346	-0.045855783
228	0x3db8a3a3	0.09015586
229	0x3dcfd5f8	0.10148233
230	0xbec7c7ac	-0.39019525
231	0x3e57d49a	0.21077195
232	0xbe335a21	-0.1751485
233	0x3dee745d	0.11643288
234	0x3e0d7b70	0.13816619
235	0xbdc136aa	-0.094342545
236	0xbe212bd0	-0.1573937
237	0xbdab97b2	-0.08378543
238	0x3e77746b	0.24165504
239	0x3e3845d8	0.17995393
240	0xbed762bc	-0.42067516
241	0x3e9354b8	0.28775573
242	0x3d4b3705	0.049613018
243	0xbc50a15f	-0.012733786
244	0x3d1ff235	0.039049346
245	0xbe7ae560	-0.24501562
246	0xbee56062	-0.44800097
247	0x3ca70e59	0.020392584
248	0x3deecc5c	0.11660072
249	0xbd75a547	-0.059972074
250	0xbea48a29	-0.32136658
251	0x3dce8edc	0.10085842
252	0xbd44d3b9	-0.048053477
253	0xbda563ce	-0.08075677
254	0x3e1eae26	0.1549612
255	0x3dcc4ade	0.09975217

critic.2.bias f4 [64]
0	0xbe91ad88	-0.28452706
1	0x3bab3f14	0.0052260254
2	0xbdd3ad0e	-0.10335742
3	0xbdca0290	-0.0986377
4	0xbe0b8dc9	-0.13628305
5	0xbe5e144f	-0.21687435
6	0x3e528078	0.2055682
7	0x3d13cc8c	0.036083743
8	0x3b2eced5	0.0026673574
9	0x3e0a0603	0.13478856
10	0xbeb02485	-0.34402862
11	0xbf017dad	-0.5058239
12	0x3e1ad5e7	0.1512066
13	0x3ddba4bc	0.1072478
14	0xbe0ab4b4	-0.13545495
15	0xbd8f2a77	-0.069905214
16	0xbc1f9575	-0.009740223
17	0xbe938985	-0.28815857
18	0x3ec1741a	0.3778389
19	0x3eee95bf	0.46598622
20	0xbe274701	-0.1633568
21	0xbbfb7df7	-0.0076749283
22	0xbea1742c	-0.31533945
23	0xbe9a6d4d	-0.30161515
24	0xbca2b037	-0.019859416
25	0xbecd89ab	-0.40144095
26	0xbf00457b	-0.5010602
27	0xbd9db1e8	-0.076999485
28	0x3e85b8d6	0.2611758
29	0x3ef4a8d6	0.47785062
30	0x3e1f754e	0.15572092
31	0xbe23acdd	-0.15983911
32	0xbe491b35	-0.19639285
33	0xbe4d73bb	-0.20063679
34	0xbe003339	-0.1251954
35	0x3e79d7c0	0.24398708
36	0x3e3da482	0.18519786
37	0xbeb310fc	-0.34973896
38	0xbe9b9a2d	-0.30391064
39	0x3dbf72b8	0.09348053
40	0x3da4c25f	0.08044886
41	0x3c865c7c	0.016401522
42	0xbd99e4e1	-0.07514358
43	0xbe52e3d8	-0.20594728
44	0x3d756c20	0.05991757
45	0xbe466ecc	-0.19378203
46	0x3ddd23b1	0.10797823
47	0x3dc57a3a	0.096424535
48	0xbd9fb86d	-0.07798848
49	0xbb39656a	-0.0028289207
50	0xbeaa226f	-0.33229396
51	0xbd1e9285	-0.03871395
52	0x3ec4a3be	0.38406175
53	0x3be83be0	0.007087216
54	0x3e917e8f	0.2841687
55	0xbeaabe65	-0.33348384
56	0xbe641fd3	-0.22277765
57	0xbd89944d	-0.06717739
58	0xbecd5c87	-0.40109655
59	0x3e675d4f	0.22594188
60	0xbe1f88e6	-0.15579566
61	0x3dc84a17	0.097797565
62	0x3cfda3e0	0.03096193
63	0x3e80ffb5	0.2519509

critic.4.weight f4 [1, 64]
0	0x3e3daed8	0.18523729
1	0xbe51d096	-0.20489725
2	0x3e088bc8	0.13334572
3	0x3e0c48d3	0.13699655
4	0xbbbd6c0c	-0.0057807025
5	0x3e48eda7	0.19621907
6	0x3e322ef4	0.17400724
7	0xbe165448	-0.14680588
8	0xbd886e96	-0.066617176
9	0xbdf88771	-0.121352084
10	0xbe40a63b	-0.18813412
11	0x3e4e991e	0.20175597
12	0xbce5dfd8	-0.028060839
13	0xbdbea2a8	-0.09308368
14	0x3e1ae94f	0.15128063
15	0xbd2c2a9b	-0.04203282
16	0xbe9bbd40	-0.30417824
17	0x3e7b372a	0.24532762
18	0xbe48a35c	-0.19593567
19	0xbe8d21c8	-0.27564836
20	0xbdd97b0f	-0.10619175
21	0xbde85e82	-0.11346151
22	0xbea49712	-0.32146508
23	0x3e4ec6c1	0.20193006
24	0xbdc9e944	-0.09858945
25	0x3e7d0c97	0.24711834
26	0x3e095053	0.13409548
27	0x3c5a6613	0.01333
28	0xbe8a3ae5	-0.26998058
29	0xbe461f01	-0.19347765
30	0xbcea5a40	-0.028607488
31	0x3e581a3f	0.21103762
32	0xbe67ada8	-0.22624838
33	0x3dfa3244	0.12216619
34	0xbe251fb6	-0.16125378
35	0x3e74463f	0.23854922
36	0x3e0d581a	0.1380314
37	0x3e8905ad	0.26762143
38	0x3e9101e4	0.28321755
39	0xbd55ff2b	-0.0522453
40	0xbcbdeef9	-0.02318524
41	0xbe137050	-0.14398313
42	0x3d8b4e76	0.068020746
43	0xbe80cdda	-0.25157052
44	0x3e6c7f77	0.23095499
45	0x3d0ee84b	0.0348895
46	0xbe0120ed	-0.12610216
47	0xbdc42948	-0.09578186
48	0x3de2cfba	0.11074777
49	0x3da46db3	0.08028736
50	0x3de71004	0.112823516
51	0x3ce2c68e	0.027682569
52	0xbe853c31	-0.26022485
53	0x3c147866	0.009061908
54	0xbe71d670	-0.23616958
55	0xbec72536	-0.38895577
56	0x3e171ab6	0.14756283
57	0x3cc0497e	0.023472544
58	0x3e9334d1	0.28751233
59	0xbe10bafc	-0.14133829
60	0x3e20d996	0.15708002
61	0xbe273108	-0.16327298
62	0x3dd4edb4	0.10396901
63	0x3e3942b9	0.18091859
