controller/PPO_CartPole-dm_0_200000.pth (torch, 41263 bytes, 10 tensors)

actor.0.weight f4 [64, 5]
0.16502593 -0.3081848 -0.4253269 0.10691009 -0.026430905 0.12621236 0.06069241 0.008483759
0.0032183148 -0.027737837 -0.055399887 0.5934357 0.14550728 0.0965859 0.264483 -0.44738814
-0.26093385 0.6236702 0.014752632 -0.024721032 0.14538477 -0.62435466 -0.52162635 0.21901204
-0.31094494 -0.09124903 0.57964945 0.4197821 0.08202963 0.17597482 0.36240965 0.16421713
-0.58150446 -0.0027654893 0.24500476 -0.5736047 0.07920899 -0.027469926 0.35777232 -0.19273373
-0.024474509 0.32540387 0.24776797 0.4074855 -0.39550155 0.11480907 0.1384867 -0.24290168
-0.15135579 -0.039905056 -0.31604406 -0.47144538 -0.0013484814 -0.16764076 0.06639878 -0.35339278
0.26006716 0.0237785 0.2995781 -0.5715667 -0.16330758 -0.38354465 -0.31090266 -0.46825737
0.055157777 0.04259377 0.34174982 0.007106822 0.2593319 -0.3165409 -0.202877 0.15515895
-0.079006426 0.06592244 -0.49349874 0.2377351 -0.48022237 0.19465204 -0.25996283 -0.1396718
-0.2474393 -0.252451 -0.0010665194 -0.2837711 0.20255168 0.33358178 -0.54744834 -0.3884136
0.27307194 -0.29079947 -0.31281173 -0.6463446 0.49565476 -0.33852217 0.43611598 0.1477727
-0.15370727 0.013397356 -0.44771314 0.16211006 0.23829088 0.19758326 0.43593642 -0.069739476
-0.1113345 -0.017558172 0.6508965 0.45183444 0.09820947 -0.10287722 -0.21833895 -0.21001261
0.17691208 -0.08540484 -0.017635949 -0.32836914 0.02760076 0.47603068 -0.3208593 -0.46461478
0.038657613 -0.22434038 0.33935976 -0.2419427 0.51240134 -0.21617731 -0.1419355 0.5556606
-0.30036694 -0.20589766 0.19383226 -0.004285681 -0.7402549 0.18472621 -0.05029429 -0.05512238
0.453613 0.47132516 -0.21902734 0.16303577 -0.39824516 0.507665 0.07588932 0.41029638
0.24640377 0.42258522 0.108232185 -0.25572613 -0.28491652 -0.0777001 -0.27810985 0.08679828
0.35933048 0.19203253 -0.52750236 0.2477593 -0.3332556 0.6194766 -0.05228569 -0.21679686
-0.2522666 -0.2737275 -0.25610816 -0.36845645 0.27597615 -0.10673885 -0.555466 0.7162316
-0.36380437 0.5071703 0.019711908 -0.10224131 0.3589422 -0.34388354 0.38362348 0.521318
-0.5754178 0.27906707 -0.121490195 -0.057267774 -0.20433173 -0.41191012 -0.14259318 -0.3825881
-0.2663542 -0.031947087 -0.7063529 -0.35816163 0.5707731 -0.064654924 0.31912845 0.0819001
-0.59463227 -0.28135103 -0.41826367 0.1556632 0.16426413 -0.13831748 -0.24930085 -0.28135017
0.3190787 -0.59025145 -0.44381732 -0.43038267 -0.18351728 0.07717351 0.387599 -0.18781234
0.070425905 0.19163707 0.040147062 -0.1341163 -0.29271615 0.18177803 -0.24902496 -0.20329025
0.3486975 -0.15388414 -0.085511856 0.31217062 -0.36547464 0.25450265 -0.5503783 -0.11399977
-0.45344698 -0.3376538 -0.19535159 0.016798502 0.36273515 -0.09845758 -0.17246437 0.41179645
-0.033195008 0.5798931 -0.22980176 0.39339712 0.3961778 0.38719258 0.08887447 -0.36289695
-0.0065845735 -0.34278327 0.15457487 -0.23237936 0.38227165 0.3799478 -0.46217147 0.11889508
0.036018763 -0.121473305 0.52337974 -0.23063277 -0.43991733 -0.41029084 -0.13368186 -0.13269803
00000000: 8ffc 283e 66ca 9dbe 73c4 d9be adf3 da3d
00000010: a085 d8bc d03d 013e 9b98 783d 77ff 0a3c
00000020: 5dea 523b 763a e3bc feea 62bd 67eb 173f
00000030: dcff 143e d4ce c53d 516a 873e 0f10 e5be
00000040: 1f99 85be daa8 1f3f 06b5 713c c383 cabc
00000050: bfdf 143e b5d5 1fbf 4e89 05bf b144 603e
00000060: 2d34 9fbe c5e0 babd e863 143f aeed d63e
00000070: 27ff a73d be32 343e c28d b93e 8928 283e
00000080: 7add 14bf 363d 35bb 87e2 7a3e c2d7 12bf
00000090: 5338 a23d 9c08 e1bc ef2d b73e fe5b 45be
000000a0: c47e c8bc 569b a63e e3b6 7d3e f1a1 d03e
000000b0: 2e7f cabe 0521 eb3d 75cf 0d3e 38bb 78be
000000c0: 03fd 1abe 7c73 23bd 87d0 a1be 4a61 f1be
000000d0: 87bf b0ba 05aa 2bbe 15fc 873d e6ef b4be
000000e0: 8627 853e 21cb c23c 4d62 993e 3252 12bf
000000f0: 1a3a 27be f75f c4be a22e 9fbe 6ebf efbe
00000100: 1fed 613d ce76 2e3d d5f9 ae3e 58e0 e83b
00000110: 27c7 843e a611 a2be fdbe 4fbe fde1 1e3e
00000120: 1fce a1bd 5802 873d deab fcbe d470 733e
00000130: b5df f5be dd52 473e d919 85be 2006 0fbe
00000140: ba60 7dbe 4241 81be 74ca 8bba 724a 91be
00000150: b569 4f3e 3bcb aa3e 9325 0cbf 26de c6be
00000160: 16d0 8b3e abe3 94be dc28 a0be d776 25bf
00000170: 76c6 fd3e c752 adbe 984a df3e ba51 173e
00000180: 7065 1dbe 9580 5b3c a83a e5be 2e00 263e
00000190: 8602 743e 4453 4a3e 0f33 df3e 92d3 8ebd
000001a0: 5803 e4bd 28d6 8fbc 27a1 263f d856 e73e
000001b0: 0c22 c93d 4bb1 d2bd 3f94 5fbe 8c0d 57be
000001c0: 7128 353e bce8 aebd 4479 90bc 0020 a8be
000001d0: fd1a e23c 4bba f33e ac47 a4be fde1 edbe
000001e0: 7257 1e3d 7cb9 65be 90c0 ad3e d4bf 77be
000001f0: bc2c 033f 965d 5dbe 8a57 11be c63f 0e3f
00000200: b2c9 99be d6d6 52be f77b 463e e66e 8cbb
00000210: 5881 3dbf de28 3d3e 6301 4ebd 01c8 61bd
00000220: f73f e83e 8851 f13e b448 60be d9f2 263e
00000230: cae6 cbbe 55f6 013f dc6b 9b3d 5e12 d23e
00000240: 4551 7c3e 175d d83e d6a8 dd3d 89ee 82be
00000250: 94e0 91be 3b21 9fbd 6a64 8ebe 4cc3 b13d
00000260: 2afa b73e 2da4 443e 650a 07bf 9db4 7d3e
00000270: 7aa0 aabe 0596 1e3f 8529 56bd ffff 5dbe
00000280: 1629 81be 0326 8cbe 9c20 83be 53a6 bcbe
00000290: bf4c 8d3e e699 dabd 0533 0ebf f45a 373f
000002a0: 9144 babe ead5 013f de7a a13c e463 d1bd
000002b0: 46c7 b73e 8111 b0be 4c6a c43e 1975 053f
000002c0: 954e 13bf e1e1 8e3e dacf f8bd 9d91 6abd
000002d0: 563c 51be e2e5 d2be f203 12be 96e2 c3be
000002e0: 945f 88be f3da 02bd 8bd3 34bf f660 b7be
000002f0: 301e 123f cd69 84bd ce64 a33e 3dbb a73d
00000300: d239 18bf 3e0d 90be a826 d6be 2d66 1f3e
00000310: db34 283e 19a3 0dbe b948 7fbe 210d 90be
00000320: 495e a33e b81a 17bf 063c e3be 1e5b dcbe
00000330: f4eb 3bbe 250d 9e3d 6073 c63e e151 40be
00000340: 753b 903d 823c 443e 3f71 243d c955 09be
00000350: e4de 95be 0524 3a3e 6600 7fbe 522b 50be
00000360: 7b88 b23e ce93 1dbe d720 afbd d4d4 9f3e
00000370: 7e1f bbbe 2c4e 823e 98e5 0cbf b678 e9bd
00000380: 342a e8be f5e0 acbe 3f0a 48be 039d 893c
00000390: 6cb8 b93e 21a4 c9bd 809a 30be fcd6 d23e
000003a0: 7df7 07bd e073 143f 2751 6bbe 596b c93e
000003b0: d1d7 ca3e 1b3e c63e d103 b63d a1cd b9be
000003c0: 68c3 d7bb 4a81 afbe e048 1e3e dbf4 6dbe
000003d0: 1cb9 c33e 8588 c23e bda1 ecbe 447f f33d
000003e0: 6988 133d ffc6 f8bd 37fc 053f ff2a 6cbe
000003f0: d83c e1be a411 d2be e6e3 08be fee1 07be

actor.0.bias f4 [64]
-0.2486445 -0.0011009622 -0.33755028 -0.38723278 -0.25363612 -0.026004087 0.5674174 -0.10835152
-0.4277673 0.03336438 0.051715467 -0.36806872 0.32404205 -0.22265285 0.023166155 -0.42228284
0.26802173 -0.21304514 0.27463427 0.018505828 -0.0028342875 -0.15354633 -0.124035366 -0.038342156
0.16841562 -0.55458087 0.061700504 0.25990537 -0.084302835 -0.102972746 0.43398422 -0.3957096
-0.35291702 0.19661 -0.08346159 -0.008785502 -0.45771 -0.31927872 -0.14721753 0.37326664
-0.048742585 -0.49237007 0.22195004 0.2778707 -0.38783067 0.36062035 -0.012559598 0.31617644
0.3230821 -0.4581022 0.1280793 -0.02639137 -0.3679253 -0.15337102 -0.37976068 -0.5188269
-0.5317529 0.021636311 0.4654192 0.15584853 -0.3241291 0.22028524 -0.31631246 0.24257661
00000000: aa9c 7ebe 294e 90ba 64d3 acbe 6043 c6be
00000010: 98dc 81be 8606 d5bc 4442 113f 67e7 ddbd
00000020: 5104 dbbe 17a9 083d 99d3 533d 8173 bcbe
00000030: d7e8 a53e 1cff 63be f3c6 bd3c 7535 d8be
00000040: 253a 893e 8128 5abe dd9c 8c3e 8999 973c
00000050: 74bf 39bb 403b 1dbe 4106 febd aa0c 1dbd
00000060: 2575 2c3e 03f9 0dbf abb9 7c3d 5112 853e
00000070: f7a6 acbd 60e3 d2bd 2e33 de3e 739a cabe
00000080: 8ab1 b4be 2254 493e e9ed aabd 11f1 0fbc
00000090: f758 eabe 8078 a3be 31c0 16be ce1c bf3e
000000a0: 4ea6 47bd ee17 fcbe df46 633e 1245 8e3e
000000b0: be91 c6be 3ba3 b83e c6c6 4dbc e1e1 a13e
000000c0: 046b a53e 5f8c eabe 3827 033e b732 d8bc
000000d0: b460 bcbe 4b0d 1dbe fe6f c2be d7d1 04bf
000000e0: f520 08bf a23e b13c 6d4b ee3e c296 1f3e
000000f0: 40f4 a5be 7492 613e b5f3 a1be 0166 783e

actor.2.weight f4 [64, 64]
-0.13931823 0.051898614 -0.12052241 0.1381742 -0.061746694 -0.10955942 -0.06771017 0.11682278
0.041561835 -0.027526619 -0.009517265 -0.035949558 0.032814734 -0.062246874 -0.096826404 -0.060550127
-0.044605076 -0.027696507 0.05400996 0.09650076 0.0401141 0.022609867 0.115621634 -0.08355803
0.12025078 -0.010258016 -0.12239372 0.072472334 -0.16819288 -0.095071 0.09773448 0.058066722
0.10554663 0.15417156 -0.02493132 0.14576763 -0.014903897 0.10935732 -0.086597346 -0.0469249
0.045376685 -0.14254719 0.073362805 0.057271622 -0.08407208 -0.08275646 -0.05916986 -0.101207845
0.026131352 0.013557459 -0.04143921 -0.069796704 -0.11309503 0.0047744345 0.0044155954 0.15254842
-0.09746622 0.06325057 0.065006405 -0.010843538 0.05273479 0.10213515 -0.1075513 -0.068630144
-0.106425814 -0.10265294 -0.13068333 -0.032158535 0.11188529 0.0128397215 -0.0247424 -0.01044657
0.06933828 -0.03774746 -0.12000011 0.052913137 -0.060541876 0.09858016 -0.059362546 -0.14926116
0.07607057 -0.10366572 0.017901193 -0.041022945 -0.08839894 0.14681228 0.052788403 -0.116366796
0.015671154 -0.1088036 0.014170515 -0.039500438 -0.029147953 -0.1411746 -0.03211741 -0.09259699
0.06996378 0.11253989 0.08024084 0.084387936 0.041262064 -0.09279745 -0.06286614 0.11182761
0.05617188 0.084715635 0.10361103 0.08806357 0.09838933 0.19690935 0.082032755 0.084632054
-0.100225195 0.07635172 0.07262935 0.066903256 -0.08193755 0.010076005 -0.09934445 0.04833459
-0.11136815 -0.012752662 -0.14896941 0.06908071 0.047906153 -0.10129019 0.06570306 -0.0012334419
0.0858025 0.025167285 -0.13648117 0.12947902 0.09185681 -0.0598246 0.15968798 -0.0927451
0.06150329 -0.014012368 -0.07507975 0.0013120514 -0.09340039 -0.047304578 -0.11058055 -0.11766081
0.060724985 0.022907523 0.1310662 0.073473826 0.07931859 0.18167727 -0.05745174 0.07720645
0.09743511 0.030762112 -0.022065988 0.016432755 -0.14815599 -0.08520216 0.12680998 0.013247613
0.063366346 0.14218745 0.11772898 0.006281955 0.01484883 0.0754447 0.059945226 0.06668816
-0.041478984 -0.095286675 0.0884116 -0.05026688 -0.1325192 0.092797466 0.12130327 -0.04977907
0.1439274 -0.041559663 0.047735896 0.09083285 0.040707882 -0.09047792 -0.083233245 0.07152197
-0.08380047 -0.08193855 0.04957339 0.013505843 -0.040062238 0.13789675 -0.0021435732 0.098926686
-0.18851642 0.11649348 0.13365358 0.11746926 -0.14875418 -0.0059201415 -0.03508801 -0.011912361
-0.06725243 -0.029270045 -0.20641169 -0.09729467 -0.13879584 0.099797 0.011575435 0.031578522
-0.1638576 -0.12488691 -0.08668425 0.044566564 0.006818509 0.16661653 0.07346232 0.053433772
0.050583463 0.1013306 0.04394396 0.075764656 0.19412951 -0.07225803 0.07617642 0.04112922
-0.064710885 0.054304454 0.0831274 -0.18592179 -0.07762424 -0.13781175 -0.08704296 0.07323076
-0.25563622 0.04896154 0.023208104 -0.023335388 0.09209656 0.031829704 0.15026511 0.09794704
-0.0516153 0.0070099407 -0.12878199 0.023214879 0.07119879 0.09367772 0.10540593 -0.02795619
0.07556318 0.06254617 -0.033922993 -0.015900688 -0.022197848 0.0043736333 -0.076959945 0.07548886
00000000: 70a9 0ebe a493 543d 74d4 f6bd 8a7d 0d3e
00000010: 1aea 7cbd b060 e0bd a1ab 8abd c840 ef3d
00000020: be3c 2a3d 817f e1bc 4dee 1bbc d83f 13bd
00000030: be68 063d 94f6 7ebd ec4c c6bd 6903 78bd
00000040: d0b3 36bd c9e3 e2bc 8c39 5d3d 31a2 c53d
00000050: af4e 243d 5438 b93c 09cb ec3d 7920 abbd
00000060: 0a46 f63d 3d11 28bc 8fa9 fabd 606c 943d
00000070: c13a 2cbe 96b4 c2bd 0429 c83d 5fd7 6d3d
00000080: d528 d83d 26df 1d3e c53c ccbc 1c44 153e
00000090: 7a2f 74bc bbf6 df3d f359 b1bd 5334 40bd
000000a0: e7dc 393d e4f7 11be 3d3f 963d a695 6a3d
000000b0: fc2d acbd 387c a9bd 185c 72bd 0f46 cfbd
000000c0: 6b11 d63c 1b20 5e3c 29bc 29bd 93f1 8ebd
000000d0: 5e9e e7bd dc72 9c3b b3b0 903b a735 1c3e
000000e0: 5f9c c7bd 8489 813d 1422 853d 18a9 31bc
000000f0: 6f00 583d 3c2c d13d db43 dcbd f68d 8cbd
00000100: c7f5 d9bd b43b d2bd dad1 05be abb8 03bd
00000110: 1d24 e53d b25d 523c 93b0 cabc 1728 2bbc
00000120: 3a01 8e3d 159d 1abd 9ec2 f5bd 72bb 583d
00000130: c2fa 77bd 65e4 c93d 2426 73bd ebd7 18be
00000140: e3ca 9b3d b14e d4bd 86a5 923c ad07 28bd
00000150: 810a b5bd f555 163e a738 583d b751 eebd
00000160: cb60 803c 6cd4 debd 732b 683c 36cb 21bd
00000170: b0c7 eebc 1390 10be 8c8d 03bd 7ea3 bdbd
00000180: 2c49 8f3d 507b e63d 4f55 a43d 95d3 ac3d
00000190: 6902 293d 970c bebd f6bf 80bd e005 e53d
000001a0: 7c14 663d 647f ad3d 0532 d43d ac5a b43d
000001b0: 5880 c93d 9ba2 493e ca00 a83d 9253 ad3d
000001c0: de42 cdbd 4a5e 9c3d b2be 943d 9304 893d
000001d0: e0ce a7bd d415 253c 1a75 cbbd 7efa 453d
000001e0: fc14 e4bd 8bf0 50bc 708b 18be 307a 8d3d
000001f0: 3e39 443d 3b71 cfbd 538f 863d 71ab a1ba
00000200: 39b9 af3d 9f2b ce3c b8c1 0bbe 2696 043e
00000210: 6c1f bc3d a40a 75bd 3f85 233e 25f1 bdbd
00000220: e0ea 7b3d 2294 65bc 69c3 99bd 24f9 ab3a
00000230: b448 bfbd 72c2 41bd 0e78 e2bd 27f8 f0bd
00000240: c3ba 783d 8fa8 bb3c 3836 063e 7279 963d
00000250: c971 a23d 9b09 3a3e 8452 6bbd 6a1e 9e3d
00000260: 0f8c c73d d300 fc3c bbc3 b4bc fc9d 863c
00000270: 34b6 17be 787e aebd 7ada 013e 840c 593c
00000280: 37c6 813d 9699 113e e41b f13d dcd8 cd3b
00000290: 8248 733c c082 9a3d 2089 753d cd93 883d
000002a0: dee5 29bd a925 c3bd 2411 b53d a5e4 4dbd
000002b0: 1db3 07be 990c be3d d96d f83d 23e5 4bbd
000002c0: b461 133e 773a 2abd b786 433d 9306 ba3d
000002d0: 4fbd 263d 7d4c b9bd 3176 aabd 1c7a 923d
000002e0: 959f abbd 66cf a7bd 780d 4b3d 9c47 5d3c
000002f0: 4d18 24bd ce34 0d3e 317b 0cbb 139a ca3d
00000300: 730a 41be 2294 ee3d 7cdc 083e b993 f03d
00000310: 0453 18be bffd c1bb 72b8 0fbd 102c 43bc
00000320: a4bb 89bd bcc7 efbc 965d 53be 6e42 c7bd
00000330: 7f20 0ebe 5f62 cc3d e5a6 3d3c 7b58 013d
00000340: 49ca 27be b5c4 ffbd 8387 b1bd 6e8b 363d
00000350: cd6d df3b 869d 2a3e 6a73 963d 5fdd 5a3d
00000360: 9b30 4f3d 6b86 cf3d 95fe 333d 802a 9b3d
00000370: e3c9 463e 05fc 93bd 6202 9c3d 1d77 283d
00000380: 2487 84bd 596e 5e3d b33e aa3d 4862 3ebe
00000390: 75f9 9ebd 861e 0dbe 9443 b2bd 02fa 953d
000003a0: c0e2 82be e58b 483d ec1e be3c db29 bfbc
000003b0: 1f9d bc3d dd5f 023d 19df 193e 7598 c83d
000003c0: 916a 53bd a5b3 e53b 6ddf 03be 212d be3c
000003d0: acd0 913d 1bda bf3d 10df d73d 6104 e5bc
000003e0: dec0 9a3d 3518 803d d6f2 0abd 2942 82bc
000003f0: 43d8 b5bc b250 8f3b 2d9d 9dbd e799 9a3d

actor.2.bias f4 [64]
-0.16629304 0.044593222 -0.070758514 -0.052125268 0.017940294 0.097169414 -0.10088041 -0.043323636
0.037841585 0.05042735 0.09948698 0.06542183 -0.11971858 0.080279864 -0.098707646 -0.104617655
0.047717676 -0.06913598 -0.070875786 0.097817 -0.10213209 -0.064647965 0.10570076 -0.07289949
-0.065022804 -0.1464546 -0.1514654 -0.15574653 -0.010079843 0.11183502 -0.11059551 0.047065336
-0.018376768 -0.041094918 -0.024059067 0.04255368 -0.11357896 0.105148494 0.026762726 0.08175577
0.052280925 -0.03866218 0.11563769 0.0012134301 0.06482099 -0.00976069 -0.06445 0.15459248
-0.07765492 0.0002158192 0.011348949 -0.03184701 -0.025312038 0.10400813 -0.030180354 -0.07490911
0.12359503 0.042692084 0.022111394 -0.039625604 0.09669438 -0.09183139 -0.091907136 -0.0105019165
00000000: b948 2abe 62a7 363d d7e9 90bd 4e81 55bd
00000010: 86f7 923c c200 c73d 639a cebd 2074 31bd
00000020: c7ff 1a3d e98c 4e3d d4bf cb3d e1fb 853d
00000030: 042f f5bd c569 a43d 3c27 cabd c841 d6bd
00000040: 9c73 433d 2a97 8dbd 5327 91bd 4754 c83d
00000050: a12a d1bd 2766 84bd a479 d83d 544c 95bd
00000060: ad2a 85bd 32f8 15be bf19 1bbe 057c 1fbe
00000070: ed25 25bc c209 e53d e67f e2bd 95c7 403d
00000080: e08a 96bc 2553 28bd 8517 c5bc c44c 2e3d
00000090: 169c e8bd 1858 d73d 813d db3c 926f a73d
000000a0: 8624 563d 3c5c 1ebd 74d3 ec3d f50b 9f3a
000000b0: dec0 843d 4deb 1fbc 5dfe 83bd 7e4d 1e3e
000000c0: 8b09 9fbd 864d 6239 f1f0 393c 0372 02bd
000000d0: 315b cfbc 3702 d53d ca3c f7bc f369 99bd
000000e0: 641f fd3d e5dd 2e3d f422 b53c 754e 22bd
000000f0: b407 c63d 1912 bcbd cf39 bcbd 3b10 2cbc

actor.4.weight f4 [1, 64]
0.1450624 0.080681324 0.18912245 -0.09076318 -0.08543949 -0.050957143 0.13126253 -0.063382424
-0.10184788 -0.057295248 0.14576845 -0.07848953 0.14139445 0.00064066664 -0.020838214 -0.06938049
-0.099987134 -0.10553416 -0.0772658 -0.062615454 -0.013628988 0.13108572 -0.2053786 0.075113915
0.23396368 0.26409486 0.1232268 0.17711599 0.06820132 0.055947497 -0.094023995 -0.06490411
-0.11051546 -0.1801419 0.12217781 0.11235437 0.11175577 0.17357603 0.07478569 0.01503977
0.09532935 -0.11206809 -0.14777249 0.13017 -0.20837007 -0.106219225 0.19038552 -0.111973606
-0.06220726 -0.06285062 0.20214133 -0.2152632 0.17042844 -0.1879993 -0.085135944 -0.098568976
-0.18794063 -0.00090996776 0.123437785 -0.12140554 0.10091269 -0.11742272 0.11383709 0.10019272
00000000: 3d8b 143e 403c a53d 51a9 413e 0ce2 b9bd
00000010: e6fa aebd 70b8 50bd af69 063e a5ce 81bd
00000020: 9f95 d0bd 6cae 6abd 5344 153e 1ebf a0bd
00000030: b5c9 103e 69f2 273a e7b4 aabc 5c17 8ebd
00000040: 0ec6 ccbd 4b22 d8bd 883d 9ebd 883c 80bd
00000050: 1e4c 5fbc 563b 063e c54e 52be 53d5 993d
00000060: 2d94 6f3e 7137 873e 555e fc3d e55d 353e
00000070: 22ad 8b3d 3429 653d a78f c0bd 72ec 84bd
00000080: ee55 e2bd 1e77 38be 5c38 fa3d 0c1a e63d
00000090: 36e0 e43d eabd 313e 3d29 993d 5e69 763c
000000a0: 093c c33d f483 e5bd ac51 17be 494b 053e
000000b0: f75e 55be 7789 d9bd 6cf4 423e 6b52 e5bd
000000c0: 0acd 7ebd d3b7 80bd 23fe 4e3e f56d 5cbe
000000d0: cb84 2e3e e382 40be c15b aebd 88de c9bd
000000e0: 8273 40be e78a 6eba f3cc fc3d 78a3 f8bd
000000f0: 50ab ce3d 537b f0bd 6c23 e93d d731 cd3d

critic.0.weight f4 [64, 5]
-0.25148097 0.619583 -0.6290424 0.03551267 -0.24531814 -0.045595773 0.85602933 -0.334046
-0.07911401 -0.28628227 -0.6572047 0.37721142 -0.55476296 -0.38996416 0.14230043 -0.011283083
0.30415368 1.330033 0.09462851 0.4298498 -0.7192088 -0.14987333 0.0315837 0.20247455
0.086821616 0.36262634 0.7079903 -0.36009684 0.41214365 -0.03702997 -0.3463972 0.37626052
-0.5715763 0.00071874354 -0.18450066 0.097132474 -0.76898277 0.085229635 0.120951876 0.24315144
0.040583678 -0.3775113 0.88489735 0.023898799 0.26736087 0.27625382 0.0027360558 -0.69415355
-0.0022535543 -0.0753081 0.04723933 0.5258373 -1.0474595 -0.22719401 -0.28288054 -0.75170195
-0.1995888 0.16717796 0.46460903 0.013427568 -0.06838806 -0.5086729 -0.6012147 -0.37929508
0.28363207 -0.2175396 0.8503467 -0.102604546 -0.34390518 -0.08467967 -0.27049083 0.4558641
-0.69619447 -0.05015591 -0.1730706 -0.5223548 0.07488128 -0.45706257 -0.12975979 0.21788527
0.69347185 -0.5902368 0.4175052 0.34534326 0.33610716 0.28138778 0.16096795 0.098169215
-0.055167396 0.027990274 -0.6031538 0.16191131 0.13980043 -0.2086156 0.33822766 0.17017926
0.5563871 0.21665592 -0.48813096 -0.27712733 0.1578398 -0.6813992 -0.15341642 -0.009002793
-0.15698124 -0.21843545 -0.18525402 -0.8746125 -0.16952652 -0.36575082 -0.26818624 0.11760148
0.21753685 -0.33301362 0.19443361 -0.2976868 -0.4504437 0.21832101 0.31527284 -0.011537158
0.0396433 0.51899624 0.0082995 -0.1525472 0.17974487 -0.0011227047 0.01290282 0.5075606
0.68683577 -0.2117707 0.5038727 -0.65007645 0.3415019 -0.00031123814 0.32872406 -0.30095705
0.6712695 0.23841369 -0.42749852 0.33668146 0.52939194 0.43380615 0.47048926 0.11261981
-0.15685748 -0.2734425 -0.56844807 0.3972391 0.004538682 -0.02040245 0.30661777 -0.08611483
0.04471418 0.3182728 -0.10337081 -0.33693263 0.39931446 -0.053529907 -0.79689485 -0.05585498
0.47615722 -0.11325543 -0.018142547 -0.103355 0.059123434 -0.08965765 -0.11557538 -0.007187472
0.0057121576 0.03390701 0.0063640354 -0.6037832 0.001584061 -0.48821577 0.23901744 0.034087077
-0.2551003 0.8045005 -0.60897875 -0.17732994 -0.71458715 0.14375935 0.11380541 -0.27374098
0.07293337 0.7864383 0.04777922 -0.3643654 0.21742079 -0.10643283 -0.052785676 0.37388077
-0.22945866 -0.00082495826 0.009399753 0.51018023 0.5911548 -0.06564442 0.18315744 0.17267302
-0.08651502 0.044939913 0.8871049 0.22201745 0.262997 -0.17292221 0.45920703 -1.395507
-0.1704293 -0.29998994 0.0018961792 -0.19294417 0.9665929 0.10895002 -0.17832851 0.0837367
-0.37992874 1.354188 0.18668845 0.30453736 0.5148336 -0.59467673 0.19894639 0.07043859
0.28078172 -0.010280259 -0.9684938 -0.36963826 -0.35460645 0.15966333 -0.020196246 0.3237112
-0.60630167 -0.23364195 0.22102845 0.04225236 0.5969459 -0.233511 -0.09842719 -0.11861952
-0.03332954 -0.6275156 0.89964044 -0.044105705 0.3149623 0.47469515 -0.25302988 -0.81915075
-0.29473788 0.1145978 -0.26093876 -0.5590447 -0.30939987 0.36207893 0.3081889 0.62702465
00000000: 1dc2 80be fe9c 1e3f ec08 21bf bc75 113d
00000010: ae34 7bbe a2c2 3abd bd24 5b3f 1408 abbe
00000020: 8706 a2bd 9793 92be 913e 28bf db21 c13e
00000030: f204 0ebf 62a9 c7be 34b7 113e aedc 38bc
00000040: 08ba 9b3e 853e aa3f 98cc c13d 4615 dc3e
00000050: 111e 38bf 6578 19be e95d 013d 7d55 4f3e
00000060: 88cf b13d 29aa b93e da3e 353f 9d5e b8be
00000070: 7e04 d33e bdac 17bd f95a b1be 38a5 c03e
00000080: d352 12bf 106a 3c3a beed 3cbe 64ed c63d
00000090: 0edc 44bf e08c ae3d 9eb5 f73d b1fc 783e
000000a0: 123b 263d 2949 c1be a288 623f 6ac7 c33c
000000b0: 86e3 883e 2471 8d3e 664f 333b 0cb4 31bf
000000c0: 5eb0 13bb 223b 9abd 077e 413d 469d 063f
000000d0: 2713 86bf 8ca5 68be b8d5 90be 8a6f 40bf
000000e0: 0261 4cbe b330 2b3e 3ce1 ed3e 4dff 5b3c
000000f0: 0a0f 8cbd 6338 02bf 35e9 19bf f732 c2be
00000100: 3938 913e b3c2 5ebe 52b0 593f 5522 d2bd
00000110: 5714 b0be 896c adbd c67d 8abe 0567 e93e
00000120: cd39 32bf 4970 4dbd 6b39 31be 0bb9 05bf
00000130: 5b5b 993d 1b04 eabe c0df 04be 511d 5f3e
00000140: 5f87 313f c219 17bf 3ec3 d53e d5d0 b03e
00000150: 3d16 ac3e 0f12 903e c8d4 243e f10c c93d
00000160: 35f7 61bd dc4b e53c 4a68 1abf 14cc 253e
00000170: d827 0f3e 549f 55be 2d2c ad3e 7943 2e3e
00000180: 636f 0e3f 0ddb 5d3e 4dec f9be a2e3 8dbe
00000190: c2a0 213e 2e70 2ebf 3219 1dbe 7380 13bc
000001a0: b1bf 20be 8bad 5fbe 3bb3 3dbe 9be6 5fbf
000001b0: 5c98 2dbe b143 bbbe b54f 89be 0bd9 f03d
000001c0: fbc1 5e3e c380 aabe 9b19 473e 676a 98be
000001d0: 8fa0 e6be 8b8f 5f3e 716b a13e 5906 3dbc
000001e0: 0361 223d f0dc 043f a0fa 073c 5535 1cbe
000001f0: 0a0f 383e b827 93ba 5966 533c 7eef 013f
00000200: 78d4 2f3f 6bda 58be cdfd 003f 696b 26bf
00000210: 56d9 ae3e ad2d a3b9 854e a83e 0b17 9abe
00000220: 51d8 2b3f b822 743e 16e1 dabe 8361 ac3e
00000230: 3b86 073f d71b de3e f8e3 f03e 37a5 e63d
00000240: 3f9f 20be a800 8cbe d085 11bf ec62 cb3e
00000250: 39b9 943b 0a23 a7bc 01fd 9c3e f95c b0bd
00000260: 3726 373d a7f4 a23e 13b4 d3bd 6f82 acbe
00000270: f272 cc3e 2d42 5bbd 4d01 4cbf 31c8 64bd
00000280: e1ca f33e 76f2 e7bd ae9f 94bc c9ab d3bd
00000290: 6a2b 723d 6e9e b7bd c9b2 ecbd e384 ebbb
000002a0: 0d2d bb3b 14e2 0a3d 6689 d03b 8991 1abf
000002b0: 44a0 cf3a 6bf7 f9be fdc0 743e e49e 0b3d
000002c0: 829c 82be bff3 4d3f 08e6 1bbf fb95 35be
000002d0: 2fef 36bf a735 133e d012 e93d c727 8cbe
000002e0: 175e 953d 0554 493f 25b4 433d 1a8e babe
000002f0: 8ea3 5e3e 75f9 d9bd cb35 58bd 4d6d bf3e
00000300: 36f7 6abe 0342 58ba 6c01 1a3c 2c9b 023f
00000310: ec55 173f 9570 86bd a08d 3b3e 32d1 303e
00000320: c92e b1bd ea12 383d 4f19 633f 8b58 633e
00000330: 8ba7 863e 8512 31be 2f1d eb3e f99f b2bf
00000340: 0585 2ebe 4898 99be 3789 f83a 2893 45be
00000350: a272 773f 3021 df3d c09b 36be 267e ab3d
00000360: 0586 c2be 0856 ad3f 422b 3f3e 52ec 9b3e
00000370: 23cc 033f bc3c 18bf 9ab8 4b3e 1c42 903d
00000380: 9fc2 8f3e 886e 28bc 36ef 77bf 3a41 bdbe
00000390: fa8e b5be c97e 233e 9972 a5bc 79bd a53e
000003a0: 9636 1bbf d63f 6fbe 4855 623e d010 2d3d
000003b0: 72d1 183f 821d 6fbe 3294 c9bd caee f2bd
000003c0: 8e84 08bd dda4 20bf d64e 663f 2fa8 34bd
000003d0: bd42 a13e 3e0b f33e 228d 81be ddb3 51bf
000003e0: e2e7 96be 40b2 ea3d c499 85be 8e1d 0fbf
000003f0: a969 9ebe 6962 b93e efca 9d3e b084 203f

critic.0.bias f4 [64]
-0.7006896 -0.5928485 -0.28222042 0.2536838 -0.23071249 0.035282277 -0.27836314 0.5262691
-0.067012995 0.43031645 -0.4068893 0.099401005 -0.037642214 -0.21276924 -0.3246302 0.044946663
0.61772305 -0.035253666 -0.3925748 -0.0021032768 0.62240976 -0.16299073 -0.1877794 -0.22462466
-0.4152629 0.23028208 -0.22791865 -0.59448403 -0.10766733 0.26067215 0.27309334 0.32521412
-0.22764271 -0.50463396 -0.2714891 0.36232257 -0.3131169 -0.48202428 0.3819242 -0.027135216
0.40379995 -0.1474358 -0.14756274 0.08840711 -0.15945561 0.42078274 -0.28768206 -0.5589104
-0.12165313 -0.10769289 0.48538563 -0.2695916 -0.051046297 0.5231423 0.16898838 -0.5539123
0.33500358 -0.52860564 0.40658647 0.40405375 0.18359764 -0.3025554 0.24748482 0.451108
00000000: 6560 33bf ebc4 17bf 327f 90be d8e2 813e
00000010: e53f 6cbe 2684 103d 9d85 8ebe 92b9 063f
00000020: 1c3e 89bd 7052 dc3e cb53 d0be c192 cb3d
00000030: b92e 1abd 2ee0 59be ee35 a6be fe19 383d
00000040: 1923 1e3f 2666 10bd 90ff c8be 21d7 09bb
00000050: 3f56 1f3f 0be7 26be 3e49 40be 0204 66be
00000060: 579d d4be 11cf 6b3e 8263 69be 1b30 18bf
00000070: b080 dcbd d276 853e e4d2 8b3e 7782 a63e
00000080: 2c1b 69be b12f 01bf 9f00 8bbe 5882 b93e
00000090: dc50 a0be e3cb f6be 928b c33e ac4a debc
000000a0: debe ce3e 69f9 16be b01a 17be c90e b53d
000000b0: 5548 23be d670 d73e 104b 93be c114 0fbf
000000c0: 4725 f9bd 178e dcbd 7784 f83e e907 8abe
000000d0: ec15 51bd a7ec 053f 4a0b 2d3e 32cd 0dbf
000000e0: 9785 ab3e b352 07bf 1a2c d03e 22e0 ce3e
000000f0: 0501 3c3e 8be8 9abe a96c 7d3e a1f7 e63e

critic.2.weight f4 [64, 64]
0.09557838 0.017527953 0.21838799 -0.2403123 -0.07927371 0.01600284 -0.028541528 0.07575792
-0.05561207 0.07609934 -0.1114749 0.049046278 -0.054683104 -0.08886098 -0.029578263 0.058584385
0.065478325 -0.04545087 -0.077336505 0.036424253 -0.040038906 0.026593272 0.032273576 0.07250594
-0.07698891 -0.072526515 0.09355949 -0.015247523 -0.090239525 0.23124664 0.10134486 0.050004255
-0.010771283 -0.101525925 -0.005372006 -0.11717717 0.080821745 0.1790818 0.0814219 -0.00484507
-0.13819216 -0.00076511287 -0.102592 0.10917868 -0.009445886 0.153374 -0.14145252 0.109036
0.13581705 -0.09818488 0.06914127 0.060729306 -0.06035434 -0.07044147 -0.15658052 -0.423687
0.12959477 -0.13517784 -0.100654796 -0.07681645 0.16577016 -0.18586954 -0.09280712 -0.12076362
-0.29420137 0.10636332 -0.16776659 0.17902379 -0.04861639 0.27139914 -0.07227517 -0.087247536
-0.14051786 0.1472116 -0.10582391 -0.010633832 -0.06458675 0.022391973 -0.19080783 0.06065818
0.034352776 0.28495082 -0.08813703 -0.048908588 -0.026305469 -0.014769158 -0.065510765 -0.10018857
0.07361023 0.033747956 -0.22513849 0.10395902 -0.015176119 -0.31371832 0.12270081 0.11439659
-0.046407428 0.0854055 -0.24919881 -0.17584603 -0.14749505 -0.10448319 -0.040928975 0.13558172
0.104913354 0.03149915 -0.16754355 -0.07952593 -0.053151686 -0.107714325 0.17834479 0.015330796
-0.31038612 0.019930052 -0.022569707 0.07298203 0.11523889 0.2265817 -0.04889456 0.07752328
-0.05713608 0.14280371 0.115805924 -0.061616417 0.10297617 0.104349256 0.01683652 -0.049905278
-0.28913078 -0.12586558 0.11338371 -0.043941554 -0.31226885 -0.11766453 -0.21964298 0.27897084
0.12300969 0.17632948 -0.0544383 -0.052471053 0.24545443 -0.13835096 -0.08478093 -0.044871826
0.3943512 0.15099305 -0.13146485 0.073423594 0.08670716 -0.127244 0.03878908 -0.20918511
0.14154042 -0.3088646 0.33495292 -0.05231197 0.03412978 0.040567614 -0.019012984 -0.027779695
0.038856156 -0.21350233 0.44415003 0.260658 -0.15928103 0.24648623 0.1877096 0.029456092
0.034407783 -0.07395426 -0.29276052 0.08907798 0.27479637 0.49219224 0.08783546 -0.22933203
0.3121036 0.28071213 0.037747297 0.36806205 0.36765814 0.04111774 0.15172721 -0.045196705
-0.086096644 -0.12439566 -0.28019837 -0.16347723 0.25866073 0.035783466 -0.009615158 0.10560126
-0.08006948 -0.048304938 -0.27306822 0.23217206 -0.092088364 -0.050116476 -0.0072779935 0.029929118
0.10161952 0.09466354 -0.0058080773 -0.02998837 -0.121171825 -0.11271705 -0.118922435 -0.07273001
-0.123345606 -0.06459259 -0.089450225 0.11756163 0.086391024 0.055092096 0.08261942 -0.022223094
0.118561424 0.08717941 -0.046588656 0.086493604 0.04413801 -0.029725315 0.020125585 -0.06361153
0.1338191 0.22250736 -0.12704952 0.1474238 -0.12182503 -0.24036956 -0.16175698 -0.034214284
-0.008078334 -0.042422086 0.059201065 -0.08240664 0.041386355 0.08629417 0.034330353 -0.18235472
-0.050797734 0.0032120084 -0.04994342 0.07638004 0.22227828 0.18291174 -0.08349264 0.17451751
0.12443719 -0.005915999 0.2834133 -0.09260929 0.03573521 0.1143009 0.025292844 0.20728989
00000000: 99be c33d c896 8f3c 1aa1 5f3e 6d14 76be
00000010: 415a a2bd 6318 833c eccf e9bc f826 9b3d
00000020: 7bc9 63bd f9d9 9b3d f44c e4bd c0e4 483d
00000030: 64fb 5fbd bffc b5bd 1d4e f2bc 2ef6 6f3d
00000040: 8019 863d b12a 3abd 9a62 9ebd 9931 153d
00000050: d6ff 23bd 22da d93c 4c31 043d ff7d 943d
00000060: 5dac 9dbd c888 94bd 1e9c bf3d bfd0 79bc
00000070: 80cf b8bd ebcb 6c3e e58d cf3d 43d1 4c3d
00000080: 097a 30bc d3ec cfbd a707 b0bb 96fa efbd
00000090: df85 a53d 3861 373e 86c0 a63d 65c3 9ebb
000000a0: 3f82 0dbe db91 48ba c11b d2bd 1299 df3d
000000b0: ebc2 1abc 130e 1d3e eed8 10be 444e df3d
000000c0: a013 0b3e 2815 c9bd f099 8d3d 4bbf 783d
000000d0: 1d36 77bd 9e43 90bd a556 20be 81ed d8be
000000e0: 7eb4 043e 0f6c 0abe 1a24 cebd f151 9dbd
000000f0: a7bf 293e 9654 3ebe a911 bebd eb52 f7bd
00000100: 90a1 96be 03d5 d93d 01cb 2bbe 0352 373e
00000110: fb21 47bd d4f4 8a3e 0105 94bd d6ae b2bd
00000120: eae3 0fbe a3be 163e 35ba d8bd 8639 2ebc
00000130: 0f46 84bd 5f6f b73c 2163 43be b674 783d
00000140: 7fb5 0c3d 13e5 913e 3081 b4bd 5f54 48bd
00000150: 917e d7bc 57fa 71bc 822a 86bd aa2f cdbd
00000160: f6c0 963d 4c3b 0a3d b48a 66be 77e8 d43d
00000170: 42a5 78bc b09f a0be 904a fb3d c248 ea3d
00000180: b715 3ebd 14e9 ae3d f92d 7fbe fb10 34be
00000190: f108 17be 48fb d5bd 24a5 27bd efd5 0a3e
000001a0: d0dc d63d 4105 013d 8990 2bbe 7ede a2bd
000001b0: 95b5 59bd 5499 dcbd 04a0 363e 052e 7b3c
000001c0: eeea 9ebe 5944 a33c 1be4 b8bc 9a77 953d
000001d0: 5e02 ec3d 0805 683e aa45 48bd 87c4 9e3d
000001e0: 8607 6abd 233b 123e a82b ed3d 7f61 7cbd
000001f0: 2ce5 d23d 10b5 d53d beec 893c 7a69 4cbd
00000200: f308 94be e8e2 00be b835 e83d 0ffc 33bd
00000210: b4e1 9fbe 1afa f0bd 17ea 60be 44d5 8e3e
00000220: 81ec fb3d b78f 343e b2fa 5ebd e3eb 56bd
00000230: 6858 7b3e e0ab 0dbe a0a1 adbd 85cb 37bd
00000240: 67e8 c93e ec9d 1a3e b99e 06be 1c5f 963d
00000250: 8693 b13d 404c 02be 4ce1 1e3d 9f34 56be
00000260: f9ef 103e 8023 9ebe f37e ab3e 1445 56bd
00000270: abcb 0b3d 3a2a 263d 1ec1 9bbc 3e92 e3bc
00000280: a227 1f3d 5ba0 5abe a267 e33e f774 853e
00000290: 911a 23be e366 7c3e f236 403e e74d f13c
000002a0: 2def 0c3d 5575 97bd b5e4 95be 846e b63d
000002b0: 1cb2 8c3e 9f00 fc3e 14e3 b33d 04d6 6abe
000002c0: 0bcc 9f3e 80b9 8f3e e99c 1a3d a172 bc3e
000002d0: b03d bc3e 136b 283d 615e 1b3e 2e20 39bd
000002e0: 7053 b0bd 27c3 febd 2976 8fbe 9366 27be
000002f0: 2e6f 843e af91 123d e588 1dbc 7945 d83d
00000300: 78fb a3bd 66db 45bd 99cf 8bbe 83be 6d3e
00000310: d398 bcbd ef46 4dbd 3c7c eebb e92d f53c
00000320: e51d d03d f5de c13d af51 bebb 2caa f5bc
00000330: ef28 f8bd 32d8 e6bd 9b8d f3bd 79f3 94bd
00000340: 9f9c fcbd 1f49 84bd ae31 b7bd 27c4 f03d
00000350: c7ed b03d 40a8 613d 5f34 a93d 350d b6bc
00000360: 55d0 f23d 1e8b b23d bfd3 3ebd 8f23 b13d
00000370: 0fca 343d 8182 f3bc 69de a43c c346 82bd
00000380: e007 093e f8d8 633e 4519 02be 44f6 163e
00000390: 677f f9bd 7023 76be 9fa3 25be 4724 0cbd
000003a0: fd5a 04bc c8c2 2dbd d17c 723d d0c4 a8bd
000003b0: bd84 293d ffba b03d fc9d 0c3d 32bb 3abe
000003c0: 4911 50bd 8f80 523b 7991 4cbd 236d 9c3d
000003d0: eb9c 633e 374d 3b3e 30fe aabd b8b4 323e
000003e0: edd8 fe3d ffda c1bb 8c1b 913e f0a9 bdbd
000003f0: 155f 123d 9716 ea3d f032 cf3c cd43 543e

critic.2.bias f4 [64]
0.28434098 -0.19551173 0.15443753 -0.11305802 0.13783035 0.04720999 -0.12685066 0.0085249515
0.18715994 -0.07795961 0.14239745 -0.20707485 -0.22840875 -0.03739196 -0.21760333 0.014623328
-0.20874776 0.12910283 0.016572256 0.04343685 0.18933794 -0.27656972 0.016049856 -0.044444498
-0.086697124 -0.11657827 0.0021973294 -0.22628428 0.10830004 -0.44920138 0.08178144 0.38506183
0.037145928 0.19957237 0.07258032 -0.007983 -0.07294236 0.021638995 -0.0709282 -0.33253157
0.01802384 -0.23479106 0.19668692 0.0010929321 -0.3332938 -0.01663089 0.42677438 -0.20572245
-0.12251229 -0.13675612 0.026485201 -0.03642541 0.12771209 -0.046424672 -0.2966825 0.24920465
0.05372294 0.3401922 -0.08487216 0.12131082 -0.50061065 0.24096017 0.040830098 -0.06479617
00000000: 2495 913e 3a34 48be df24 1e3e f78a e7bd
00000010: 6623 0d3e 435f 413d 24e5 01be 3dac 0b3c
00000020: dba6 3f3e 4aa9 9fbd a3d0 113e 6e0b 54be
00000030: fce3 69be 5028 19bd 68d3 5ebe af96 6f3c
00000040: f9c1 55be 8833 043e 8ac2 873c d7ea 313d
00000050: cee1 413e 8c9a 8dbe fd7a 833c 6f0b 36bd
00000060: 438e b1bd 97c0 eebd 1201 103b 11b7 67be
00000070: 69cc dd3d b9fd e5be 077d a73d d326 c53e
00000080: 5426 183d b35c 4c3e fea4 943d 21cb 02bc
00000090: ce62 95bd 4344 b13c ce42 91bd 9441 aabe
000000a0: bba6 933c 116d 70be 4c68 493e b740 8f3a
000000b0: 7ca5 aabe 813d 88bc 2c82 da3e e8a8 52be
000000c0: b9e7 fabd cc09 0cbe 7ef7 d83c d032 15bd
000000d0: f5c6 023e cc27 3ebd c5e6 97be 812f 7f3e
000000e0: 960c 5c3d ac2d ae3e 74d1 adbd cf71 f83d
000000f0: 0528 00bf 43be 763e 763d 273d dbb3 84bd

critic.4.weight f4 [1, 64]
-0.11944767 0.21876241 -0.24349663 0.04514325 0.17374541 -0.1515879 0.35365725 0.23386653
-0.07757883 -0.05149182 -0.061963595 0.183537 0.23942392 0.09769939 0.095050015 -0.12773906
-0.3079148 0.010260323 0.03451329 -0.24756041 0.28801233 0.24798608 -0.006914003 0.05744872
-0.15447024 -0.15366991 -0.077127896 0.20377192 -0.053402115 0.15521719 -0.054525074 -0.2955857
0.07619907 0.27711132 -0.24009652 0.3953895 0.095518135 -0.0914202 0.14061826 0.2121207
0.22510105 0.08528322 0.4517652 0.020590337 0.14952956 0.14283952 -0.2142075 0.31997675
-0.015915275 0.017462956 0.27831224 -0.123519264 -0.05191901 0.11446161 0.18760817 -0.12349602
0.0029462813 -0.14194302 -0.15758544 -0.19641739 0.21867393 -0.15131246 -0.029466983 0.09438752
00000000: fba0 f4bd 4103 603e 2e57 79be 21e8 383d
00000010: 51ea 313e dc39 1bbe 9012 b53e b57a 6f3e
00000020: a6e1 9ebd 16e9 52bd 8acd 7dbd 20f1 3b3e
00000030: 8b2b 753e 9e16 c83d 95a9 c23d 07ce 02be
00000040: 02a7 9dbe ea1a 283c cf5d 0d3d 7a80 7dbe
00000050: 5a76 933e 10f0 7d3e dc8e e2bb 594f 6b3d
00000060: 722d 1ebe a55b 1dbe 3bf5 9dbd 96a9 503e
00000070: 2dbc 5abd 41f1 1e3e af55 5fbd 0257 97be
00000080: 420e 9c3d 89e1 8d3e dddb 75be 7e70 ca3e
00000090: 039f c33d 843a bbbd 3cfe 0f3e 2b36 593e
000000a0: e480 663e f8a8 ae3d c54d e73e 11ad a83c
000000b0: 471e 193e 8644 123e 3659 5bbe fed3 a33e
000000c0: c060 82bc 790e 8f3c f17e 8e3e abf7 fcbd
000000d0: 07a9 54bd d96a ea3d 5b1c 403e 7beb fcbd
000000e0: 6616 413b 8359 11be 145e 21be a421 49be
000000f0: 0fec 5f3e a7f1 1abe be64 f1bc 3e4e c13d
