controller/PPO_CartPole-dm_0_160000.pth (torch, 41263 bytes, 10 tensors)

actor.0.weight f4 [64, 5]
00000000: 987f 103e 3ff0 97be bc26 e1be 9576 da3d
00000010: 04d6 9dbc 2c3f d93d 3695 fa3c fcc3 22bc
00000020: 03a2 023d d26f 02bd 8bb7 9d3c 1af0 133f
00000030: f8e3 2d3e 2080 f73d a5fc 693e 7c2c cabe
00000040: 4127 9abe b13d 1e3f 8bbe a13d 238b 2cbd
00000050: 4159 f93d 890a 18bf 81da 00bf ec50 533e
00000060: b042 93be 958d f5bc c7d4 113f 5e29 df3e
00000070: 1a3c c53d 1e78 263e 4296 b53e 8bc0 2a3e
00000080: 9673 01bf 1ea0 34bc 912b 883e 0239 e4be
00000090: bf9d 083e d79e 0d3e 864b 833e d56e 84be
000000a0: 0a19 fdbc 6254 a53e 2423 8e3e 7dde d33e
000000b0: ab58 ccbe e70e e63d bfbd e73d f3b9 60be
000000c0: 6551 00be a2ef 36bd a694 9abe 78a9 e0be
000000d0: de91 b33c fd20 48be c65e 9c3d e35d b4be
000000e0: 1df6 693e 3b19 4a3d dbef b93e 96c2 07bf
000000f0: 9b9f 5ebe fd2b babe 0b02 68be 0979 fabe
00000100: 3994 c0ba 63a5 633d e7a5 ae3e 4d24 2d3d
00000110: b684 7d3e 9f50 a9be 88e8 7fbe 82b6 343e
00000120: a4c7 3bbd 6b35 5f3d 5cf8 efbe 7a2b 183e
00000130: b5cb c9be 9a2c 0d3e 6fe6 84be 8883 24be
00000140: 072b 8cbe 77c8 82be 0636 d2bc c304 80be
00000150: 46c4 713e 4a71 a93e b177 00bf 45f5 b6be
00000160: 8749 813e acf6 92be 75d5 b1be 0cbb 1fbf
00000170: 3c18 d13e 6b2e 9bbe b52f f53e 1173 d63d
00000180: 55d5 4abe 6f8d 48bc 95e8 cebe a9b7 173e
00000190: 545b 3d3e 289d d73d c004 dd3e cbc8 943b
000001a0: 5b7b 2dbe 6703 89bc b7e5 1d3f 6129 fe3e
000001b0: cddc 193e c6f5 e5bd c202 5fbe a2d7 6fbe
000001c0: e40d 2e3e d032 85bd c71e 9ebc b1d1 93be
000001d0: 8e4d b43c 2307 063f 26ee 93be fd24 05bf
000001e0: a8d2 c0bb 6075 3abe ba83 7f3e 44f6 75be
000001f0: 7a92 093f 35a4 60be 8c9c eabd f468 0b3f
00000200: 795b a9be 2b30 38be c057 373e 6dd3 56bc
00000210: f14c 31bf c747 403e fa4f 4cbd 2e50 e1bb
00000220: 6bb6 dd3e 3714 d83e cc44 71be 6086 243e
00000230: 00a1 b4be 252d 053f 4ef2 a83d d83b d73e
00000240: c359 713e 8a6f db3e ccad 833d 5ce1 73be
00000250: 5c2a 94be 72ba 38bd 7125 a1be afe6 b53d
00000260: e65c cf3e 9852 493e c147 f0be 28c6 6a3e
00000270: de9b 9fbe 3108 103f 096b 37bc 5f77 83be
00000280: 59cb a0be 0a0c 85be 936e 8fbe 643a c0be
00000290: e029 793e 250e 12be da50 fdbe 8180 233f
000002a0: 9506 c3be bd13 003f e6c3 80bb 5faa 5cbd
000002b0: 075f a83e e42c bbbe 99a5 c63e aa71 c33e
000002c0: 44ce 1dbf 663f 7c3e 349e bdbd 1e72 39bd
000002d0: fdfd 33be d2a6 bfbe eea9 fbbd 40ad c8be
000002e0: 002b 90be 2843 babd 33e6 20bf 2da7 b9be
000002f0: 1504 0b3f 9267 9ebd 6fb7 b63e 82b1 8d3c
00000300: cfcd 10bf 93a9 82be 5baa e8be e3fd ef3d
00000310: 3496 083e 3df7 32be 0ce1 7bbe 6621 97be
00000320: 6dd4 803e 33a7 16bf e708 debe f942 e1be
00000330: e460 3bbe 9d4c 313e 5818 d13e 2b73 2ebe
00000340: 79ed 9d3d aa56 2c3e 761b 5d3b 2b44 e9bd
00000350: 38bd a4be 1f43 273e d1c5 7cbe a69a 6abe
00000360: a537 b13e 5349 13be 8019 91bd f979 c23e
00000370: 3778 c1be fb7d 8a3e 15bd 02bf 2c82 e3bd
00000380: 29da e7be 4926 a5be 54db 19be e796 c53c
00000390: 8608 853e 7af8 acbd 7028 f5bd 9055 f23e
000003a0: 91d2 b7bc c5ba 083f afac 6abe 1133 e03e
000003b0: 6673 d73e 3301 b93e d29a 843c fbef aebe
000003c0: e4f7 aabb 2cc2 a3be edc1 e23d 71df 7abe
000003d0: 7099 cc3e df30 ad3e 3f65 d2be 11c3 bc3d
000003e0: fd15 ad3c 3e73 17be a1c5 fd3e eef3 64be
000003f0: 2967 ebbe a856 d3be ab66 0ebe ade3 ebbd
0.14111173 -0.2967548 -0.43974864 0.10667149 -0.01926709 0.10607752 0.030588727 -0.009934422
0.031892788 -0.03184492 0.01925256 0.5778824 0.16981494 0.12084985 0.22850282 -0.39487064
-0.30108073 0.61812884 0.07897671 -0.04212488 0.12175227 -0.59391075 -0.5033341 0.20636338
-0.28761816 -0.029974738 0.569653 0.43586248 0.09630604 0.16256759 0.354662 0.16675012
-0.50566995 -0.011024503 0.2659574 -0.44574744 0.13341425 0.13830124 0.25643557 -0.25865808
-0.030895729 0.3229094 0.27761185 0.41380683 -0.39911398 0.11233311 0.11315488 -0.21945934
-0.1253105 -0.044662125 -0.30191535 -0.43879294 0.02192014 -0.19543834 0.07635264 -0.3522788
0.22847791 0.049340468 0.36315808 -0.5303129 -0.21740572 -0.36361685 -0.2265703 -0.48920467
-0.0014692611 0.055577647 0.34110948 0.042270947 0.24757656 -0.33069322 -0.24991047 0.17647746
-0.04584469 0.054494303 -0.4686917 0.14860335 -0.3941323 0.13786545 -0.25957057 -0.160658
-0.27376577 -0.25543568 -0.025660526 -0.25003633 0.23610029 0.33094245 -0.50182635 -0.35734
0.2525141 -0.2870382 -0.34733167 -0.62394786 0.40838802 -0.30308852 0.4788796 0.10471166
-0.19807942 -0.012240752 -0.4041182 0.14816155 0.1849187 0.10528022 0.43167686 0.004540538
-0.16941588 -0.016725255 0.6167864 0.49640945 0.15025635 -0.11228518 -0.21778396 -0.23422101
0.16997486 -0.06503832 -0.019301785 -0.2887092 0.022009637 0.5235464 -0.2889263 -0.52009565
-0.005884487 -0.18208838 0.24952593 -0.24019724 0.5373913 -0.2193764 -0.1145564 0.5445702
-0.330776 -0.17987125 0.17904568 -0.013111931 -0.6925803 0.18777381 -0.04988096 -0.0068760132
0.43303236 0.42202923 -0.235614 0.16066885 -0.35279083 0.5202201 0.08249341 0.42037845
0.23569398 0.42858535 0.064296335 -0.23816437 -0.28938568 -0.045099683 -0.31473878 0.0888189
0.40500563 0.19660413 -0.46929744 0.22927153 -0.31173605 0.562625 -0.011194953 -0.2567701
-0.31405142 -0.25985748 -0.2801405 -0.3754455 0.2433238 -0.14263208 -0.49475747 0.63867956
-0.3809096 0.5003012 -0.003929603 -0.053873416 0.32885 -0.36557686 0.38798216 0.38172656
-0.6164286 0.2463356 -0.092586905 -0.045274846 -0.17577358 -0.3743196 -0.12288271 -0.3919468
-0.28157806 -0.0909484 -0.62851256 -0.36260357 0.54303104 -0.07734598 0.35686824 0.017296556
-0.5656404 -0.2552 -0.4544247 0.11718347 0.13338548 -0.17477126 -0.24597567 -0.29517668
0.25162068 -0.58848876 -0.43366167 -0.4399641 -0.1829868 0.17314382 0.40838885 -0.1703612
0.0771131 0.16829935 0.0033738292 -0.11389955 -0.32175612 0.16334198 -0.24684836 -0.22910556
0.34612766 -0.1438344 -0.07084942 0.37983683 -0.3778703 0.2704924 -0.51069766 -0.11108813
-0.4528363 -0.32255772 -0.15025073 0.024119807 0.25983065 -0.08445831 -0.119706035 0.47330904
-0.022439273 0.5340999 -0.22917436 0.4378896 0.4208023 0.36133727 0.016187105 -0.34167466
-0.005217539 -0.3198408 0.11072145 -0.24499299 0.39960814 0.33826348 -0.4109287 0.092168935
0.021128649 -0.14790055 0.4956484 -0.22358677 -0.45977142 -0.4127705 -0.13906352 -0.11518035

actor.0.bias f4 [64]
00000000: 876a 85be c5de 1e3b f056 b8be e7f6 9fbe
00000010: d788 90be aae9 46bd b17c 113f ce1d d8bb
00000020: 085a dabe 64c7 3b3d 40ba 4d3d 4b46 cebe
00000030: d37c 863e 9500 58be a8c5 d33c 7ccf cfbe
00000040: c05c 573e a478 79be 0a04 763e d14b 023d
00000050: 9f16 5cbd a9a9 26be e43f afbd 9055 afbc
00000060: 339c 393e a1f1 10bf 2058 183d 2c59 983e
00000070: 56bb a4bd 0b99 e7bd 0076 e83e 62b1 b7be
00000080: c29e c5be ca42 3f3e 0eed b3bd d300 2ebd
00000090: 9705 eabe 8f5c a4be 71a6 31be 19cb bb3e
000000a0: 4af7 e9bc 932c 00bf 1a7a 673e 718f 663e
000000b0: ce4c c6be 5de1 c53e 7142 a33c 9085 b03e
000000c0: 2a0c a83e a867 d3be b5b0 113e 56cc 28b9
000000d0: 246e cdbe f017 0cbe ca06 bcbe 04f6 f1be
000000e0: 7aa2 09bf 2d35 1d3d df49 e13e 93bb fe3d
000000f0: 4aee 9bbe 3358 5c3e 54c0 acbe ecaf 863e
-0.26057836 0.0024241668 -0.36003828 -0.3124306 -0.282294 -0.048562683 0.5683089 -0.00659535
-0.42646813 0.04584445 0.05022645 -0.40288004 0.26267108 -0.21093972 0.025851086 -0.40587986
0.21031475 -0.24362427 0.24024978 0.031810585 -0.05373251 -0.16275658 -0.08557108 -0.021403104
0.18125992 -0.56618696 0.037193418 0.29755533 -0.08043544 -0.113084875 0.45402527 -0.3587752
-0.38597685 0.18677822 -0.08785449 -0.042481255 -0.4570739 -0.32101867 -0.17348649 0.3667839
-0.0285603 -0.50068015 0.22605172 0.22515656 -0.38730472 0.386485 0.019929143 0.344769
0.3282178 -0.4129002 0.14227565 -0.0001609785 -0.40123093 -0.13681006 -0.3672393 -0.47258008
-0.53763545 0.03838079 0.44001672 0.12438121 -0.30455238 0.2151802 -0.33740485 0.26306093

actor.2.weight f4 [64, 64]
00000000: 581b 02be a931 433d 6343 ffbd 9c72 df3d
00000010: 5e28 82bd 0078 f4bd 893f 8fbd ce4a dc3d
00000020: f7a1 2f3d 6294 e4bc 0808 82bc ea30 fdbc
00000030: cd8f 223c d50d 65bd f2de b4bd 96aa 5fbd
00000040: b412 6fbd ce6f f1bc 3ad5 2b3d 63c1 c23d
00000050: d969 0b3d 6ec2 d73c 2ed6 dc3d 9bb1 9dbd
00000060: 6086 e83d 0077 96bc 4905 a9bd 1b7e 8d3d
00000070: 7f99 29be f017 d5bd aad4 da3d 8b71 843d
00000080: 695a e53d a83d 0a3e 64c9 ffbc a123 de3d
00000090: 69d9 14bc f2e3 e73d 7dc5 a9bd e099 44bd
000000a0: e19f 483d 520f 1dbe c657 a43d d237 7b3d
000000b0: 8bd4 91bd bf41 c4bd 9324 62bd 58fc dbbd
000000c0: 2534 9d3c fbbb c73c 90f2 30bd e164 8bbd
000000d0: 4439 efbd 717b 813c 90a0 e7b7 b9d7 c33d
000000e0: da94 c1bd eae9 ac3d fd8d 813d 12aa 8dbc
000000f0: 3955 6d3d b0c7 ca3d bf71 e9bd 6244 90bd
00000100: 9ba3 e4bd b5dc debd 8ab4 07be c638 3cbd
00000110: 5643 ca3d cf52 353c f517 f0bc 42e2 bebc
00000120: 2ed1 803d 0b67 20bd 3144 e4bd fcd5 4f3d
00000130: 88b4 86bd ed04 ca3d 4385 5ebd 356c 0bbe
00000140: 525d 973d 8c6b efbd cf8c 4f3c 644e efbc
00000150: ccd8 b1bd 0078 1e3e 4c1f 793d 0f61 dabd
00000160: bf1c 813c 1ec8 d4bd 7259 c23c de95 f7bc
00000170: 4a09 d9bc c633 17be 9dd0 bfbc 6154 a9bd
00000180: f006 9a3d b80b d03d df0e a43d a1c3 823d
00000190: 41aa 4b3d e244 d3bd b412 86bd e9d1 e43d
000001a0: c4c5 693d dcbb 8f3d baee d73d 6243 c23d
000001b0: ba1a d93d f637 333e 501a 953d 69d9 a63d
000001c0: e5ec cbbd 5acd a73d b1ce 8e3d 289d 793d
000001d0: aa7c b4bd bb95 643c 5b28 d5bd e0ce 753c
000001e0: f101 d6bd d371 4bbc 2b31 15be 0877 a73d
000001f0: 4e09 463d ba86 d5bd dd10 893d 1f0b c4bb
00000200: 4b04 cd3d fea2 973c 3078 0ebe bd62 f73d
00000210: 7bc4 b83d c6f8 8cbd a8de 183e eaa7 d2bd
00000220: cabd 6d3d 50c5 c7bc 0ce1 84bd 3c5f 9939
00000230: 52d6 ebbd 2546 3dbd fa3d dabd a0ca d0bd
00000240: 46f1 583d dc4c a43c 597a 003e 7f72 a03d
00000250: 4635 993d d5aa 3a3e 0ab6 36bd 1ed2 ae3d
00000260: f140 c73d 3340 f73c 4397 913b 575b 233c
00000270: 706a 0fbe 6ae5 d6bd 7000 073e 114b e03c
00000280: e3dd 9a3d 59ec 043e 0a62 f03d 66ac 38bc
00000290: 92e5 b83c 095c b63d bce8 673d cdf4 803d
000002a0: 9cee 36bd 18a5 dbbd 186a ba3d 3a81 36bd
000002b0: 5b46 00be c72f 9e3d f12c ea3d efbf 78bd
000002c0: 9181 123e 4e97 aebc 4e6c 113d 9719 b53d
000002d0: d840 1f3d 10d3 afbd ba3e afbd 781f 053d
000002e0: 75d0 9ebd f4c8 93bd 8c0e 313d 9581 763c
000002f0: 27d8 1bbd 6675 073e 9185 d2ba 7954 c43d
00000300: 38a3 3fbe 4046 fa3d 3293 083e 1cea d53d
00000310: dff1 09be 1c8f 4dbc 38f6 1fbc 3e17 90bc
00000320: 605b 91bd dfbc 8aba 1dc7 50be cc5f cabd
00000330: 901f a7bd 2fa3 c23d 8360 103c 2380 8f3c
00000340: d9f6 1bbe efba e8bd 45a7 aebd 8f00 4b3d
00000350: 6a7e 94ba 7fc2 113e be76 6a3d ffc4 293d
00000360: 10b4 3d3d d913 b73d ccc3 0c3d 6567 8a3d
00000370: 395a 363e 348e 04bd 30ea 853d 5390 7a3c
00000380: 86b4 90bd 76a0 7c3d f6df ac3d ecf9 1dbe
00000390: d251 a0bd 89b7 11be eb7d 91bd cefe a33d
000003a0: 1e0f 6dbe d4dd 893d 9d52 a73c b1f5 e2bc
000003b0: f1df be3d 58dc 223d 5088 163e 98f8 cf3d
000003c0: 8dde 52bd 7a6f 22bc 9c58 bebd d933 d33c
000003d0: 3641 9c3d 4c94 c63d e35b dc3d 37a3 fdbb
000003e0: ca7f 8e3d 59ab 973d 03b3 90bc 75e7 d2bc
000003f0: bcbf 00bd aee3 553c c2d2 82bd 90bf 9a3d
-0.12705743 0.04765478 -0.12464025 0.10910532 -0.06355356 -0.11936951 -0.0699454 0.10756455
0.04287907 -0.027902786 -0.01587297 -0.030907113 0.00992198 -0.055921394 -0.08831586 -0.054606043
-0.058367446 -0.029472258 0.041951396 0.09509542 0.03403649 0.026337828 0.10783039 -0.07699891
0.11353755 -0.01836729 -0.08252961 0.06908818 -0.1656246 -0.10404956 0.10685094 0.06466969
0.11198885 0.13500082 -0.03122396 0.108466394 -0.009085038 0.11322774 -0.08289621 -0.04799831
0.048980597 -0.15337875 0.08024554 0.06133253 -0.071206175 -0.095828526 -0.05521066 -0.1074149
0.019189904 0.024381628 -0.043200076 -0.068063505 -0.116808444 0.015805932 -2.7612114e-05 0.0956263
-0.09452219 0.08443053 0.0632591 -0.01729301 0.057942603 0.099013686 -0.113986485 -0.07044293
-0.11164018 -0.1088194 -0.13252464 -0.04595258 0.098761246 0.011067106 -0.029308299 -0.023301248
0.06289898 -0.03916077 -0.11145819 0.05074118 -0.06577402 0.09864221 -0.054326307 -0.13615496
0.07390846 -0.11690435 0.012667849 -0.029212184 -0.08683929 0.15475464 0.060820863 -0.10663044
0.015760778 -0.10389732 0.023724291 -0.03022283 -0.026493687 -0.14765844 -0.023414904 -0.08268047
0.075208545 0.10158485 0.08010649 0.063849695 0.049722914 -0.10315873 -0.06546536 0.1117285
0.05707337 0.07018253 0.1054358 0.094855085 0.10600801 0.17501816 0.07280409 0.081469364
-0.099572934 0.081934646 0.06973017 0.06094089 -0.0881284 0.013951714 -0.10408088 0.015002936
-0.10449589 -0.0124172745 -0.14569537 0.08177 0.048348717 -0.10426088 0.066926695 -0.005982771
0.100105844 0.018510338 -0.13913035 0.1207938 0.09021851 -0.06883387 0.14928687 -0.10285933
0.058042325 -0.024386078 -0.06488237 0.0002925339 -0.11515488 -0.046209473 -0.10656352 -0.10194898
0.05296447 0.02005618 0.12546672 0.078343384 0.07480864 0.1822923 -0.0446072 0.085361704
0.097291835 0.03018198 0.0044430806 0.009970508 -0.14005446 -0.10492976 0.1318376 0.027379544
0.07561853 0.12980784 0.117374495 -0.011271572 0.022570405 0.08904273 0.056618437 0.06296692
-0.04466115 -0.107248485 0.09102267 -0.044556834 -0.12526838 0.077239566 0.11434353 -0.060729917
0.14307238 -0.021312382 0.035503678 0.088427715 0.0388802 -0.08585179 -0.08556886 0.032500714
-0.07754604 -0.07216063 0.043226764 0.015045543 -0.038047936 0.13228378 -0.0016061534 0.095864244
-0.18714607 0.122204304 0.133374 0.104450434 -0.13471173 -0.012546327 -0.009763293 -0.017589208
-0.070975065 -0.0010584852 -0.20388456 -0.09881553 -0.08160317 0.09503781 0.008812073 0.017517155
-0.15230884 -0.1136378 -0.08527998 0.04956108 -0.0011329178 0.1423435 0.057242148 0.041447636
0.0463143 0.089393325 0.034366414 0.06758002 0.17807855 -0.032362178 0.06538808 0.015293199
-0.07065682 0.061676465 0.08441155 -0.15427369 -0.07828106 -0.1423017 -0.07104095 0.080075845
-0.23150298 0.067317635 0.020425135 -0.027705045 0.09320057 0.039760917 0.14700437 0.10154837
-0.051481772 -0.009914273 -0.09294245 0.025781559 0.076296255 0.09696254 0.107597135 -0.007740404
0.069579676 0.07405729 -0.017663484 -0.025745133 -0.031432852 0.013054771 -0.06387855 0.07556069

actor.2.bias f4 [64]
00000000: 5faa 24be ea8b 573d 222f 94bd 55c1 43bd
00000010: 8957 863c 88a9 a83d 3127 d0bd 8a26 62bd
00000020: cb51 113d 3504 543d 69ff d53d 9288 833d
00000030: 0682 dabd e3b0 983d 7e38 d9bd 2d88 e9bd
00000040: 78b1 dd3c 234d 93bd 7dc4 8ebd e585 cc3d
00000050: 815a e2bd c27b 5cbd 4850 cd3d 3370 8ebd
00000060: d00d 94bd 0819 0cbe 431c 1dbe 4c7f 18be
00000070: 5e20 293b b5eb f63d 01c8 bbbd ce68 3d3d
00000080: 224f d93b 92a5 11bd 48e8 1abc 8efb 4b3d
00000090: 6d01 dcbd 1ab6 f73d 821c fb3c e28c ae3d
000000a0: 24a6 6a3d d871 64bd 174c df3d 7e64 aa3a
000000b0: bbce 7b3d 874f 3dbb 7761 76bd cc48 103e
000000c0: 69ff a6bd 8d0d fdbb 37d7 b13c 5d7c 27bd
000000d0: 94fb 95bc 364f cb3d 43de 05bd 1698 a7bd
000000e0: 1de7 fc3d 9330 193d c7da f03c 1702 3bbd
000000f0: e828 cc3d 99b6 e8bd 06d4 adbd 5647 6c3d
-0.16080616 0.052623667 -0.07235552 -0.047791798 0.016399162 0.082354605 -0.10163725 -0.055212535
0.035478394 0.051761825 0.10449106 0.06422533 -0.10669331 0.074556135 -0.10606478 -0.114029266
0.027062163 -0.07192447 -0.06971071 0.09986476 -0.110524185 -0.053828962 0.10025078 -0.06954994
-0.07229197 -0.13681424 -0.15342812 -0.1489231 0.0025806646 0.12056676 -0.09169007 0.046242528
0.006631748 -0.03555829 -0.009454794 0.049800448 -0.107424594 0.1209528 0.030653242 0.08522965
0.05728735 -0.055772632 0.10903185 0.001299992 0.06147645 -0.0028886513 -0.060151543 0.1409027
-0.08154184 -0.0077225626 0.021709068 -0.040890086 -0.018308438 0.09927218 -0.03268267 -0.08183305
0.12348769 0.03739984 0.029401196 -0.04565629 0.0996874 -0.11362953 -0.08487706 0.05768522

actor.4.weight f4 [1, 64]
00000000: 5f69 0c3e 6d19 8d3d 85ab 303e 51af 8fbd
00000010: a079 77bd 66e6 02bd 9dc0 f83d 4fd2 68bd
00000020: 8ea9 b9bd 5e73 1fbd 836d 083e 04a6 46bd
00000030: aa3a ff3d d5f3 efba 9697 acbc 06ee 4fbd
00000040: 5f5c a5bd 2f25 afbd f6c9 6bbd 6663 43bd
00000050: 4b28 06bc 8193 f63d aaa9 48be a159 6d3d
00000060: 2822 4c3e f377 6d3e af52 f23d 44c4 253e
00000070: f85a 7d3d 7c57 613d 4e12 a2bd b13c 04bd
00000080: 0187 d9bd 5a6f 2abe a826 c93d 6d6a d33d
00000090: 9ab1 ce3d 383b 293e dc07 853d 7ba6 e43c
000000a0: 55ce a43d 4125 cdbd 313a e0bd bac2 dd3d
000000b0: 9544 2dbe 348b d1bd e66a 143e 273d b8bd
000000c0: 2ea7 41bd 6b8b 72bd 709d 373e 5a78 51be
000000d0: 72ba 373e 9644 27be 9fc6 8bbd 6f78 b5bd
000000e0: 42f2 22be 45eb 203a f2e7 c03d a925 c1bd
000000f0: 24f4 b33d 78ed f5bd 09b7 e23d 87cc ac3d
0.13712071 0.06889615 0.1725293 -0.07015861 -0.060418725 -0.031958006 0.12146113 -0.05684119
-0.09065543 -0.038928382 0.13323025 -0.04849817 0.12462361 -0.001830692 -0.021068376 -0.050764106
-0.08074259 -0.08552014 -0.05756565 -0.047702216 -0.0081883175 0.12039853 -0.19595972 0.057946805
0.19934905 0.23190288 0.11832177 0.1618815 0.061854333 0.055015072 -0.079136476 -0.032284442
-0.10621453 -0.1664404 0.09821826 0.103230335 0.100924686 0.16526496 0.0649564 0.027911415
0.08047167 -0.10016871 -0.10948599 0.10828157 -0.16920693 -0.10231629 0.14493904 -0.08996039
-0.047278576 -0.05921499 0.17931151 -0.20456067 0.17942217 -0.16334757 -0.06824993 -0.088608615
-0.15912727 0.00061385735 0.0941924 -0.09431011 0.087868005 -0.12008184 0.110700674 0.08437448

critic.0.weight f4 [64, 5]
00000000: ea3e a6be 5c8f 193f c60f 0ebf 23de 023d
00000010: 7a37 8bbe b54d 813d d9e6 463f b1b2 b4be
00000020: 701d fcbd 464c 9fbe 766d 29bf 9c4b e73e
00000030: 89f2 cabe 87b0 03bf 696f 893c 651d 4a3c
00000040: 5d51 a23e 1df8 a83f 42e9 ce3c ef14 cf3e
00000050: 26b1 20bf 07eb 2dbe b6c8 003e 4630 1e3e
00000060: 1523 753d 98ea 973e 625c 113f 95d0 d0be
00000070: 1daf 073f 4314 2f3b db39 afbe b9d0 ae3e
00000080: 704f 05bf 34b5 d9bb 267a 5ebe c07a cebc
00000090: 3c74 2fbf 96fd d63d cfae 463e 9b5f 963e
000000a0: b50c a33c a330 abbe a80e 603f 1206 f53c
000000b0: 89e3 673e 0c56 8b3e 97bd 763b 4aea 31bf
000000c0: 1e43 d1bd 2446 0dbd dfb4 f63d a415 e23e
000000d0: 437f 84bf 088a 52be c1f7 8bbe 500d 30bf
000000e0: 0f77 3bbe fef5 0a3e 885e d23e 2a42 bf3d
000000f0: 2320 3fbe f16d eabe 01c4 2fbf 6a11 9bbe
00000100: 0ccc 783e 6f89 3abe bcc4 3e3f 7aa1 a23c
00000110: a19d dabe 1203 42be 88fd 95be a609 da3e
00000120: cd01 22bf 4798 87bd 15f1 51be ac09 f2be
00000130: ac02 d13d 7da9 abbe 167a adbd f6b7 5b3e
00000140: 7378 093f 15d4 00bf e8ba fb3e e5e8 d53e
00000150: f3e7 c43e 04fd 6a3e 2eec 4a3e f3e5 043e
00000160: 90df bcbd 7042 313d ef51 1ebf 44f8 313e
00000170: 1bf0 943e 0929 55bd ba28 993e 5250 283e
00000180: 3647 103f a444 433e bf52 06bf 8229 90be
00000190: ea2a 763d 4029 32bf f245 32be 609f bc3c
000001a0: f1a7 14be d5db 70be 730d 42be 1121 63bf
000001b0: 9510 ebbd 0b84 9fbe 9eab 92be 1161 b43d
000001c0: c07b 8d3e b398 a0be 480a 0f3e 337c 82be
000001d0: 0ba1 e4be 4e30 8d3e 3898 cd3e 51ef ab3b
000001e0: 0d8e 903d 39a1 d83e d89a 9c3b 1d51 b5bd
000001f0: eeb7 cd3e 28ee ccbc cd22 3fbd 3ba0 e63e
00000200: 2da4 803f 3ffe a8bd e101 ea3e d0eb 2cbf
00000210: 8f2f d03e 382c 23bb e052 9c3e b098 a1be
00000220: 018e 133f f516 053e c165 e5be e231 cd3e
00000230: 8840 ed3e 32a5 003f 563a f73e b2b0 013e
00000240: ece0 3bbd c381 42be 7c07 ffbe cd17 e63e
00000250: 63ff 6bbc 2be2 6bbc 273b 9b3e 4666 0dbe
00000260: 1357 93bd 51bf cb3e 3c71 68bc 3cc8 8dbe
00000270: ba2a 983e da96 64bd 0bc6 40bf 48f8 dabd
00000280: d7e1 cf3e d9e7 9bbc 8a23 6dbb 5a51 3cbe
00000290: a11b 2d3e f1a6 12be 79a6 e2bd cb5b 6b3c
000002a0: 4754 a5bc 5f98 9b3c 1228 193d a392 14bf
000002b0: 5cfa 293e 1ff5 e8be 7935 4f3e 99ce 813d
000002c0: 4c17 8dbe 5456 243f cdb6 2ebf ba95 0abe
000002d0: 4fbf 22bf 87ea 023e 505a 543e e7c4 c5be
000002e0: c978 cabd 9cc1 383f 338f b53d ec23 a9be
000002f0: 21af 2e3e cc5f 6fbd 20e0 10bc 4e22 b03e
00000300: 6385 0dbe 61d6 00be d077 07bb 224e d63e
00000310: 8828 d33e c9c0 903d 35d0 513e 4d60 7b3e
00000320: 6662 abbd 18bf b53d efab 623f 58d3 4f3e
00000330: 4eca 6b3e c689 24be 7355 b23e 6711 acbf
00000340: f7be 34be 9330 85be 2e25 a93c d313 51be
00000350: 7c63 723f 9c3b 013e 5bcf 3ebe 67ce 4d3d
00000360: a046 87be 2236 ac3f 3ad7 253e 9b08 7a3e
00000370: 05d2 ec3e 9d1c 1abf c858 8a3e 7ff2 e73d
00000380: 2772 823e 91c6 ed3c f7a9 53bf 75bd d0be
00000390: 2345 acbe 4ca0 1f3e 12e6 df3c 63f3 5a3e
000003a0: 6c06 1fbf c34e 36be efd2 a73e 9c2a 103d
000003b0: fd82 023f 09f0 66be 126a 0abe fb23 09be
000003c0: d8c6 25bd f4b2 17bf eafe 5d3f 948e d4bc
000003d0: 1426 933e abb5 e53e e9d7 20be d1f2 3ebf
000003e0: 4627 a8be 2b8f 373e 9eb9 8ebe f74d 1bbf
000003f0: d943 b4be 5bc1 e83e 309b 9d3e dd01 bc3e
-0.32469875 0.59984374 -0.5549282 0.031950127 -0.27190763 0.063136496 0.77695996 -0.3529258
-0.12310302 -0.3111288 -0.6618265 0.45174873 -0.39638165 -0.51441234 0.016776757 0.01233611
0.317027 1.3200718 0.02525771 0.4044566 -0.6277031 -0.16984187 0.12576565 0.15448102
0.05984791 0.29671168 0.5678159 -0.40784135 0.53001577 0.0026714958 -0.34223828 0.34143618
-0.52074337 -0.0066439155 -0.21726283 -0.025205016 -0.68536735 0.104975864 0.19402622 0.29369816
0.01990352 -0.33435544 0.87522364 0.029910121 0.22645392 0.27214086 0.0037649625 -0.6949812
-0.1021788 -0.03449072 0.12046217 0.44157135 -1.0351337 -0.20560467 -0.2733746 -0.68770313
-0.18307136 0.13570401 0.41087747 0.09338792 -0.18664603 -0.45787004 -0.68658453 -0.30286723
0.24296588 -0.1821649 0.7451894 0.019852389 -0.42698386 -0.18946484 -0.29294991 0.42585486
-0.63284 -0.066208415 -0.20502122 -0.47273004 0.10205588 -0.33527747 -0.08470552 0.21456894
0.53699416 -0.5032361 0.49166036 0.41779247 0.38458213 0.2294808 0.19816658 0.12978344
-0.09222329 0.04327625 -0.6184377 0.17379862 0.29089436 -0.052041087 0.29913884 0.1643689
0.5635866 0.19069153 -0.5247001 -0.28156668 0.06009952 -0.6959419 -0.17409495 0.023025215
-0.1451719 -0.2352136 -0.18950443 -0.8872233 -0.11477772 -0.31155428 -0.2864656 0.088075764
0.27633476 -0.313665 0.13968766 -0.2548538 -0.44654116 0.27575916 0.40155196 0.0052470346
0.07058344 0.42310503 0.004779201 -0.08853362 0.4017939 -0.025015905 -0.046664048 0.4504412
1.0050102 -0.082516186 0.45704558 -0.6754732 0.40661284 -0.0024898183 0.3053198 -0.31561804
0.57638556 0.12997039 -0.44804195 0.4007712 0.46338296 0.5025207 0.48286694 0.1266506
-0.0458688 -0.18994813 -0.49810398 0.44940034 -0.014404151 -0.014397184 0.30318567 -0.13808545
-0.071943425 0.397944 -0.014187153 -0.2769183 0.29720098 -0.055807926 -0.7530219 -0.10691887
0.4060199 -0.019031452 -0.0036184513 -0.18390408 0.16905071 -0.14321496 -0.110669084 0.014365147
-0.020181788 0.018993555 0.03739173 -0.5803625 0.16599411 -0.45499513 0.20235242 0.063382335
-0.27556837 0.64194226 -0.6824768 -0.13533679 -0.63573164 0.12784778 0.20737576 -0.38626787
-0.09886319 0.72170424 0.08865204 -0.3303522 0.17058994 -0.05844097 -0.008842498 0.34401172
-0.13820414 -0.12581779 -0.002067078 0.41856486 0.4124186 0.07068021 0.20489581 0.24548455
-0.083683774 0.08874339 0.885436 0.20295465 0.23026392 -0.16068181 0.34830818 -1.3442811
-0.17650972 -0.26013622 0.020647611 -0.20417719 0.9468305 0.12620395 -0.18633787 0.05024567
-0.2642107 1.345402 0.16195384 0.24417345 0.46253982 -0.6019991 0.2702086 0.11325549
0.25477716 0.029025348 -0.8268122 -0.40769544 -0.33646497 0.15588492 0.027331386 0.21381907
-0.62119174 -0.17803483 0.32778117 0.035196885 0.5098112 -0.22552504 -0.13517025 -0.13392632
-0.040472835 -0.59257436 0.86717093 -0.025946893 0.2873999 0.44865164 -0.15707363 -0.7458926
-0.32842463 0.17925708 -0.2787599 -0.6066584 -0.35208014 0.4546002 0.3078246 0.36720172

critic.0.bias f4 [64]
00000000: 3a6f 29bf c426 09bf 592f 63be db1e 7a3e
00000010: 1cab 21be 1ee6 9cbc e9e4 76be cc41 e63e
00000020: 1025 84bd 0d72 d33e fecb b3be 981b 293e
00000030: 8ea2 b5bd 5dad fcbd 05f9 90be 8ba0 f03c
00000040: 9231 033f 97f7 3ebd d4e8 cebe 973b bc3d
00000050: a0c3 1a3f 4d6b 13be dcfb 8dbd b836 64be
00000060: 668d b6be 6dc3 9e3d 66cc 8fbe 886b 11bf
00000070: 414d 44be cc1b 933e 4acb 803e aeae ca3e
00000080: ec89 5abe 2ee0 febe 6c5c 86be f25e c63e
00000090: 9292 39be a48f eebe fa4a d13e 75b2 cdbd
000000a0: 2652 c53e 4102 9cbd 59ab 2cbe 88c2 573d
000000b0: 1c82 69be d6fa b23e dfb6 8fbe 3282 f7be
000000c0: e1be f9bd 0ce6 c0bd 6202 c43e 376e 60be
000000d0: 5b8d 90bd 2a52 083f e14a 4d3e 501f 0bbf
000000e0: f115 af3e 0883 01bf 9484 c83e d666 c33e
000000f0: d50d 173e aed2 b3be 2e4b 7b3e 7e2e ed3e
-0.66185343 -0.53574777 -0.2218603 0.24425833 -0.1578793 -0.019152697 -0.2411076 0.44972074
-0.064523816 0.4129795 -0.3511657 0.16514432 -0.088688955 -0.12337754 -0.28314987 0.029373428
0.51247513 -0.04662284 -0.4041201 0.09191053 0.6045475 -0.14396401 -0.06932804 -0.22286499
-0.35654753 0.07752118 -0.2808563 -0.56804705 -0.19170095 0.28732145 0.25155097 0.39586395
-0.21341676 -0.4978041 -0.26242387 0.38744313 -0.18122318 -0.46593964 0.40877515 -0.100438036
0.38539237 -0.076176174 -0.16862239 0.052675754 -0.22803539 0.34956998 -0.28069207 -0.4834152
-0.121946104 -0.09418878 0.38283068 -0.21917044 -0.070582114 0.5325037 0.20048095 -0.54344654
0.34196427 -0.5059056 0.3916365 0.38164395 0.1475137 -0.35121673 0.24540398 0.46324533

critic.2.weight f4 [64, 64]
00000000: 33ae b13d ad48 d93c 8ef2 353e 03b3 6fbe
00000010: db5d 00be 08fb 2c3d 1b2a 09bd a14a 8b3d
00000020: 314a 81bd 0346 ea3d 0db4 e9bd 6454 fbba
00000030: bfec 6dbd 37df b2bd 7c90 0ebd 394f 6b3d
00000040: 358e fe3c aad1 c43c 7377 d3bd 4dfd 0b3d
00000050: e3d8 27bd 35da b43c 6c1e 7a3c 8c48 453d
00000060: b947 81bd 77e9 9ebd a7e9 a03d dfcf e8bb
00000070: d3b2 94bd c08c 323e c11c 103e 85c0 7a3d
00000080: 62d9 1e3d aedd e8bd 0c65 413b de61 f6bd
00000090: 4d60 ea3c a5c2 4f3e 63b1 903d ee39 263d
000000a0: 1244 0abe 0223 b43b bc19 0abe c00c d53d
000000b0: 7757 dbbc e289 383e f634 01be 9f21 c13d
000000c0: 36b4 f63d 79d2 32bd a8c9 9f3d a0b1 a13d
000000d0: 4ee9 3cbd ac20 95bc a938 1fbe 5ccf cebe
000000e0: c0d2 003e a416 12be 63d9 eabd ee8e 07be
000000f0: 6266 583e b12d 40be 1535 b4bd b7ab d6bd
00000100: 6f2f 9ebe 6114 923d 659e 2ebe 98d1 0c3e
00000110: 918f 47bc af36 793e 6c85 b0bd b3c7 61bd
00000120: 3f08 e9bd 468a fd3d 48fe d4bd 8c17 043d
00000130: a219 30bd ed71 00bd 979a 52be 5c07 453c
00000140: 8553 b03d 15bd 4c3e eace a9bd cf71 71bd
00000150: 7b6b 9dbc 8d17 7e3c 2c2b a2bd f82f 1fbd
00000160: c3dc 803d 7aa6 153d 846b 34be ff71 ba3d
00000170: 3078 953b 46fe 86be 087d fa3d be3e 653d
00000180: 527a d2bc 9600 fd3d e6d5 4abe 0d37 49be
00000190: 3143 15be 6a88 70bd d91b c2bd cc63 aa3d
000001a0: 8df7 6b3d 5316 943c 0c7d a4bd 9b24 9bbd
000001b0: 5219 cabb bf87 acbd ee3a 2f3e d037 a33c
000001c0: 7ba7 84be a8c9 4b3d 5970 a7bc f80a a23d
000001d0: cd1c 1a3e a1b4 413e 53cc e9bd 18d1 cb3d
000001e0: 649a 5cbd 0b94 243e b3c0 0a3e 4607 8ebd
000001f0: 2391 b93d 8440 ad3d bfce 173d c5d4 07be
00000200: 8b40 80be 3dcb 11be 6ec7 623c 8a9f da3c
00000210: 1c82 69be 6a15 f03c 1c75 60be 7ea2 9c3e
00000220: 2244 433e 226f ac3d 21bb 3dbe 269d a83d
00000230: 5890 aa3d fd6c 62be 4b5f 22be 4ad9 d5bc
00000240: 2bef e13e 6465 833d 8696 ccbd c9f1 75bd
00000250: a279 9d3d f511 63be 0efb dfbc 11e2 93bd
00000260: c29b 923d 3c1a 91bd b7ad aa3e 0275 e8bd
00000270: 2ec8 d43d e100 193e 07a2 e53d f0b1 4bbe
00000280: d174 13be f0bc 56be f69b 613e d690 e83d
00000290: d1b7 61be 7a2b 633e 1edd 0b3e e0a6 913d
000002a0: 51f3 2f3e eabd 8cbe 412e 0bbe fc66 893e
000002b0: 5aed 983e 4c33 553e a4e2 4fbd 6283 98be
000002c0: c55f a63e 30ea c1bd 1629 273e 9ec4 0d3e
000002d0: 1e9f 343e 3c68 19bd 396b 993c 33ec 31bd
000002e0: f342 bfbc 7589 b8bd 5557 bebe dac2 5fbd
000002f0: a5b9 973d f9dd 053e 33f9 f5bd 9138 79bd
00000300: cafa 53bd 8bca cebc 6e2e 71be e484 633e
00000310: 18f9 83bd d059 86bd d7d8 c13c 7b80 0b3c
00000320: 5995 a83d 8281 9f3d fe91 7e3c 3708 093c
00000330: 7175 18be 8ecd b0bd 8e26 b1bd 507d cdbd
00000340: 467a 04be 7926 debd b49d bdbd 8bdc 153e
00000350: b223 b33d b9d7 983d 692c b13d 1e09 02bd
00000360: 542f e13d b620 cc3d 7652 92bd f753 953d
00000370: 9e73 ad3d ebb3 bdba cc81 89bb 4065 41bd
00000380: d437 b13d e22c 5a3e baf4 1bbe b465 233e
00000390: 404b 8fbd f233 7abe ac9f 03be eda5 afbd
000003a0: 8098 c6bc 89e5 97bc e53d d13d fee2 cebd
000003b0: c346 8c3c f042 3a3d fc2e a93c 9885 1bbe
000003c0: b8a8 90bd b0ce 2ebd a089 93bd aed3 8b3d
000003d0: 74fc 483e 64f8 1c3e 0991 7bbd b73f 193e
000003e0: 0cda 113e c95c 0a3d 910a 973e 4b83 f2bc
000003f0: 3fa3 693b 2b97 d73d 744a ee3c f96d 4e3e
0.08675804 0.026523912 0.17768309 -0.23408131 -0.12535803 0.04223159 -0.03348742 0.06801344
-0.06312979 0.11439135 -0.11411295 -0.0019174931 -0.058087107 -0.08733981 -0.03480576 0.0574486
0.031073669 0.024025757 -0.103255175 0.034177113 -0.040978324 0.022076705 0.015266042 0.04816489
-0.06312508 -0.07759374 0.07857066 -0.0071048583 -0.072606705 0.17436504 0.14073469 0.061218757
0.03878153 -0.11370407 0.0029509692 -0.120303854 0.028610373 0.20289095 0.07065084 0.04058259
-0.1350253 0.0054973373 -0.1348638 0.104028225 -0.026775105 0.18021348 -0.12617859 0.09430241
0.12046091 -0.043657754 0.07802135 0.078952074 -0.046120934 -0.018204056 -0.15548958 -0.40392578
0.12580395 -0.14266449 -0.114672445 -0.13238117 0.21132806 -0.1876743 -0.08799187 -0.10481971
-0.30895564 0.07132793 -0.1705261 0.13751829 -0.012180225 0.24337266 -0.08619198 -0.05512209
-0.11378526 0.12379889 -0.10400063 0.03224902 -0.042993195 -0.031358648 -0.20566784 0.01202568
0.0860968 0.19994004 -0.08291419 -0.058946427 -0.01921629 0.015508545 -0.07918391 -0.038864106
0.06292107 0.036535718 -0.17619139 0.09103774 0.0045614466 -0.2636587 0.12230879 0.05596804
-0.025693092 0.123536274 -0.19808158 -0.19649906 -0.14576413 -0.058723845 -0.09477968 0.08319816
0.05760913 0.018077051 -0.08031663 -0.07575341 -0.006167569 -0.08424329 0.17112324 0.019924074
-0.25909027 0.04975286 -0.020439314 0.079122484 0.15050049 0.1891656 -0.11415925 0.09951991
-0.053858176 0.16072099 0.13550071 -0.06934981 0.09060886 0.08459571 0.037062403 -0.13264759
-0.25049242 -0.14237686 0.013841493 0.026687402 -0.22803539 0.029307086 -0.21919674 0.30592722
0.1906896 0.084196344 -0.18528415 0.08233099 0.08328313 -0.22111888 -0.15856664 -0.026104588
0.44127783 0.06415823 -0.099896476 -0.060045037 0.07689215 -0.22174819 -0.027341392 -0.07220853
0.07158615 -0.07085082 0.3333566 -0.113504425 0.10389744 0.14941742 0.11212545 -0.19892097
-0.1440003 -0.20970511 0.2203215 0.1135575 -0.22042777 0.22184554 0.13658568 0.07111907
0.17182662 -0.27488643 -0.13591863 0.26836383 0.29868585 0.2082035 -0.05075325 -0.29787737
0.3249494 -0.09468496 0.16324267 0.13844535 0.17638823 -0.03745292 0.018727886 -0.043438148
-0.023347354 -0.09010593 -0.37176004 -0.054629184 0.07408456 0.13072957 -0.120104216 -0.06084496
-0.051752843 -0.025243064 -0.23552868 0.22218663 -0.06443995 -0.06560099 0.023662968 0.008514519
0.08231611 0.077883735 0.015537737 0.008363775 -0.1488855 -0.086329564 -0.08649932 -0.10033667
-0.12937269 -0.10847182 -0.09258595 0.14634912 0.08747043 0.07463021 0.08651049 -0.031746976
0.10995355 0.099671766 -0.071446344 0.07291406 0.08469318 -0.0014473175 -0.004196381 -0.0472157
0.086532265 0.21306184 -0.15230075 0.15956765 -0.06996775 -0.24433878 -0.12853879 -0.0857657
-0.02424264 -0.018542068 0.102168836 -0.10101889 0.017123586 0.045473993 0.020652287 -0.1518768
-0.070634305 -0.04267758 -0.07203984 0.06827484 0.19627553 0.15329129 -0.061417613 0.14965712
0.14243335 0.033779893 0.2950025 -0.029603621 0.003565028 0.1052688 0.029088236 0.20159139

critic.2.bias f4 [64]
00000000: 461d 8d3e f0ec 66be bc6d 153e 9c5b c3bd
00000010: e78f 0c3e 1504 543d 8125 1fbe c3dc 14bc
00000020: 846c 2d3e e976 a4bd dbbb f23d 84e4 23be
00000030: 72d3 6bbe e29e 25bb cb86 5fbe 3f48 473d
00000040: 2e4d 8abe 0ec8 063e 0427 23bd d254 033d
00000050: adcd 263e 6b93 89be adcc 8e3c 42bd dabc
00000060: 5f7b a5bd fe43 fabd 211d 243d 2161 71be
00000070: fb11 dc3d bcc1 f8be 4a9a 093d 8f5f b83e
00000080: 29b3 c73c 99be 233e a4d6 ab3d e975 573d
00000090: 30dd d2bc c13c 78ba d4a0 98bd b7fc a7be
000000a0: fcc5 de3d 39dc 6bbe 097f 273e 666c 15bb
000000b0: 4912 a1be 9fdf 923d bd9d cf3e 14e1 29be
000000c0: c613 0bbe befa 03be 03ba cc3c 6632 be3c
000000d0: d813 043e 1e81 70bd fa0b 4fbe 82aa 643e
000000e0: b0f5 8c3d a683 b63e f833 f6bc 30d7 8bbd
000000f0: 03b9 f3be 79a3 603e f9f0 c53c 1803 67bd
0.27561396 -0.22551322 0.14592642 -0.095389575 0.1372677 0.051761705 -0.1554165 -0.009085837
0.16935927 -0.08030493 0.11852237 -0.1600514 -0.23029879 -0.0025271703 -0.21828763 0.048652884
-0.27012008 0.13162252 -0.03983213 0.032063313 0.16289397 -0.26870283 0.017431581 -0.026701573
-0.08080172 -0.1222 0.040066842 -0.23572208 0.10745617 -0.48585308 0.033594407 0.36010405
0.024377422 0.15990676 0.08390549 0.052602682 -0.025740236 -0.0009469502 -0.074525505 -0.32809994
0.10877606 -0.23033227 0.16357054 -0.0022800206 -0.31459263 0.071715586 0.40550032 -0.16589767
-0.13581762 -0.1288862 0.024991041 0.023217391 0.12898195 -0.058716886 -0.20219412 0.22330669
0.06882799 0.35647315 -0.030054078 -0.06828153 -0.4760209 0.2193736 0.024162756 -0.056399435

critic.4.weight f4 [1, 64]
00000000: 2ed7 02be 26c5 253e 0ffa 56be 4e0d be3c
00000010: 92c8 363e 25f2 01be 167c ae3e 77d5 393e
00000020: 5628 afbd f681 01bd cd2e 4abd 123c 3d3e
00000030: 8943 763e f23a ce3d f41b d33d 3296 ecbd
00000040: ed7a a2be c8cc 06bd a91c 6f3d 42c1 70be
00000050: b401 873e afd0 7b3e 66c6 87bc 788b 7c3d
00000060: ee50 06be 62c5 fcbd b64e f7bd 35cc 0c3e
00000070: 7fe9 27bc b5f8 0c3e b633 81bd 5630 8cbe
00000080: 1ffb 5a3d a220 743e 9288 78be fe58 a73e
00000090: f231 933d 8573 c5bd c247 b73d 021f 413e
000000a0: 1498 8a3e cacf 7f3d 990d c63e 36c0 15bb
000000b0: 59f0 fc3d be05 d63d 40f9 54be e889 893e
000000c0: d2cc 72bb 86f3 ba3c acf2 8c3e 5ab1 61bd
000000d0: 2140 10bc b181 e03d 355d 4f3e 777d 19be
000000e0: dda1 983b d342 38be ea18 d6bd 2362 22be
000000f0: 4a18 223e b0bf 1cbe c656 1cbd 62a8 6b3d
-0.12777397 0.16188487 -0.20993827 0.023199704 0.17849949 -0.12690027 0.34079045 0.18147837
-0.08552615 -0.03161808 -0.04936104 0.18479946 0.240492 0.10069837 0.10308066 -0.11552085
-0.3173441 -0.03291014 0.05837694 -0.23511222 0.26368487 0.24591325 -0.016574096 0.061656445
-0.1311681 -0.12342335 -0.1207556 0.13749774 -0.010248541 0.13766749 -0.06308691 -0.27380627
0.053462144 0.23840573 -0.24270847 0.32685083 0.07187261 -0.09641174 0.089492336 0.18859485
0.2706915 0.062454022 0.3868225 -0.0022850162 0.1235053 0.10450314 -0.20798206 0.26863027
-0.0037048352 0.0228212 0.27528894 -0.055100776 -0.008804352 0.10962237 0.202504 -0.14989267
0.0046579675 -0.17994241 -0.10453971 -0.15857749 0.15829578 -0.15307498 -0.03816869 0.05753363
