controller/PPO_CartPole-dm_0_0.pth (torch, 41129 bytes, 10 tensors)

actor.0.weight f4 [64, 5]
-0.060717847 0.24106254 0.15957518 -0.15011285 -0.3330809 0.37094417 0.16210341 0.6690878
-0.62446207 -0.05332815 -0.13501725 -0.44716612 -0.66885513 -0.60867584 0.07878896 0.0068943985
0.2522911 0.72511137 0.3393562 0.09674847 0.04663694 0.13521743 0.43775353 -0.04727671
-0.056392387 -0.25266716 -0.035672907 0.15902822 0.21265389 -0.21299708 0.033961296 -0.38111147
0.6208337 -0.5268997 0.103616215 -0.1189667 0.32967785 -0.00038908282 -0.19407122 0.1213129
-0.16423777 -0.11845673 -0.5699218 0.7125875 -0.10733952 0.030480284 -0.39177135 0.35233516
-0.13363273 -0.38824305 -0.09626075 -0.78101903 -0.21152358 -0.45413938 -0.3112514 0.3970776
-0.43813586 0.30872437 -0.3975568 -0.061235316 -0.646178 0.10909863 -0.8257528 -0.30037573
0.11575938 -0.0052119484 -0.14070769 0.4788203 0.106393464 -0.14913435 -0.2951482 -0.19462918
-0.39187405 -0.58767945 0.25181815 -0.67927164 -0.1767662 -0.34465846 -0.49048567 -0.41909754
-0.287014 0.11457971 -0.74113894 0.20529544 0.14367479 0.067134894 0.0046735248 0.25102794
-0.015964286 -0.23029836 0.30226392 -0.3735927 0.13612725 -0.11866049 0.56982785 0.37503985
0.08142071 0.47576532 -0.04964318 -0.33529752 -0.16330339 0.056771863 -0.6853488 -0.25484344
-0.11436118 0.14391235 -0.15192355 -0.052596252 -0.15869188 -0.064066805 0.2634329 0.4191028
0.60368854 -0.16910738 -0.2743126 0.21534994 0.48514372 0.6702687 -0.3990721 0.21689366
-0.123593464 0.582088 0.10929745 -0.26233903 -0.10695451 0.24370116 -0.36714488 -0.11328185
0.5872055 0.0019890938 -0.21882863 -0.14049813 0.09727858 -0.39402232 -0.022860559 -0.8732995
-0.23937131 -0.7468136 -0.5555047 -0.4750417 0.20995896 -0.37827846 0.4820167 0.27751797
0.16766076 0.022839688 -0.465028 0.12032369 -0.20201065 -0.38116747 -0.2454543 -0.022697832
0.79407686 0.10284849 0.32382545 -0.17300794 -0.17119996 0.6578654 -0.14699583 -0.21934107
-0.29881167 -0.11491427 -0.52759755 -0.19453911 -0.1415464 0.5711728 -0.4143053 0.7914449
-0.09521724 -0.10575833 0.26399243 0.47311586 0.57157445 -0.67554504 0.30659765 0.33924973
-0.08107915 -1.2852373 -0.08470468 -0.38307533 0.17214744 0.50136435 -0.04503593 0.12261245
0.19275083 -0.195573 0.22952814 -0.80788195 -0.10904982 -0.6453951 -0.41757247 -0.02927548
0.030970236 -0.73650295 0.065853305 -0.115069196 0.07628223 -0.094213314 0.17849062 -0.16508308
0.37290263 -0.56265795 0.15549998 0.14853148 0.20868517 -0.49911723 -0.2543457 0.12639388
-0.7279934 0.07607795 -0.3953092 -0.36197144 -0.27484682 -0.5646324 0.30318582 0.18774958
-0.01369145 -0.46884653 0.38838556 -0.15705785 -0.35277098 0.5344672 0.5179503 0.16114627
-0.23834331 -0.19121724 0.44228873 0.34335956 -0.38282824 -0.071743555 -0.38088232 0.46232155
0.28503343 0.33710897 0.07232639 -0.2331189 0.04377449 -0.094172604 0.22328894 0.06428175
-0.57510144 0.2666678 0.2336761 0.29341033 0.24998435 0.4144924 0.29986677 0.6532454
0.12171913 0.1454138 -0.57092714 0.13672316 1.1139283 0.098721035 -0.37487587 0.32804278
00000000: 47b3 78bd 19d9 763e ad67 233e 2fb7 19be
00000010: 9489 aabe 65ec bd3e 70fe 253e 5749 2b3f
00000020: bfdc 1fbf 9e6e 5abd f641 0abe f5f2 e4be
00000030: 173a 2bbf 2ed2 1bbf 1b5c a13d 68ea e13b
00000040: 4d2c 813e e6a0 393f 19c0 ad3e 1024 c63d
00000050: 6006 3f3d 7076 0a3e 3b21 e03e 39a5 41bd
00000060: b4fb 66bd 975d 81be c11d 12bd 4bd8 223e
00000070: f1c1 593e e81b 5abe 001b 0b3d 0b21 c3be
00000080: f5ee 1e3f e6e2 06bf bd34 d43d d0a4 f3bd
00000090: 89cb a83e d0fd cbb9 9bba 46be e672 f83d
000000a0: f22d 28be 7199 f2bd 65e6 11bf 226c 363f
000000b0: d2d4 dbbd cab1 f93c 4196 c8be 4665 b43e
000000c0: 05d7 08be cbc7 c6be 5b24 c5bd ddf0 47bf
000000d0: a399 58be f584 e8be 585c 9fbe c14d cb3e
000000e0: 5853 e0be 1f11 9e3e 918c cbbe e2d1 7abd
000000f0: ec6b 25bf 1a6f df3d 8964 53bf d9ca 99be
00000100: 4113 ed3d fec8 aabb ad15 10be ef27 f53e
00000110: d1e4 d93d adb6 18be aa1d 97be df4c 47be
00000120: b7a3 c8be 2972 16bf 4fee 803e bfe4 2dbf
00000130: 3302 35be 1377 b0be f020 fbbe f493 d6be
00000140: 80f3 92be c4a8 ea3d 48bb 3dbf f838 523e
00000150: 7c1f 133e 057e 893d 5e24 993b bc86 803e
00000160: 89c7 82bc 55d3 6bbe 56c2 9a3e 8b47 bfbe
00000170: f164 0b3e 4504 f3bd 3de0 113f 3905 c03e
00000180: e7bf a63d 8397 f33e a656 4bbd 1eac abbe
00000190: 0139 27be 9d89 683d 0573 2fbf d77a 82be
000001a0: 3236 eabd c25d 133e d991 1bbe 2b6f 57bd
000001b0: 2080 22be 7535 83bd ade0 863e a494 d63e
000001c0: 558b 1a3f 7c2a 2dbe b372 8cbe b284 5c3e
000001d0: c264 f83e bb96 2b3f 2e53 ccbe 5f19 5e3e
000001e0: 921e fdbd b803 153f 57d7 df3d 4d51 86be
000001f0: f70a dbbd cc8c 793e 6afa bbbe 5100 e8bd
00000200: 1a53 163f 755b 023b 9d14 60be bede 0fbe
00000210: fe39 c73d 4bbd c9be 1146 bbbc 8e90 5fbf
00000220: c11d 75be 2d2f 3fbf 8e35 0ebf aa38 f3be
00000230: 7bff 563e b7ad c1be e5ca f63e d616 8e3e
00000240: 43af 2b3e 4c1a bb3c 2618 eebe 446c f63d
00000250: e1db 4ebe 6228 c3be 5f58 7bbe cef0 b9bc
00000260: 9f48 4b3f 3ba2 d23d 73cc a53e fe28 31be
00000270: 0b4f 2fbe de69 283f 1386 16be f29a 60be
00000280: d8fd 98be 2c58 ebbd a210 07bf 4335 47be
00000290: 8af1 10be 6138 123f d31f d4be 229c 4a3f
000002a0: 4201 c3bd d397 d8bd 042a 873e 3e3c f23e
000002b0: b452 123f 85f0 2cbf 5efa 9c3e 24b2 ad3e
000002c0: d30c a6bd a882 a4bf a679 adbd 7322 c4be
000002d0: 6b47 303e 6a59 003f 9877 38bd 3c1c fb3d
000002e0: 7960 453e 4a44 48be 6d09 6b3e 5ad1 4ebf
000002f0: 8355 dfbd 9d38 25bf 0fcc d5be 22d3 efbc
00000300: 4bb5 fd3c 758b 3cbf 19de 863d 66a9 ebbd
00000310: dc39 9c3d e9f2 c0bd 3fc6 363e 8a0b 29be
00000320: 18ed be3e 5a0a 10bf 633b 1f3e a318 183e
00000330: 91b1 553e 4b8c ffbe 9939 82be 666d 013e
00000340: c75d 3abf c2ce 9b3d f865 cabe 5254 b9be
00000350: b9b8 8cbe c08b 10bf 2c3b 9b3e 6d41 403e
00000360: 1a52 60bc a70c f0be 79da c63e c6d3 20be
00000370: 669e b4be d8d2 083f 6498 043f 8703 253e
00000380: 4510 74be 74ce 43be ab73 e23e d3cc af3e
00000390: 1002 c4be 49ee 92bd 0203 c3be 69b5 ec3e
000003a0: e7ef 913e 8c99 ac3e dc1f 943d b9b6 6ebe
000003b0: e14c 333d 91dd c0bd dba5 643e 26a6 833d
000003c0: d939 13bf af88 883e ca48 6f3e e139 963e
000003d0: e6fb 7f3e 5938 d43e 2388 993e 173b 273f
000003e0: e147 f93d 5be7 143e 4828 12bf 2801 0c3e
000003f0: 3495 8e3f 412e ca3d bbef bfbe 39f5 a73e

actor.0.bias f4 [64]
0.06165811 -0.36747158 0.02893714 0.037547566 0.11836943 -0.23137623 -0.35272747 0.32164922
0.16802405 0.15573107 -0.001551926 0.29129702 -0.07867933 -0.4984254 0.30310354 -0.19317132
0.40670988 -0.40266696 0.49927428 -0.3289422 -0.18068245 -0.33849636 0.15633187 0.12112678
0.16641021 -0.041177373 -0.21955882 0.079815485 -0.31275025 0.024451157 0.075930186 -0.71376574
0.05955472 0.012531047 0.33762783 -0.29138035 -0.07200353 0.18958175 0.24959871 -0.3371751
-0.36754775 0.12159029 -0.16277261 -0.31956732 0.3166981 0.11889915 0.23612185 -0.12418683
-0.109314136 -0.013255997 -0.13303088 -0.47248027 -0.57094616 0.14937446 0.020286486 0.09373569
0.35126758 0.022155594 -0.061499763 0.34370613 0.15971486 -0.05881827 0.062575296 -0.508278
00000000: 378d 7c3d 3c25 bcbe 950d ed3c 7acb 193d
00000010: ac6b f23d e4ed 6cbe b298 b4be 35af a43e
00000020: 7f0e 2c3e f777 1f3e ff69 cbba e224 953e
00000030: a122 a1bd 9d31 ffbe 6330 9b3e b4ce 45be
00000040: 473c d03e 5d2a cebe e1a0 ff3e 1d6b a8be
00000050: d204 39be 654f adbe 7615 203e 5111 f83d
00000060: 7067 2a3e 9ba9 28bd 07d4 60be 4d76 a33d
00000070: cd20 a0be cb4d c83c 4981 9b3d 5ab9 36bf
00000080: a6ef 733d 054f 4d3c 8edd ac3e ce2f 95be
00000090: 9676 93bd b821 423e ce96 7f3e 37a2 acbe
000000a0: 382f bcbe 5404 f93d ddad 26be 549e a3be
000000b0: 4126 a23e 6681 f33d edc9 713e aa55 febd
000000c0: 17e0 dfbd ae2f 59bc 3f39 08be efe8 f1be
000000d0: 8729 12bf 9ef5 183e d82f a63c 7ff8 bf3d
000000e0: 58d9 b33e a67f b53c 2de7 7bbd 40fa af3e
000000f0: 4b8c 233e 6deb 70bd 7a27 803d 821e 02bf

actor.2.weight f4 [64, 64]
-0.041327845 -0.04828975 0.04314476 0.026044574 -0.029836847 -0.049890358 0.097104706 0.03745257
0.0612481 0.07159859 0.06449107 -0.049248677 0.015570171 -0.009693346 0.08878194 0.08166922
-0.08808214 -0.06837441 -0.0038024806 0.04988466 0.180701 0.19313174 0.10449104 -0.012920082
-0.059806295 -0.1424359 0.044940475 -0.15073854 -0.069353305 0.09922697 -0.048699766 -0.07813462
0.013795494 0.037242334 -0.05093883 -0.16309275 0.065105096 0.042260364 -0.059576407 0.15436982
-0.077898696 0.054928046 0.018036239 0.057459652 0.15955757 0.12645192 -0.059999794 0.05062204
0.015487356 -0.0022785505 0.16340663 0.11648951 -0.0346978 -0.07285725 0.08403664 0.04550428
0.17975181 -0.010703929 0.05921866 -0.089367464 -0.11762666 -0.07098774 0.016978724 -0.0727317
0.0990813 0.14573447 -0.045102816 0.008750878 -0.0037170849 -0.06662158 0.12630309 -0.0406204
-0.18218005 -0.12854728 -0.16230194 -0.0029428583 0.17488247 0.13943982 -0.12944324 0.057272643
-0.15775494 0.09552039 -0.08116117 0.09896761 0.008091429 -0.10266778 -0.05092368 0.18968727
-0.12316267 0.0008776873 0.10636667 0.0015941837 0.016206626 0.016778136 -0.046647176 0.16857842
-0.07953641 -0.0721994 0.1365943 0.14545034 0.12358661 0.025148261 -0.00013231796 0.09389714
0.04752133 0.021887947 -0.042641073 -0.004839633 -0.15723391 0.0013419851 0.08189021 0.16473241
0.006661138 -0.09027103 -0.103582166 -0.05741625 -0.092134625 0.019474654 -0.09229143 0.0102376165
-0.038421948 -0.13623491 -0.05528644 0.19991955 -0.018924452 0.014582381 -0.16102326 0.022416024
0.053742006 -0.1554717 0.14454836 -0.015210925 0.10398686 0.041674804 -0.033860285 0.09303832
0.10102578 -0.05985908 -0.04427457 0.05965004 0.06290328 -0.080483586 0.03152323 -0.12744811
0.036070354 -0.029398827 -0.016538015 0.051534705 -0.030982638 0.0022109498 -0.0065051974 -0.14541465
-0.00080936233 -0.080034554 -0.06125461 -0.13298613 -0.0061948877 0.12398632 0.025526287 -0.090397514
0.10184448 0.21343683 -0.10881383 -0.16781941 0.034359515 0.092110716 0.1267882 -0.06586353
0.042090926 0.18510056 -0.10285188 0.08859859 0.036400203 0.08750659 0.045432538 -0.15308301
0.025027864 -0.008541108 0.06464459 0.096632786 0.12290991 -0.040051404 0.1087576 0.108177416
-0.029348562 -0.068151906 -0.063716255 -0.19758125 -0.111717604 -0.15951166 0.06382934 -0.06109158
-0.053301714 -0.09572514 0.0028311594 -0.06027105 0.07745341 0.0012691711 -0.09320106 0.09605349
0.10666531 0.16472939 0.121910885 0.16211578 0.048476946 -0.06632072 -0.10007139 -0.13960175
-0.042171903 -0.14313328 0.04183859 0.06744046 -0.001259044 0.0056455266 0.03833826 -0.04193107
0.055116802 -0.003755998 0.14045109 -0.12652433 -0.033894897 0.065962404 0.11470922 -0.13497742
-0.07493763 0.23647945 -0.09044526 -0.115266085 0.049617562 -0.074088566 -0.02416001 0.08537234
0.0010502951 0.27033395 -0.08643982 0.07822492 0.06620775 0.092360884 -0.19881989 -0.075604945
0.016925815 -0.017169453 -0.0047132075 -0.0140904235 0.02511804 -0.019467155 0.12257756 0.023520475
0.031451713 0.1041846 0.12678452 -0.062690295 -0.010630468 0.045038637 -0.063154936 -0.050480086
00000000: 6347 29bd 79cb 45bd 8fb8 303d 6e5b d53c
00000010: 676c f4bc d559 4cbd d5de c63d de67 193d
00000020: 4adf 7a3d 48a2 923d e513 843d fbb8 49bd
00000030: 081a 7f3c d7d0 1ebc 4ed3 b53d 3142 a73d
00000040: 6964 b4bd e207 8cbd 0a33 79bb db53 4c3d
00000050: af09 393e 54c4 453e 66ff d53d c0ae 53bc
00000060: 72f7 74bd b7da 11be 8113 383d 345b 1abe
00000070: 1b09 8ebd 8237 cb3d 6879 47bd 0b05 a0bd
00000080: 7f06 623c 6b8b 183d 3ca5 50bd c901 27be
00000090: d255 853d 3419 2d3d 6406 74bd 1f13 1e3e
000000a0: 5a89 9fbd 3bfc 603d bcc0 933c d05a 6b3d
000000b0: 0f63 233e 9d7c 013e 58c2 75bd 0e59 4f3d
000000c0: aebe 7d3c bc53 15bb 1154 273e 0d92 ee3d
000000d0: 481f 0ebd 2f36 95bd 671b ac3d b262 3a3d
000000e0: dc10 383e 885f 2fbc 448f 723d 4a06 b7bd
000000f0: 3fe6 f0bd 0562 91bd f716 8b3c 5cf4 94bd
00000100: 23eb ca3d 6b3b 153e bbbd 38bd d85f 0f3c
00000110: 569a 73bb e570 88bd 9955 013e 9461 26bd
00000120: 688d 3abe e6a1 03be 7b32 26be f8dc 40bb
00000130: 6414 333e 50c9 0e3e c58c 04be b896 6a3d
00000140: 838a 21be 32a0 c33d d437 a6bd 88af ca3d
00000150: ea91 043c 7c43 d2bd 5995 50bd 613d 423e
00000160: b63c fcbd 9914 663a c5d6 d93d eef3 d03a
00000170: c2c3 843c 4d72 893c 1c11 3fbd d29f 2c3e
00000180: fce3 a2bd 47dd 93bd 60df 0b3e eff0 143e
00000190: fa1a fd3d ba03 ce3c d5be 0ab9 254d c03d
000001a0: baa5 423d 5a4e b33c 68a8 2ebd c995 9ebb
000001b0: ed01 21be 8ce5 af3a 0eb6 a73d 9daf 283e
000001c0: ad45 da3b 05e0 b8bd e322 d4bd 4d2d 6bbd
000001d0: 14b1 bcbd 4f89 9f3c 4a03 bdbd adbb 273c
000001e0: 5560 1dbd 2a81 0bbe 0974 62bd b6b7 4c3e
000001f0: 7407 9bbc f0ea 6e3c 48e3 24be cfa1 b73c
00000200: 9420 5c3d f933 1fbe 7c04 143e 3e37 79bc
00000210: 10f7 d43d 33b3 2a3d 15b1 0abd e08a be3d
00000220: 9be6 ce3d cb2e 75bd 4059 35bd 9a53 743d
00000230: 6fd3 803d 94d4 a4bd 811e 013d c281 02be
00000240: 82be 133d cfd5 f0bc bb7a 87bc 0e16 533d
00000250: 4dcf fdbc 95e5 103b 8d29 d5bb 94e7 14be
00000260: 632b 54ba 28e9 a3bd 1de6 7abd 842d 08be
00000270: 7cfe cabb 8aec fd3d 811c d13c 5522 b9bd
00000280: d793 d03d 2f8f 5a3e c9d9 debd dad8 2bbe
00000290: 90bc 0c3d 8ba4 bc3d c4d4 013e 75e3 86bd
000002a0: 8967 2c3d 008b 3d3e 02a4 d2bd 2d73 b53d
000002b0: 6118 153d a836 b33d 7817 3a3d cbc1 1cbe
000002c0: 3c07 cd3c 01f0 0bbc 6264 843d 69e7 c53d
000002d0: 31b8 fb3d f10c 24bd 4ebc de3d 1f8c dd3d
000002e0: 656c f0bc 3a93 8bbd ab7d 82bd bd52 4abe
000002f0: 33cc e4bd 0657 23be f5b8 823d 2a3b 7abd
00000300: e652 5abd 8b0b c4bd f98a 393b c7de 76bd
00000310: e59f 9e3d 515a a63a 33e0 bebd b1b7 c43d
00000320: 5873 da3d d2ae 283e 6aac f93d ae01 263e
00000330: c38f 463d 28d3 87bd 3bf2 ccbd c3f3 0ebe
00000340: 72bc 2cbd 8891 12be f15e 2b3d 391e 8a3d
00000350: 8206 a5ba 1cfe b83b 9408 1d3d eabf 2bbd
00000360: 28c2 613d 3127 76bb 69d2 0f3e 988f 01be
00000370: 60d5 0abd 4c17 873d abec ea3d 8537 0abe
00000380: e678 99bd ab27 723e 5d3b b9bd a010 ecbd
00000390: c93b 4b3d bfbb 97bd 37eb c5bc b2d7 ae3d
000003a0: 0eaa 893a 3669 8a3e 5c07 b1bd 6334 a03d
000003b0: ee97 873d b427 bd3d 7197 4bbe c4d6 9abd
000003c0: 02a8 8a3c f4a6 8cbc 4071 9abb 85db 66bc
000003d0: 59c4 cd3c 9579 9fbc f209 fb3d 03ae c03c
000003e0: 83d3 003d bc5e d53d cdd3 013e c563 80bd
000003f0: 6a2b 2ebc 6f7a 383d 6057 81bd 35c4 4ebd

actor.2.bias f4 [64]
-0.072147906 0.07628217 -0.11294876 -0.06257531 -0.06473843 0.070489936 -0.097696975 -0.10261176
-0.084530756 0.02415198 -0.0641442 -0.054128163 0.034618374 -0.16152702 0.08043019 0.14919557
-0.048558116 0.026581043 -0.003287374 0.036922563 0.018720757 -0.021568174 -0.12216966 0.012629652
0.020232262 0.06463682 0.07034044 -0.0040250705 -0.07944804 -0.050297625 0.019437583 -0.0042725587
-0.030319259 -0.101265274 -0.056558844 0.0097389575 -0.19544618 -0.039447438 0.095921196 0.1301283
0.023931067 -0.0017411166 0.11244932 0.1276274 -0.013179202 -0.12546307 0.2850008 -0.12665726
-0.15465075 -0.116268985 0.049561337 -0.17797032 -0.039494395 -0.057015367 -0.053311035 -0.011053084
-0.12626138 0.22953002 0.017407313 0.01891147 0.13812673 0.020096796 0.11807727 0.044983488
00000000: 48c2 93bd d439 9c3d ae51 e7bd 7c27 80bd
00000010: 9595 84bd 075d 903d 5a15 c8bd 1d26 d2bd
00000020: 761e adbd 60da c53c 095e 83bd 7eb5 5dbd
00000030: ffcb 0d3d 5767 25be 95b8 a43d b9c6 183e
00000040: e0e4 46bd 7dc0 d93c fc70 57bb 1d3c 173d
00000050: 465c 993c bdaf b0bc 1634 fabd 9aec 4e3c
00000060: 21be a53c 4f60 843d a60e 903d bde4 83bb
00000070: a7b5 a2bd e204 4ebd 913b 9f3c d200 8cbb
00000080: 1860 f8bc 2b64 cfbd 3faa 67bd 2690 1f3c
00000090: 0b23 48be a393 21bd 5572 c43d 5a40 053e
000000a0: 160b c43c 2e36 e4ba d44b e63d c2b0 023e
000000b0: 94ed 57bc 6479 00be a0eb 913e 71b2 01be
000000c0: c45c 1ebe 6f1e eebd d400 4b3d da3d 36be
000000d0: e0c4 21bd f288 69bd ac5c 5abd ff17 35bc
000000e0: aa4a 01be eb09 6b3e c899 8e3c 3aec 9a3c
000000f0: 1871 0d3e 09a2 a43c 7fd2 f13d 9b40 383d

actor.4.weight f4 [1, 64]
0.14053892 -0.24906676 0.14713353 0.22030285 -0.18297662 -0.15209481 0.27633783 0.10607118
-0.09966346 -0.20130381 0.012227207 -0.17388994 0.05393081 0.18654025 0.29584113 -0.24936518
-0.19452836 -0.2728209 -0.015351354 0.2636984 -0.1462432 -0.12630875 0.2531587 0.16911657
-0.14129198 -0.11731084 0.135727 0.023405103 -0.03331969 -0.23904027 0.07765576 -0.111610234
-0.10684632 0.18081982 -0.08127353 0.029068692 0.34031144 -0.2804851 -0.04610385 0.038518414
0.26789156 0.009276167 -0.052714836 -0.14963308 -0.013194458 0.37689146 0.04925343 -0.1422821
0.13624892 0.15023877 0.1236946 0.14829174 -0.19673082 0.15199767 -0.113954395 0.022138905
0.00046857994 0.12505819 0.19014947 -0.112499006 -0.20931247 0.050031886 0.02910174 -0.019002173
00000000: 6fe9 0f3e 5b0b 7fbe 2caa 163e 1297 613e
00000010: 395e 3bbe bebe 1bbe 277c 8d3e d93b d93d
00000020: 5b1c ccbd 9622 4ebe a054 483c 3410 32be
00000030: 8ee6 5c3d 6804 3f3e 7d78 973e 9659 7fbe
00000040: 7132 47be 2eaf 8bbe 3f84 7bbc 7a03 873e
00000050: c7c0 15be 1557 01be 049e 813e e52c 2d3e
00000060: d8ae 10be aa40 f0bd 05fc 0a3e 0fbc bf3c
00000070: 3a7a 08bd f9c6 74be fc09 9f3d e893 e4bd
00000080: 3ed2 dabd d528 393e bd72 a6bd 7721 ee3c
00000090: 4d3d ae3e be9b 8fbe 64d7 3cbd 7cc5 1d3d
000000a0: 1529 893e 10fb 173c 83eb 57bd 6a39 19be
000000b0: 912d 58bc ebf7 c03e f7bd 493d 66b2 11be
000000c0: d684 0b3e 31d8 193e 9853 fd3d cad9 173e
000000d0: ce73 49be 47a5 1b3e ec60 e9bd a65c b53c
000000e0: bcab f539 410f 003e 8bb6 423e e165 e6bd
000000f0: 0256 56be 3cee 4c3d c666 ee3c 72aa 9bbc

critic.0.weight f4 [64, 5]
-1.0386328 1.0056853 -0.91565275 -0.6200458 0.1473771 0.47158593 0.24488614 -0.5599375
-1.9107913 -0.9208997 -0.1125776 -0.43103144 -0.5910311 -0.761731 -0.8019586 0.17544794
-0.28417167 2.2512717 -1.2677906 0.11797158 -1.4839163 0.8131771 0.71959746 -0.5208556
-0.5583404 -0.46072096 -1.0887966 1.0623351 0.84784025 0.25322843 -0.140134 0.1479116
-1.6365598 0.47194505 1.1587859 -0.68993706 0.14778869 -1.7290574 -0.29115805 0.3009302
1.034364 1.1479728 0.9408245 -0.38529828 0.38991156 0.8937954 -0.544798 0.6016314
0.06352422 0.25261837 -1.4948881 -0.2769156 0.030515447 -0.47514066 0.06930359 1.5821033
-0.3992972 -1.399072 -0.030267676 1.3608454 0.3628585 0.87889963 1.7109828 0.56237566
0.57287186 0.48174512 0.08416603 0.8524469 1.1059676 1.3445554 -0.17129482 0.82308275
1.1174341 -1.0299311 -1.4199468 0.14518486 -0.21811731 1.4203035 0.37950832 0.5342975
-0.44629967 0.8844705 -0.22682217 -1.2209605 0.33051437 -0.40690255 0.1286123 1.8110689
-1.1547208 -1.3313471 -0.79468316 1.0092511 0.19935445 -0.094025046 0.85289 0.5576278
0.025881015 1.5038195 -0.11680033 0.102551796 0.7570987 0.11869675 1.1111202 -2.111008
-1.6582671 -1.6120797 -0.3947512 -0.3434172 0.72409475 0.48928794 -0.70647126 0.39379367
-0.52427393 0.056926858 0.21231344 -1.628484 -1.0271386 -1.0437393 0.20645116 0.1607785
1.4651004 0.6661844 1.34019 0.44279915 0.07777805 0.07920678 -0.1899799 1.7726283
-1.461229 -1.8085147 -0.5103042 0.600458 -1.6770341 -0.9628733 -1.0980364 1.5573149
0.44718435 1.0116681 -0.21726853 -0.040069822 0.020238137 0.45153868 -0.4076301 -1.8311863
-0.8730282 0.24831039 -0.1376221 1.5654197 0.68330306 0.49968874 0.5555081 0.014774355
1.3978202 -1.1294879 -2.2267313 0.33691183 -0.3136102 2.6539998 0.6030468 0.45456374
0.10145936 -0.6612617 0.0642353 -0.095034555 -0.15613234 -1.4689202 -0.68389094 -0.827388
1.6886673 0.49834415 0.20472685 -1.041284 2.1460717 -0.32270092 0.44293183 -0.63035387
0.054244135 -1.9249498 0.020134032 -0.6463518 -0.30903864 0.66593343 2.271913 -0.17124024
-0.48783594 -0.013211019 0.10212899 0.80889916 0.5795415 0.10642811 0.83949214 -0.74744856
-2.0023346 1.0695112 1.4735932 0.34464735 -0.26055384 1.6912618 0.18932773 0.16831571
1.0196565 -0.28601217 1.9897915 0.8119886 0.8731862 0.38097456 -0.6141683 1.2714069
-0.0090975985 -0.37414923 -0.60148364 -1.361684 0.46901837 -0.41445974 0.35145956 0.20240067
-0.28658757 1.8288033 -0.82406133 -1.5033224 0.49798542 0.98473316 0.5903866 0.7562555
0.40804008 1.4057025 -0.05587123 0.46622205 0.33305213 0.63799983 1.1739216 0.046494123
1.2225826 -1.5292854 -0.7507562 0.031340543 0.6324059 1.6630933 -0.41894928 -0.6148574
0.29778287 0.18115394 0.27583352 -2.0408747 -2.2191052 0.42309114 -0.2077111 0.299721
0.13709427 -0.17807329 0.6377186 0.32406428 -0.38827288 0.37470803 0.29278758 -1.3594856
00000000: ebf1 84bf 4cba 803f 3868 6abf 52bb 1ebf
00000010: 06ea 163e b673 f13e 6fc3 7a3e 1058 0fbf
00000020: cf94 f4bf 15c0 6bbf 168f e6bd 27b0 dcbe
00000030: d04d 17bf ce00 43bf 294d 4dbf a0a8 333e
00000040: f37e 91be d614 1040 f646 a2bf 159b f13d
00000050: f8f0 bdbf 602c 503f 8a37 383f cb56 05bf
00000060: 65ef 0ebf 9ee3 ebbe b05d 8bbf 99fa 873f
00000070: 0f0c 593f 28a7 813e 4a7f 0fbe 2376 173e
00000080: cb7a d1bf c8a2 f13e 1953 943f b79f 30bf
00000090: eb55 173e c151 ddbf ab12 95be 8613 9a3e
000000a0: 0a66 843f c6f0 923f e0d9 703f d145 c5be
000000b0: 7da2 c73e c6cf 643f e277 0bbf 8404 1a3f
000000c0: fc18 823d 3257 813e 7e58 bfbf e2c7 8dbe
000000d0: 88fb f93c a345 f3be 0aef 8d3d 5c82 ca3f
000000e0: af70 ccbe cb14 b3bf ebf3 f7bc 2f30 ae3f
000000f0: 97c8 b93e 91ff 603f 7c01 db3f daf7 0f3f
00000100: bba7 123f 4ca7 f63e 3d5f ac3d f639 5a3f
00000110: 5990 8d3f 641a ac3f e967 2fbe 8db5 523f
00000120: 1508 8f3f c8d4 83bf d1c0 b5bf 57ab 143e
00000130: 255a 5fbe 81cc b53f ea4e c23e b9c7 083f
00000140: 6481 e4be a96c 623f 1244 68be 6f48 9cbf
00000150: 2e39 a93e 8855 d0be f1b2 033e 1bd1 e73f
00000160: e4cd 93bf 9569 aabf 5b70 4bbf 242f 813f
00000170: 9323 4c3e 3490 c0bd 0057 5a3f b2c0 0e3f
00000180: 6c04 d43c 287d c03f 0335 efbd ad06 d23d
00000190: 38d1 413f 4817 f33d 3039 8e3f c11a 07c0
000001a0: 1942 d4bf a158 cebf d41c cabe 61d4 afbe
000001b0: 465e 393f f383 fa3e 4ddb 34bf 539f c93e
000001c0: d136 06bf 232c 693d b268 593e 2a72 d0bf
000001d0: 4779 83bf 4099 85bf ef67 533e 1ea3 243e
000001e0: 6988 bb3f 108b 2a3f 598b ab3f 92b6 e23e
000001f0: 194a 9f3d 2a37 a23d 178a 42be 7ce5 e23f
00000200: 8d09 bbbf 697d e7bf 4ca3 02bf 9eb7 193f
00000210: 0ea9 d6bf dd7e 76bf 758c 8cbf 1856 c73f
00000220: 59f5 e43e 577e 813f a47b 5ebe 4120 24bd
00000230: 73ca a53c 1430 e73e e4b4 d0be 5064 eabf
00000240: c77e 5fbf 1445 7e3e cfec 0cbe ac5f c83f
00000250: f3ec 2e3f 34d7 ff3e c735 0e3f 2310 723c
00000260: c6eb b23f 0f93 90bf c482 0ec0 b57f ac3e
00000270: 8491 a0be 22db 2940 4661 1a3f 94bc e83e
00000280: edc9 cf3d 7248 29bf cc8d 833d 7aa1 c2bd
00000290: 28e1 1fbe 9405 bcbf 7a13 2fbf b3cf 53bf
000002a0: 4026 d83f f726 ff3e eaa3 513e cb48 85bf
000002b0: 3d59 0940 0e39 a5be f6c7 e23e df5e 21bf
000002c0: 192f 5e3d c164 f6bf 20f0 a43c 5077 25bf
000002d0: 503a 9ebe 9d7a 2a3f 0667 1140 9a59 2fbe
000002e0: a2c5 f9be 0873 58bc 0129 d13d 0414 4f3f
000002f0: d55c 143f fbf6 d93d f5e8 563f ca58 3fbf
00000300: 4026 00c0 bee5 883f b49e bc3f 9e75 b03e
00000310: 5067 85be 447b d83f 21df 413e f45a 2c3e
00000320: 1b84 823f 3070 92be 7db1 fe3f 7cde 4f3f
00000330: 2189 5f3f 190f c33e 223a 1dbf 76bd a23f
00000340: 180e 15bc 7d90 bfbe d5fa 19bf a94b aebf
00000350: 2d23 f03e 1134 d4be 82f2 b33e 1f42 4f3e
00000360: 9bbb 92be 3a16 ea3f aff5 52bf de6c c0bf
00000370: f2f7 fe3e 7917 7c3f 9423 173f f699 413f
00000380: a1ea d03e 0fee b33f 3bd9 64bd a8b4 ee3e
00000390: cf85 aa3e f553 233f 1043 963f 9f70 3e3d
000003a0: 967d 9c3f a0bf c3bf 8f31 40bf f15e 003d
000003b0: 5ae5 213f 3ee0 d43f 8580 d6be 4b67 1dbf
000003c0: ff76 983e 6b80 393e 0d3a 8d3e b19d 02c0
000003d0: d205 0ec0 679f d83e 38b2 54be 0875 993e
000003e0: 7162 0c3e d858 36be 8741 233f c1eb a53e
000003f0: b4cb c6be bbd9 bf3e 41e8 953e a003 aebf

critic.0.bias f4 [64]
0.58588094 0.32467422 0.7307326 0.42162976 0.32178777 0.7232073 -1.1319534 -0.98727274
0.41381472 0.79579663 -1.1735113 -0.629429 -0.17696856 -0.49507397 0.8043459 0.60515916
-0.20398048 0.8205132 0.70428103 0.8558371 0.69475615 -0.9834346 -1.208695 -0.30102235
0.59685546 0.86684823 0.2768805 0.8073425 0.29625672 -0.33792883 0.6349021 -0.68105733
0.9593999 -0.6477139 -0.10840584 -0.884155 0.20894732 -0.37698546 -0.70772815 0.8805677
-0.46135485 1.1179613 0.52030534 1.1111948 -0.28209794 0.266378 1.1114204 0.28964975
0.28240263 1.0920982 -0.48261264 -0.78120434 0.8768902 -0.58398235 0.58576995 -0.5441942
0.17659853 0.8839031 0.7947624 0.7579764 0.0013961286 -0.23452097 -0.12607108 -1.1840234
00000000: 4bfc 153f b33b a63e 4b11 3b3f dbdf d73e
00000010: 5ec1 a43e 1d24 393f d9e3 90bf e8bd 7cbf
00000020: 86df d33e 54b9 4b3f 9e35 96bf 4222 21bf
00000030: 3f37 35be 567a fdbe 9de9 4d3f b6eb 1a3f
00000040: 42e0 50be 270d 523f c34b 343f 2418 5b3f
00000050: 8adb 313f 5fc2 7bbf 85b6 9abf 9a1f 9abe
00000060: 85cb 183f c4e9 5d3f 48c3 8d3e 00ae 4e3f
00000070: f6ae 973e 0205 adbe f288 223f c659 2ebf
00000080: 3b9b 753f 94d0 25bf e203 debd fb57 62bf
00000090: 49f6 553e 3d04 c1be ac2d 35bf e36c 613f
000000a0: b436 ecbe 5b19 8f3f bb32 053f a23b 8e3f
000000b0: 246f 90be b262 883e 0643 8e3f f94c 943e
000000c0: 1497 903e e0c9 8b3f 0119 f7be 02fd 47bf
000000d0: e07b 603f de7f 15bf 05f5 153f 5050 0bbf
000000e0: 3fd6 343e 7947 623f 8c75 4b3f be0a 423f
000000f0: 4dfe b63a 4426 70be c718 01be 148e 97bf

critic.2.weight f4 [64, 64]
-0.42450744 -1.685367 -0.38130713 -0.4163656 -0.17565972 0.94423944 -0.04774001 -0.32839715
-0.35652435 0.17042243 0.06878847 -0.079915605 0.35850975 0.48829517 -0.46265128 0.7387158
-0.44471914 0.034158073 -0.36505458 0.05115166 -0.5180229 0.65390587 -0.12103001 0.52442104
-0.43177125 -0.76768243 -0.5417862 -0.6129544 -0.8105727 0.37264654 0.59793884 0.5658633
-0.5694576 0.8122622 0.13675319 -0.08719155 0.110769466 0.36135003 0.14751805 0.7335096
0.041340355 0.5749495 0.24807985 0.20003325 0.03160958 0.13832141 -0.29379132 -0.26896748
-0.9750877 0.09268854 -0.0568123 -0.167546 -0.11498824 -0.49312297 0.68658257 0.06963746
-0.6938682 -0.063120335 0.29653713 0.045660023 1.0191815 -0.12653176 -0.038352687 0.05447343
-0.34464952 -0.2574883 -0.087321885 -0.11047477 -0.5859946 0.32477456 0.40851226 0.6993786
-0.42651877 0.43110752 0.19646698 -0.028668089 0.35374528 -0.16622704 0.1201177 -0.16883682
0.21395728 0.49402633 -0.45290688 0.23313689 -0.30902806 -0.23891166 -0.18231179 -0.34861305
-0.27188003 -0.27782163 0.01013836 0.003796452 -0.04462541 0.009483654 0.47600836 0.42394876
-0.77448124 0.020087771 0.32614362 0.047741972 0.22376232 -0.1017195 0.31726915 -0.38412622
0.13658172 -0.09059766 0.7843105 -0.28081787 -0.52001095 0.43109626 0.28724536 0.4248223
-0.03467412 -0.66129875 0.0018239131 -0.12818871 -0.6411924 0.07502014 -0.30708763 0.62676454
-0.04116414 -0.6440911 0.47868365 0.28294614 0.056342114 0.061094064 0.2865437 1.2393335
0.27330416 0.3527241 -0.31043166 0.31395 -0.030232634 0.53957283 -0.40156308 -1.2008542
0.6682874 0.223174 -1.1470687 0.6244056 -0.13774318 -0.06472318 0.483513 1.3985142
-0.64710087 0.9681873 0.057979833 0.6560805 0.60571796 -1.0919387 -0.80606997 -0.71793336
0.44129282 1.0254507 0.33657232 1.1713295 0.59446144 -0.2687578 -0.30019146 -0.3199872
0.8282147 -0.921641 0.30541098 -1.8863945 0.9822879 -0.6999163 -0.26972383 1.51303
0.70031595 1.2487229 -0.02989876 0.4634906 0.51479185 0.24733448 0.97575426 0.7884222
-0.070112616 1.3686088 -0.8980301 -0.42032725 0.7438868 -0.9673925 1.45562 -1.0729454
0.15871917 0.39008644 0.27967724 0.72490203 -0.35793754 -0.5433056 -0.5064058 -0.8878083
0.4654217 0.545106 -0.279798 0.3584404 0.26010144 0.34175655 -0.19258013 -1.0438749
0.046465814 0.10178009 -1.0720125 0.99257565 0.23016664 0.61964625 0.25575432 0.9997815
-0.56474054 -0.5643313 0.473043 0.38251713 0.43194807 -1.4697291 -0.6928312 -1.3091516
1.1653298 -0.01152081 0.026374904 1.4936895 0.2123654 -0.14902161 0.15242794 -0.4999003
0.25377417 -0.6401556 0.33972073 -1.008969 -0.10668774 -0.35630134 -0.109985 0.736038
0.7089185 0.80442613 -0.19410753 -0.16836156 0.5803266 -0.112170026 0.9635455 -0.04126949
0.18376589 0.854482 -0.53308403 -0.333117 0.80977535 -0.79221404 0.88510597 -0.687649
0.44915998 -0.07713128 -0.0026413663 0.8460701 -0.025980957 -0.16614853 -0.7263578 -0.79866505
00000000: 0a59 d9be 1bba d7bf b03a c3be df2d d5be
00000010: 24e0 33be adb9 713f 078b 43bd ac23 a8be
00000020: 5c8a b6be 3883 2e3e f8e0 8c3d cbaa a3bd
00000030: 978e b73e d301 fa3e a1e0 ecbe 7b1c 3d3f
00000040: 3ab2 e3be 56e9 0b3d 6fe8 babe 6784 513d
00000050: 269d 04bf 6066 273f 95de f7bd 7540 063f
00000060: 1f11 ddbe d686 44bf 80b2 0abf 94ea 1cbf
00000070: b181 4fbf 87cb be3e 8512 193f 6bdc 103f
00000080: f9c7 11bf 6af0 4f3f 0709 0c3e 7c91 b2bd
00000090: 1adb e23d df02 b93e f90e 173e 49c7 3b3f
000000a0: 8154 293d e42f 133f a508 7e3e 84d5 4c3e
000000b0: 0c79 013d 21a4 0d3e d16b 96be 1bb6 89be
000000c0: 599f 79bf 7dd3 bd3d 04b4 68bd 2e91 2bbe
000000d0: f47e ebbd 9d7a fcbe e0c3 2f3f 169e 8e3d
000000e0: 59a1 31bf 3c45 81bd b7d3 973e 0106 3b3d
000000f0: 8a74 823f 8b91 01be b517 1dbd 881f 5f3d
00000100: e775 b0be 82d5 83be d1d5 b2bd 9940 e2bd
00000110: be03 16bf da48 a63e 8528 d13e 7a0a 333f
00000120: ab60 dabe 20ba dc3e a42e 493e 57d9 eabc
00000130: 1a1e b53e 6c37 2abe 4500 f63d 8fe3 2cbe
00000140: 9e17 5b3e 05f1 fc3e 69e3 e7be 70bb 6e3e
00000150: ed38 9ebe 42a5 74be f1af 3abe 697d b2be
00000160: dc33 8bbe a33e 8ebe 5d1b 263c e5cd 783b
00000170: 22c9 36bd 5461 1b3c 5eb7 f33e d00f d93e
00000180: 6744 46bf 1c8f a43c 4cfc a63e 168d 433d
00000190: f321 653e 5052 d0bd 1a71 a23e 31ac c4be
000001a0: 14dc 0b3e 448b b9bd 93c8 483f 5cc7 8fbe
000001b0: 701f 05bf a6b8 dc3e d311 933e 4f82 d93e
000001c0: 7306 0ebd e04a 29bf 5e10 ef3a e743 03be
000001d0: 2f25 24bf 29a4 993d 973a 9dbe a473 203f
000001e0: bb9b 28bd 28e3 24bf 0616 f53e 51de 903e
000001f0: fdc6 663d c53d 7a3d dbb5 923e 7ba2 9e3f
00000200: 86ee 8b3e 4198 b43e e6f0 9ebe 0ebe a03e
00000210: 6eaa f7bc 7221 0a3f ad99 cdbe 97b5 99bf
00000220: e214 2b3f ba87 643e 26d3 92bf 0cd9 1f3f
00000230: 8c0c 0dbe 968d 84bd 048f f73e 8302 b33f
00000240: 67a8 25bf 1fdb 773f 437c 6d3d e4f4 273f
00000250: 5510 1b3f a6c4 8bbf 9a5a 4ebf 7bca 37bf
00000260: 22f1 e13e f841 833f 3553 ac3e 20ee 953f
00000270: a02e 183f 9f9a 89be b2b2 99be 5dd5 a3be
00000280: e105 543f aaf0 6bbf d45e 9c3e 6075 f1bf
00000290: 3877 7b3f b72d 33bf 3e19 8abe f8aa c13f
000002a0: e847 333f 27d6 9f3f 3fee f4bc a44e ed3e
000002b0: 66c9 033f 4045 7d3e 08cb 793f 0ad6 493f
000002c0: 3497 8fbd 932e af3f 4de5 65bf 2235 d7be
000002d0: 5e6f 3e3f 09a7 77bf c251 ba3f 4656 89bf
000002e0: 4787 223e 69b9 c73e db31 8f3e 2e93 393f
000002f0: 9743 b7be 1316 0bbf cfa3 01bf 6847 63bf
00000300: c14b ee3e 118c 0b3f af41 8fbe 8085 b73e
00000310: 042c 853e b7fa ae3e ba33 45be b19d 85bf
00000320: f052 3e3d 1472 d03d b537 89bf 7019 7e3f
00000330: ceb0 6b3e 23a1 1e3f 3bf2 823e aef1 7f3f
00000340: d692 10bf 0478 10bf b132 f23e 49d9 c33e
00000350: 4c28 dd3e 1520 bcbf 635d 31bf 4892 a7bf
00000360: 8729 953f c8c1 3cbc 2f10 d83c 3831 bf3f
00000370: 5176 593e 1f99 18be 1216 1c3e eff2 ffbe
00000380: b0ee 813e 3de1 23bf e0ef ad3e e525 81bf
00000390: 1a7f dabd 216d b6be d13f e1bd fd6c 3c3f
000003a0: af7b 353f dfee 4d3f 20c4 46be f966 2cbe
000003b0: 4990 143f 66b9 e5bd ebaa 763f 320a 29bd
000003c0: 202d 3c3e 55bf 5a3f 3278 08bf 508e aabe
000003d0: 704d 4f3f 8ace 4abf 4e96 623f c409 30bf
000003e0: 4cf8 e53e 01f7 9dbd c61a 2dbb 0d98 583f
000003f0: 04d6 d4bc d722 2abe 96f2 39bf 5075 4cbf

critic.2.bias f4 [64]
0.17327912 -1.421309 0.6907871 0.6442759 -0.07922364 0.20613322 -0.56365085 -0.7198856
-0.58979535 -0.27442455 0.34429964 0.9152379 0.17783655 0.41852406 -0.10213802 0.38765505
0.18990822 -0.08595574 -0.3257286 -0.21153353 0.6082734 -0.100681856 -0.50613344 -0.17344645
0.3201616 -0.04676987 0.5956833 0.05956972 -0.15012355 -0.40357852 -0.5600336 -0.24190265
0.99582326 0.75695527 -0.27339008 -0.14535671 0.44258067 0.6454583 0.2591584 0.11312621
1.1306267 0.097416244 0.706939 -0.43640834 0.6507987 0.37912712 -0.139736 -0.24686356
0.62512386 0.0645524 -0.2912406 -0.62045336 -0.026440093 0.52223897 0.1513889 0.21214701
0.03585447 -0.16151951 0.19263634 -0.5638911 0.0022710918 -0.06829997 0.18135165 0.1348248
00000000: 1570 313e 74ed b5bf 6cd7 303f 44ef 243f
00000010: 0140 a2bd 9614 533e 6c4b 10bf 6c4a 38bf
00000020: d4fc 16bf 6081 8cbe 0b48 b03e 084d 6a3f
00000030: c91a 363e c948 d63e bd2d d1bd b97a c63e
00000040: 4d77 423e 9009 b0bd e6c5 a6be 3f9c 58be
00000050: ceb7 1b3f 4a32 cebd f691 01bf f29b 31be
00000060: 39ec a33e c391 3fbd b37e 183f 61ff 733d
00000070: fdb9 19be d8a1 cebe 5d5e 0fbf 54b5 77be
00000080: 46ee 7e3f d2c7 413f c9f9 8bbe 64d8 14be
00000090: ef99 e23e c13c 253f 69b0 843e b7ae e73d
000000a0: 60b8 903f 2b82 c73d f4f9 343f ea70 dfbe
000000b0: be9a 263f f31c c23e f416 0fbe cdc9 7cbe
000000c0: 1e08 203f 0c34 843d 7d1d 95be 08d6 1ebf
000000d0: e598 d8bc 74b1 053f b105 1b3e 113d 593e
000000e0: 23dc 123d 5f65 25be 7642 453e 2b5b 10bf
000000f0: 99d6 143b dbe0 8bbd 3fb4 393e 830f 0a3e

critic.4.weight f4 [1, 64]
-0.0054426137 0.41096324 0.10070652 0.425289 -0.013318146 0.07568099 0.424711 0.24728361
0.06536167 -0.15732317 0.063572384 -0.26185545 -0.10205592 -0.05836661 -0.057771694 0.18320653
0.04547183 -0.10523943 0.06859573 -0.14923073 -0.27557465 0.107434236 0.13052598 -0.20995386
-0.14329913 -0.04524306 -0.055172216 -0.13278082 0.11177944 -0.06322891 -0.11045132 -0.22620466
-0.29527515 0.22062226 0.037782826 -0.14153837 0.061365724 0.14215234 -0.01123878 0.17843176
-0.3859744 0.041886404 -0.29798126 0.05590404 0.35950667 -0.30517074 -0.10464814 -0.17441456
-0.00029990697 0.17073125 0.09440751 -0.1285669 -0.13506177 -0.16885789 0.14238793 -0.32397282
-0.16325772 0.131817 0.28515562 -0.049127035 -0.058019742 -0.0030571357 -0.18085349 0.041717295
00000000: f457 b2bb c669 d23e 383f ce3d 7bbf d93e
00000010: 5a34 5abc a3fe 9a3d b873 d93e ea37 7d3e
00000020: 57dc 853d 5319 21be 3d32 823d eb11 86be
00000030: b202 d1bd d411 6fbd 03a2 6cbd 7e9a 3b3e
00000040: ab40 3a3d c587 d7bd eb7b 8c3d f1cf 18be
00000050: 1f18 8dbe 7b06 dc3d 9aa8 053e 25fe 56be
00000060: 02bd 12be c950 39bd 43fc 61bd b2f7 07be
00000070: 9eec e43d 297e 81bd 4d34 e2bd 32a2 67be
00000080: 4e2e 97be cdea 613e 2ac2 1a3d 6fef 10be
00000090: a05a 7b3d 6290 113e dc22 38bc d1b6 363e
000000a0: 709e c5be 1491 2b3d 0091 98be a2fb 643d
000000b0: 4211 b83e 573f 9cbe c451 d6bd bb99 32be
000000c0: d53c 9db9 2cd4 2e3e b958 c13d 0ba7 03be
000000d0: a24d 0abe 15e9 2cbe 24ce 113e c4df a5be
000000e0: 082d 27be 09fb 063e ebff 913e 6e39 49bd
000000f0: 1ca6 6dbd 3a5a 48bb a831 39be c1df 2a3d
