controller/PPO_CartPole-dm_0_180000.pth (torch, 41263 bytes, 10 tensors)

actor.0.weight f4 [64, 5]
0.16165358 -0.2990354 -0.42188662 0.1153683 -0.013944643 0.12036148 0.039492756 -0.0029025313
0.025403699 -0.029878108 -0.027772672 0.59092593 0.13529623 0.09650348 0.25101727 -0.43049777
-0.29438055 0.62394345 0.04579008 -0.04031213 0.14488198 -0.6182603 -0.50098175 0.22153512
-0.29345137 -0.06289391 0.5755691 0.42127982 0.07846705 0.1717866 0.31430373 0.1746237
-0.5862042 0.009212052 0.26583073 -0.59933466 0.14038426 0.007594958 0.2868063 -0.19395868
-0.024789402 0.32777002 0.2691248 0.40526998 -0.39651158 0.102671295 0.115469225 -0.25422543
-0.14267386 -0.04809332 -0.30192336 -0.45037612 0.0064545935 -0.18097143 0.065150484 -0.34240842
0.25978804 0.036338024 0.3242315 -0.5516479 -0.14835122 -0.381502 -0.26248202 -0.49266148
0.057464566 0.055081725 0.34614208 0.02821589 0.2589822 -0.32721317 -0.22551328 0.1586273
-0.053619318 0.058997493 -0.48233575 0.19713211 -0.45472604 0.20820868 -0.26565948 -0.14808579
-0.2558823 -0.26729414 -0.01880257 -0.2729538 0.2240347 0.35498574 -0.53661823 -0.35586336
0.28916246 -0.27965677 -0.3170007 -0.6420483 0.44683096 -0.33841154 0.46758166 0.14295834
-0.1824352 0.0027037119 -0.41373897 0.15515408 0.20018506 0.11841537 0.45396113 -0.050420407
-0.1537352 -0.03424567 0.63228136 0.4516152 0.119831935 -0.113486625 -0.20673388 -0.23031037
0.18465579 -0.079463735 -0.021602364 -0.30749893 0.016043298 0.51182646 -0.32495362 -0.5013971
-0.005489093 -0.22054543 0.31664968 -0.2667529 0.49237737 -0.1904707 -0.16200179 0.57569927
-0.30784172 -0.20318267 0.17444724 0.008072489 -0.70871323 0.20796621 -0.050480817 -0.036287025
0.44809914 0.44468573 -0.2276942 0.15067214 -0.39204177 0.50412524 0.0454538 0.42998067
0.24798447 0.42388958 0.08035268 -0.24303745 -0.2961484 -0.05981598 -0.30070877 0.08763928
0.36973375 0.16131751 -0.514613 0.22829144 -0.32387206 0.6082456 -0.039001364 -0.2377431
-0.25746167 -0.2727773 -0.24508844 -0.37271455 0.2879224 -0.11963067 -0.5422768 0.6771593
-0.40537193 0.49834314 0.015769877 -0.10776124 0.34890467 -0.37882403 0.37947688 0.4761682
-0.5884874 0.27190545 -0.10136755 -0.06558418 -0.1635329 -0.4163433 -0.08930254 -0.36567688
-0.2735767 -0.050546255 -0.6839187 -0.33593372 0.5407333 -0.06828879 0.3314649 0.05179911
-0.5864714 -0.25707656 -0.43681622 0.14312513 0.1458977 -0.11731005 -0.23457024 -0.2901331
0.29826394 -0.581732 -0.42221949 -0.4358009 -0.18710583 0.09807854 0.40069497 -0.19770087
0.062234234 0.18651745 0.01963118 -0.1271145 -0.29129323 0.16034435 -0.24413638 -0.21956699
0.34230638 -0.17730318 -0.053912375 0.3403942 -0.34301302 0.27776948 -0.5491748 -0.10783633
-0.48665467 -0.33230904 -0.14624472 0.033949178 0.3200124 -0.09054955 -0.16403592 0.44860134
-0.018767536 0.55090564 -0.22102278 0.38857993 0.41042447 0.3646014 0.06586868 -0.38217095
-0.017304156 -0.33913615 0.14182489 -0.24217968 0.38891494 0.34975767 -0.4205521 0.13912073
0.0034309307 -0.13395575 0.528391 -0.22900374 -0.42157817 -0.40460446 -0.13264406 -0.13050385
00000000: 8488 253e 2b1b 99be 8601 d8be 3746 ec3d
00000010: 1278 64bc 1480 f63d 28c3 213d 6538 3ebb
00000020: 6b1b d03c efc2 f4bc 8483 e3bc ec46 173f
00000030: 188b 0a3e 9ea3 c53d 5685 803e 346a dcbe
00000040: 0cb9 96be c2ba 1f3f 618e 3b3d 551e 25bd
00000050: f15b 143e 4f46 1ebf 5740 00bf 1ada 623e
00000060: 423f 96be 86ce 80bd 7f58 133f fdb1 d73e
00000070: 55b3 a03d d4e8 2f3e 6bec a03e 8ed0 323e
00000080: 7a11 16bf 26ee 163c f71a 883e ff6d 19bf
00000090: e4c0 0f3e 20df f83b 46d8 923e 1b9d 46be
000000a0: 2513 cbbc 79d1 a73e baca 893e 8c7f cf3e
000000b0: 9103 cbbe 5445 d23d 217b ec3d d629 82be
000000c0: 1919 12be 80fd 44bd b395 9abe b397 e6be
000000d0: 0e81 d33b 9350 39be 9e6d 853d 2850 afbe
000000e0: f002 853e 2ed7 143d ac01 a63e cc38 0dbf
000000f0: 62e9 17be 3b54 c3be 0b64 86be 203e fcbe
00000100: f75f 6b3d 609d 613d 8939 b13e 0325 e73c
00000110: 5199 843e 7c88 a7be f4ec 66be 326f 223e
00000120: ee9f 5bbd 5ba7 713d b6f4 f6be 00dd 493e
00000130: dad1 e8be a834 553e 8504 88be cda3 17be
00000140: 0103 83be c7da 88be d907 9abc 9ac0 8bbe
00000150: 5a69 653e b1c0 b53e d05f 09bf b933 b6be
00000160: 1a0d 943e 2c2f 8fbe ea4d a2be 475d 24bf
00000170: 07c7 e43e 4744 adbe dd66 ef3e ac63 123e
00000180: 4bd0 3abe c230 313b 98d5 d3be b6e0 1e3e
00000190: 50fd 4c3e c283 f23d 986d e83e a185 4ebd
000001a0: c36c 1dbe 3045 0cbd 31dd 213f 1c3a e73e
000001b0: 726a f53d ad6b e8bd 0cb2 53be 7bd6 6bbe
000001c0: 6816 3d3e e2bd a2bd 71f7 b0bc 8070 9dbe
000001d0: 3c6d 833c 0f07 033f 5260 a6be 8f5b 00bf
000001e0: d9dd b3bb a9d6 61be e81f a23e d693 88be
000001f0: e318 fc3e c00a 43be cce3 25be 0761 133f
00000200: 6e9d 9dbe 1e0f 50be 4ca2 323e 7942 043c
00000210: 3b6e 35bf 18f5 543e f9c4 4ebd b4a1 14bd
00000220: 406d e53e d9ad e33e ab28 69be cc49 1a3e
00000230: b3b9 c8be 5a0e 013f c42d 3a3d 6d26 dc3e
00000240: a4ef 7d3e 0e08 d93e f28f a43d cfde 78be
00000250: c3a0 97be 9a01 75bd 80f6 99be 397c b33d
00000260: be4d bd3e 6b30 253e adbd 03bf 3bc5 693e
00000270: 8fd2 a5be fcb5 1b3f e5bf 1fbd ed72 73be
00000280: 04d2 83be 77a9 8bbe 77f8 7abe 71d4 bebe
00000290: 916a 933e ed00 f5bd a7d2 0abf 505a 2d3f
000002a0: e98c cfbe d526 ff3e d42f 813c edb1 dcbd
000002b0: a2a3 b23e 39f5 c1be cb4a c23e 51cc f33e
000002c0: 1ca7 16bf 3137 8b3e ca99 cfbd 0051 86bd
000002d0: 2b75 27be f32a d5be 40e4 b6bd 003a bbbe
000002e0: 3f12 8cbe 9709 4fbd 4c15 2fbf 81ff abbe
000002f0: 7f6d 0a3f feda 8bbd c4b5 a93e 4e2b 543d
00000300: fd22 16bf 8a9f 83be 60a6 dfbe 658f 123e
00000310: 3566 153e 4040 f0bd 2e33 70be 538c 94be
00000320: 0db6 983e 63ec 14bf 272d d8be 4c21 dfbe
00000330: ac98 3fbe 67dd c83d e427 cd3e 1972 4abe
00000340: 53e9 7e3d 6efe 3e3e 92d1 a03c 4e2a 02be
00000350: 6324 95be 4f31 243e e3fe 79be 2bd6 60be
00000360: c842 af3e f78e 35be 39d3 5cbd 2648 ae3e
00000370: 679f afbe cd37 8e3e b896 0cbf 4bd9 dcbd
00000380: cd2a f9be 6924 aabe 2dc1 15be 4b0e 0b3d
00000390: aad8 a33e 0b72 b9bd 08f9 27be 13af e53e
000003a0: 60be 99bc 2708 0d3f cc53 62be f3f3 c63e
000003b0: 2823 d23e 09ad ba3e 29e6 863d e9ab c3be
000003c0: 72c1 8dbc 41a3 adbe 8b3a 113e f3fd 77be
000003d0: dc1f c73e 7013 b33e 9b52 d7be aa75 0e3e
000003e0: 77d9 603b b22b 09be a244 073f f57f 6abe
000003f0: 18d9 d7be 5128 cfbe d8d3 07be cda2 05be

actor.0.bias f4 [64]
-0.2585673 -0.0027346935 -0.35557467 -0.35156676 -0.2580838 -0.03164188 0.5695685 -0.12014763
-0.42317227 0.036389794 0.041425794 -0.36838636 0.3018883 -0.21109901 0.02036446 -0.44432855
0.24311458 -0.21148802 0.25306478 0.012156942 -0.04241049 -0.1409079 -0.11858602 -0.038650807
0.15364072 -0.57062435 0.06725833 0.29282215 -0.0883886 -0.11373848 0.43233824 -0.40987322
-0.34584162 0.1817201 -0.100795366 -0.02103434 -0.45915824 -0.3519219 -0.1585399 0.36533076
-0.052110307 -0.5022267 0.22633217 0.26818508 -0.36226785 0.36794364 0.0062608966 0.30690435
0.3158446 -0.44568428 0.12600254 -0.030744672 -0.37161472 -0.14521627 -0.3713208 -0.5047451
-0.55158967 0.031081812 0.4789936 0.1423829 -0.31902906 0.234817 -0.32806063 0.25836307
00000000: ef62 84be 8b38 33bb e20d b6be 8f00 b4be
00000010: 8f23 84be ea9a 01bd 3ecf 113f f60f f6bd
00000020: 09aa d8be 770d 153d 18ae 293d 239d bcbe
00000030: 1a91 9a3e 572a 58be 5ed3 a63c 087f e3be
00000040: 07f3 783e 5190 58be b591 813e e92d 473c
00000050: 9fb6 2dbd 294a 10be 3add f2bd 4f50 1ebd
00000060: fe53 1d3e 7014 12bf bcbe 893d c9ec 953e
00000070: 1505 b5bd b8ef e8bd 705b dd3e e7da d1be
00000080: 2712 b1be d514 3a3e cd6d cebd 3550 acbc
00000090: ca16 ebbe 1b2f b4be 4958 22be a20c bb3e
000000a0: 9e71 55bd ee91 00bf 9fc3 673e 8e4f 893e
000000b0: 2c7b b9be 1c63 bc3e 3528 cd3b 9122 9d3e
000000c0: 62b6 a13e bb30 e4be cf06 013e 40dc fbbc
000000d0: 4944 bebe 93b3 14be c31d bebe fa36 01bf
000000e0: fb34 0dbf 499f fe3c a63e f53e d3cc 113e
000000f0: c757 a3be de73 703e 90f7 a7be 2a48 843e

actor.2.weight f4 [64, 64]
-0.11855525 0.05424023 -0.122541204 0.13028325 -0.062349636 -0.11145365 -0.06985615 0.11680533
0.03905983 -0.029286735 -0.0056351377 -0.034503963 0.023449635 -0.06423245 -0.095220566 -0.057948668
-0.04682442 -0.022981418 0.054602742 0.09995458 0.03762564 0.017480541 0.113500774 -0.077832915
0.12088696 -0.011343435 -0.10359292 0.067017704 -0.1715914 -0.09449926 0.09659557 0.057551622
0.10922357 0.15412587 -0.019203182 0.14243807 -0.009729551 0.108394414 -0.083884254 -0.04696943
0.0446561 -0.14939241 0.07313519 0.06168249 -0.08120758 -0.0904265 -0.06436198 -0.10210585
0.027194714 0.024490457 -0.042542078 -0.073322415 -0.114302084 0.0063278005 0.001857896 0.13014941
-0.0958525 0.07143866 0.06039829 -0.0141106825 0.051354375 0.10106866 -0.110706404 -0.07311501
-0.101660214 -0.102840744 -0.13239174 -0.032784663 0.10602867 0.01342313 -0.027643638 -0.008020819
0.06594597 -0.037418723 -0.11114402 0.052916624 -0.060485266 0.09579966 -0.057818014 -0.14657652
0.078532614 -0.10547706 0.02059957 -0.03457391 -0.087095 0.14951375 0.058863785 -0.10736636
0.017833507 -0.10537319 0.018064976 -0.038470842 -0.032315023 -0.1430007 -0.030570447 -0.093456194
0.07173069 0.114854686 0.08760646 0.08117827 0.04818769 -0.10040428 -0.06266893 0.113532186
0.05509231 0.074530125 0.10230073 0.09325784 0.10106334 0.18782133 0.07418332 0.08534994
-0.09764134 0.08056543 0.07150624 0.06088607 -0.087940864 0.009319368 -0.10300879 0.034948487
-0.10837141 -0.015074396 -0.14436173 0.07792921 0.04561992 -0.10207196 0.06019633 -0.008557242
0.105932474 0.027192062 -0.14091752 0.12800185 0.0919926 -0.06393674 0.15388636 -0.08541941
0.06196499 -0.017171953 -0.06996532 0.0054998784 -0.104245275 -0.047091357 -0.107603066 -0.1124584
0.058294695 0.026289422 0.13072377 0.07641347 0.07749056 0.18039793 -0.05356375 0.0865
0.096098095 0.03167077 -0.005981768 0.010014507 -0.14999205 -0.09131467 0.12923393 0.014728602
0.065782316 0.14075118 0.12132923 0.0030573332 0.023751445 0.07761608 0.0607911 0.066520244
-0.044056263 -0.10560414 0.09002104 -0.047835037 -0.1282093 0.08559125 0.11513627 -0.05033464
0.14307056 -0.030251415 0.04092113 0.0891103 0.03693763 -0.08871275 -0.08677074 0.05264665
-0.079603225 -0.07728931 0.045391724 0.012550884 -0.039840624 0.13361968 -0.00629321 0.09085056
-0.2071505 0.11584034 0.1280869 0.11248121 -0.13545902 -0.016989313 -0.032522056 -0.024872316
-0.06569678 -0.011640414 -0.20362991 -0.09675925 -0.106315084 0.10277316 0.012990998 0.039028108
-0.16474934 -0.116434045 -0.09307905 0.046444032 0.010542636 0.16156773 0.07567502 0.04629336
0.04523426 0.1068643 0.029027943 0.071223065 0.18104106 -0.049765483 0.07362968 0.045823514
-0.067642204 0.049317334 0.075061925 -0.16969271 -0.07610237 -0.14125432 -0.077099666 0.07947459
-0.23186672 0.055167973 0.025976416 -0.03562363 0.09368021 0.033646435 0.15119787 0.09945146
-0.05614215 0.00274681 -0.100526154 0.029059302 0.07125955 0.09984222 0.10465861 -0.01296743
0.080353476 0.058583453 -0.020382404 -0.005787666 -0.019338293 0.0015232861 -0.06500526 0.07556678
00000000: 18cd f2bd 012b 5e3d e2f6 fabd f968 053e
00000010: 5562 7fbd d041 e4bd be10 8fbd a237 ef3d
00000020: 33fd 1f3d bcea efbc f6a6 b8bb 0754 0dbd
00000030: 7319 c03c 4e8c 83bd 0003 c3bd 955b 6dbd
00000040: f7ca 3fbd 8743 bcbc 20a7 5f3d fdb4 cc3d
00000050: 581d 1a3d 5a33 8f3c 1873 e83d dd66 9fbd
00000060: 9593 f73d d1d9 39bc 8628 d4bd 9440 893d
00000070: a8b5 2fbe d488 c1bd e6d3 c53d 40bb 6b3d
00000080: 9bb0 df3d 2cd3 1d3e fe4f 9dbc 49db 113e
00000090: b268 1fbc e4fd dd3d 82cb abbd 0463 40bd
000000a0: 51e9 363d 53fa 18be e7c7 953d c7a6 7c3d
000000b0: 2950 a6bd 8731 b9bd 37d0 83bd df1c d1bd
000000c0: 73c7 de3c 36a0 c83c 9a40 2ebd 102a 96bd
000000d0: 3617 eabd 7059 cf3b a584 f33a e345 053e
000000e0: 514e c4bd 6f4e 923d 3364 773d 7e30 67bc
000000f0: f758 523d 16fd ce3d 0aba e2bd 53bd 95bd
00000100: 3b33 d0bd 2b9e d2bd b391 07be 3649 06bd
00000110: 8f25 d93d b0ec 5b3c e974 e2bc c169 03bc
00000120: ae0e 873d 6044 19bd 7a9f e3bd 1abf 583d
00000130: 66bf 77bd 9d32 c43d 95d2 6cbd 2818 16be
00000140: b5d5 a03d 5b04 d8bd 6ec0 a83c 5f9d 0dbd
00000150: dd5e b2bd 221a 193e 271b 713d e5e2 dbbd
00000160: 9317 923c e6cd d7bd 00fd 933c 9a93 1dbd
00000170: c25c 04bd c76e 12be e06e fabc f665 bfbd
00000180: 8ae7 923d ef38 eb3d 046b b33d cb40 a63d
00000190: 7560 453d c2a0 cdbd 9158 80bd 9083 e83d
000001a0: 79a8 613d 40a3 983d 0c83 d13d f7fd be3d
000001b0: 4cfa ce3d 3c54 403e 6ded 973d f3cb ae3d
000001c0: 2ff8 c7bd 7dff a43d dd71 923d ac63 793d
000001d0: 571a b4bd 43b0 183c 46f6 d2bd 2526 0f3d
000001e0: d4f1 ddbd 99fa 76bc 90d3 13be 5a99 9f3d
000001f0: f4db 3a3d 1b0b d1bd 6d90 763d ad33 0cbc
00000200: 20f3 d83d e3c1 de3c af4c 10be eb12 033e
00000210: 9e66 bc3d 44f1 82bd 6394 1d3e 5ff0 aebd
00000220: 00cf 7d3d 32ac 8cbc fa49 8fbd 5338 b43b
00000230: 8c7e d5bd dee2 40bd ff5e dcbd 9750 e6bd
00000240: 6bc6 6e3d ea5c d73c 74dc 053e aa7e 9c3d
00000250: 5fb3 9e3d 3cba 383e aa65 5bbd e926 b13d
00000260: 14cf c43d 36b9 013d b502 c4bb e313 243c
00000270: 8497 19be 3003 bbbd e655 043e 3c50 713c
00000280: e1b8 863d 1421 103e 767b f83d 8a5d 483b
00000290: 6492 c23c 2ef5 9e3d 1700 793d c43b 883d
000002a0: 5774 34bd fc46 d8bd f35c b83d acee 43bd
000002b0: 4c49 03be 774a af3d 91cc eb3d b22b 4ebd
000002c0: 1781 123e d1d1 f7bc ea9c 273d 767f b63d
000002d0: ea4b 173d 08af b5bd dcb4 b1bd 03a4 573d
000002e0: 0407 a3bd dc49 9ebd acec 393d 39a2 4d3c
000002f0: ec2f 23bd 99d3 083e 4637 cebb dc0f ba3d
00000300: 431f 54be b33d ed3d 3629 033e 8c5c e63d
00000310: c5b5 0abe 2c2d 8bbc d935 05bd 07c1 cbbc
00000320: 098c 86bd 6fb7 3ebc 5c84 50be b729 c6bd
00000330: b9bb d9bd bc7a d23d 32d8 543c f0db 1f3d
00000340: 0db4 28be f974 eebd 3ba0 bebd 193c 3e3d
00000350: 05bb 2c3c 0372 253e 81fb 9a3d 1b9e 3d3d
00000360: 8f47 393d acdb da3d 02cc ed3c 66dd 913d
00000370: d462 393e e4d6 4bbd 28cb 963d 70b1 3b3d
00000380: ff87 8abd f900 4a3d 11ba 993d edc3 2dbe
00000390: 8fdb 9bbd f9a4 10be 6ee6 9dbd 93c3 a23d
000003a0: 786e 6dbe d0f7 613d 7ecc d43c 15ea 11bd
000003b0: 69db bf3d d8d0 093d 9dd3 1a3e 35ad cb3d
000003c0: 50f5 65bd d303 343b a8e0 cdbd c60d ee3c
000003d0: 87f0 913d 147a cc3d 4157 d63d 5875 54bc
000003e0: 5d90 a43d 34f5 6f3d 00f9 a6bc 76a6 bdbb
000003f0: 576b 9ebc 00a9 c73a 7a21 85bd c2c2 9a3d

actor.2.bias f4 [64]
-0.17252208 0.046755422 -0.078388646 -0.042057406 0.018180018 0.09501854 -0.10514952 -0.045595374
0.04246415 0.056602668 0.11284356 0.07098347 -0.12608984 0.07893187 -0.10217181 -0.113253765
0.04392708 -0.06460193 -0.06697228 0.102898754 -0.10442522 -0.070617765 0.107774876 -0.074990794
-0.06979718 -0.14849535 -0.15215284 -0.15843143 -0.011958595 0.12189759 -0.103756 0.053593986
-0.013593711 -0.034948625 -0.028681377 0.030027917 -0.11665973 0.123076886 0.018666884 0.0803124
0.048716106 -0.05048185 0.118944906 0.000903717 0.07058441 0.0064816447 -0.06684818 0.15294829
-0.07139317 0.0076774764 0.015622292 -0.03811396 -0.02632626 0.10777919 -0.027432894 -0.07374662
0.12769942 0.041728046 0.019432917 -0.036000628 0.1042751 -0.096637666 -0.0925823 0.009790289
00000000: a1a9 30be 9d82 3f3d 3a8a a0bd 6344 2cbd
00000010: 43ee 943c 1599 c23d a258 d7bd 37c2 3abd
00000020: e3ee 2d3d 33d8 673d 861a e73d c85f 913d
00000030: b21d 01be 08a7 a13d 743f d1bd 97f1 e7bd
00000040: e2ec 333d 044e 84bd c328 89bd 95bc d23d
00000050: e4dc d5bd 0ca0 90bd 13b9 dc3d c694 99bd
00000060: d3f1 8ebd 2a0f 18be f4cd 1bbe d93b 22be
00000070: fced 43bc 72a5 f93d 077e d4bd 5e85 5b3d
00000080: 28b8 5ebc 4a26 0fbd 35f5 eabc 1bfd f53c
00000090: 4ceb eebd bc0f fc3d 4beb 983c d47a a43d
000000a0: 8a8a 473d 0ec6 4ebd 6399 f33d 6ce7 6c3a
000000b0: 8f8e 903d fa63 d43b b3e7 88bd 7a9e 1c3e
000000c0: 9536 92bd 5793 fb3b a4f4 7f3c 621d 1cbd
000000d0: 2baa d7bc 56bb dc3d f3ba e0bc 7808 97bd
000000e0: a3c3 023e 07eb 2a3d c831 9f3c 6575 13bd
000000f0: 2f8e d53d f8e9 c5bd ca9b bdbd 7367 203c

actor.4.weight f4 [1, 64]
0.14593634 0.07611568 0.18740433 -0.08415446 -0.07670047 -0.047867876 0.124710895 -0.06145685
-0.09814694 -0.052941807 0.14531595 -0.074777596 0.14207458 -0.012062864 -0.023316024 -0.06118145
-0.0873027 -0.101962045 -0.06836296 -0.06269079 -0.012580281 0.13164829 -0.20835225 0.05916765
0.2253268 0.25508025 0.12566607 0.1728416 0.06474032 0.057625003 -0.090711325 -0.057938233
-0.11132876 -0.18430673 0.11928589 0.11413012 0.11315721 0.17846341 0.070876144 0.01582411
0.09150931 -0.10812426 -0.13697562 0.11861857 -0.19585933 -0.108635634 0.17047536 -0.11053066
-0.05487272 -0.064087644 0.1929873 -0.21218327 0.17153813 -0.1796073 -0.072994255 -0.094571225
-0.1732033 -0.0024330856 0.107192025 -0.11343013 0.10453123 -0.11817859 0.10577038 0.086368956
00000000: 5670 153e 8ae2 9b3d ece6 3f3e 2c59 acbd
00000010: 2315 9dbd 1b11 44bd 6d68 ff3d 2eba 7bbd
00000020: 4301 c9bd 82d9 58bd b4cd 143e ff24 99bd
00000030: 007c 113e 52a3 45bc 3f01 bfbc 6699 7abd
00000040: c2cb b2bd 7ad1 d0bd e101 8cbd 0764 80bd
00000050: 861d 4ebc cfce 063e 4b5a 55be c759 723d
00000060: 12bc 663e e199 823e 9bae 003e 63fd 303e
00000070: 9396 843d 3208 6c3d dcc6 b9bd a450 6dbd
00000080: 5500 e4bd e7ba 3cbe 294c f43d 0dbd e93d
00000090: f8be e73d 1dbf 363e 8327 913d 90a1 813c
000000a0: 3c69 bb3d 4170 ddbd 5643 0cbe 4bee f23d
000000b0: 598f 48be 5c7c debd 1891 2e3e e65d e2bd
000000c0: 38c2 60bd 6240 83bd 769e 453e 9246 59be
000000d0: b1a7 2f3e faea 37be 037e 95bd 8fae c1bd
000000e0: 355c 31be 6774 1fbb 7e87 db3d 0e4e e8bd
000000f0: 7814 d63d 9e07 f2bd 249e d83d 35e2 b03d

critic.0.weight f4 [64, 5]
-0.32700202 0.57859856 -0.58910596 0.020826045 -0.2450724 0.029671047 0.7830173 -0.30504066
-0.10997207 -0.29641083 -0.700094 0.3857652 -0.4270711 -0.49574277 0.072942495 0.025611205
0.333586 1.3046008 0.1008726 0.40574044 -0.7114455 -0.19902168 0.034475476 0.20584163
0.041550234 0.35145962 0.60332537 -0.34662348 0.48569328 -0.011617136 -0.3521651 0.32293764
-0.52556586 -0.03389632 -0.20292959 0.015008999 -0.70304143 0.042652767 0.16365227 0.2484466
0.0321879 -0.32826328 0.87393963 0.021023223 0.2326986 0.26557174 0.008214854 -0.68623275
-0.08509936 -0.08698423 0.03311249 0.47255224 -1.002456 -0.22260988 -0.2673847 -0.73786557
-0.18363999 0.15364759 0.43871614 -0.037322197 -0.23040767 -0.4530408 -0.7382696 -0.31933776
0.24338561 -0.23707758 0.7214001 0.0061309193 -0.35901377 -0.11202037 -0.30303913 0.40863344
-0.6416615 -0.08065439 -0.19504182 -0.49628314 0.0943307 -0.4151078 -0.16449273 0.19302791
0.5985611 -0.59466374 0.41553932 0.39669225 0.32042032 0.27415034 0.18944632 0.1473079
-0.10499013 0.013934189 -0.602297 0.13185516 0.122606926 -0.22590478 0.2883908 0.16704851
0.5352337 0.1843498 -0.5344534 -0.24765936 0.100417234 -0.71054715 -0.19972833 0.016594706
-0.16787528 -0.26868913 -0.18787056 -0.8854166 -0.17577875 -0.2954061 -0.28184855 0.060856476
0.20695423 -0.28807297 0.18194762 -0.30481502 -0.4379274 0.2078766 0.36900002 0.010083211
0.049623962 0.47581592 -0.052519828 -0.17333592 0.25277457 -0.025906574 -0.005337564 0.43307686
0.87318885 -0.12763639 0.51347786 -0.6436797 0.37208068 -0.0045099664 0.29415607 -0.28697193
0.6017111 0.11576994 -0.4734087 0.4128367 0.5641169 0.4174563 0.4633862 0.116912395
-0.0708157 -0.22223368 -0.5166638 0.38721547 0.016095242 -0.013913104 0.28687635 -0.093374275
0.0008969244 0.3924986 -0.07297079 -0.2875955 0.31573084 -0.076297335 -0.877087 -0.055895656
0.49895158 -0.026466329 0.03549223 -0.1834077 0.07710444 -0.08634408 -0.12160092 0.016357122
-0.0345075 0.024576679 0.056550495 -0.5904216 0.056237526 -0.5318619 0.16717982 0.035461802
-0.24147461 0.72681004 -0.62068987 -0.154207 -0.7165987 0.094221324 0.088379845 -0.31274512
0.039233513 0.778263 0.08518841 -0.33826 0.20373812 -0.04070197 -0.05559715 0.35274976
-0.19472933 -0.059931688 -0.011441001 0.4564237 0.4096442 0.044059046 0.19172446 0.19901441
-0.06538006 0.091853656 0.8858399 0.24378517 0.23438424 -0.22290967 0.35212916 -1.3394758
-0.19388956 -0.26862282 0.037720844 -0.20277189 0.9500618 0.09363484 -0.1607152 0.101714104
-0.27560657 1.332226 0.19768703 0.2695541 0.5153422 -0.5857826 0.21703853 0.096552014
0.24637303 0.022240253 -0.84068644 -0.41249493 -0.3683321 0.09903636 -0.054629132 0.27081668
-0.6112508 -0.24937446 0.23346111 0.008972232 0.5133656 -0.23736884 -0.101717874 -0.120764464
-0.04092957 -0.57370156 0.88469374 -0.06948694 0.28960454 0.43882525 -0.21245058 -0.74955213
-0.30577195 0.1419374 -0.27741277 -0.57268286 -0.3141659 0.46542266 0.2730848 0.41362917
00000000: cf6c a7be 091f 143f a6cf 16bf 629b aa3c
00000010: 42f4 7abe b210 f33c d273 483f 4a2e 9cbe
00000020: 0939 e1bd 29c3 97be 5c39 33bf 0483 c53e
00000030: 10a9 dabe ffd1 fdbe e062 953d 97ce d13c
00000040: c9cb aa3e 29fd a63f 4b96 ce3d 36bd cf3e
00000050: 4b21 36bf 57cc 4bbe 2836 0d3d 26c8 523e
00000060: 9430 2a3d 84f2 b33e 8873 1a3f a278 b1be
00000070: caac f83e cd55 3ebc fc4e b4be 1558 a53e
00000080: 7c8b 06bf ded6 0abd c6cc 4fbe 4ee8 753c
00000090: 86fa 33bf abb4 2e3d 7694 273e c968 7e3e
000000a0: 76d7 033d 2012 a8be 82ba 5f3f e538 ac3c
000000b0: 8b48 6e3e 05f9 873e 9897 063c f3ac 2fbf
000000c0: 9348 aebd ca24 b2bd f6a0 073d 5ef2 f13e
000000d0: 7a50 80bf d8f3 63be a6e6 88be c2e4 3cbf
000000e0: 1f0c 3cbe cb55 1d3e 679f e03e 29df 18bd
000000f0: fdef 6bbe f7f4 e7be 3dff 3cbf 3d80 a3be
00000100: 143a 793e 77c4 72be adad 383f e1e5 c83b
00000110: a7d0 b7be f06a e5bd f227 9bbe 6738 d13e
00000120: ee43 24bf 212e a5bd 0bb9 47be d318 febe
00000130: 7430 c13d 0289 d4be c870 28be 1ca9 453e
00000140: 4d3b 193f e23b 18bf 92c1 d43e 3f1b cb3e
00000150: 220e a43e 6f5d 8c3e 37fe 413e e2d7 163e
00000160: 1105 d7bd 3a4c 643c 2330 1abf 0a05 073e
00000170: 5719 fb3d 9553 67be f5a7 933e c40e 2b3e
00000180: 1305 093f 32c6 3c3e f0d1 08bf 6a9a 7dbe
00000190: 8da7 cd3d 6be6 35bf 9585 4cbe 9ff1 873c
000001a0: 7fe7 2bbe 9f91 89be 2461 40be aaaa 62bf
000001b0: 58ff 33be 783f 97be 744e 90be a444 793d
000001c0: cfeb 533e 4d7e 93be 7a50 3a3e b710 9cbe
000001d0: 0538 e0be 9add 543e 92ed bc3e 0d34 253c
000001e0: 7f42 4b3d 259e f33e 081f 57bd f97e 31be
000001f0: ab6b 813e 063a d4bc bbe6 aebb 40bc dd3e
00000200: 4e89 5f3f 1db3 02be 4973 033f 31c8 24bf
00000210: 5c81 be3e 57c8 93bb a09b 963e fced 92be
00000220: bd09 1a3f ca18 ed3d a062 f2be 555f d33e
00000230: f769 103f d5bc d53e f540 ed3e c46f ef3d
00000240: d207 91bd 3a91 63be 1444 04bf 1b41 c63e
00000250: 2bda 833c caf3 63bc 75e1 923e 033b bfbd
00000260: 941f 6b3a 94f5 c83e b671 95bd b83f 93be
00000270: 79a7 a13e c741 9cbd c688 60bf d8f2 64bd
00000280: 9576 ff3e eacf d8bc 4d60 113d 3acf 3bbe
00000290: efe8 9d3d 2ad5 b0bd e709 f9bd 5fff 853c
000002a0: bc57 0dbd 0855 c93c 7ea1 673d df25 17bf
000002b0: 5259 663d 1a28 08bf 3031 2b3e 6540 113d
000002c0: 1f45 77be 3910 3a3f 88e5 1ebf 71e8 1dbe
000002d0: 0373 37bf 1cf7 c03d 7e00 b53d 2120 a0be
000002e0: 52b3 203d 3e3c 473f 4377 ae3d 6a30 adbe
000002f0: baa0 503e 1cb7 26bd d6b9 63bd 9e9b b43e
00000300: 2067 47be ee7a 75bd 0973 3bbc 5eb0 e93e
00000310: e2bc d13e 4277 343d 6b53 443e 6fca 4b3e
00000320: fbe5 85bd c51d bc3d 67c6 623f d2a2 793e
00000330: 6c02 703e 6f42 64be 464a b43e f173 abbf
00000340: fc8a 46be ee88 89be 2c81 1a3d 6fa3 4fbe
00000350: 4037 733f 9fc3 bf3d 8692 24be 7c4f d03d
00000360: 4e1c 8dbe 6286 aa3f 786e 4a3e ff02 8a3e
00000370: 77ed 033f d9f5 15bf 593f 5e3e 10bd c53d
00000380: 3649 7c3e 3131 b63c 3a37 57bf 8932 d3be
00000390: 0696 bcbe 93d3 ca3d ccc2 5fbd 7ca8 8a3e
000003a0: ef7a 1cbf 055c 7fbe 6e10 6f3e 4500 133c
000003b0: ee6b 033f d110 73be 7651 d0bd 5c53 f7bd
000003c0: c4a5 27bd 1bde 12bf 4a7b 623f 2b4f 8ebd
000003d0: 0c47 943e b4ad e03e a58c 59be a6e2 3fbf
000003e0: 248e 9cbe 0a58 113e 0c09 8ebe 589b 12bf
000003f0: 5ada a0be e14b ee3e c5d1 8b3e 34c7 d33e

critic.0.bias f4 [64]
-0.6825365 -0.5935761 -0.25761667 0.25193045 -0.2598752 -0.019804256 -0.27179018 0.52316076
-0.042605504 0.41152978 -0.3911836 0.135681 -0.04716042 -0.21895298 -0.30999476 0.007122332
0.58020717 -0.025198173 -0.4411524 0.02212098 0.6052235 -0.15360528 -0.11000527 -0.27066392
-0.37338784 0.19052762 -0.22960106 -0.5548553 -0.14371642 0.29557407 0.26776022 0.332168
-0.11990848 -0.51542723 -0.24158499 0.4303034 -0.27289304 -0.47140867 0.4009412 -0.07359987
0.3982234 -0.14284578 -0.17596403 0.097134314 -0.16997428 0.43171236 -0.28487852 -0.5239688
-0.09432632 -0.07947871 0.4615792 -0.18853264 -0.02028647 0.5240438 0.22115701 -0.55118304
0.36369267 -0.53477603 0.39078614 0.35209256 0.2092582 -0.3421545 0.2499912 0.49975696
00000000: b6ba 2ebf 9af4 17bf 55e6 83be 07fd 803e
00000010: 5d0e 85be 893c a2bc 1528 8bbe dded 053f
00000020: 1c83 2ebd 08b4 d23e 3849 c8be f6ef 0a3e
00000030: 492b 41bd 3635 60be a2b7 9ebe 7462 e93b
00000040: 7588 143f 666c cebc bade e1be 0f37 b53c
00000050: edef 1a3f b44a 1dbe 714a e1bd 7694 8abe
00000060: b12c bfbe ac19 433e 8a1c 6bbe ff0a 0ebf
00000070: 662a 13be 7c55 973e de17 893e ed11 aa3e
00000080: 9492 f5bd 0af3 03bf 0e62 77be ba50 dc3e
00000090: a3b8 8bbe 7a5c f1be 2a48 cd3e 87bb 96bd
000000a0: f0e3 cb3e 2a46 12be ea2f 34be 5bee c63d
000000b0: bd0d 2ebe 6709 dd3e 99db 91be d222 06bf
000000c0: 282e c1bd bcc5 a2bd 1c54 ec3e b30e 41be
000000d0: d02f a6bc bc27 063f fc76 623e 551a 0dbf
000000e0: ed35 ba3e 15e7 08bf 1f15 c83e 7a45 b43e
000000f0: c847 563e e02e afbe b1fd 7f3e 25e0 ff3e

critic.2.weight f4 [64, 64]
0.10331433 0.0384527 0.21503673 -0.23768926 -0.078925684 0.041719284 -0.01161202 0.053996943
-0.0764955 0.087318465 -0.10272209 0.02736389 -0.08367963 -0.07019828 -0.014351656 0.058418278
0.023017723 -0.022144452 -0.091601364 0.045865268 -0.04682417 0.041621782 0.021318302 0.066738136
-0.07835671 -0.079668626 0.059184063 -0.020529741 -0.08908742 0.20414653 0.10922782 0.05636579
0.012566898 -0.11056615 -0.017976964 -0.12261151 0.06347276 0.1741995 0.0852113 0.0020391713
-0.14243111 0.021877844 -0.10154372 0.09014805 -0.04075217 0.14337504 -0.1542538 0.10969913
0.106565036 -0.07123378 0.066473775 0.050946 -0.06698193 -0.057817236 -0.1633565 -0.41995916
0.14708054 -0.13412021 -0.09591409 -0.09596769 0.18546058 -0.19097602 -0.09839808 -0.13334525
-0.28016078 0.099310175 -0.19832982 0.14214896 -0.09062898 0.20054613 -0.06177621 -0.08452883
-0.13074774 0.1457265 -0.09891233 -0.029003909 -0.06747025 0.008283574 -0.18408209 0.010273027
0.053512 0.277627 -0.09874792 -0.03221793 -0.005647424 0.014188662 -0.06747755 -0.11495881
0.055320255 0.043747876 -0.20250203 0.09959339 0.051007204 -0.26927707 0.12360449 0.10113782
-0.05135924 0.10384256 -0.22108188 -0.14501803 -0.14855804 -0.07060811 -0.07615357 0.085016295
0.07029221 0.02646693 -0.08628637 -0.08092892 -0.033116933 -0.09757793 0.16309844 0.032316823
-0.28686863 0.0044581085 -0.052663177 0.064695664 0.10804811 0.23665562 -0.028664537 0.104693905
-0.051476587 0.18341161 0.12980264 -0.08655147 0.11667458 0.06972493 0.054946903 -0.0492348
-0.3062954 -0.12056263 0.08569521 -0.0069028903 -0.28615847 -0.10283396 -0.20908633 0.2855462
0.11581879 0.17469658 -0.09691356 0.006174689 0.14815044 -0.16182639 -0.11610907 -0.007133172
0.3642059 0.100942835 -0.114826865 0.011374699 0.11289942 -0.15654273 0.020039635 -0.16851291
0.08315659 -0.22076137 0.28365535 -0.07256369 0.041038938 0.14846557 0.03481213 -0.09901234
-0.08305847 -0.26524466 0.3169423 0.18634096 -0.17261632 0.18883671 0.20901862 0.0027063065
0.10334006 -0.123000674 -0.21090399 0.13070168 0.24125206 0.39905173 0.00046477068 -0.29792586
0.27483383 0.10287935 0.11634722 0.19893692 0.21805958 0.028161565 0.10716024 -0.11486084
-0.065284744 -0.13572529 -0.2814161 -0.08630417 0.20858683 0.08714731 -0.032489274 0.049169734
-0.062426537 -0.034724258 -0.25893652 0.221423 -0.0855499 -0.061605502 0.007111104 0.01919209
0.093160056 0.08557623 0.0075769736 -0.008553175 -0.12173768 -0.10215769 -0.10174823 -0.08640789
-0.11816799 -0.07840304 -0.080495216 0.12957273 0.082553685 0.062256947 0.09333472 -0.031635515
0.12262338 0.08784509 -0.049034636 0.09995208 0.08584316 -0.032967523 0.00772283 -0.046958398
0.1102795 0.22991097 -0.12657319 0.1522681 -0.09434954 -0.22271417 -0.15512303 -0.05783435
-0.021055546 -0.030535784 0.07705777 -0.092001036 0.03799003 0.06771537 0.04450674 -0.15421441
-0.05645656 -0.024579268 -0.06335651 0.08129485 0.21226963 0.16437279 -0.06960902 0.17799099
0.11455949 0.026678612 0.28843468 -0.073936455 0.01635497 0.11421938 0.031697255 0.22575878
00000000: 7796 d33d 9480 1d3d 9732 5c3e d064 73be
00000010: caa3 a1bd d7e1 2a3d 5840 3ebc e62b 5d3d
00000020: aca9 9cbd 06d4 b23d f65f d2bd 3d2a e03c
00000030: 3a60 abbd 1ec4 8fbd 3523 6bbc 0148 6f3d
00000040: aa8f bc3c 4868 b5bc 7f99 bbbd 38dd 3b3d
00000050: b3ca 3fbd 9a7b 2a3d b8a3 ae3c 01ae 883d
00000060: 7c79 a0bd 4e29 a3bd fd6a 723d fd2d a8bc
00000070: 7773 b6bd ca0b 513e d6b2 df3d d1df 663d
00000080: 64e5 4d3c 8170 e2bd 6d44 93bc be1b fbbd
00000090: 02fe 813d 5b61 323e 4383 ae3d 9ea3 053b
000000a0: 76d9 11be 2a39 b33c 27f6 cfbd 8a9f b83d
000000b0: bfeb 26bd e8d0 123e b5f4 1dbe f0a9 e03d
000000c0: c53e da3d 04e3 91bd 6723 883d c1ac 503d
000000d0: d22d 89bd c4d1 6cbd ed46 27be e304 d7be
000000e0: 489c 163e cf56 09be 9b6e c4bd b58a c4bd
000000f0: 61e9 3d3e 388f 43be ef84 c9bd a88b 08be
00000100: 3c71 8fbe 2263 cb3d f916 4bbe 7f8f 113e
00000110: b09b b9bd f75b 4d3e 0d09 7dbd 741d adbd
00000120: bce2 05be 5439 153e 8c92 cabd 9b99 edbc
00000130: d82d 8abd d4b7 073c 0480 3cbe 3350 283c
00000140: 662f 5b3d 2025 8e3e 593c cabd f3f6 03bd
00000150: 070e b9bb 9077 683c ab31 8abd 866f ebbd
00000160: 7e97 623d f930 333d b15c 4fbe 9ff7 cb3d
00000170: eeec 503d afde 89be 5a24 fd3d 5821 cf3d
00000180: 115e 52bd 68ab d43d 4a63 62be 9b7f 14be
00000190: 991f 18be fc9a 90bd 67f6 9bbd 061d ae3d
000001a0: 5df5 8f3d 2dd1 d83c e9b6 b0bd 10be a5bd
000001b0: 9fa5 07bd f0d6 c7bd 4703 273e a55e 043d
000001c0: 72e0 92be 5315 923b 58b5 57bd 297f 843d
000001d0: 5448 dd3d da55 723e e4d1 eabc c269 d63d
000001e0: 1dd9 52bd 41d0 3b3e fcea 043e e641 b1bd
000001f0: 15f3 ee3d f2cb 8e3d 0110 613d 6eaa 49bd
00000200: c0d2 9cbe 8ae9 f6bd f880 af3d a431 e2bb
00000210: 5d83 92be 9c9a d2bd ba1a 56be 1d33 923e
00000220: 6732 ed3d a9e3 323e 9e7a c6bd 0c55 ca3b
00000230: c0b4 173e d1b5 25be 98ca edbd 62bd e9bb
00000240: 3279 ba3e 1ebb ce3d 592a ebbd f25c 3a3c
00000250: d037 e73d bd4c 20be 292a a43c a68e 2cbe
00000260: 014e aa3d 450f 62be 463b 913e 469c 94bd
00000270: 7218 283d 5c07 183e 2a97 0e3d fbc6 cabd
00000280: 8f1a aabd 26ce 87be 4346 a23e 2ad0 3e3e
00000290: 55c2 30be 695e 413e fa08 563e 4a5c 313b
000002a0: f4a3 d33d c7e7 fbbd 37f7 57be a9d6 053e
000002b0: c80a 773e 8250 cc3e 77ac f339 bd89 98be
000002c0: 05b7 8c3e 69b2 d23d 7447 ee3d 1fb6 4b3e
000002d0: 034b 5f3e 15b3 e63c d476 db3d 293c ebbd
000002e0: 02b4 85bd 92fb 0abe c515 90be 3ec0 b0bd
000002f0: c997 553e 4a7a b23d 7913 05bd 3466 493d
00000300: f8b2 7fbd 063b 0ebd 5493 84be b6bc 623e
00000310: c934 afbd 0d56 7cbd 4404 e93b bb38 9d3c
00000320: b3ca be3d 9742 af3d 4348 f83b 9e22 0cbc
00000330: 9b51 f9bd 0d38 d1bd 6061 d0bd 9ff6 b0bd
00000340: 0f02 f2bd c691 a0bd adda a4bd b7ae 043e
00000350: e811 a93d 2401 7f3d 4626 bf3d 3e94 01bd
00000360: f721 fb3d 20e8 b33d 8bd8 48bd adb3 cc3d
00000370: 8ace af3d f408 07bd cb0f fd3b 7357 40bd
00000380: 38da e13d c86d 6b3e 679c 01be 2bec 1b3e
00000390: 553a c1bd 2f0f 64be 92d8 1ebe b6e3 6cbd
000003a0: ae7c acbc 2e26 fabc 77d0 9d3d 0a6b bcbd
000003b0: 6f9b 1b3d 5bae 8a3d b34c 363d 62ea 1dbe
000003c0: fe3e 67bd 765a c9bc 0fc1 81bd ea7d a63d
000003d0: 365d 593e 5751 283e 2d8f 8ebd 4543 363e
000003e0: 2a9e ea3d 1b8d da3c b6ad 933e ff6b 97bd
000003f0: dcfa 853c daeb e93d fbd4 013d 4f2d 673e

critic.2.bias f4 [64]
0.2848162 -0.21563357 0.20457 -0.11908758 0.11319632 0.053767476 -0.09602384 -0.040265143
0.1860188 -0.06904872 0.13322484 -0.17251292 -0.2255382 0.0044715265 -0.22437331 0.0550555
-0.27158105 0.13683206 -0.01161143 0.016857194 0.14087018 -0.28612983 0.019469002 -0.04407022
-0.04873556 -0.09185026 0.009792314 -0.24340364 0.11430871 -0.4792305 0.0727646 0.36729982
0.021798786 0.17061576 0.07802684 -0.008690098 -0.033162896 0.012415334 -0.08011084 -0.3642549
0.054605614 -0.23629166 0.14028506 -0.0017493297 -0.3322151 0.012363349 0.4378985 -0.23895809
-0.13143395 -0.13355416 0.009192111 -0.014302957 0.1258184 -0.07050648 -0.22018802 0.24097303
0.06312553 0.3567863 -0.07396239 0.04548687 -0.51379263 0.2368701 0.039105922 -0.0675154
00000000: 6ed3 913e 0ccf 5cbe cc7a 513e 30e4 f3bd
00000010: 79d3 e73d 493b 5c3d 26a8 c4bd 10ed 24bd
00000020: b67b 3e3e 6a69 8dbd 186c 083e 3aa7 30be
00000030: 7cf3 66be e285 923b 1ec2 65be e081 613d
00000040: ac0c 8bbe b41d 0c3e de3d 3ebc 1918 8a3c
00000050: 4640 103e 9c7f 92be 757d 9f3c fa82 34bd
00000060: f09e 47bd fd1b bcbd f16f 203c ce3e 79be
00000070: af1a ea3d b35d f5be 9b05 953d b90e bc3e
00000080: 5e93 b23c e6b5 2e3e 89cc 9f3d ea60 0ebc
00000090: d1d5 07bd af69 4b3c 2711 a4bd 9e7f babe
000000a0: 23aa 5f3d 71f6 71be e3a6 0f3e c449 e5ba
000000b0: 1918 aabe a58f 4a3c 3b34 e03e 6eb1 74be
000000c0: 9f96 06be 6cc2 08be 829a 163c f356 6abc
000000d0: 8ad6 003e b465 90bd f878 61be a2c1 763e
000000e0: f547 813d b2ac b63e 9879 97bd 7150 3a3d
000000f0: ea87 03bf 138e 723e 882d 203d 8445 8abd

critic.4.weight f4 [1, 64]
-0.13669112 0.18229194 -0.19838287 0.041798227 0.15993652 -0.13362284 0.33291906 0.17947386
-0.08006789 -0.042852025 -0.048754636 0.19572821 0.24207568 0.1047247 0.10750943 -0.12735108
-0.2950801 -0.0019056571 0.030629022 -0.23619449 0.28979644 0.25501546 0.0015847047 0.037497714
-0.113388754 -0.14269117 -0.08789458 0.16802475 -0.04688228 0.14425975 -0.05661307 -0.28961942
0.06474597 0.23897117 -0.23222291 0.3252262 0.10149089 -0.08824593 0.10219361 0.1993537
0.24141876 0.063322775 0.41231024 0.019972088 0.14459397 0.1216234 -0.22077633 0.27985826
0.0004647652 0.021981187 0.25060657 -0.09203817 -0.022082645 0.12672979 0.20770732 -0.15752417
-0.006798791 -0.1652781 -0.13186735 -0.20986764 0.16646002 -0.16518216 -0.028039826 0.08433008
00000000: c2f8 0bbe bdaa 3a3e e124 4bbe 9e34 2b3d
00000010: 66c6 233e 6dd4 08be 5e74 aa3e ffc7 373e
00000020: a2fa a3bd 9b85 2fbd f1b2 47bd fa6c 483e
00000030: b0e2 773e e779 d63d e72d dc3d 5268 02be
00000040: bd14 97be 3ec7 f9ba b7e9 fa3c f8dc 71be
00000050: 3360 943e 6391 823e deb5 cf3a 3497 193d
00000060: 5d38 e8bd a21d 12be 1302 b4bd ae0e 2c3e
00000070: a207 40bd d4b8 133e 1be3 67bd ff48 94be
00000080: 8999 843d dcb4 743e d8cb 6dbe 0c84 a63e
00000090: 75da cf3d 48ba b4bd e24a d13d 6023 4c3e
000000a0: 7b36 773e 5faf 813d 541a d33e 819c a33c
000000b0: 7110 143e b015 f93d 3113 62be 9549 8f3e
000000c0: bbab f339 e411 b43c 814f 803e 827e bcbd
000000d0: aae6 b4bc 74c5 013e 3ab1 543e 044e 21be
000000e0: 64c8 debb aa3e 29be 3c08 07be 8be7 56be
000000f0: 7f74 2a3e 8325 29be c7b3 e5bc 40b5 ac3d
